better.pt_episode_1000.pt (torch, 182504 bytes, 8 tensors)

fc1.weight f4 [64, 5]
00000000: e0d0 8abd e6c8 253d 690f d73d e2a9 c33d
00000010: d358 b33e 580d b93e 34af babe 2728 84be
00000020: 1590 1c3e 5f86 c03d b101 bd3e 2372 a7be
00000030: 9a31 043e e283 b63d 3fd7 a1bd 34df 76be
00000040: db00 a5be 24e2 393e 5451 633e a08f 66bd
00000050: 5db8 61be e60b bc3d 1d0d bcbc 4b65 003e
00000060: 7d30 aa3e 172d 4dbe 3e6f fcbb 819f 97bd
00000070: 0a1b 0cbe 1340 98be 6310 8dbe 4ab9 bc3e
00000080: 5d6b 8ebd 1f74 393e 3a31 cdbd 65f3 8f3e
00000090: d7f8 363e f9cb 853e d3a6 893e 11f6 283e
000000a0: 2159 84be 4e1c 5bbd d108 863d 1d8d 21be
000000b0: 5638 db3d f9ca 453e 5fdd 923e 5a3d 0bbd
000000c0: ce9b b53e 5267 a13b a0c9 923e a189 983e
000000d0: bbde 133e 9ea0 ae3e 9c10 23be 8b97 42be
000000e0: 8538 513e 35f0 21be 998e 143e d95e 283e
000000f0: 0723 743e 53ac b0bd 2a26 b8be f007 763e
00000100: 88f4 77be 7a55 253e cd4f 843e f681 b53e
00000110: 498b aebe 827f 9f3e 6a48 5ebd 7c20 1c3e
00000120: f401 9e3e e7c7 83be fe3d 473e 1a26 483e
00000130: 0cf6 b3be 5968 38bd 1a5e bc3e 9859 ba3d
00000140: b4f2 90be f10a cf3e 90f9 9abe 88c7 29bd
00000150: a8c1 1e3e 137e 71be 31d5 4f3e 432d 3bbe
00000160: 7178 3d3e 1d55 a63e fedf bf3e 5d2b 40bd
00000170: 701a 0dbd f061 98be 6ae1 ca3e 84ca acbe
00000180: bb1f 13be ade9 abbe 0b49 93be d784 953e
00000190: a57c 163e b171 a93e fb19 893e c6ef 9c3e
000001a0: a83e 13bd 57cb 84be bb19 c53e b707 2fbe
000001b0: 9b00 5e39 64b9 803e 599d b23e fdf5 5e3e
000001c0: bb2e 95be 4eb5 e7bd 4952 5fbd 4670 b43e
000001d0: 620e 2cbe 808f 98be 3c58 35bd 25bc 99be
000001e0: 6d9d 96be b55b df3c c480 823e 3028 0fbe
000001f0: 188b e23d 5e66 153c 5c52 70be fcad 793b
00000200: 4f97 a43d 8c85 b3be 5d51 a8be 0ee4 9e3e
00000210: 77b2 36be d7e6 5a3e 93bb 57be 8215 b63e
00000220: 34ef 36be 8a0c 3f3c 8fc4 2ebe ae62 7cbe
00000230: 9bfa 0ebe 6230 43be 5d44 bbbe 2024 86bd
00000240: b26d 6f3e 2ff3 c23d d8c1 9cbe 6608 64be
00000250: 1ca6 e93e b5e2 5d3e 282b 69be f639 673e
00000260: 54c3 b3be 06b6 25bb b34e 943e 47d1 633d
00000270: 25f0 22be 03a1 273d ed60 c03e 2677 8ebe
00000280: 2711 02be 47ae 28be 9493 edbd c677 d4bd
00000290: 7a6f 573c e31b 323c 5820 0c3d 85fc 793e
000002a0: bb91 c63e b592 f6bc d204 26be d1b5 79bd
000002b0: f775 543e ce64 ba3e d7a4 973e 2734 f9bd
000002c0: e1c0 943e 85d5 913e 0384 aa3c 14de 6b3e
000002d0: f800 ac3d f0bd bf3e 89f8 a73e 7405 1c3e
000002e0: a7a6 53bd b0fc cc3b 62d1 4fbe 0ad1 80be
000002f0: 1556 ec3e 0388 243e 6be3 a63e c951 0abe
00000300: af37 18be ed6c b3be ec37 313e a6ba 3abe
00000310: c4fd 50be e47e 8b3e 386a b2be dc1d 843e
00000320: 860c f7bd efab dc3e d0da 713d 7998 94bd
00000330: a643 553e 689a d1be a45b d63e d3f7 853e
00000340: 8c1b 83be 9d88 01bc 37d0 05bd 1673 83be
00000350: a4a0 b9be d629 b8bd 6203 df3d 5356 0bbd
00000360: 658a 8abe 9850 8e3e 65b5 c6b9 8ffd e23c
00000370: bc6d 353e 9b16 fc3c fa78 ea3e 25d4 37be
00000380: 2835 3e3c a967 0abe 3ccf 933d deea 323d
00000390: 0436 a9be fa68 fb3d 58eb 3e3e 2d37 a43e
000003a0: 666d a0be 870d cd3d 6045 b8bd b836 b83e
000003b0: 5073 9cbe ca7c 30be a878 8ebe a445 183d
000003c0: 7f66 b5be 29ce be3e c977 6a3a 55fd bebb
000003d0: 9c9a 363d 926d bd3e 07f2 1e3e fa47 3e3d
000003e0: f18e 38be aab1 683b 82e0 bd3e 757b d0bd
000003f0: 8e90 a53e 6e29 a7be ae09 433e c6cc a4bd
-0.06778121 0.040474795 0.10500986 0.09553887 0.35028705 0.36142993 -0.36461794 -0.25811884
0.15289338 0.09400629 0.36915353 -0.32704267 0.12909546 0.089118734 -0.07902383 -0.24108583
-0.32227215 0.18152672 0.22198993 -0.056289315 -0.22042985 0.09181957 -0.022955472 0.1253864
0.3324012 -0.20036732 -0.007703691 -0.0740347 -0.1368219 -0.29736385 -0.27551565 0.36860114
-0.06954072 0.18110703 -0.10019155 0.28115383 0.17868362 0.2613218 0.2688509 0.16500117
-0.2584925 -0.05349379 0.0654465 -0.15776487 0.107041046 0.19315709 0.28684518 -0.033994056
0.35470432 0.004925647 0.28669453 0.29792503 0.14440434 0.34106916 -0.15924305 -0.19003122
0.20431717 -0.15814288 0.14507522 0.16442432 0.23841487 -0.08626618 -0.35966617 0.24026465
-0.24214375 0.16145888 0.25842133 0.35450715 -0.3409064 0.31151968 -0.05426828 0.15246767
0.30860865 -0.2573845 0.19457242 0.19545785 -0.35148656 -0.04502139 0.36790544 0.0909912
-0.28310168 0.40438035 -0.30268526 -0.041450053 0.15503561 -0.2358325 0.2029617 -0.18278985
0.18502976 0.3248681 0.3747558 -0.046916354 -0.03444904 -0.2976222 0.39625102 -0.33748257
-0.14367573 -0.33576718 -0.28766665 0.2920291 0.14695986 0.33094552 0.26777634 0.30651683
-0.035948426 -0.25936386 0.38496193 -0.17092787 0.00021171795 0.25141442 0.34885672 0.21773525
-0.29137215 -0.11313878 -0.054521833 0.35241908 -0.16802362 -0.29796982 -0.0442736 -0.30026355
-0.2941698 0.027265409 0.25488865 -0.13980174 0.11061686 0.0091186445 -0.23468918 0.0038098088
0.08036672 -0.35062826 -0.32874575 0.31033367 -0.17841516 0.21377121 -0.21067648 0.35563284
-0.17864686 0.011660704 -0.17067169 -0.24647018 -0.13962786 -0.19061425 -0.36575595 -0.06549859
0.23381689 0.0951904 -0.3061664 -0.22268829 0.45634544 0.21668513 -0.22770369 0.22580704
-0.3510996 -0.0025285496 0.28966293 0.055619504 -0.1591192 0.040925037 0.37573949 -0.27825278
-0.12701856 -0.16472732 -0.11600414 -0.103744075 0.013149137 0.0108709065 0.034210533 0.24412735
0.3878306 -0.030099252 -0.16212776 -0.06096441 0.20748125 0.36405033 0.2961795 -0.121681504
0.29053405 0.28483215 0.020814901 0.23033935 0.08398622 0.37449598 0.32806805 0.15236455
-0.051672604 0.0062557086 -0.20294717 -0.25159484 0.46159425 0.1606751 0.3259538 -0.13507761
-0.14864992 -0.3504404 0.17306489 -0.18235263 -0.20409304 0.27245247 -0.34846663 0.2580403
-0.120629355 0.43099925 0.059046566 -0.07255644 0.20826587 -0.40938115 0.4186679 0.26165637
-0.25606954 -0.007906106 -0.032669272 -0.2567374 -0.36255372 -0.089923546 0.10889317 -0.034017872
-0.27058712 0.27795863 -0.00037900652 0.027708797 0.17717642 0.030772498 0.45795423 -0.1795202
0.011609353 -0.13516106 0.07217261 0.043681018 -0.33049023 0.12275882 0.18644464 0.32073346
-0.31333464 0.10012346 -0.08997607 0.35979247 -0.30556726 -0.17235103 -0.27826428 0.03717579
-0.3542976 0.37266663 0.0008944241 -0.0058285394 0.04458104 0.36997658 0.15522014 0.04645536
-0.18023278 0.0035506287 0.37085348 -0.101797976 0.3233685 -0.32648796 0.19046661 -0.0804687

fc1.bias f4 [64]
00000000: 5a0f b43e ac3e b33e 8236 e43e 5ce9 a93e
00000010: 3a4b b83e 2193 0dbd 61e2 b83e ca90 773e
00000020: 21ba b6bb 478a 333e 3d76 4abe 2a87 70bd
00000030: 5fc5 23be 4842 71be fc0e b3be 6fb5 91be
00000040: 1bbd 9bbd c0b5 913e 8b1d 993e 39ff c53d
00000050: 3139 8a3e 6360 2c3e df89 5d3d 0037 acbe
00000060: 7bad 9b3e 79b0 993e 7775 efbd ca1d e23c
00000070: 5384 2bbe adcd ad3c d9b0 70be 6cba 8cbe
00000080: b32c 93bd 659b 95be 3a43 0fbe daff 3ebe
00000090: 9c80 9a3e 092c 21be eedc 583e 4b7a 913e
000000a0: cc02 aebe 15b7 18be 29d8 09bd 2d0a bc3e
000000b0: a40d b6be 9e32 0e3d 6c3d 9f3c e025 173e
000000c0: c87f 8dbe d44d 1b3d 762d 59be ca42 923e
000000d0: 14b6 013e 70c1 19bd de36 623e f227 c63d
000000e0: e5ba 18be d619 89be f850 bfbd ad5a fe3d
000000f0: 6de1 693e dc78 803c 0721 b4bd 281e a93e
0.35167962 0.35008752 0.44572836 0.33185852 0.35994893 -0.03456414 0.36110213 0.24176326
-0.0055763875 0.17533217 -0.19771667 -0.058722652 -0.1599326 -0.2356044 -0.3497237 -0.28458735
-0.076044284 0.28458977 0.29905352 0.096678205 0.2699676 0.16833644 0.054086562 -0.33635712
0.30405793 0.3001745 -0.116923265 0.027602095 -0.16749696 0.021216238 -0.23504962 -0.2748598
-0.0718626 -0.2922012 -0.13990489 -0.18652287 0.30176246 -0.15739454 0.21178028 0.28413615
-0.3398651 -0.1491359 -0.033653412 0.36726514 -0.35557282 0.03471624 0.019438468 0.14760542
-0.27636552 0.03791602 -0.21208748 0.2856658 0.12667114 -0.037537992 0.22091243 0.09675588
-0.14915045 -0.26777524 -0.093416154 0.12419639 0.228399 0.01568263 -0.08795362 0.3303082

fc2.weight f4 [128, 64]
00000000: 2e76 5dbc 5999 87be a48b b3bd 4051 74bd
00000010: 9009 9a3d 00dd c03d 3865 303d f053 4b3d
00000020: 758d 83bd 061d 8abd 820f 743b ae26 313c
00000030: 41bb e5bd 067e de3c 29a0 55bd b0a9 8c3d
00000040: 5e94 0abd 3ce2 e33d 7563 3bbc 3b17 b7bd
00000050: 48af 98bc 6b25 a1bc 4e14 03be 30af 5dbd
00000060: 19b5 0abe a7d7 913c 0b2a 1bbe 3d33 423b
00000070: 0e31 7abd 41fa c33d 5d1e 29bd f382 9cbd
00000080: 3e3c 403c adf0 fe3d 3e5c b53d 9089 bb3d
00000090: 3e1a 8bba 637a efbd 2365 503d b9ff a0bd
000000a0: f90f aa3d fc08 5bbe 1ed9 e63a a0ce c3bd
000000b0: 9ad7 933d a8d5 31bd 2561 78bd 76e1 bb3c
000000c0: cd5e 0fbc ef9c 0b3e 4afa a8bd dd23 bd3b
000000d0: 9e18 173c cb3b 843d 2991 3d3e bafd 173d
000000e0: 209d 4b3b 6d12 133d 1048 c2bd add5 babe
000000f0: 9bd3 8abc dc7e 37bd 9f30 383d 5b4b b33d
00000100: a55c 85bd 7b3b 1ebd 699b ae3d 3e1f 77bd
00000110: 3b80 0fbd ed76 8b3d 6bc6 0bbd c0aa be3d
00000120: 26ca 45bd aa9c 3fbd ce2e 353c 9b14 813d
00000130: ae13 af3b af28 a23c 37f9 8b3c c2cb 5cbd
00000140: b6a0 2bbd be90 5fbc ba6a 753d d9ad 8cbd
00000150: 63d0 0d3d 4470 cfbd 9102 88bd 697d 833d
00000160: c36f 91bd 958f 9fbd 8af9 acbd 89e0 b03d
00000170: fa62 b7bd 1eed cc3c 7b8f 813d ae43 cd3c
00000180: 428c bcbd 505b c8bd b963 bcbd b6a1 333c
00000190: ff5b 28bc c699 ad3c 5fc3 80bc 3a9b 54bd
000001a0: 6e4a 693c a7ca 123d 2712 9bbc 1d6a 923d
000001b0: 1f1f 173d 7246 6cbd 2f99 a53c 6780 b03d
000001c0: 51bd 803d 2ee1 cdbc 6130 a4bd 9ac7 b4bc
000001d0: 4a61 b43d 3fcd 0dbc cf81 a13c bf03 26bc
000001e0: 0efa 6a3d c84e cbbd 9fe2 8c3d b24e babd
000001f0: 5c31 aa3d 4e51 db3c 0ef0 b03a a3d7 0f3d
00000200: 0f54 853c 89ae 913d eebc 333c e2ec af3d
00000210: 7ff0 163d 5eca 50bc 38d4 c93d d3c4 9bbd
00000220: 6e7e 2fbc de01 64bb b2c4 453d ae27 793d
00000230: b066 c8bd 1f31 80bd f4fe 323d 130f 9e3d
00000240: e302 26bd 6350 9a3d 57a4 97bd 77ba 8dbc
00000250: e10f 8c3d df0a 9a3c 6a40 43bd b795 0dbd
00000260: 2c54 b43d 3bed 133d d662 af3d beab abbd
00000270: 9e32 b13d 627e 36bd 0a85 313d 6b78 99bd
00000280: ba69 3f3d e716 073d eecd 40bd fee3 c9bd
00000290: 62ee 69bd 7df6 91bd 0204 b43c c794 9abc
000002a0: 3ed5 37bc 1e4a 6f3a 26bf f6bc 7fbf 8cbd
000002b0: f5e7 bf3d 5612 363d 16bc 323c 4696 e8bc
000002c0: 2a84 5d3d d18c 9d3d b0a3 3ebd bacf 4cbd
000002d0: fefc 573c 61c5 bebd 9ec4 f9ba 4514 85bd
000002e0: 1e58 d3ba 34a7 abbd eb19 11bd 77a2 af3d
000002f0: 5b2d bb3d 9e87 bbbd 622b ae3c 8bc4 93bd
00000300: a95d 0d3e f9c8 06be 675d a3bc d4f5 0fbc
00000310: 8cb8 6bbc a79c a93c 9f76 7abd a15d d13d
00000320: b3b2 22bd 1457 09bb 5882 093e 25b3 50ba
00000330: a804 3ebd 49bb f03c 7761 4d3d bc40 ccbc
00000340: 4aef 17be 1662 3f3c 7e58 203a 1a55 2d3d
00000350: a720 ee3d eedc 753d 34a9 ebbd f49d 313d
00000360: 39d8 f0bd ce6b bd3b eb54 ccbd 017e fbbb
00000370: a251 4abd 3c47 ad3d 6e31 89bc b88b a5bd
00000380: 7694 bc3c e8db 5d3d 5995 133d ef4f 0a3e
00000390: c507 88bd 8856 f0bc 4fb1 eabd 8635 86bd
000003a0: d118 403d 0349 39be 4ee6 5c3c b789 a0bd
000003b0: c2b8 c9bc 46da 33bc 1cc6 3a3c f899 313d
000003c0: 7342 16be 3bda 553c 7789 bc3d b455 b63d
000003d0: 9d70 cdbb 8b30 1cbd 9db5 203e 890f 8fbd
000003e0: 3a96 cebd e3eb e2bc 0682 ca3d 9658 a6be
000003f0: 4ade a73d 0e98 2a3c 7b8a 31bd 1c0c 18bd
-0.013516946 -0.26484182 -0.08766869 -0.0596478 0.07521355 0.094171524 0.04306528 0.049640596
-0.06423465 -0.06743817 0.0037240689 0.010812445 -0.112173565 0.027159702 -0.052154694 0.06868303
-0.0338329 0.11127135 -0.011437287 -0.08939978 -0.018638268 -0.019671163 -0.12800714 -0.05412215
-0.13545646 0.017803026 -0.15152757 0.0029632591 -0.06108194 0.095692165 -0.041288722 -0.07642164
0.011733113 0.12448249 0.088554844 0.09157097 -0.0010612679 -0.11693265 0.0508777 -0.07861275
0.08303828 -0.21390146 0.0017612313 -0.09560895 0.07218857 -0.04341665 -0.06063952 0.022934657
-0.00875063 0.13634084 -0.08250864 0.0057720975 0.009222178 0.06456717 0.18512405 0.037107207
0.0031068996 0.035906244 -0.09486401 -0.36491147 -0.016946604 -0.044798717 0.044968244 0.08754607
-0.06511811 -0.038630944 0.08525736 -0.06033253 -0.0350344 0.06809793 -0.034124773 0.09309912
-0.048288487 -0.046780266 0.011058522 0.06302758 0.005342922 0.01979479 0.017086608 -0.053905256
-0.041901313 -0.013645349 0.059916236 -0.06869096 0.03462256 -0.10128835 -0.066411145 0.064204045
-0.07101395 -0.07791058 -0.08446033 0.08636577 -0.08954425 0.02501541 0.06326195 0.025056686
-0.092064396 -0.097830415 -0.09198708 0.010963848 -0.01027584 0.021191489 -0.01571816 -0.051905848
0.014238937 0.035837796 -0.018929554 0.07149146 0.036894914 -0.05768437 0.020214645 0.08618241
0.06286109 -0.025131788 -0.0801704 -0.022067834 0.08807619 -0.0086548915 0.019715218 -0.010132729
0.057367377 -0.09927136 0.06879162 -0.09097041 0.08310196 0.026772168 0.0013499276 0.035117757
0.016275434 0.07113368 0.010970337 0.08590104 0.03685045 -0.012743561 0.09854931 -0.076059006
-0.0107112955 -0.0034791152 0.048283286 0.060828857 -0.09785211 -0.06259369 0.043700173 0.07717719
-0.040530097 0.07534864 -0.07404392 -0.017300827 0.06838966 0.018804012 -0.047668852 -0.034566607
0.08805117 0.036114912 0.08563773 -0.083823666 0.086522326 -0.04455412 0.043339767 -0.07493671
0.046731688 0.032980826 -0.04707139 -0.09857939 -0.057112105 -0.07127092 0.021974567 -0.01886977
-0.0112202745 0.0009128171 -0.030120444 -0.068724625 0.09370414 0.04445108 0.010909101 -0.028391968
0.05408112 0.07692874 -0.046542823 -0.05000279 0.013182877 -0.09314991 -0.0019055789 -0.06498007
-0.0016124283 -0.08381501 -0.035425108 0.085759096 0.0913951 -0.09156726 0.02126092 -0.07215222
0.1380526 -0.13162602 -0.019941999 -0.008786637 -0.014387261 0.02070458 -0.061148282 0.102229364
-0.039721202 -0.0020956444 0.13428628 -0.0007961265 -0.04639116 0.02938618 0.050141778 -0.024933212
-0.14837375 0.0116811 0.0006116702 0.042317487 0.11627322 0.060025148 -0.11506882 0.043363526
-0.11759991 0.0057806736 -0.09977134 -0.007674933 -0.049394257 0.084608525 -0.016747203 -0.0808329
0.02302001 0.054164797 0.0360311 0.13507055 -0.06642107 -0.029338136 -0.114596 -0.065531775
0.046898667 -0.18094258 0.013482643 -0.07838767 -0.024624232 -0.010977333 0.011399772 0.043359727
-0.14673786 0.0130525185 0.09205907 0.08903065 -0.006269528 -0.03813223 0.1569428 -0.06985385
-0.10087247 -0.02770037 0.09888081 -0.3248946 0.08196695 0.010412229 -0.043344956 -0.037120923

fc2.bias f4 [128]
00000000: 1155 953d f610 f03c cfc7 b5bd 8d5e 60bd
00000010: da90 ae3d db97 a63d 0e1d 7fbc 4732 c43d
00000020: 7e30 dc3c 8778 943c d9ca eabc 1c16 593d
00000030: ed29 0abd c35d 703c 97a0 393c c2c7 cebd
00000040: 3a2e 173e 0455 af3d e241 e53d a3e3 a13d
00000050: 0848 283e 0ac4 413d c741 0f3e 133c 243d
00000060: 6722 803c 755c 733d 660b d63c 4eaf b0bc
00000070: 7425 a23d e560 2a3e ead0 d73d 7fc6 88bc
00000080: e6fa 383d 1e6c 543b 0f44 08bd 6a62 6f3c
00000090: 5e90 6cbb a2c2 b53d 34e3 32bd 6e69 033d
000000a0: 9d9b bc3d 4f5b a2bc 9731 b4bd 6936 0b3e
000000b0: 9f41 93bc 7585 9bbc e1ab f5bc 32cf ba3d
000000c0: 943c 813d ad6e 853d 6807 babd ccbd 293e
000000d0: 3f0e 52bd 38fa c03d 4007 c43d 5e43 b2bc
000000e0: 3281 fc3b 40e1 77bc ab1a b83d f0f0 ba3d
000000f0: 1718 273d 8c96 9e3c e398 3e3d ce8f 193d
00000100: 7cef 063e 0e18 c0bc b5f9 b1bc 07f1 aa3d
00000110: be75 693c be14 2d3d d112 8ebd 1666 e83d
00000120: c346 083e 948c bbbc f87f 763c 2ee1 33bc
00000130: 44b3 b23d 904c d93d cf4f a9bc a3e8 233e
00000140: 4e25 a93d 247e 933d 7035 bc3d 11b6 b53d
00000150: 33dd 423d a0a7 47bd 52df ccbd 6ec4 48bd
00000160: fbd0 bbbd af8f be3d e7ed a1bd 5b8d a6bc
00000170: c806 66bd ed66 c63d 8236 173d 2dbd 9e3b
00000180: dff2 b63d d7c7 8fbc 80d2 c0bd 3986 f83d
00000190: a76b 1a3e 51de adbd 7fc5 223e e413 bb3d
000001a0: d87c 263e 512f ef3d ca6d 823d 7e72 bb3c
000001b0: fefa c33d bf92 3e3c 3970 febc be6a b8bc
000001c0: f4dd 843c 9682 6cbc 81f3 0a3d 5f9d 23bd
000001d0: 517a aebc d89f 833c 0ef7 b33c 0b2f 953d
000001e0: ff4a fc3d 7034 24bd 7929 2a3d 64fc 0dbd
000001f0: 6a1b b53d 8e2a 783d 5dcc 003e 8288 583c
0.07291616 0.029304963 -0.08876001 -0.05477767 0.08523722 0.08134433 -0.015570892 0.09579902
0.026878592 0.018123878 -0.028661178 0.0529996 -0.03373139 0.014670792 0.0113297915 -0.100966945
0.14763728 0.08561137 0.11194207 0.079047464 0.16433728 0.047306098 0.13989936 0.040096354
0.015641404 0.059414346 0.026128482 -0.021567967 0.079173 0.16638525 0.10537894 -0.016696213
0.04516115 0.0032413076 -0.03326803 0.014610866 -0.0036096792 0.08875014 -0.04367371 0.032082967
0.092093684 -0.01981893 -0.08798521 0.13594975 -0.017975627 -0.018984536 -0.029989185 0.091215506
0.063103825 0.0651525 -0.09083444 0.16576308 -0.051283117 0.094227254 0.09571695 -0.021760639
0.007705831 -0.015129387 0.089894615 0.091279864 0.04079446 0.019358896 0.046532523 0.03749066
0.13177294 -0.02344897 -0.021725515 0.083467536 0.014249263 0.04225611 -0.06937183 0.11347596
0.13308243 -0.022894181 0.015045159 -0.01097898 0.087255985 0.10610306 -0.020667939 0.16006713
0.082590684 0.07201794 0.0918988 0.08872617 0.047574233 -0.048743844 -0.100035325 -0.049015455
-0.09170719 0.09304749 -0.079067044 -0.020331075 -0.05615881 0.096876 0.036917217 0.004844329
0.08933043 -0.017551346 -0.0941515 0.12134976 0.15080129 -0.08489669 0.15895651 0.09134653
0.16258562 0.11678947 0.06368597 0.022881743 0.09569357 0.011631667 -0.031059371 -0.022511836
0.016219117 -0.014435431 0.03392363 -0.039945003 -0.02129856 0.01606743 0.02196839 0.07284363
0.12318992 -0.04008907 0.041543458 -0.034664527 0.088431194 0.06058746 0.12577958 0.01321614

fc3.weight f4 [256, 128]
00000000: 649e 733d 34e0 733d 3532 81bd f821 693b
00000010: 6cce ec39 310b 0e3d 1c40 45bd 5ad1 f1bc
00000020: ec4b 5abd d871 023d f69e c5bc dab3 2f3d
00000030: df8d adbc 91e2 9abd a2ae c8bc a406 3bbd
00000040: c548 963d 2404 993c aa43 c8bb 4ab0 863d
00000050: efc0 ae3c 5393 96bb 4083 9abd 194a bc3c
00000060: 5647 b63c c262 893c 84af eebc 667d 2f3d
00000070: 1fd6 c8ba e676 983d cae8 983d d011 bdbc
00000080: 9ee7 283d e5f5 c43c 9790 a6bc 751e afbc
00000090: c479 083d 0415 683d 0402 203d 531d 963d
000000a0: 5b8a 84bd 3c4e 0abd a6fc 2cbc 9e3b 48bd
000000b0: e880 81bd f7b8 9d3b 386f 31bd 4eeb 70bc
000000c0: 12ea ffbc 9919 adbc b6ad 71bc 779a 36bb
000000d0: 97e3 b5bb 452a d1bc 12cd b9bb b9f3 9b3d
000000e0: e871 e63c a496 81bc 50eb 66bc 966b 60bd
000000f0: 1854 5dbd 99e2 843d 7483 34bd 4216 f9bc
00000100: f756 4abb 8a6c 6e3d 1699 4bbd 4981 243d
00000110: 34d0 f6bc 0e09 3fbd aa3c 58bd 235a 3ebd
00000120: 9237 00bd 387d 5ebc 49e8 2abc 648d 6b3b
00000130: 7806 34bb f276 2abd 6d0f 03bd ba91 afbc
00000140: f485 863d 5aa9 883d bfd4 38bd 51d6 3e3d
00000150: bc10 3bbd a886 58bd 4a44 cbbc 66d1 c3bc
00000160: 5002 ae3c 1445 eabc b9a7 8b3d 781f 7a3d
00000170: 3488 85bd 07fb 3a3c 3680 5ebd b264 39bd
00000180: e298 883d 5f84 2c3d 7389 473d f006 70bd
00000190: 62b9 623d 8875 ad3c 21be b63c 0ea8 a2bc
000001a0: 9d99 84bd 4f95 4f3d a06e 66bd da6b a8ba
000001b0: c207 163b 7411 903d d097 2bbd a00c 6dbd
000001c0: fe12 0a3d a043 8d3c aace 103c 9b4a 87bd
000001d0: b3c8 923d eba4 953c f7fb aa3c b15f 90bc
000001e0: 7552 0c3d ec69 b1bc b5d8 c43c 0241 8abc
000001f0: 92bb 0abd d005 373c a5e0 3f3d a45f d8bc
00000200: 8225 313d e35f 913c 0035 e73c efa1 28bc
00000210: 9209 35bd f21e 33bc ec35 5c3d ab11 93be
00000220: fb93 3bbd 76b6 45bd 0fdc cb3d bf46 a2bd
00000230: 171a 1a3e 5dbe 233d fdea 14bd 46cb 3dbd
00000240: ce4c aa3a 3ae3 d83c a89d 843c 2fc3 11be
00000250: 7a3e 173d 7d02 e03d 2d7e 0e3d d3bb 2ebd
00000260: 6c55 603d c258 b5bd d3c8 6abd 477c 403d
00000270: c087 513d b5bd 0e3d a3a3 70bd 4281 77bd
00000280: 9748 8abc b37d 9d3c 77fe 113e 5192 80bd
00000290: 60b4 773d f9c7 fc3c de2c e0bc ab68 23bd
000002a0: 2712 423d d4cf 8c3b 2c4a 5bbc 015a 91bc
000002b0: 903e b43c 4d4b f3bc 2e7a 143d aab3 4d3b
000002c0: 0b87 9d3c 2fe8 ad3c a43f 0cbd f309 383d
000002d0: 4c78 b2bc e6a0 2c3c b00b 743d e823 733d
000002e0: 0b9a 653d d6d0 cfbc 4eb6 39bd fe25 8c3d
000002f0: 3c37 c1bc b48d 28bd 41d3 bfbd 3be4 923c
00000300: fc9a 57bc 79bd 9e3d 18b7 523d 761f 1cbc
00000310: f88e 94bd de75 12bd 6349 acbc bacc 5a3d
00000320: f2d6 eb3c 0e8f 85bc b5d0 e53d 619f 18bc
00000330: 8f45 d63c 4d19 51be 9399 2fbe ecbe 91bd
00000340: a10f 33bd ec56 9a3c 27a0 bd3d 226e 9cbc
00000350: 65a8 c53d 3e0b bebd 2260 21bd d788 88bd
00000360: 4cfc 973d d55f ca3c edcd 32bc 1a0e 533c
00000370: 5502 14bd 2f26 aebd 1c15 b53c d1e7 c0bd
00000380: b4a4 fcbc 95c8 153d 73f7 a6bc b56e 773d
00000390: f25e 893d a48d 80bd d462 953c 2712 35bd
000003a0: 3eee b2ba 9343 833d 8288 2a3c b1fc 85bd
000003b0: 3a0e 6abd d01e 8f3b c4c9 70bd 5632 f7bc
000003c0: 6c2f 75bd 0b1b be3c be9b 213d 695c 0e3d
000003d0: 07f2 d7bd ebd8 6fbd a449 b9bc 2ddc 2bbd
000003e0: 4a41 043d be42 f93c 581b 4a3b 907a 39bc
000003f0: 5670 87bc d22d 633d 3ad2 a9bd 72d0 49bc
0.059477225 0.05953999 -0.06308404 0.0035573225 0.00045167224 0.03467864 -0.048156843 -0.029518772
-0.05329506 0.03184685 -0.02412365 0.04289613 -0.021185813 -0.07562745 -0.024497334 -0.04566063
0.073380984 0.018678732 -0.006111582 0.06576593 0.021332232 -0.004595199 -0.07544565 0.022984551
0.022250813 0.016770724 -0.029136427 0.0428442 -0.0015322602 0.07444553 0.07466276 -0.023079783
0.041236512 0.024043033 -0.020332618 -0.021376828 0.03331925 0.056660667 0.039064422 0.07329812
-0.06471702 -0.033766016 -0.010558283 -0.04888498 -0.06323415 0.0048133093 -0.043318957 -0.0147045385
-0.031239543 -0.02113037 -0.014750889 -0.0027863064 -0.0055508125 -0.025532851 -0.0056701982 0.07614846
0.028130487 -0.015818901 -0.014094189 -0.054790102 -0.054035276 0.064885326 -0.044070676 -0.030406121
-0.003087459 0.05820898 -0.04970654 0.04016236 -0.030128576 -0.046639495 -0.05279223 -0.04647268
-0.031302996 -0.013579659 -0.010431358 0.003594243 -0.0027469676 -0.04161734 -0.031997133 -0.021431793
0.06568518 0.06672926 -0.045124765 0.046591107 -0.045670256 -0.052862793 -0.024812836 -0.02390356
0.021241337 -0.028597392 0.068191 0.061065167 -0.06520119 0.011412389 -0.05432149 -0.045262046
0.06669785 0.042118426 0.048715066 -0.058600366 0.055352576 0.021174207 0.022307457 -0.019855525
-0.06474612 0.0506795 -0.056257844 -0.0012849525 0.0022892808 0.07034579 -0.041892827 -0.05787337
0.03370952 0.01724416 0.008838335 -0.06606027 0.071671866 0.018267116 0.0208721 -0.017623754
0.034258325 -0.021656953 0.024029115 -0.016876701 -0.033870287 0.011170819 0.046845097 -0.026412793
0.04324866 0.017745918 0.028223515 -0.010292514 -0.04419858 -0.010932671 0.05376236 -0.28724417
-0.045795422 -0.04826971 0.09954082 -0.0792365 0.15049015 0.039976466 -0.036356915 -0.046336435
0.001299286 0.026475538 0.016188458 -0.14234613 0.036924817 0.109379746 0.0347883 -0.042659592
0.054768965 -0.0885482 -0.057320427 0.04699352 0.051154852 0.034848887 -0.058749806 -0.060426004
-0.016880317 0.019224977 0.14257227 -0.06277908 0.060474753 0.030857073 -0.027365144 -0.03989474
0.047380593 0.004297236 -0.013384383 -0.017743113 0.022002488 -0.029698992 0.036249332 0.0031387606
0.019229433 0.021228878 -0.03424038 0.044931363 -0.021785878 0.010536408 0.05958146 0.059360415
0.05605511 -0.025368135 -0.045339875 0.06843184 -0.023585908 -0.041150764 -0.09366465 0.017931094
-0.01315951 0.07750983 0.051444143 -0.009528985 -0.072538316 -0.03575694 -0.021031087 0.0534179
0.028789017 -0.016303565 0.11221448 -0.009315343 0.026156215 -0.20419808 -0.17148428 -0.071164936
-0.043716077 0.018840276 0.09259062 -0.019095484 0.09651259 -0.09279488 -0.03939832 -0.06666725
0.07421169 0.0247039 -0.010913354 0.01288178 -0.036135036 -0.08503377 0.022104792 -0.094192155
-0.030840255 0.036568243 -0.020381665 0.060408313 0.067075625 -0.06277016 0.018235601 -0.044206765
-0.0013651324 0.06409373 0.010408523 -0.06542338 -0.057142474 0.004367687 -0.05878617 -0.03017537
-0.05985968 0.023206254 0.039455168 0.034756098 -0.1054421 -0.05855648 -0.022618122 -0.041958023
0.032288827 0.030427333 0.0030839052 -0.011320725 -0.016533058 0.05546362 -0.08292051 -0.012317764

fc3.bias f4 [256]
00000000: 325e 78bb 608a 91bd 6022 b63d ceef 49bd
00000010: 97fa 44bd 055c 283c 2b41 113a 4dc0 29bd
00000020: bb7d 203d 0eaa 793d 9085 c13b cedc 363d
00000030: af30 883d 7d2f 8bbd 0b91 0e3c eb2c e5bc
00000040: d04e 16bd c15a 883d 7415 33bc 0a47 5e3d
00000050: 9b76 253d 0c32 953d fb02 e23d cb39 3f3d
00000060: 730b 8fbc 0b99 b9bc b1e6 4fbb 6cc9 8dbc
00000070: e63d ca3d 5f73 e73d 8af0 0c3c 0f8b cdbc
00000080: 51bf bf3c 5489 03bd a6f9 473d cef7 75bd
00000090: 9946 87bc 9ea2 b6bb d04a 233b 778b 35bd
000000a0: f9cf 3c3d 915f 8b3d 05cb b83c 97de b33d
000000b0: 87f8 ed3d 1cb3 e7bd ef58 123d 05f2 89bc
000000c0: 91fb bb3d 5b93 253c 7de2 203d 79d1 a1bc
000000d0: d4ba d6bc e4b0 b43d 1052 0e3c 8a49 1fbd
000000e0: 5541 bdbb d0c9 f33b dd08 21bc 1158 91bd
000000f0: e58a 123d b7e1 323c d4e9 713d 518f a8bc
00000100: 4fc6 003c 8dde 28bd 30d9 573c 2681 0c3d
00000110: f8eb 73bd 41e8 70bd 45a0 4b3b 2f70 8bbc
00000120: 064d e7bc dbbe 5b3c 8974 c93d 3a66 d83c
00000130: 2fca 353c 26ef 803c 5b84 8bbb dd28 3fbd
00000140: 7a1a 523d e46b 70bd 29f8 023e a791 833d
00000150: 3ef0 993d a028 533d 07cc 8a3b 50df cb39
00000160: d2c5 bc3d fdb5 e03c dc82 ac3d 6fad a63d
00000170: 7ec7 6fbc a6d6 abbb 6b36 0c3d 192e 0ebc
00000180: 9cb5 d13d 6090 2f3d ef05 74bd c0e1 a2ba
00000190: 169e 353c 5c54 6cbc eb7a 14bd e731 b13c
000001a0: a4e9 6d3d 1f49 16bd dadb d6bb 56fa c23b
000001b0: 9bbf 613a 2509 bb3d a254 a5bd 54fd 313b
000001c0: 3727 1abc d3b3 10bd 6495 fd3c 080c 7ebd
000001d0: 1800 3fbd 0f8b 193e a8d1 d4ba 0b45 46bc
000001e0: ec3f ba3d 4de8 0fbc 66fe 09bc 62a9 593d
000001f0: f37a 053d 5866 23bb 87b1 3cbd f07c 87bc
00000200: ef04 123d 5325 6d3b b5d9 663d b3e0 34ba
00000210: ecb9 53bd 97ba 8e3d 65dc 4bbd 50ea 9cbd
00000220: f980 8a3d d20a 823d 84d1 f33d 9fb3 573d
00000230: dc72 7bbc 6f03 533d 6e05 ce3d 6a3a b43d
00000240: c903 273d b979 273d 571d 1c3c 995f 883d
00000250: 59e4 d1bd bebd 2c3c 4c14 253d 6ea9 223e
00000260: 8d25 83bd 0133 2dbd fc5a b4bc 4002 c1bc
00000270: ccad 9d3d c0bc 3e3d 670f a6bd 8dbe cabb
00000280: c9d8 393a bcf7 a73d ec65 0fbd 6b3a 9bbd
00000290: cc9a a7bc a26e 753c 6d29 bb3d e6b0 e8bc
000002a0: ec5e 713c 1047 983d b3d9 bdbd 4efc 3e3d
000002b0: 1618 fcbb 11ad cc3c e98f 3ebd 1f97 1bbd
000002c0: 255a 883c 4aca fa3b 37ff 2f3d 0393 ea3c
000002d0: 1fa7 10bd dd73 b03d 5e27 05bc 8911 61bd
000002e0: 7cf7 fcbc e404 fabc 1c21 aabc 45c9 093c
000002f0: 4c21 26bd 4d89 833d c47b 4fbd 0fbc 2cbc
00000300: 3a03 77bd a6cf 3a3c acdc 703d 8d48 a2bc
00000310: 1826 683b d8dd b13d ad06 20be 2e0c bb3c
00000320: c83d bc3d 8343 2fbc cf4b ff3c 3ecb 07bc
00000330: 6024 dcbc 9639 723d b033 abbc f7f5 67bc
00000340: 8a37 68bd 81d9 64bc 5e11 153d feb8 2b39
00000350: c636 6dbd e699 9d3d ac7a 953c 03dd 1c3d
00000360: e363 a2bd 2c1f a03c 3544 8ebc c07d 043d
00000370: ddad 883d 877a a03d ab91 2abd 3231 7ebd
00000380: f13b 0c3d 11c8 303b 2650 ccbc 8e27 6e3d
00000390: 0a58 1b3e 69f4 34bd 5482 623d 6b7f 9739
000003a0: 67c3 403d 839f f23a 9ff3 633d 82e8 7d3d
000003b0: 4cd0 9a3d 756b 733d 542b b53d 70dc bc3d
000003c0: c90c c63d f0e9 f3bc a7bd 9cbd 5e88 dd3c
000003d0: 34a6 b1bc 5005 4a3c ba8a cb3d 6d0b 0d3e
000003e0: 2f4c 903c fa05 02bd 28a7 b63c 5a6d e7bc
000003f0: 81a4 053d 0e43 7c3d 9030 593c 6ea0 753d
-0.0037897942 -0.07106471 0.08893275 -0.04930096 -0.048090544 0.010275845 0.0005541022 -0.041443158
0.039182406 0.060953192 0.0059058145 0.04464417 0.06649911 -0.06796167 0.008701573 -0.02797552
-0.036696255 0.06657935 -0.010930408 0.054266967 0.040396314 0.07284936 0.11035725 0.046685975
-0.017461514 -0.022655984 -0.0031723196 -0.01730796 0.098750874 0.11301302 0.008602271 -0.025090722
0.023406656 -0.03211339 0.048822068 -0.060050778 -0.016513156 -0.0055735847 0.0024916418 -0.044322457
0.046096776 0.06805337 0.022557745 0.0878269 0.116196685 -0.11313459 0.035729345 -0.016839037
0.09178842 0.010105933 0.039278496 -0.019753205 -0.026212133 0.08822802 0.008686557 -0.03888849
-0.0057756105 0.0074398294 -0.009828773 -0.070968755 0.03577699 0.010918072 0.059060887 -0.020576151
0.00785978 -0.041227866 0.01317434 0.034302853 -0.05955121 -0.058815245 0.003107087 -0.017021267
-0.02823497 0.013412203 0.098366804 0.026415933 0.011095568 0.015739035 -0.0042577214 -0.04666983
0.05129478 -0.058696643 0.12789978 0.06424265 0.07516526 0.051552415 0.0042357477 0.00038885558
0.09217419 0.027430529 0.08423397 0.081385486 -0.014634965 -0.005244094 0.034231585 -0.008677983
0.10239717 0.042862296 -0.05957597 -0.0012426898 0.011085054 -0.01442441 -0.036250036 0.02163024
0.058084145 -0.036690827 -0.00655697 0.0059502525 0.000861162 0.091326036 -0.08072783 0.0027159052
-0.009408764 -0.035327744 0.030955024 -0.062023193 -0.04663095 0.14994453 -0.0016236799 -0.012101422
0.090942234 -0.008783412 -0.00842247 0.05314005 0.032587957 -0.0024932828 -0.04606774 -0.016539067
0.035649236 0.0036185577 0.056359965 -0.0006899938 -0.05169098 0.06969183 -0.04977073 -0.07661879
0.06762881 0.0634972 0.11905196 0.052661534 -0.015347209 0.051516946 0.100596294 0.08800204
0.040775094 0.04088757 0.00952848 0.06658859 -0.10248632 0.010543285 0.04030256 0.15884945
-0.064036466 -0.04228497 -0.022016041 -0.023560643 0.07699165 0.046566725 -0.081084065 -0.006187266
0.00070894934 0.082015485 -0.03500931 -0.07579502 -0.020459555 0.01497999 0.09138761 -0.028404664
0.014732104 0.07435429 -0.092700385 0.046627335 -0.007693301 0.024984868 -0.046523962 -0.037985917
0.016644547 0.0076535093 0.042968 0.028634554 -0.03531563 0.08615849 -0.008127062 -0.054948363
-0.030879728 -0.03051991 -0.02076774 0.008409803 -0.040559098 0.064226724 -0.05065514 -0.010542884
-0.06030581 0.011402046 0.0588042 -0.019809986 0.0035423096 0.086848915 -0.15627547 0.022832956
0.09191471 -0.010697248 0.031164078 -0.008288203 -0.026872814 0.05913695 -0.02089867 -0.014157764
-0.05669359 -0.013967873 0.036393516 0.00016376746 -0.057913564 0.076953694 0.018246971 0.03829671
-0.07929208 0.019546114 -0.017366508 0.032346487 0.06673787 0.0783587 -0.041642826 -0.062058635
0.034236852 0.0026974718 -0.024940562 0.05814319 0.15170303 -0.0441784 0.05530007 0.00028895898
0.04706135 0.0018510673 0.055652257 0.061989315 0.07559261 0.05942865 0.08846155 0.092217326
0.09670407 -0.029774636 -0.07653361 0.027042564 -0.021685697 0.012330368 0.09938569 0.1377389
0.017614452 -0.03174398 0.022296503 -0.028250385 0.032627586 0.061587386 0.013256207 0.05996745

fc4.weight f4 [12, 256]
00000000: 2df7 29bd 59ab 423e 8dde cebd 9551 d33c
00000010: 8813 95bd a26d bcbd 20ea 1fbd 32bb ccbc
00000020: 263c 85bd 4dc9 bebd ba92 443e 1827 95bc
00000030: dfef 413d 5c97 abbc 86fc 5cbd daaf 2ebd
00000040: 1477 afbd ca99 c7bc d621 bdbd 2ae9 dbbd
00000050: 3708 42bd c16f bebd 429e a3bd 66b5 84bd
00000060: f0ed 46bd 9e7e 63ba cd48 c6bd 198c 2c3d
00000070: 3057 8abd ff54 31bd ea0f 353c 0a02 283e
00000080: 9e3c e5bc b724 56bd 227f b03c 5f11 043c
00000090: 5c6e f43c 720b 9ebd 8efc dbbd 2e81 40bd
000000a0: fc58 cabd 116f 753c 6985 943c 1cef cbbc
000000b0: c622 edbc fcca 5f3d ba05 b6bc c6e3 1abd
000000c0: 4435 1bbd 4102 043d f2a5 34bd 7176 87bd
000000d0: af53 083c 0246 17bd af15 d4bd bf7e 10bc
000000e0: 0c99 b0bc 8522 173d 771e 42bd 96e5 1f3d
000000f0: 8f92 0e3d ac12 ca3c bb91 8cbc 8b2d 19be
00000100: 65c5 0f3d 0989 02be d0e4 3f3d 8b96 a93c
00000110: 7766 a63c 43a2 ac3d 7044 4abd dc9e 8cbd
00000120: 38ad b73c d997 04bd 6ac0 953c 87ec 45bc
00000130: da51 02be d272 e1bd 69c6 8a3d a074 debd
00000140: 00b6 aebc 337f 95bc f785 bdbd 19cf 9dbd
00000150: 0aa5 0abe 9aa7 dd3c 65ba d2bd a245 3cbd
00000160: 8d3f 56bd 2adc 9fbd d786 a1bd f1d2 b3bc
00000170: ae03 61bb d629 72bc 8d43 b3bd 813a c63c
00000180: a659 93bd 28e4 9e3d d04b 0f3e 19b6 37bd
00000190: 3d3e 77bc 50d0 813c 862a bf3d b111 333d
000001a0: 02ae aebc 729f 7f3d 0fe0 bbbd 1333 ccbd
000001b0: 7ded 43be 87b0 3fbd d395 803d 163a 30bc
000001c0: 65d1 f43c 3b51 9ebd 5e41 9dbd fc93 8d3d
000001d0: a62a bcbc fe78 a2bd 9c45 bdbd 7ad3 ecbc
000001e0: 865b a8bd bc10 563d 499f 4abc a506 4cbd
000001f0: 10cf 82bd ac53 853c 45b7 123d 89ef c8bc
00000200: bbbb 67bd 28cd 89bd 4225 af3d 4b1b 2a3d
00000210: 648f b73c 1e40 ecbd d813 e0bc a354 cdbd
00000220: 85c0 c1bd 280f bebd 6181 48bd a866 bdbd
00000230: 4de2 c1bc 9ec0 f7bb 5a4f 6ebd 546c d5bd
00000240: 89af 8dbc a1f6 a0bd 0bd0 01bd b6d5 e53c
00000250: 88c4 443e 7a80 43bc 6096 61bc fc38 fabd
00000260: 4a3c 9a3d d43e 48bc 3349 1bbc a16d 02be
00000270: f0a6 76bd 773a 063c a62c c43d d806 31bd
00000280: 2e21 cb3c a1dd cfbd e50f 03bd ba3f 81bd
00000290: bda5 a3bd 46d2 35bd df1a eabd 70d9 b5bc
000002a0: 3dfb 40bd 100f e7bd 1c36 0cbe e84d 09be
000002b0: e99d cabd 1732 0cbd aefb b8bc c52a 93bd
000002c0: e55a ba3d 9404 98bd 2262 8ebd 2848 50be
000002d0: a604 74ba 67e1 4f3e 0dc7 b1bd bf06 e73d
000002e0: 7794 9dbc 6a3b 3cbc 6945 babd 7426 b1bc
000002f0: 8ecf 99bd 3971 e9bd ef8d 13bd 8822 3d3d
00000300: 0cf1 3d3e 701c 89bc 2cc5 eabd a9b5 53bc
00000310: dbf7 f4bd 6fcc 48bd f54e be3c 567d 413a
00000320: 03f5 ddbd 2607 cfbd d102 d5bd 89b6 a5bd
00000330: 96d7 683c 1a3b 453d 7e0b a3bd 1c68 afbd
00000340: 0ac2 bdbc 374a 76bc 6ea4 e33b fba8 953c
00000350: 1ee4 41bb a57d 843d f69f 40bd 46a8 0cbd
00000360: 3041 23bd ec13 943d 9dcb 8a3d 248a c0bc
00000370: e3ac 2bbd f83f f7bd 3253 0b3e 320d 38bc
00000380: 7278 0fbe 1ef5 d3bb 98b9 47bc 6c20 9a3d
00000390: a42f aabd d0b9 903c 44d3 38bd 78ef 913c
000003a0: 949f adbd 9b17 2fbc 4f3c 06be 6c66 39bd
000003b0: 8e42 38bb a54c bcbd 1f52 a1bd 5967 8abd
000003c0: a90d acbc 9ec4 4fbd 7b12 043e 7106 5a3d
000003d0: de09 e73a cd51 613d 138d babd b3a5 1d3d
000003e0: 14e9 dbbd eb68 39bd 0b1e babd 48a9 3fbd
000003f0: 10b3 c3bd 26f5 bcbd a7aa 79bd fd1f 3b3c
-0.04149549 0.19010676 -0.10101042 0.025795737 -0.07279116 -0.09200598 -0.03904164 -0.024991605
-0.06505613 -0.09315739 0.19196597 -0.018207118 0.0473479 -0.020946197 -0.053951763 -0.042648174
-0.08567634 -0.024365325 -0.09234969 -0.10737832 -0.047371116 -0.09298659 -0.0798917 -0.064799115
-0.04856676 -0.000867823 -0.096818544 0.042125795 -0.06754911 -0.04329395 0.0110511575 0.16407028
-0.027983006 -0.052281108 0.021544997 0.008060782 0.02983778 -0.07717027 -0.1074153 -0.046998195
-0.09880254 0.014980094 0.018130021 -0.02489429 -0.028947245 0.05463694 -0.022219528 -0.037814878
-0.037892595 0.032228712 -0.04410357 -0.06614388 0.008320733 -0.036932 -0.10355698 -0.008819281
-0.021557353 0.036898155 -0.047392335 0.03903731 0.034807738 0.024667107 -0.017159333 -0.1495878
0.03510036 -0.12747587 0.046849072 0.020701667 0.02031253 0.084293865 -0.049381673 -0.068662375
0.022421464 -0.032371376 0.018280227 -0.012080318 -0.12726536 -0.11008228 0.06776125 -0.10862088
-0.021327019 -0.01824913 -0.092540674 -0.07705516 -0.1353952 0.027057458 -0.10289458 -0.045964845
-0.0523067 -0.07805665 -0.07887047 -0.02195117 -0.0034334469 -0.014780482 -0.08753119 0.024197819
-0.071948335 0.07758361 0.13993764 -0.044851396 -0.015090522 0.015846401 0.093342826 0.043718044
-0.021323208 0.06240792 -0.09173595 -0.09970679 -0.19133563 -0.04679921 0.06278577 -0.010756036
0.029885003 -0.07730337 -0.076784834 0.069129914 -0.022969555 -0.07933234 -0.092417926 -0.028909434
-0.08220582 0.052262053 -0.012367078 -0.049811024 -0.0638715 0.01627525 0.03581931 -0.024528282
-0.056575518 -0.067285836 0.08552028 0.041529935 0.022407241 -0.11535667 -0.027353212 -0.10025909
-0.09460548 -0.092802346 -0.04895151 -0.09248096 -0.023667479 -0.0075608036 -0.058181144 -0.104210526
-0.017295616 -0.07859541 -0.031692546 0.028056007 0.19215596 -0.011932487 -0.013768762 -0.122179
0.075310305 -0.012222011 -0.009477901 -0.12737133 -0.060217798 0.00819265 0.095788285 -0.043219417
0.024796095 -0.10149694 -0.03199758 -0.06310983 -0.079905964 -0.044389986 -0.114309065 -0.022198409
-0.0471146 -0.1128217 -0.13692516 -0.13408625 -0.098934 -0.034227457 -0.022580948 -0.07185892
0.09099368 -0.07422748 -0.06952311 -0.20340025 -0.0009308554 0.20300828 -0.08680544 0.112805836
-0.019235833 -0.011488775 -0.0909527 -0.021624781 -0.07510291 -0.11398549 -0.03602403 0.04617551
0.18548983 -0.016737193 -0.11463389 -0.012921729 -0.11961337 -0.049023088 0.023231009 0.0007381042
-0.10837748 -0.10108785 -0.10400928 -0.080914564 0.014211556 0.048152067 -0.07961176 -0.08564779
-0.023163814 -0.015032343 0.006947092 0.018269053 -0.0029585431 0.06469277 -0.04702755 -0.034340166
-0.03985709 0.07230362 0.067771174 -0.02350337 -0.041912924 -0.12072748 0.13605955 -0.011233615
-0.1401079 -0.006468429 -0.012190245 0.07525715 -0.08309868 0.017666727 -0.045123354 0.017814383
-0.08477703 -0.01068678 -0.13108943 -0.045263693 -0.0028115842 -0.09194306 -0.078769915 -0.06757993
-0.021002607 -0.050724618 0.12897675 0.0532288 0.0017626842 0.055009652 -0.09108939 0.0384881
-0.107378155 -0.045266073 -0.090877615 -0.0467923 -0.09555638 -0.09226446 -0.060953762 0.011421201

fc4.bias f4 [12]
00000000: 5ed3 d13b d40b 35bd dbca 283b b681 873c
00000010: ee9f 98bb 499a 243d 1bfa d23c 9c62 3fbd
00000020: ec63 cfbd 2af0 43bc 9fc9 763b 89f9 a73c
0.0064033708 -0.044200733 0.0025755677 0.016541343 -0.004657737 0.0401862 0.025754025 -0.0467249
-0.101264805 -0.011959115 0.0037656797 0.02050473
