better.pt_episode_500.pt (torch, 182492 bytes, 8 tensors)

fc1.weight f4 [64, 5]
000000 9c 61 4f 3e 06 1f 40 3e f7 96 82 3e 90 6d 98 be
       0.20252079 0.18761835 0.25505802 -0.2977109
000010 d4 66 95 be f4 a9 81 3e ea 42 10 3e d4 dc ab bd
       -0.29180014 0.25324976 0.14088026 -0.08391729
000020 c1 93 77 3d 3e 4a 8e 3e 9a f1 1f 3c 52 fa c8 3e
       0.060443643 0.27791017 0.009762192 0.3925348
000030 5c e2 41 be cb 6c d7 3e e4 51 51 3e 69 eb 10 3c
       -0.18934005 0.4207519 0.20441395 0.008845189
000040 8e e0 71 3e 3f c7 99 be e0 94 43 be 63 a3 a2 be
       0.23620817 -0.30034825 -0.1909976 -0.3176528
000050 22 7d cf 3e 49 7a 5b be e4 63 77 3e 8f fd 3e 3e
       0.40525156 -0.21433367 0.24159199 0.18651412
000060 87 7b f7 3d d3 42 b4 bd 45 c9 18 bd f8 44 c1 be
       0.12084108 -0.08801808 -0.03730132 -0.3774793
000070 54 37 bb be 98 de b1 3e 2b b7 22 3e 3f 03 92 3d
       -0.3656565 0.34740138 0.15890186 0.071295254
000080 ab db 97 bd 32 5f 48 be 2a 4a e0 3e 49 f3 39 bd
       -0.07414945 -0.19567564 0.43806583 -0.04539803
000090 7c 28 66 be 24 5e 9b be 6e cc 01 3e b0 d0 2c bd
       -0.22476381 -0.3034526 0.1267564 -0.042191207
0000a0 18 cc d6 3e 3c bb 10 be f3 fc e1 3e bd dc f8 bc
       0.41952586 -0.14133924 0.44138297 -0.030378694
0000b0 02 12 45 3d 28 d7 90 3e 40 fe 40 bd 7e 57 4e 3d
       0.048112877 0.2828915 -0.04711747 0.050376408
0000c0 76 ac ab 3d fb 1a 44 bd e6 d1 96 be 45 51 76 3e
       0.08382504 -0.047877293 -0.29457015 0.2405444
0000d0 97 4d 98 3e b5 f3 6a be 40 d2 90 be 67 27 9a 3e
       0.29746696 -0.2294453 -0.28285408 0.30108187
0000e0 8e 87 c0 be d5 34 70 be 9d 37 db bd 8a fb 90 bd
       -0.3760342 -0.23457654 -0.10703967 -0.07079227
0000f0 7e ad b5 3e c0 f0 c9 be c4 f5 87 3e 16 e7 5e be
       0.35483927 -0.3944149 0.26554692 -0.2176784
000100 15 e4 6d bc 9b d0 08 bc 6d f2 ee 3e 08 31 5d 3e
       -0.014519711 -0.008350517 0.4666933 0.21600735
000110 66 f6 c7 3e 55 ec 9f be ca e1 13 3e 94 99 8b be
       0.39055175 -0.31234995 0.144416 -0.27265608
000120 76 bb 80 be a9 c8 b8 bd cd fa 6b 3e 56 14 11 3e
       -0.2514302 -0.09022648 0.23044892 0.14167914
000130 cb 07 a3 3e 87 06 84 be 2c 32 41 3d 20 8b 72 be
       0.31841883 -0.2578623 0.04716699 -0.23685884
000140 7a a8 43 be fa 9e b5 3d 9d 7f a8 be 9c bf ac 3d
       -0.19107237 0.08868213 -0.3290986 0.08434984
000150 a1 c1 bd be 46 e9 4c 3e 1e d7 c2 3e 6d 0e 5a 3c
       -0.3706179 0.20010862 0.38054746 0.013309103
000160 b1 94 99 bd 66 59 91 3e 16 90 56 3d f9 f8 a1 3e
       -0.07499064 0.28388518 0.052383505 0.31635264
000170 2f c2 3d 3d 17 77 7d be ee 5b 88 bd 24 51 bd 3e
       0.046327766 -0.2475246 -0.06658159 0.36975968
000180 b6 66 51 3e e2 22 21 be 46 8d a0 be e1 08 e8 3e
       0.20449337 -0.15735963 -0.31357783 0.45319274
000190 55 6a 93 3e 37 9f 18 3e 0f 81 52 be 17 df ae be
       0.28792062 0.14904486 -0.20557044 -0.3415458
0001a0 de 21 15 3e 09 8b 9e be 9f b9 0b 3e 93 3b 89 be
       0.145637 -0.3096545 0.13645028 -0.26803264
0001b0 80 db 23 be dd 48 36 3c 09 b7 64 3e 89 46 8a 3d
       -0.16001701 0.01112577 0.22335447 0.06751735
0001c0 01 0b 46 3e a6 79 5c 3d c1 6b e6 bd 25 1f cb be
       0.19340135 0.05382695 -0.11251021 -0.396722
0001d0 69 bf c2 3e dd a5 1b 3d 61 25 9f bd 47 f0 80 3e
       0.3803666 0.037999976 -0.07770801 0.25183317
0001e0 5d e0 2b 3d 63 b8 0f be 26 05 0d be 83 5d 13 3e
       0.041962016 -0.14035182 -0.13771495 0.1439114
0001f0 9c 42 40 be ba 48 c2 3e ab c5 55 be d7 fb 20 3e
       -0.1877541 0.3794611 -0.20876186 0.1572107
000200 64 e9 b8 be 0e f8 48 3e 6b dc 40 bd a0 f7 ae 3e
       -0.36115563 0.19625875 -0.047085207 0.34173298
000210 a4 07 e0 bd ab f6 b2 be ec 0a 3e 3e f7 01 9a 3e
       -0.10938957 -0.34953818 0.18558854 0.30079624
000220 be c1 c4 3e cf c0 b8 3e 0e c5 11 bd 52 82 a2 be
       0.38429064 0.360846 -0.035588317 -0.31740052
000230 12 25 7b 3e b4 7c 55 3e 08 7f c4 3d 8e 6c 9e be
       0.2452586 0.20848352 0.09594542 -0.30942196
000240 d1 dd 88 3e 5b 82 12 3e 92 a3 08 be b7 7d b0 be
       0.26731732 0.14307539 -0.13343647 -0.34470913
000250 3b ec a1 3e ca 57 9f 3e 78 00 c9 3e a6 0a ff bd
       0.31625542 0.31121665 0.3925817 -0.12453203
000260 89 b3 84 be 48 45 c0 3e 2c 74 bf bd 8c a0 f2 3d
       -0.25918224 0.37552857 -0.0934833 0.11847028
000270 6b cc 9b 3e f6 23 a9 3e 19 47 be 3e 7e 4b fc bd
       0.30429396 0.3303525 0.37163618 -0.123190865
000280 c3 8a 9b be b0 91 85 3e d5 47 45 3e 19 fa 87 3c
       -0.30379304 0.26087713 0.19265683 0.016598748
000290 29 b9 43 3e 09 9e 5e be 04 db be bb 66 0b 88 be
       0.19113602 -0.21739973 -0.0058244485 -0.26571196
0002a0 94 f4 d3 3e 59 e1 8c 3e 9b d3 65 be a6 19 e3 bd
       0.41397536 0.27515677 -0.22444002 -0.110888764
0002b0 9d 72 10 bd a8 dd e9 3e 1a 6c 8f 3e 33 b1 0c 3e
       -0.035265554 0.45676923 0.28012162 0.13739471
0002c0 8a 9c cb 3d f7 53 d4 bd 90 cf 2f be 7a 9d 7f be
       0.09941967 -0.103675775 -0.17169023 -0.24962416
0002d0 de 95 5f 3e fd ee a8 be 01 1e 97 3e 9f de 4c 3e
       0.21834514 -0.32994834 0.2951508 0.20006798
0002e0 b2 80 48 3b b0 6f f2 bd 8d 67 b6 3e 31 a4 ab 3e
       0.0030594287 -0.11837709 0.35625878 0.33523706
0002f0 68 33 13 3e 43 b5 a3 3e d8 bf 95 3e 1c 61 9d 3e
       0.14375079 0.3197423 0.29247928 0.3073815
000300 0b 38 cf be ba 0a 92 3e f3 3a 82 3e 7e 39 f3 bd
       -0.40472445 0.2852381 0.254356 -0.118762
000310 35 b9 c0 bb 47 b2 93 be 7a cb 36 be fa d3 7e be
       -0.0058814534 -0.28846952 -0.17851058 -0.2488555
000320 ce 1c 2d 3e bd 3e 0f 3e 83 14 46 3d b0 88 53 bd
       0.1690552 0.13988777 0.048359405 -0.051644027
000330 d0 a6 a6 be 23 b2 e7 bd 01 25 30 be 1c c0 69 be
       -0.32549143 -0.11313274 -0.17201616 -0.2282719
000340 cd a9 63 3e 43 36 43 3d d6 30 28 3e a4 a2 c0 3e
       0.22232743 0.04765917 0.1642488 0.37624085
000350 1d 5c cf 3e 91 d2 4b be 42 5c 3e 3e 81 b7 82 be
       0.40499964 -0.19904543 0.18589881 -0.25530627
000360 90 5a 14 be 91 84 90 be f3 79 c3 3e 55 f7 a6 bd
       -0.14487672 -0.2822614 0.38178977 -0.081526436
000370 bf 39 8f be eb 2c a7 3e 68 b4 f5 3d 9b 90 21 be
       -0.27973744 0.32651457 0.119973004 -0.15777819
000380 68 e1 0e 3b a4 85 d0 3d 5c af ab bc ea 8e 72 3d
       0.0021801833 0.1018174 -0.020957641 0.059218325
000390 a5 be f2 3c ce 0c c0 be fb c4 a2 be 5b ae 3f 3e
       0.029631922 -0.3750977 -0.3179091 0.18718855
0003a0 a3 8d 96 3d 39 de 84 3e 48 ab 78 3d d9 df 4c be
       0.07351234 0.25950792 0.06071022 -0.20007266
0003b0 3f 25 c2 be c7 ad c3 be 0f 5c 32 3e 08 88 97 be
       -0.37919042 -0.3821852 0.1741793 -0.2959597
0003c0 c3 46 5f be 81 df 90 3e 20 1c e7 ba 25 1b d2 3e
       -0.21804337 0.2829552 -0.0017632283 0.41036335
0003d0 29 16 44 3e 3d 3b cf 3c 19 7b 94 be 28 ff e9 bd
       0.19149078 0.025296802 -0.29000166 -0.1142562
0003e0 2a ff ce bc 2d 22 52 3e 6b c0 9b 3e 77 f3 c6 3e
       -0.025268156 0.2052085 0.3042024 0.38857624
0003f0 e5 cd 58 bd f3 48 a2 3e e7 53 a8 be 90 83 4f be
       -0.05293073 0.3169628 -0.32876512 -0.20265031

fc1.bias f4 [64]
000000 31 69 6d bd 49 30 b4 bd 29 d2 6f 3e 93 f0 14 3e
       -0.057961646 -0.08798272 0.23420013 0.14544897
000010 0e 6f 56 be 35 72 3f be ef e1 06 3e fd 37 ba be
       -0.20940802 -0.1869591 0.13172124 -0.3637084
000020 b6 3e c5 bc a5 73 3d be 1f e2 9a bd 0b 2d c2 3e
       -0.024077754 -0.18501146 -0.075626604 0.3792499
000030 ac 6c 16 be 4f 5b b0 be cd ab b1 be b5 84 f4 3d
       -0.14689893 -0.34444663 -0.34701386 0.11939374
000040 48 02 6c be 72 4e 52 be 7d 62 87 bd 3e 0f e4 3e
       -0.23047745 -0.20537737 -0.06610582 0.4454288
000050 13 8b 0b be eb 04 c3 bd 51 d0 b6 be bb a6 2b 3e
       -0.13627271 -0.095224224 -0.35705808 0.16762821
000060 64 ee 99 be 6c fd 5d be b5 92 2b bd ce ad 94 be
       -0.3006469 -0.21678704 -0.041887958 -0.29038852
000070 84 a3 c0 3d c3 b0 a8 3e fb 9a 18 be 94 1b 4e bd
       0.09406188 0.32947358 -0.1490287 -0.05031927
000080 2a fd 7d bd 43 78 ff 3c 8f 16 30 be 3f 29 c1 be
       -0.062009014 0.031185275 -0.17196105 -0.3772678
000090 15 f7 be be 32 0e 19 3e 61 11 1f 3e 17 1b a5 be
       -0.37297884 0.14946821 0.15533973 -0.3224723
0000a0 93 a7 e4 3e 32 fd 24 3e dd 81 49 3e 0f 06 25 3e
       0.446591 0.16112211 0.19678445 0.16115592
0000b0 8a 88 28 bd e3 54 9c 3e 56 2b d8 bd f9 84 56 3d
       -0.04114584 0.30533513 -0.10555141 0.052372906
0000c0 e6 ee 22 3e 56 a8 69 3e d1 6f c6 3e 35 89 b1 3e
       0.15911445 0.22818121 0.38757184 0.34674993
0000d0 e9 1e a8 3e 5f 3f 13 bd 4d 24 18 be 7a 5a 8f 3d
       0.32836083 -0.035949107 -0.14857598 0.06999679
0000e0 c0 07 d6 3e c7 aa 89 3d 21 21 42 3e 9a 04 2b be
       0.41802788 0.06722026 0.1895795 -0.16700974
0000f0 b7 9e b6 3d e8 f9 7f 3e 02 00 11 be 37 3e 88 be
       0.08916991 0.24997675 -0.14160159 -0.26609966

fc2.weight f4 [128, 64]
000000 e4 f8 e8 3d e3 99 45 bd d1 c3 a9 3c b6 8b be bc
       0.11375597 -0.04824246 0.020723255 -0.023259979
000010 65 d9 41 bd ba 8e 47 bd e1 85 5f bc aa 1a c0 3d
       -0.047326464 -0.0487201 -0.013642759 0.09380086
000020 f9 6b f8 bb 3c 97 b6 bc 72 95 4c be ae 5a 39 bd
       -0.0075812307 -0.022288911 -0.19978884 -0.045252495
000030 1d 3b 90 be d8 17 90 bd 70 cf 8b 3d de 39 82 bc
       -0.281701 -0.07035798 0.06826675 -0.015896734
000040 2e cc 08 3c e5 52 3e bd ac b7 57 3b 6c 54 0d 3e
       0.0083494615 -0.046465773 0.0032915873 0.13801736
000050 1b 02 ca 3d 54 9d 90 bd 8f 12 8b 3d 77 80 b9 3d
       0.09863683 -0.07061258 0.06790649 0.09057706
000060 de 40 31 bc 72 23 f5 bc 3e 06 53 bc cd 36 0e bc
       -0.010818688 -0.029924128 -0.012879906 -0.008680058
000070 80 ad d0 3d 0c 66 03 3c ba ca 85 bd 34 a1 15 3d
       0.101893425 0.008019935 -0.06532808 0.03653069
000080 fc 0e 53 3c 2a 6e ef bd 2d 53 c4 3d 2f 2a d5 3d
       0.0128819905 -0.11690934 0.09586177 0.104084365
000090 96 e3 d6 3d 24 57 5b 3d 49 42 52 bd 26 07 b4 3d
       0.10492627 0.0535499 -0.051332746 0.08790426
0000a0 1d 93 9a bd 7e db 09 3c 46 e4 f0 3d 0e 05 99 bd
       -0.07547591 0.008414147 0.1176229 -0.07471667
0000b0 50 90 d7 be d9 cb 9d 3d db 9e d1 3a 79 fc d7 bd
       -0.4210229 0.077048965 0.0015992777 -0.10546202
0000c0 59 3e 82 bc ee e9 ac bc 9a 09 30 3d c7 f6 65 3c
       -0.01589887 -0.02110764 0.042977907 0.014035887
0000d0 5f 71 d1 3d 93 81 5a be bb f7 64 bb 47 a9 22 bc
       0.10226702 -0.21338491 -0.0034937698 -0.009928054
0000e0 29 fe be 3c 8d de f4 bb 04 9d a5 3c 55 70 60 bb
       0.023314552 -0.007472819 0.020216472 -0.0034246643
0000f0 9e 19 cb 3d fb 1c 64 3d 40 e7 f6 bc 50 fd a0 3d
       0.099169955 0.0556917 -0.030139565 0.078608155
000100 54 0a a1 bd 15 86 4c bd 2e 9a 0c 3d c2 8d 0f 3d
       -0.07863298 -0.049932558 0.034326725 0.0350473
000110 52 ac 6c 3d 34 b3 a0 3d 0a cb 22 bd 86 1d 97 bd
       0.057781525 0.0784668 -0.039744414 -0.07378678
000120 8a af c2 bd 3e 52 ac bd 10 26 b6 bd 22 f5 cd 3d
       -0.09506138 -0.08414124 -0.088939786 0.10056521
000130 ca 3a 6c 3d ba 89 0d 3d 81 50 72 bd 8a df 43 bb
       0.057673253 0.034555174 -0.059158806 -0.0029887878
000140 b6 ba 8d bd 44 0f 98 bd d9 b9 c5 bd d1 75 78 3c
       -0.06920378 -0.07424787 -0.09654588 0.015164808
000150 0e 51 9b 3c f6 5c cf bd 16 fe 98 3d 46 8d 37 3d
       0.018959548 -0.10125153 0.07470338 0.044812463
000160 ee 87 87 3b 45 9e d2 3d 35 af 45 3c 43 1a dd bd
       0.004136077 0.10284094 0.012065698 -0.10796025
000170 08 83 a9 3d 3e 86 c2 3d ee 76 8b bc 6f 68 e6 3c
       0.08276945 0.09498261 -0.017024484 0.02812597
000180 2b c1 d6 3d 6e 6b d2 bd b2 5b 0a 3d f3 e7 c6 bd
       0.104860626 -0.10274397 0.033778854 -0.097122096
000190 df b6 c2 bd 00 d1 9e bd 8e 4e 9e 3b e4 60 9f 3d
       -0.09507536 -0.07754707 0.004831142 0.07782152
0001a0 44 de 78 3d 4b 71 ca 3d 00 e2 a8 bd c4 c7 b9 bd
       0.060758844 0.0988489 -0.08246231 -0.090713054
0001b0 e6 ce 8b 3c f2 5e 16 3d 82 03 3e 3d 4f 02 4b bd
       0.01706643 0.03671164 0.046390064 -0.04956275
0001c0 c9 11 e0 3c 4e d2 77 3d 53 67 d1 bd fa d0 a9 bd
       0.02735223 0.060503297 -0.10224786 -0.08291812
0001d0 24 7d 8e bd ce ac bb bd a2 3a 06 3d 05 3f d6 3d
       -0.069574624 -0.09163819 0.03277076 0.10461239
0001e0 ce bc b2 3d 9f 4f 53 bc e6 19 82 bd 19 4b 6a 3d
       0.08727418 -0.012897401 -0.06352596 0.057200525
0001f0 ae 15 b4 3b 83 04 dd bd de da 78 3d 7f d0 40 bc
       0.0054957485 -0.10791876 0.060755603 -0.011768459
000200 52 f3 b1 3d d0 74 86 3d 2d da dc 3c ce 45 0f 3c
       0.08688988 0.06565249 0.026959503 0.00874467
000210 11 8f 64 bd 4e d6 ba 3b 3d be fe 3c 27 3b cf 3d
       -0.0558005 0.0057018166 0.031096572 0.10118704
000220 ab f0 d7 3d ed 53 66 3c 2e 99 12 3b 3a d7 d2 3d
       0.10543951 0.014058095 0.0022369134 0.102949575
000230 69 42 d3 3d 5b 96 e1 bc 3a 94 41 bd 1a c6 31 3d
       0.10315401 -0.027537515 -0.0472605 0.043401815
000240 c6 7e 81 bc 5d 2f da bd bd 98 db bc 96 ba 82 bd
       -0.01580752 -0.10653565 -0.02680623 -0.06383245
000250 31 e4 7c 3d ca de 90 bd d6 b0 62 3d 16 f8 8f bc
       0.061741058 -0.07073744 0.055344425 -0.017574351
000260 ea fe 81 bd cd fc d8 bd c3 97 61 bd f6 7d ae 3c
       -0.06347449 -0.10595093 -0.055076372 0.021300297
000270 4e 19 ab bc a7 69 d5 bd 6e 38 b7 3b 06 90 cd bd
       -0.02088609 -0.10420542 0.0055914437 -0.10037236
000280 a7 6f de bd 6a e7 28 3d d7 ae 46 bd c5 ef 55 3c
       -0.1086114 0.04123632 -0.048506584 0.013057654
000290 0f 1d c9 bd 29 2f 58 bd 56 c6 9f bc 9a d9 a6 bd
       -0.098199956 -0.05277935 -0.019503754 -0.08146973
0002a0 16 52 a0 bd 5a ce 78 3d 82 8c 27 bd 2b cd e9 bc
       -0.07828157 0.060743667 -0.040905483 -0.028540215
0002b0 f2 d5 b3 3d 34 30 a7 bd a8 50 8f bd e5 f6 59 bb
       0.08781041 -0.08163491 -0.06997806 -0.0033258733
0002c0 82 fa ab 3d bc 30 a4 3d ef 2b de bd 95 4e c5 bd
       0.0839739 0.08017108 -0.108482234 -0.09634129
0002d0 5f f6 ce bd e1 a0 6d 3c 8f 92 c1 3c 9e 48 09 3c
       -0.10105585 0.014503689 0.023629455 0.00837913
0002e0 64 6b af 3d 4d c5 5a bd 49 9b 55 bd e2 a5 12 bd
       0.08565405 -0.053410817 -0.052150045 -0.03580273
0002f0 b5 91 4e 3d 28 44 80 bd ff 16 54 bd b9 d3 5d 3d
       0.050431926 -0.06263 -0.051779743 0.054156993
000300 32 9a 25 bd f7 67 c2 3d b0 19 ce 3d 2a a7 37 bd
       -0.040430255 0.09492486 0.10063493 -0.044837154
000310 3a c5 b8 bd 6b 43 c0 bd 00 de df 3c 56 62 a3 3c
       -0.09021993 -0.09387859 0.027327538 0.019944351
000320 23 bd 11 3c ad 11 fe bb fd 3a 5b bd d1 d9 c4 bd
       0.008895191 -0.007753572 -0.053523052 -0.09611858
000330 a4 01 3f bd f0 35 fd 3c 8e 67 82 bb fa 39 e9 3c
       -0.046632424 0.030909508 -0.00397963 0.028470028
000340 d8 6f a9 bd 64 af bf ba 41 de 31 be 38 66 df 3c
       -0.082732856 -0.0014624414 -0.1736994 0.027270421
000350 91 ee 28 bd 25 3a d6 3c fa e0 02 bd a2 2e 65 be
       -0.04124314 0.026150772 -0.031952836 -0.2238107
000360 ae 3c 90 3c 28 6b 9f bd e8 81 1b be 42 8d c7 bd
       0.01760706 -0.0778411 -0.15186274 -0.0974374
000370 83 54 d2 bd f0 c0 a5 3d 6d 80 c9 bb bb 1e 7c bd
       -0.102700256 0.080934405 -0.0061493427 -0.061552744
000380 ab f6 cc bd 8e e2 12 3e 25 3a a7 3d d6 8a 5d bc
       -0.10007986 0.14344236 0.08165387 -0.013521871
000390 9f 62 25 3d 33 85 f6 bd e1 ec 2f 3d c6 7b 15 3d
       0.040377256 -0.120371245 0.042950515 0.036494993
0003a0 13 12 4a 3d ea cd 1d 3d 1e 78 c8 bb c8 6c a3 3d
       0.049333643 0.038526453 -0.0061178347 0.07979733
0003b0 b3 70 d2 bd b3 89 28 3e 06 44 01 bd 04 7b 73 bd
       -0.10275402 0.16458778 -0.031559013 -0.05944349
0003c0 c3 71 9d 3d a5 05 5b bc 95 4b bb 3d cf f4 6c bd
       0.07687714 -0.013368045 0.091452755 -0.057850655
0003d0 8e 96 83 bb 85 2f 9d bc 3b 15 d2 bd 76 59 94 3c
       -0.0040157503 -0.019187698 -0.10257956 0.018109065
0003e0 de 49 0f 3e 42 60 23 bd ec bc 59 3d 9e 2b 93 3c
       0.13993022 -0.03988672 0.053158686 0.017965134
0003f0 7f 37 a3 bd 53 00 ba 3d 92 93 6c bd 04 b1 bb 3d
       -0.079695694 0.09082093 -0.05775792 0.091646224

fc2.bias f4 [128]
000000 2a 37 08 bd e6 83 b3 3c 16 0f 79 bd 6a ab 5f bd
       -0.033255734 0.02191348 -0.060805403 -0.054606833
000010 fe 96 24 3c 15 35 c9 3d 46 e8 c9 bd c3 dd a3 3d
       0.010045765 0.09824578 -0.09858756 0.08001282
000020 c4 d8 b5 3d df 22 df ba 9a 55 73 bd 10 25 91 bd
       0.088792354 -0.0017023942 -0.059407808 -0.07087147
000030 6e 55 b1 3a 82 b9 aa 3d a0 69 81 bd ee a6 30 ba
       0.0013529488 0.08336164 -0.063189745 -0.00067387416
000040 37 4e ae 3d a1 c7 57 bd c2 98 c9 3d 16 f1 b6 3d
       0.08511012 -0.052680615 0.09843589 0.08932702
000050 b5 58 c2 3c 60 c7 02 3e d4 62 ed bc e3 5a f3 3d
       0.02372394 0.12771368 -0.028977789 0.1188257
000060 05 71 10 3b f7 a8 ef 3d 2e eb db 3d c9 86 6c 3d
       0.002204002 0.11702149 0.10738216 0.05774573
000070 5d 7c c1 bd 02 db cd 3d cf be d2 3c 57 9e cc 3d
       -0.094475485 0.10051538 0.02572575 0.099911384
000080 13 d5 a8 3d 92 3f aa 3d 1b e7 0c 3e 85 34 a0 bc
       0.08243766 0.08312906 0.13760035 -0.019556293
000090 e6 fd 04 bc 70 b0 c3 bc 61 35 85 bd 98 56 7b 3d
       -0.008117175 -0.023887843 -0.06504322 0.06136188
0000a0 02 d6 9b bd 4a e6 21 3e 99 7c e5 bc 61 f8 f6 3d
       -0.07609178 0.15810505 -0.028013514 0.12059093
0000b0 1d 5b d4 3d 58 18 74 3d 04 f4 9b bd d4 03 44 bd
       0.10368941 0.05959353 -0.07614902 -0.047855213
0000c0 3e 87 47 bd 29 36 2a bc 9b 21 7b 3d fd e5 e0 bc
       -0.04871296 -0.010388889 0.061311346 -0.027453417
0000d0 f2 11 9c bd 50 70 3c bd 90 1f 95 3c 7d c8 c7 3d
       -0.0762061 -0.046005547 0.018203527 0.09755037
0000e0 21 f2 80 3d 67 a7 88 bb 82 4f 92 bd 1c 74 32 3d
       0.062961824 -0.0041703465 -0.07144071 0.04356776
0000f0 8e 66 99 bb 13 6c 68 bd a3 57 26 bc 12 e7 b0 3d
       -0.004681415 -0.056743693 -0.01015273 0.08637823
000100 23 e3 cb bc 2c d0 97 3d 06 b9 c4 bd 5a 22 95 3d
       -0.02488858 0.074127525 -0.09605603 0.07281943
000110 ce 98 e9 3d 36 7d 8a bc 46 92 45 3d 3e 22 6e bd
       0.11406098 -0.016905408 0.0482352 -0.058138125
000120 44 23 ce 3d d7 d0 46 3d 03 dd 47 bd 6e 84 23 3e
       0.1006532 0.04853901 -0.048794758 0.15968487
000130 10 59 15 3e a1 c4 ff 3a 2e 72 26 bd a2 e3 82 3d
       0.14584756 0.0019513556 -0.040636234 0.06391074
000140 44 28 d5 3c 96 80 0d bd 52 ec b1 3b cb c9 f2 3d
       0.026020177 -0.034546457 0.005429783 0.11854895
000150 ee 6f 38 3d d0 1b b0 bd e0 41 3f bd 11 fe d4 bd
       0.04502862 -0.08599055 -0.046693683 -0.10400022
000160 c3 85 89 3d 92 b3 36 3d 73 39 9b 3b 53 b6 ca 3d
       0.06714966 0.044604845 0.004737073 0.09898057
000170 33 8f c1 3d 09 89 ab bd 09 9c f5 3d 8e 09 31 bd
       0.09451141 -0.08375747 0.11992652 -0.043222003
000180 8d 42 cf bc 8b f5 c9 3c bb bf b8 3d 08 84 85 bd
       -0.025300289 0.024653217 0.09020945 -0.065193236
000190 72 fb 80 bd 26 24 b5 bc c4 41 6e 3d 6a 07 4f bd
       -0.062979594 -0.022111963 0.058168188 -0.05054418
0001a0 8b 68 d1 3d 87 74 c9 bd 28 e4 8a 3d 83 23 6b bd
       0.10225018 -0.09836679 0.067817986 -0.057406913
0001b0 68 08 da bc fc c0 b8 bd 48 5f 07 3e d7 68 2c 3d
       -0.026615337 -0.09021184 0.1321994 0.04209217
0001c0 df fb 52 3d 85 f8 3a bd 3e 4a e8 3d 78 d1 90 3d
       0.051509734 -0.045647163 0.113422856 0.07071203
0001d0 4f 4c c2 3c ff c8 49 3d 88 14 46 bd 3c 65 f7 3d
       0.023718027 0.04926395 -0.048359424 0.12079856
0001e0 b1 d5 eb bc a8 82 7d bd 5a 16 a8 3d e2 7e 91 3d
       -0.02878842 -0.06189218 0.08207388 0.07104279
0001f0 ef c1 cc bd e7 85 e4 3c 98 08 3f bd 3e 95 97 bc
       -0.099979274 0.02789588 -0.046639055 -0.018503781

fc3.weight f4 [256, 128]
000000 bb 71 21 bd 55 69 55 bd 5c 8c 2b 3c e0 d5 ec bc
       -0.039415102 -0.052102406 0.010470476 -0.028910577
000010 c7 d0 3b 3c 57 68 4f 3d f0 ad ad bc b3 a4 64 bd
       0.011463351 0.050636616 -0.021201104 -0.055821132
000020 32 98 7c bd 42 6d c8 3c 25 79 74 3d 1e 4d 27 bd
       -0.061668582 0.02446616 0.059685845 -0.04084503
000030 ea 34 a4 3b d2 24 25 3d 06 32 f4 bb 38 09 72 bc
       0.0050111907 0.040318318 -0.0074522523 -0.014772706
000040 83 d1 64 3d 4d 3a 2b bd 92 00 fe 3c 8e 75 9a bc
       0.05586387 -0.041803647 0.031006131 -0.018854883
000050 80 df e8 39 58 57 f2 bc a0 cb 8d bb 9c 85 12 bd
       0.0004441701 -0.029582664 -0.0043272525 -0.03577195
000060 a3 af b6 3b 38 13 2a 3d 16 56 50 bd 4b 28 25 3d
       0.0055751367 0.041522235 -0.050863348 0.04032163
000070 d6 c4 f5 3c 53 4a 07 bd 09 fd 69 3d d6 15 a6 bc
       0.030001085 -0.033029865 0.05712608 -0.020274084
000080 c4 30 cd bc a9 1b 8a 3c df f8 94 3d 9e fb c6 bc
       -0.025047667 0.016858893 0.07274031 -0.024289902
000090 cf ce b7 3a 30 6a 98 bc d2 69 27 3d 3c d4 8d 3d
       0.0014023426 -0.018605322 0.040872402 0.06925246
0000a0 ac f6 95 bd 91 4b 9c bd e6 7c 70 3c 1a 26 36 bd
       -0.073224396 -0.07631601 0.014678216 -0.04446993
0000b0 ca 1f 74 bd b5 2d 78 3d 61 b1 83 bd 46 98 74 3c
       -0.05960063 0.060590465 -0.06430317 0.014928883
0000c0 75 b8 da bc ca b2 e2 bc 93 91 9b bd f7 b2 89 3d
       -0.026699284 -0.027673144 -0.075961255 0.06723588
0000d0 5b 23 ff bb 13 e6 2f 3d 41 60 43 3d d4 fa eb 3c
       -0.007786197 0.042944025 0.047699217 0.028806128
0000e0 89 11 40 3d 2d 29 98 bc 7a 84 50 3c 5e 56 87 bd
       0.046891723 -0.018574322 0.012726897 -0.0660827
0000f0 cc 97 0b bb c0 c5 60 bd 00 e0 22 3c 81 e7 94 bd
       -0.0021300195 -0.05487609 0.009941101 -0.07270718
000100 16 d3 1b bd e9 ef 70 bd 27 17 c9 3c ec c1 77 bb
       -0.038043104 -0.058822546 0.024547173 -0.0037804795
000110 69 67 38 bc c0 8f 48 3d ec 92 f8 bc 14 48 92 bd
       -0.011255124 0.048965216 -0.030343495 -0.07142654
000120 c8 fe 4b 3d 39 a5 04 3d 4f 0b 67 bd d3 e6 2d 3d
       0.049803525 0.03238413 -0.05640727 0.04245646
000130 e1 35 d4 bc 27 1d 71 3c 3b ec 39 3c d9 5d 05 3d
       -0.025904598 0.014716423 0.011347826 0.032560203
000140 8b 75 03 bd c2 36 5c 3c 70 d7 88 3d f7 31 26 3d
       -0.03209452 0.01344079 0.066817164 0.040574994
000150 1e bd 41 3d e1 49 52 3d e9 20 90 bc 91 96 92 3d
       0.047299497 0.051339988 -0.017593818 0.071576245
000160 f1 62 1c bd 5b 40 6b bd 31 62 22 3d e4 57 9c bd
       -0.038180295 -0.05743442 0.039644424 -0.07633951
000170 85 dc 28 bc 46 fe 22 3c d9 50 45 bd b1 57 3a 3d
       -0.010306482 0.009948319 -0.048172805 0.045493785
000180 2b 12 46 ba fc 80 e3 3c f8 8e 52 bc 6e 43 1e 3d
       -0.0007555808 0.027771465 -0.012851469 0.038638525
000190 06 c1 9d 39 19 80 c8 3c e8 cf 9b 3c e5 6f 82 bd
       0.00030089187 0.024475144 0.019020036 -0.063689984
0001a0 a8 8a 8e bc 09 e0 55 3c 65 a2 00 bc 81 75 20 3c
       -0.0174001 0.013053902 -0.007851218 0.00979364
0001b0 1c 20 62 3d 89 80 e7 3c 90 71 0c bd e5 c3 4d bd
       0.055206403 0.028259533 -0.03428799 -0.050235648
0001c0 29 09 37 3d 71 97 e4 3c ad 3f 99 bd f1 90 c9 3c
       0.04468647 0.027904244 -0.07482848 0.024605246
0001d0 e8 bd 60 bd 0c f9 b9 3c 78 a9 61 bd d5 9c be 3c
       -0.05486861 0.022701763 -0.05509326 0.023268143
0001e0 9e c2 a1 bc c8 88 7f bb 9a b1 d1 3c f1 eb 05 3d
       -0.019746121 -0.003899144 0.025597382 0.032695714
0001f0 5f 5d 94 3d 79 2c 50 bd 17 59 86 bc 75 9c 9a 3d
       0.072443716 -0.050823662 -0.016399903 0.07549373
000200 c7 20 83 bd e9 65 96 bd b8 3b ca bc 0e 6c 7e 3e
       -0.06402736 -0.073436566 -0.02468668 0.24845907
000210 c2 79 5f 3d bc b9 77 bd c0 3d 6c bd 95 64 68 3d
       0.054559477 -0.060479864 -0.057676077 0.056736547
000220 1e b8 a9 3d 8d 88 98 3c 2e 80 e2 bc 81 32 0e 3d
       0.08287071 0.0186198 -0.027649011 0.034716133
000230 a7 5d bb bc 7b e7 e9 3c 2d da 4c 3d 43 63 13 3d
       -0.022871805 0.028552761 0.050012756 0.035983335
000240 5c 82 d0 3c c4 95 20 3d ec 91 e3 3d f0 40 33 3e
       0.025452785 0.039205328 0.11111817 0.1750524
000250 c1 8b c0 3c 0a 61 c7 bc 03 0c 9b 3d 48 20 4e bd
       0.02350414 -0.024338264 0.075706504 -0.050323755
000260 c3 93 08 3d cd ff b0 3d be 32 78 bd b5 4e 2b 3d
       0.03334404 0.0864254 -0.060595267 0.041823108
000270 3f 5b 6c 3d 4d a7 8e bc 9d b3 b6 b9 03 aa 38 3d
       0.057704207 -0.01741376 -0.00034847567 0.04508401
000280 08 66 98 3c e3 f3 33 3d b2 17 5c 3e 34 a9 95 3d
       0.01860334 0.04393376 0.21493414 0.073076636
000290 2e f9 89 3e 6e dd 69 3c 57 54 10 3e ed 37 b0 3d
       0.26947922 0.014273984 0.14094673 0.08604417
0002a0 8a 08 85 3d 8f 18 3a bc bb e6 ac 3d 5c 67 bd 3d
       0.06495769 -0.011358394 0.08442446 0.0924823
0002b0 94 d5 55 bd ce 18 85 3e f4 59 fc 3c 98 b7 a4 3d
       -0.052205637 0.25995487 0.030804612 0.0804283
0002c0 38 98 5e bd 8a fe cb 3d 0b 17 f8 3b f8 29 75 bd
       -0.054344386 0.09960659 0.0075711063 -0.059854478
0002d0 6c 13 dd bc 1d 30 01 3e d4 da f7 bd 00 16 2a 3e
       -0.0269868 0.1261601 -0.12102285 0.16609955
0002e0 67 37 1c 3e 24 ef 36 3d 01 7b d1 bc 20 43 35 3d
       0.1525551 0.044661656 -0.025571348 0.04425347
0002f0 0d fa 85 bc b0 a7 6a 3e cb 28 09 bd 7c e9 89 3d
       -0.016354585 0.2291553 -0.03348617 0.06733987
000300 59 a3 1b bd 88 39 8d 3e 24 ff c1 bd 7a 2e be bd
       -0.037997577 0.27582955 -0.09472492 -0.092862085
000310 18 fb d4 bc 4b cb 16 3b 1b 66 a4 3c 96 b2 e3 3c
       -0.025998637 0.0023009356 0.020068219 0.027795117
000320 84 c1 33 3d 3c 31 40 bd de f6 3f bd d8 e7 ab 3d
       0.043885723 -0.046921954 -0.04686629 0.0839383
000330 d5 e1 81 3d 08 b9 c1 bc f3 3f 7d bd 34 90 7b bd
       0.06341902 -0.0236478 -0.061828565 -0.06141682
000340 06 52 f7 3c 3e 2c 11 bd 66 78 05 3e ba 5e 8f 3d
       0.030190479 -0.035442583 0.1303421 0.070004895
000350 e6 4a 0b 3b b8 fe e3 3d 24 ee 52 3d 0a 3c af 3c
       0.002125436 0.11132568 0.05149664 0.021390934
000360 24 22 03 3e b7 4d 43 bd 9c af b1 bc 11 40 ca bd
       0.12805992 -0.047681537 -0.021690182 -0.09875501
000370 c4 2b 37 3d a4 ae af bd 32 c7 9f 3e 5f 5f 5c 3d
       0.044719473 -0.08578232 0.3120666 0.05380189
000380 20 66 85 3d a1 ee 27 3e c9 25 0c 3e 2d ac 45 3d
       0.065136194 0.16399623 0.13686289 0.048259903
000390 d0 e8 52 3d 36 fd 55 3d 6b 61 c4 3c 69 0b 38 3b
       0.05149156 0.052243434 0.023972234 0.0028082973
0003a0 ea 2a 91 3b 47 63 1a bd 56 7d 3f 3e e6 7b de 3d
       0.0044301646 -0.037692335 0.18700156 0.108634755
0003b0 f2 bc f3 3d ad 4e 12 3c 13 b0 0d 3d 19 8d ef bc
       0.11901273 0.008929891 0.034591746 -0.029242085
0003c0 50 d5 94 3c 02 d5 55 3d b5 dd dc 3a 9a 2b 4b bc
       0.018168122 0.052205093 0.0016850742 -0.012400532
0003d0 bb 86 b2 bc 24 49 2d 3d d0 90 5d 3d 60 68 88 3c
       -0.02179276 0.04230608 0.054093182 0.016651332
0003e0 9c a6 5b 3d 57 f2 33 be 73 bd f1 bd 8c 1b 00 bd
       0.053625688 -0.17572914 -0.11803713 -0.03127627
0003f0 fc ad 90 3d 95 94 f3 3b 43 b2 87 3d 18 e9 02 3e
       0.07064435 0.007433484 0.066257976 0.1278423

fc3.bias f4 [256]
000000 db 86 48 bd 8a e9 56 3c 1c 2b 2b 3d 72 f4 be 3d
       -0.048956733 0.0131172035 0.04178916 0.09323968
000010 cd c9 58 3d ca fe f4 3c d9 cc 10 bd 72 c5 97 bc
       0.052926827 0.02990665 -0.035351608 -0.018526766
000020 bb 76 f5 bc 7d 14 c1 3c c4 a0 49 bd b9 be 83 bd
       -0.029963842 0.02356934 -0.049225584 -0.06432862
000030 71 93 47 3d 63 80 20 bd 87 e5 3b bb db a3 06 3b
       0.048724595 -0.03918494 -0.0028670745 0.0020544443
000040 43 05 80 3c c4 98 a4 bc a3 2b 92 3a 4a 38 68 bd
       0.015627509 -0.020092376 0.0011151921 -0.056694306
000050 a8 5f 74 3d 1e 04 21 bb 6d 86 7c bd cb ef f3 3d
       0.059661537 -0.0024569104 -0.061651636 0.11910971
000060 c9 3c ee bc 40 ed e5 3d ac 9e 30 3d 89 34 6d 3d
       -0.029081719 0.112268925 0.04312007 0.05791143
000070 29 30 96 bc 71 c4 a1 3d 48 95 97 bd b4 aa aa 38
       -0.018333511 0.07898796 -0.0740152 8.1380276e-05
000080 c2 99 be 3d a7 31 71 3d 4f cc f0 3d 78 6c 85 3d
       0.09306671 0.058885243 0.11757719 0.065148294
000090 b1 e7 76 3d b5 54 69 ba 8a 6d b1 3d 45 81 4e bb
       0.060279552 -0.0008900867 0.08663471 -0.0031510156
0000a0 ef 44 46 3c 13 02 55 bb b3 51 43 3c 43 c0 99 bd
       0.012101396 -0.0032502457 0.011921334 -0.07507374
0000b0 56 17 77 bb a7 65 2b bd db 22 c4 bc c3 f6 74 3d
       -0.0037703118 -0.04184499 -0.023942402 0.059805643
0000c0 d2 35 af bd 96 3c b7 3d d9 77 44 3d ca 31 90 bd
       -0.08555187 0.08947103 0.047965858 -0.070407465
0000d0 9d d6 83 3b ac dc 86 bd c6 23 a6 3d 28 2c ff bc
       0.0040233866 -0.065850586 0.08112292 -0.031148985
0000e0 40 b2 37 bd e8 8f 73 3c 55 63 93 3d 2e 9c e0 3c
       -0.044847727 0.014865853 0.071966805 0.027418222
0000f0 5e 91 68 3d af 1b 8e bc 07 0f 9b bc 14 75 06 bd
       0.056779258 -0.017347185 -0.018928064 -0.0328265
000100 08 dd 15 bc 62 d1 b6 3d 84 ac f9 bb 99 7f dc 3c
       -0.009146936 0.08926655 -0.0076194424 0.026916312
000110 eb 98 30 bd a8 75 8e bc b8 0a e5 3b 2d cc aa bc
       -0.043114584 -0.017390087 0.006989803 -0.020849312
000120 36 ca 57 3d ba 9f 26 bc 48 e8 8d bd 49 a6 12 bc
       0.052683078 -0.010169918 -0.0692907 -0.008950778
000130 1f 3a e6 3b 3a 10 95 3d d5 42 b4 bc e7 55 40 3d
       0.0070259715 0.072784856 -0.022004524 0.046956923
000140 e2 03 52 3d da 70 40 3d 44 6c e0 3c 1c 97 5c 3d
       0.051273234 0.046982624 0.027395375 0.053855047
000150 41 8b 9d bc 46 97 2b 3d fe 2e d0 3d 25 d5 9f 3d
       -0.01923144 0.041892312 0.10165213 0.07804326
000160 04 07 94 3d cc 10 71 3c 51 82 b1 3c 11 b9 c9 3c
       0.072279006 0.014713477 0.021668585 0.02462438
000170 7b f4 03 3e fe b0 a9 bd c9 54 93 bd 19 a9 89 bc
       0.1288623 -0.08285712 -0.07193906 -0.016804265
000180 61 09 cf 3b 49 b3 56 3d 30 88 98 bd d6 1c 6c 3d
       0.0063182567 0.052417073 -0.07447851 0.057644688
000190 c6 68 9e 3d 8a 6a 1b 3d fe 00 22 bd 86 e2 8a 3d
       0.07734828 0.0379434 -0.039551727 0.06781487
0001a0 c9 13 59 bc 81 78 f3 3c 72 55 c4 3d 4d f9 70 bd
       -0.013249346 0.029720547 0.0958661 -0.0588315
0001b0 f2 a8 77 bd 4a 24 6c 3d 7e 30 60 3c 4a af 4e 3c
       -0.060463853 0.057651795 0.013683436 0.012615034
0001c0 37 3d b8 bb d6 96 81 3d ef 59 4e 3d ae 74 59 3d
       -0.0056225318 0.06327598 0.050378736 0.05308979
0001d0 a4 3d 2b 3d 47 1b 31 3d 6d 25 e3 3d df e5 8f bd
       0.041806832 0.043238904 0.11091123 -0.07026266
0001e0 78 7e a1 bc d3 9a e9 3b 23 75 9a 3d d6 f3 32 3d
       -0.019713625 0.007129052 0.07541873 0.04368957
0001f0 ac 9b 74 bd ca 55 67 3d 87 99 38 bd 2a 73 05 3d
       -0.059718773 0.0564783 -0.04506829 0.032580532
000200 55 7c 73 bd 7d 22 80 bd 1e 10 95 bc f6 ba 71 3d
       -0.059444744 -0.06256578 -0.018196162 0.05901619
000210 36 b2 d9 3c 89 cf 6b 3d ed 17 54 bd ac 03 9a 3d
       0.026574235 0.057570968 -0.05178063 0.075202316
000220 5f fe f2 bc cd 28 6d 3c 6d 3b 77 3d a8 b7 90 3b
       -0.02966231 0.01447506 0.060359407 0.004416425
000230 9c c7 4d 3d f4 25 f8 3c 9a e3 4b 3d 13 b5 c3 3c
       0.05023919 0.030291535 0.049777605 0.023890054
000240 58 0f fb 3d 38 a4 20 3d 3f 4e fa bc 5e 6f b6 3d
       0.12258786 0.03921911 -0.030554889 0.0890796
000250 fb 6d db bc 75 04 9e 3d 76 2d b6 bd 0f 32 49 bd
       -0.026785841 0.07715694 -0.0889539 -0.049120005
000260 31 79 83 bd ba be 3d bc ae c1 46 3c 43 66 b4 bc
       -0.064196 -0.011581117 0.012131138 -0.022021418
000270 67 90 8f bc 87 d2 f8 3c 9d b2 84 bb 40 73 68 bd
       -0.017524911 0.030373825 -0.0040496127 -0.056750536
000280 08 64 7f 3d 44 0a 62 3d 1d bd 13 3e 96 25 96 bd
       0.062351257 0.05518557 0.1442761 -0.07331388
000290 b6 b9 2d 3d 0d 55 25 3e b9 54 30 3d 9c dc e1 3d
       0.042413436 0.16145726 0.043049548 0.11028406
0002a0 dd 23 c7 3c d1 3f 1b 3d 9a bf 2c ba c0 05 30 bc
       0.024309093 0.037902657 -0.000658983 -0.010743558
0002b0 76 d9 2c 3d 78 23 c9 bc a9 3d 6c 3c f4 a6 05 3e
       0.042199574 -0.024553046 0.014418998 0.13051969
0002c0 cb 17 96 3d 07 9e 83 ba 79 3e c4 3d b3 0e 53 bd
       0.07328757 -0.0010041603 0.09582228 -0.05152769
0002d0 0d 6a 95 3d 15 71 03 3d 10 82 66 bd 4c cd ed ba
       0.07295618 0.032090265 -0.05627638 -0.0018142848
0002e0 05 29 69 bc b2 02 55 bd f4 f0 6b 3d 0a ae 9e 3c
       -0.014230971 -0.052004524 0.057602838 0.019370098
0002f0 70 b2 b3 3c b5 42 49 3d 6f 51 ca bc 1a c0 35 bd
       0.021935672 0.049135882 -0.024697034 -0.044372655
000300 c0 24 83 3d e6 bc 66 bd 55 6c f9 bc ca 96 07 3d
       0.06403494 -0.05633249 -0.030447165 0.033102788
000310 33 1d 2d bd 38 1c d7 3c 8b d2 11 3c f6 fd 13 3e
       -0.042264175 0.026258573 0.008900295 0.14452347
000320 f3 96 0f bd 7f 30 8c bb 3b 97 35 3d c6 8f 6b 3c
       -0.035056066 -0.004278242 0.044333678 0.01437754
000330 cd 77 a3 bc a0 48 03 bd ab 27 75 3d d6 47 2f 3e
       -0.019954586 -0.032051682 0.059852283 0.17117247
000340 21 03 95 3d 28 10 96 3c a3 5c a5 3c bd 6d 09 bd
       0.072759874 0.01831825 0.020185774 -0.03355192
000350 2c 3f c4 bc 84 dd 82 3b de 6c 48 bd 15 11 09 bd
       -0.023955904 0.003993692 -0.04893195 -0.033463556
000360 d3 b7 20 bd d6 2d 91 bd 46 2b ce 3d e5 bb 84 3d
       -0.03923781 -0.07088821 0.100668475 0.064811505
000370 ef 83 56 3b 7a 73 c2 3c 63 ca 66 3d 30 d2 95 3a
       0.0032732447 0.023736704 0.056345355 0.0011430439
000380 4a 09 c3 bc 34 28 c4 bb 00 6c 1f bc bc ec a0 3d
       -0.02380814 -0.005986238 -0.009730339 0.078576535
000390 3c ce 8c 3d 42 7b c9 3c 13 c8 13 3d 14 7e 8b 3d
       0.068752736 0.024594907 0.036079478 0.06811157
0003a0 64 f5 be 3c 41 80 cf bc 84 4d 4d 3d 58 32 96 bc
       0.02331037 -0.02532971 0.050122753 -0.018334553
0003b0 42 65 ba bd 97 e6 1d bd f4 ec b5 3c 9e b8 bc bc
       -0.09101345 -0.038549986 0.022207715 -0.023037251
0003c0 cb 4f 84 3d 71 d3 fa bc 2a 07 2d 3d 8f 1b b2 bc
       0.06460532 -0.030618401 0.04224316 -0.021741657
0003d0 9f f1 46 3d b2 39 9e bd 87 9a d4 3c 70 12 ab 3d
       0.04857027 -0.07725848 0.02595259 0.08353126
0003e0 cf e4 4a 3c 40 61 87 bd 70 21 97 bd ef 9d 06 3d
       0.012383654 -0.06610346 -0.073794246 0.03286546
0003f0 be 9e 8a bd fc 32 54 bd ef b9 a7 3b 7c be ce bb
       -0.06768559 -0.051806435 0.0051186006 -0.0063093286

fc4.weight f4 [12, 256]
000000 45 b7 55 3c 64 eb 69 bd 75 16 4e 3c d6 d9 f4 3d
       0.013044183 -0.05710925 0.012578596 0.119556114
000010 10 6c 76 bd 09 b9 48 3c 17 52 42 3d 67 20 50 bd
       -0.06016165 0.012251147 0.04744157 -0.05081215
000020 03 e6 dd bd 2e 80 2d 3d da 75 2e bd 7c 8f ea 3d
       -0.10834887 0.04235857 -0.04259286 0.11453149
000030 83 9e 59 bd ee 6f 3c 3a 56 49 da bd aa f1 91 bd
       -0.053129684 0.00071883097 -0.10658519 -0.07126172
000040 81 3a 8b 3c 66 26 0c 3e a2 fd 99 bd 67 db de bd
       0.01699567 0.13686523 -0.0751908 -0.108816914
000050 05 bb 03 3c 6a 77 22 3d 35 0b 5c 3c e7 29 5f bd
       0.008040194 0.039664663 0.013430406 -0.05448332
000060 da d3 74 3c e8 f3 28 be fc 4e 00 bd 54 a7 19 bd
       0.0149430875 -0.16499293 -0.031325325 -0.037513092
000070 96 37 be bc d9 dd 1b bc 1f 26 ac 3d 70 2c 47 bc
       -0.023219865 -0.009513342 0.084057085 -0.012156591
000080 db 7b be bd 4e c0 e0 3d 2c 7f cb be 0e aa 06 bc
       -0.09300967 0.10974179 -0.39745462 -0.008219255
000090 35 09 52 bd 4b b1 68 3c a9 bc 22 bd c5 be a8 bd
       -0.05127831 0.014202426 -0.0397307 -0.082395114
0000a0 75 63 4c 3d 9b 40 f7 bc ca 44 27 bc 27 64 4d 3d
       0.049899537 -0.030182173 -0.010209272 0.05014434
0000b0 07 b1 7e bd 58 24 1f be d3 72 ae bd ab bc fb bc
       -0.062180545 -0.15541208 -0.08517995 -0.030729612
0000c0 38 31 ad bd a9 30 99 3d ca 0c 4e 3c 76 6b fd bc
       -0.08456653 0.07479984 0.012576291 -0.03093503
0000d0 e1 7d e5 bd 78 1c 1a 3d ab d1 af bd dd c6 c4 3c
       -0.1120565 0.037624806 -0.08584913 0.024020607
0000e0 4f b6 4f bc 4d 61 3f 3d a2 12 3c bc 7b 4d f5 3c
       -0.012677743 0.046723653 -0.011479052 0.029944172
0000f0 a5 0c d3 bc 8f 5c 27 bd ac 29 71 3c 61 f5 a1 bd
       -0.025762865 -0.040859755 0.014719408 -0.079081304
000100 f8 c7 85 3d 83 15 c3 bd f9 e7 4b 3d 46 dd 3c bd
       0.06532282 -0.095255874 0.049781773 -0.04610946
000110 a6 5a a5 bd 8c f8 29 bd 0e 2c 34 bd 0b d2 00 be
       -0.080739304 -0.0414968 -0.043987326 -0.12580125
000120 c9 d3 c6 bd ce 33 cc bc 26 17 cf bc 14 06 f2 bc
       -0.097083636 -0.024927046 -0.025279593 -0.029543914
000130 d7 60 81 bd a2 59 47 bc 91 e6 2e 3d fb d7 f7 bd
       -0.06317299 -0.012167366 0.042700354 -0.12101742
000140 6e c6 a8 ba 0d f3 40 3e c4 4a 05 bd fc 64 83 bc
       -0.001287652 0.18842717 -0.032542005 -0.016039364
000150 eb f2 14 3e 2a 3c 2a bd aa 0c 87 bd 37 6a 98 bd
       0.14545791 -0.041561283 -0.06594212 -0.07442134
000160 94 8c b0 bb ff b4 fa bd 29 18 53 3d 04 e5 aa bc
       -0.005387852 -0.122415535 0.051536713 -0.020861156
000170 e9 f0 db bd 64 22 0d bd 7d 69 7b 3b 48 4e 2f 3d
       -0.10739309 -0.034456626 0.0038362436 0.042799264
000180 fd 93 56 bc 59 0b de bc b7 e0 bf bc 2f 79 2f 3d
       -0.013096807 -0.02710502 -0.023422582 0.04284018
000190 c2 00 ca 3c 6b f0 93 bd 17 60 7f bd 0c ac c6 bd
       0.024658564 -0.072235905 -0.062347498 -0.09700784
0001a0 28 77 d4 bd 3c d2 f6 3c d8 ec 9a 3d 04 1f 64 3e
       -0.1037429 0.030129544 0.075647056 0.22277457
0001b0 61 47 09 3e 76 29 a1 bd ed 9f 80 bd 33 ca 2b bd
       0.13406135 -0.07869236 -0.062805034 -0.04194088
0001c0 12 3d 35 3b dd 86 b6 3d 6d e4 db 3c 21 a5 a7 bd
       0.002765481 0.08912442 0.02684232 -0.08185793
0001d0 c7 30 f3 bc c3 3f b2 bd ba aa f4 bc 5d 15 6e bc
       -0.029686345 -0.08703568 -0.029866565 -0.014531461
0001e0 ee 8b 30 bd 66 b0 34 bd 2a cd bd bc 66 c8 24 3d
       -0.043102197 -0.04411354 -0.023169119 0.040230177
0001f0 d3 33 98 bd 45 0c 9b bd f4 8c 34 bd ff 4c 9c bc
       -0.0743176 -0.075706996 -0.044079736 -0.019079683
000200 33 54 88 bd fa c6 c3 bd 94 6a 4d bd 12 42 30 bd
       -0.06656685 -0.09559436 -0.05015047 -0.04303176
000210 82 a5 98 bc 8a cd 09 bd fc 93 10 3d 29 d8 7b bc
       -0.018633608 -0.033643283 0.03529738 -0.015371361
000220 4a 78 b8 bc 2d c5 cb bc df 41 ca ba 8e 2b 10 bd
       -0.022518296 -0.024874294 -0.0015431008 -0.035197787
000230 6e ae 0c 3d ac 23 1a bd 4e 13 13 bc 78 2c a4 3d
       0.034346037 -0.037631676 -0.008976771 0.08016294
000240 23 60 93 3d bf 84 51 bd bf a1 c5 3c 59 b4 64 3d
       0.07196071 -0.051151987 0.024124978 0.055836055
000250 92 82 63 bd 3a ef 49 3d 81 b8 94 bc 7d 0f 61 bd
       -0.055544443 0.04930041 -0.018154385 -0.05494641
000260 36 17 93 bc ea 97 3c bc ad a0 7a 3c 6f 06 72 3d
       -0.017955404 -0.0115108285 0.015297097 0.059088167
000270 79 83 c5 3c 0b 3c a5 bc 2a 45 af bd 25 2c 5e 3d
       0.024110543 -0.020170232 -0.08558114 0.05424132
000280 f2 ec ba bc f2 59 e7 bc 68 cd d6 be 7e c4 2d bd
       -0.022818062 -0.028241131 -0.41953588 -0.042423718
000290 0f b1 eb bd 26 67 37 3d df 30 cd 3a e6 af c3 bd
       -0.115083806 0.044776104 0.0015654824 -0.09555034
0002a0 7a e4 e5 3b 58 e8 42 3d 35 ee e4 3d 90 aa 9f bb
       0.007015762 0.04758486 0.11178247 -0.0048726276
0002b0 14 1b e9 3c 82 eb c7 bd fc 02 0e bd 7e 3e 6c bd
       0.028455295 -0.097617164 -0.034670815 -0.057676785
0002c0 be ae 52 3d dd d4 41 3d aa 07 92 bd 9f 23 4a 3b
       0.05143618 0.047322143 -0.07130368 0.0030843986
0002d0 51 ae 14 bd 26 c4 38 bd c0 d9 ca 3d 8a 1b 9f bd
       -0.036299054 -0.045108937 0.09904814 -0.077689245
0002e0 b5 8d 42 bc 8d eb 4e bd 66 77 82 3d 0d 7d dc 3c
       -0.011874606 -0.050517607 0.0637043 0.026915098
0002f0 27 79 d9 3b fd 24 56 bc 65 34 77 bb 93 9f 03 3e
       0.006636757 -0.013070342 -0.0037720439 0.12853841
000300 c5 1d ce 3d ca cc 24 3d fe 70 26 bc 5a 4c e4 bc
       0.10064272 0.040234365 -0.010158775 -0.027868439
000310 04 8b 0b bd a1 fa 76 bd ee 8f 94 37 c4 b3 b5 bd
       -0.034068123 -0.060297612 1.7709997e-05 -0.08872178
000320 f5 fd 7a 3c b2 eb 41 bd d6 e6 7f bd a6 18 89 bc
       0.015319337 -0.047343917 -0.062476 -0.016735386
000330 84 8b 33 ba dc 26 bf 3d e4 b8 bd bd 36 c6 02 be
       -0.00068490976 0.09333584 -0.09263781 -0.12770924
000340 da 55 9b bc 24 ef 35 3c 6a 8c db bd 10 c3 bb bd
       -0.018961836 0.011104379 -0.10720141 -0.091680646
000350 5d 4b 4e 3d eb bd 7f 3c 1a 9c af 3c c8 e4 89 bc
       0.05036484 0.015609245 0.02143674 -0.016832724
000360 b1 57 50 bd d2 28 ed bc 6c c7 95 bd 0b ee ea ba
       -0.05086488 -0.028950129 -0.07313427 -0.0017923726
000370 6c 0f 29 bd 1a 57 02 be 7a 48 a8 bc 74 00 c7 bd
       -0.041274473 -0.12728539 -0.020542372 -0.09716883
000380 53 bf cd bd 39 a4 f8 bc 87 a9 f3 3d 70 79 ce bd
       -0.10046258 -0.030351745 0.11897569 -0.10081756
000390 85 12 40 bc aa 7a c6 bc be 9d 28 3d 07 37 df bd
       -0.011723165 -0.024228413 0.04116606 -0.108991675
0003a0 14 1e c2 bd 5c cc 68 39 e3 d8 7b bc ea 1c 07 3e
       -0.09478393 0.00022201374 -0.015371534 0.13194624
0003b0 7b 47 80 bd 3d e0 65 bb d1 a9 77 3c 47 e4 c5 3c
       -0.06263634 -0.0035076283 0.015116171 0.024156703
0003c0 13 b2 d9 bd 8a 8d c4 bb 27 71 24 3b b9 3f 75 bc
       -0.10629668 -0.005998318 0.0025091858 -0.014968806
0003d0 d7 6c 04 3e 32 4e 0d 3d e3 74 46 bd 84 ae 25 bd
       0.12932144 0.0344984 -0.048451316 -0.040449634
0003e0 fe 27 8f 3c 77 98 cf bc f3 1d cc bc 1d 4e 66 bc
       0.017475124 -0.025341256 -0.024916625 -0.01405671
0003f0 54 6a 3b bd 92 8b 31 bd c1 f0 8c bd 07 84 51 bd
       -0.0457557 -0.043345995 -0.06881858 -0.0511513

fc4.bias f4 [12]
000000 26 9c 1c bd e2 d8 29 bd 28 17 6e bc a9 cc 79 bd
       -0.038234852 -0.0414666 -0.014531888 -0.060986195
000010 6f c1 27 bc 58 8b 38 bd f4 32 ea ba d5 8f 2c bd
       -0.010238989 -0.045054764 -0.0017867968 -0.042129356
000020 80 aa 75 bd 6a a6 db bc 90 98 69 bc f7 96 22 3d
       -0.059977055 -0.02681275 -0.014257565 0.039694753
