good.pt_episode_400.pt (torch, 182492 bytes, 8 tensors)

fc1.weight f4 [64, 5]
00000000: 8bb0 613e a155 6bbe bd46 ae3e 1dbf a23c
00000010: d9f7 9e3e 8839 6abe 7dc3 8d3c a6cf 1e3e
00000020: 6c78 903e 7d99 17be 1a1c c2bd c035 e5bd
00000030: d45a bc3d 15dd c1bc d9c4 8fbd 14e1 1bbe
00000040: 70a0 a13e d05a 283e 3414 ab3e c3a0 d23d
00000050: a6ad 70be ab76 3fbe 684c d63d daff 6bbd
00000060: 4f52 aa3b 0517 7dbe 0a73 8abe 56b0 3a3e
00000070: 9257 78be 555f 85be 960f c43b 834f 94be
00000080: e9f9 9b3e fb19 4ebe 3529 973e a315 2bbe
00000090: e7e7 4e3e c8e6 0ebd c340 523d a2b8 f3bb
000000a0: 7e74 6e3e 4835 22be 7cb6 55be 6e9c 5a3e
000000b0: 0a20 7fbe 6a80 85be 2307 af3e de92 2bbe
000000c0: 55e5 843d 2907 a63e 5928 81be 89b1 933e
000000d0: 78ae 9cbe 89a1 283e 0c09 6d3e 3fdf 6fbc
000000e0: 796b e43c 441c f03c affc 9b3e e329 2c3e
000000f0: e558 4dbe 0a10 90be afda 3dbe 784d 503e
00000100: 579c 843d f2c4 b23d 7b36 d7bd 0739 933e
00000110: a65a 4d3c 5dbb b13e 154e c63d 1f80 bbbd
00000120: aeb0 d7bd 8ec4 b33e 1610 303d 2d59 503e
00000130: 5d29 303e b432 683e 384b 71bd 9e79 58be
00000140: 4977 7b3e 2f73 3abe 15e6 b83d de22 7f3d
00000150: 53e0 903e ff82 93bd 6c8d 303c 42a6 b43e
00000160: c140 77bd 36c9 41bd b9e2 5abe 4373 3ebd
00000170: 8e57 5b3e bd7f 913e 7177 47be ad03 2abe
00000180: 8d8d fdbc 62ca b53a 7ae1 c83c 33d3 1e3e
00000190: be23 fbbd 1037 e53d c5ef 963d 7e78 993e
000001a0: 4e2f 143e a208 43bd c1b3 d23d da98 9fbe
000001b0: 5ff4 77be b36e 95bd 071e 3dbe 84ba 1e3d
000001c0: d3f6 983c 4469 8ebe 359b 7dbd 0e22 8c3e
000001d0: 6110 80be e738 a53e be6b 7e3c 7cc1 563e
000001e0: 0ea1 1abe 2c30 ad3e b175 07bd d8b8 573e
000001f0: 5d64 69bd 734e 063e 36e9 88be a1c2 713e
00000200: 4a0c 433d 4c7a 9f3e cfd5 703e 6648 e93d
00000210: e0c7 a4be 9807 373a 38a2 f73d c0c6 dc3d
00000220: 05d0 b83e 07f5 9dbe 19fb d1bd 683a 673e
00000230: b4e8 4e3e e8e1 5abe 96d7 17be 9f69 1c3e
00000240: 1310 573e 9d80 23be bf32 80be 5578 99be
00000250: 203e 793d 3420 4a3e 405c 11bb 771a 563e
00000260: 912e 313e cfb3 85be b57e 953d b40c e03d
00000270: 1200 aabd 1bcd a3be 9103 a73c 9a34 ea3d
00000280: e479 f0bd f50b 623d b1a0 1b3b b5af 90bd
00000290: 8c3b 8b3e 81da 49be 21ee 84be f862 a63d
000002a0: f21f 873e d4b2 7abc 6d71 ac3e 9142 6c3e
000002b0: 3eb7 93be f406 a6be a956 b53e 582d 9dbe
000002c0: 486f a3be ac74 843d 751f 4b3e bab0 83be
000002d0: 16a3 babd ec8a 5fbe 01cf 493d 1ca7 94bd
000002e0: a860 64bd 387d 1ebe df07 8f3e f294 dcbd
000002f0: f665 89be 78c8 60be c3a0 82be 0125 253d
00000300: 2437 45be 0217 c53e 8277 6e3e 880b 34be
00000310: bcc0 b2bd 9024 22be 1c58 74bd 7ab3 173a
00000320: d651 d8bd 60da 7ebe 1997 c43d fb66 8e3e
00000330: 531a 28bc 97b5 9b3e 90ec eb3d f4b2 3c3c
00000340: 1074 1dbd 1440 b13e 9bd4 81be 67bd d1bc
00000350: af88 343e e5a1 3bbe c42e 78be 22d5 913c
00000360: 7302 5d3e 9b89 263e 5ce4 3dbe 067b 85be
00000370: c1d1 ed3b 72a8 df3c d72d 7b3e ffb4 8cbe
00000380: 14eb d83a 396d 8b3d 3c7d 1fbe 8844 39be
00000390: 8505 7c3e bf95 513e 34c0 84be b9e6 143e
000003a0: bcba 6ebe 12ae 9dbe a6e8 a23e 3f22 753e
000003b0: b06c 8c3e 432b 93be eb96 793e 3cd5 5dbd
000003c0: e449 4dbe 528a 3e3e ebe7 a83d fdce 8a3e
000003d0: b61a 9abd ff4a 10be cf62 3dbd 70b7 5d3e
000003e0: 8654 25be 977d 4ebe 7457 11be 6635 9ebd
000003f0: ddc5 ef3d 5807 a33e eaef 963e ee56 983e
0.22040002 -0.22981884 0.34038344 0.01986652 0.31048468 -0.22873509 0.01730513 0.15508899
0.28216875 -0.14804645 -0.09478016 -0.111918926 0.091970116 -0.02366499 -0.070199676 -0.15222579
0.31567717 0.16440892 0.3341385 0.10284569 -0.23503742 -0.18697612 0.10463792 -0.057617046
0.0051978 -0.24715813 -0.27040893 0.1823133 -0.24252155 -0.26049295 0.0059833033 -0.28966913
0.30464104 -0.20127098 0.29523626 -0.16707473 0.20205651 -0.03488806 0.051331293 -0.0074377814
0.23286626 -0.15840638 -0.20870394 0.21348736 -0.24914566 -0.26074535 0.34185132 -0.16755244
0.06489054 0.32427338 -0.25226095 0.28846386 -0.3060186 0.16467871 0.23147982 -0.014640628
0.027883278 0.029310353 0.3046622 0.16812854 -0.20053442 -0.28137237 -0.18540452 0.20342052
0.06475132 0.087289706 -0.10508438 0.28754446 0.012533819 0.3471326 0.09682862 -0.091552965
-0.10531746 0.35110897 0.04298409 0.20346518 0.17203279 0.22675592 -0.058909625 -0.21140143
0.24557222 -0.18208002 0.0902826 0.06228911 0.28296146 -0.0720272 0.010775905 0.35283095
-0.06036449 -0.04731103 -0.2137555 -0.04649664 0.21420118 0.2841777 -0.19479157 -0.16602965
-0.030951286 0.0013869519 0.024521578 0.15510254 -0.12262677 0.11192143 0.07369951 0.2997474
0.1447117 -0.047615655 0.102881916 -0.31171304 -0.24214314 -0.07296505 -0.18468486 0.038752094
0.018672382 -0.27814686 -0.061915595 0.27369732 -0.25012496 0.32269976 0.015528617 0.20972246
-0.151005 0.33825815 -0.033071224 0.21066606 -0.05698048 0.13115864 -0.26740426 0.23609401
0.04761914 0.31147993 0.23519062 0.11390762 -0.32183743 0.00069820276 0.12091488 0.10780096
0.36096206 -0.30851004 -0.10252971 0.22580874 0.20205957 -0.21375239 -0.14828333 0.15274666
0.21002226 -0.15967031 -0.25038716 -0.2997462 0.060850263 0.19738847 -0.002218023 0.20908533
0.1730292 -0.26113746 0.07299558 0.10939923 -0.08300795 -0.3199242 0.020387443 0.11435814
-0.11741999 0.055187184 0.0023746903 -0.070647635 0.27193868 -0.19712259 -0.25962928 0.081243455
0.2639156 -0.015301425 0.33680287 0.23072268 -0.2885074 -0.3242718 0.3541768 -0.30698657
-0.31920838 0.06467566 0.19836219 -0.2572077 -0.091131374 -0.21830338 0.04926968 -0.07258436
-0.05575624 -0.15477455 0.27935693 -0.107705966 -0.26835603 -0.21951473 -0.25513276 0.040318493
-0.19259316 0.38494116 0.23287776 -0.17582524 -0.087281674 -0.1583426 -0.05965434 0.0005786937
-0.10562484 -0.24887991 0.09599132 0.27812943 -0.010260182 0.3041198 0.1151973 0.011517275
-0.038440764 0.346192 -0.25357518 -0.02560301 0.17630266 -0.18323477 -0.2423659 0.017801825
0.21582966 0.1626343 -0.18544143 -0.26070422 0.0072576706 0.027302 0.24529205 -0.2748184
0.0016549551 0.06807942 -0.15575117 -0.18092549 0.2461148 0.2046728 -0.2592789 0.14541139
-0.23313421 -0.30796868 0.31818122 0.23938845 0.27426672 -0.28743944 0.24373977 -0.054158434
-0.20047718 0.18607453 0.0824736 0.27111045 -0.07524626 -0.14091109 -0.04623681 0.21652007
-0.16145524 -0.20165096 -0.14193517 -0.07725029 0.11707661 0.3184154 0.29479915 0.29753822

fc1.bias f4 [64]
00000000: f55d f03d c4b9 b73d 6b0b 2e3e d728 d2bd
00000010: 527d 293e 048f 6fbe 105f 3b3e 36c5 b0bd
00000020: 292a 863e f6d7 81bd 9731 97bd 9bd6 e93d
00000030: 64b6 57be c618 eabd e392 02be eed1 77bc
00000040: cff1 323e 36d9 ea3d eeac 5cbe ac15 41bd
00000050: 3187 0f3d 2205 febd 1860 b13d 3dbb 52bd
00000060: 69c1 1ebe 4cc2 15be e314 6dbe cda6 b03d
00000070: ef51 f83c a4ce ed3c 0c4a 9dbc 1206 a0bc
00000080: bf3f ba3d f2b0 fc3d 79d5 e53d f30f 9c3e
00000090: c0c6 903d ea50 39be d5d9 2d3e 3f74 1d3d
000000a0: a2ce 6cbd 6c3f 70be 9d88 9bbd d737 9bbe
000000b0: d181 04be 1440 273e 4c63 82be a933 9e3e
000000c0: bd6a a7bd 08bc 34be 1a84 993e fa1a 943e
000000d0: 5114 a13e cb31 5bbe 1684 e03d c77c 5e3e
000000e0: 637f 31be acff 9d3d 3af0 3cbe 0d87 79be
000000f0: 846d 593e b1d5 11bc a5ee 52be 89c8 e33d
0.11736671 0.08970979 0.16996543 -0.10261696 0.16551712 -0.233944 0.18297982 -0.08631365
0.2620404 -0.063400194 -0.073825054 0.11417886 -0.2106567 -0.114305064 -0.12751345 -0.015125735
0.17475055 0.11467211 -0.21550342 -0.04713981 0.035041038 -0.12403323 0.086609066 -0.051448096
-0.15503468 -0.146249 -0.23152499 0.08625565 0.030312506 0.029029198 -0.019200347 -0.019534145
0.0909419 0.12338437 0.11222357 0.30480918 0.070691586 -0.18097273 0.16977628 0.03844094
-0.057814248 -0.23461694 -0.07594416 -0.3031604 -0.12940146 0.16333038 -0.25466383 0.3089879
-0.081746556 -0.17649853 0.29983598 0.2892683 0.31460813 -0.21405713 0.109626934 0.21727286
-0.1733375 0.07714781 -0.18451014 -0.24367924 0.21233183 -0.008901046 -0.20598848 0.111222334

fc2.weight f4 [128, 64]
00000000: 53b9 34bd 8ae3 033d 6b5c 3c3d ea1e 503d
00000010: 17ef d1bc de22 7b3d 6ae2 dc3d eca8 96bc
00000020: ef68 0e3d f218 d23d ab3a 073e 9990 953d
00000030: 3d04 483c 0f8b 63bd 63c4 ba3c c4e5 b5bd
00000040: 88bd 2fbd d85a 7e3c b5cd f53d b9e7 93bb
00000050: 3f67 cd3d 3466 343d ace9 5cbc 7e0a 033c
00000060: c9cd d43d a361 a93c f871 993d 5b4a 76bd
00000070: bb61 fabc fa3c 55bd 097c f2bd 7a5b 593c
00000080: 121f c8bd eaeb 14bd 3e95 e4bd ca3d 5cbd
00000090: c479 90bd b5a4 b83d 8b31 d33d 6cb5 efbc
000000a0: a114 263e 3aad 513d d0f6 323c e590 efbd
000000b0: 5322 853e 36fd 9d3d 351a 9a3c 369b 573d
000000c0: e144 1a3c fa53 e43c 4e25 fabc 7724 183b
000000d0: eab4 ad3c b861 dbbd fa48 8cbd b8ed 0e3d
000000e0: b757 073e 63af 173e 9b45 353c 03da 49bd
000000f0: 42e2 d33c 51bb 733d 2fe1 c13c c18f 4abd
00000100: b320 083e cf5e 21be 7809 95bd 633a 94bd
00000110: 4046 093d b45e 8a3d a1a2 313d f748 80be
00000120: c889 54be 7b57 c9bd 0c1e 34be fda7 e9bb
00000130: 51cc 9d3d 41ef ee3b e5ec 8bbd d573 683d
00000140: 8184 bf3c 46fa 6a3c a88a d7bd 6d9e e03b
00000150: 4ab8 693d da60 9b3d 1c9b 68bd 2373 123e
00000160: db9e 283b 39d5 c13d 62ad 30bd 27a1 10bd
00000170: 7358 083e 09f0 d1bc b76a 513c ef31 503b
00000180: 8a41 4fbe b7cc 3dbe 8992 06bc 5f05 a4bd
00000190: e606 10bb f32f 20bd 3bd6 27be 6dd5 acbd
000001a0: 18c4 0e3e 6676 273d 34df 88bc 3b84 123d
000001b0: 3d68 9f3e de30 ceb9 e6cc 1abd b103 26bc
000001c0: 57fe fbbd b5e0 823c e22b 3bbd 5be3 8c3d
000001d0: 0ea9 9abd d576 79bd 1e8e 94bc 8254 b43a
000001e0: 3891 a03e 2d81 72bd 9a45 37bc b8ad 983b
000001f0: d1c9 a2bc dca0 85bc 4ee8 09be 1c33 81bd
00000200: d480 873c 26e4 e13d 77e1 b53d 950a be3d
00000210: 3cf1 eab9 6974 2f3d d40a b03d a473 a2bd
00000220: 6826 fe3c 4e14 6a3c 690b 9fbd 2e94 49bd
00000230: d57e 2ebd bd25 92bd 7b79 06bd a5ee 5e3d
00000240: ee68 123d 178c 733d 77c7 b13d a89d c8bd
00000250: 2407 d13c 4cd6 683d 2873 703d de3f bbbd
00000260: d7b8 40bd 3d0b babd 69d1 843d 2327 5b3b
00000270: 9386 3f3d f9c4 80bd 7330 ccbd dfdb 9f3d
00000280: 9cf4 0ebe 4d26 d4bd 9fe4 87bd df11 313d
00000290: 6d03 b63d bf1d 233d b419 b83c e432 d33b
000002a0: 6c7d 38bc 0934 823d 6412 8fbd fa8d 55bc
000002b0: 8f33 c73e e041 a43c 4237 7b3d b570 843d
000002c0: cfaf d53d ae18 823c 06ed 03bd 5d67 02bd
000002d0: a6bf 1fbb 9517 aa3d 9abc a3bd 4894 dd3d
000002e0: 99fe 803e 419f 55bd f819 c33c 5b7d 1c3d
000002f0: cb57 9d3d f05e e9bc 6fc1 27bd bda5 a5bd
00000300: 540d e2bc b2d0 893c 87fd a03d 6778 afbd
00000310: c079 403d 376b 21bd 1dc7 27bb 9f38 fcba
00000320: 0e20 9fbd 31b1 303d e0ff 1abd d5e3 b5bc
00000330: ad05 af3b 70fc 38bd 1561 b63d 3fd4 74bd
00000340: 4ea8 8c3d 4b32 40bd 9c97 4cbd cc7b 893d
00000350: 00f8 a43d c97b 503b 90eb 633d ee7f c53c
00000360: 4953 1f3d 1fea f73b ff1e b4bd edda 283b
00000370: da00 63bd 42aa 883b 60ef 5cbc 88ac 94bd
00000380: f449 873c 6c18 dbbc cf3d 48bc 225e 8ebd
00000390: 1e22 b93d 54d9 423d b127 063d 8cdc 633d
000003a0: 34c6 ecbc 543c 8bbd 7870 ae3d 6d16 9dbd
000003b0: 7c6e 1a3d 137e a8bd fa5e 61bc 5fdd b83c
000003c0: 5866 80bd 22c0 083d 2c25 743d eabd 5c3d
000003d0: e618 5a3d 3099 0ebd e05f cfbc 6115 bf3c
000003e0: fc30 6a3c 145d 863d 7d67 aabc 2861 fabc
000003f0: 0db5 a53d aca4 b2bd ac6e 90bc 47c1 b73d
-0.04412205 0.03219942 0.045986574 0.050810732 -0.025626702 0.06131255 0.107853726 -0.018391095
0.03476804 0.10258664 0.13205974 0.073029704 0.012208042 -0.05555254 0.022798723 -0.08881715
-0.04290536 0.0155245885 0.12002126 -0.0045137075 0.10029458 0.04404278 -0.013483446 0.007998107
0.10390813 0.02067644 0.07492441 -0.060129505 -0.03056418 -0.052060105 -0.11840064 0.013266439
-0.09771551 -0.036357798 -0.11161278 -0.053769864 -0.07054475 0.090157904 0.10312184 -0.029261313
0.16218807 0.051190592 0.0109231025 -0.11697558 0.2600275 0.07714312 0.018811325 0.052638255
0.009415836 0.027872074 -0.030535366 0.0023215094 0.02120443 -0.10711998 -0.06849857 0.034894675
0.13217054 0.14812998 0.0110639585 -0.049280178 0.025864724 0.05950481 0.023666946 -0.0494535
0.13293724 -0.15758823 -0.07277197 -0.07237699 0.03351426 0.067563444 0.043367986 -0.25055668
-0.20755684 -0.09831139 -0.17589587 -0.0071306215 0.07704986 0.007291705 -0.068322934 0.05675109
0.023378612 0.014341896 -0.105244935 0.0068548233 0.057060517 0.07586832 -0.05678855 0.14301734
0.002572945 0.09464497 -0.0431341 -0.035309937 0.1331499 -0.025627153 0.01278179 0.0031768044
-0.20239845 -0.18535124 -0.008213648 -0.08008837 -0.0021976768 -0.039108228 -0.16390316 -0.08439145
0.13941991 0.040884398 -0.016707994 0.035770636 0.31134215 -0.0003932779 -0.037793063 -0.010132716
-0.12304371 0.01597629 -0.045696147 0.06879302 -0.07551776 -0.060904343 -0.018134173 0.0013758095
0.31360793 -0.059205223 -0.011186028 0.0046593808 -0.019871624 -0.016312055 -0.13467523 -0.063085765
0.016540922 0.11029844 0.08880895 0.09279362 -0.00044811692 0.042835627 0.08595815 -0.07932213
0.031024173 0.014287068 -0.07765848 -0.04921358 -0.042601425 -0.07136104 -0.032830697 0.054426808
0.0357446 0.059459772 0.08680623 -0.097956955 0.0255161 0.056844994 0.05870357 -0.09143041
-0.047051277 -0.09084175 0.06485254 0.0033440075 0.0467592 -0.062875696 -0.099701785 0.07805609
-0.13960499 -0.10358868 -0.06635403 0.043229934 0.08887372 0.03982329 0.022473194 0.0064452756
-0.011260372 0.06357581 -0.069859296 -0.013034338 0.38906524 0.020050943 0.061331995 0.0646681
0.104339235 0.015880909 -0.032208465 -0.031836856 -0.0024375706 0.08305279 -0.07994957 0.10819298
0.25194243 -0.05215383 0.023816094 0.038205486 0.07682761 -0.028487653 -0.040955957 -0.08088253
-0.027594246 0.016823146 0.078608565 -0.08567887 0.04699111 -0.03940889 -0.0025600858 -0.0019242949
-0.07769786 0.043137733 -0.037841678 -0.022203365 0.005341253 -0.04516262 0.08905236 -0.059772726
0.06868039 -0.046922963 -0.049949273 0.067130655 0.08055115 0.0031812063 0.05564457 0.024108853
0.038897786 0.007565751 -0.087949745 0.0025765256 -0.055420734 0.004170687 -0.013484806 -0.0725947
0.016514756 -0.026745044 -0.012221768 -0.06951548 0.090397105 0.04757054 0.032752696 0.05563025
-0.028903104 -0.06798616 0.085175455 -0.07670293 0.037703022 -0.08227172 -0.013755554 0.022566495
-0.062695205 0.033386357 0.059605762 0.053892054 0.0532464 -0.03481406 -0.025314271 0.023325624
0.014293905 0.06560722 -0.0208013 -0.030563906 0.08091173 -0.08722815 -0.017630897 0.089724116

fc2.bias f4 [128]
00000000: 2f69 513d aa38 b13d dedc e9bc fd54 243d
00000010: 0f8c 613d d1f8 c8bd 9675 5a3d 9fbd 07bd
00000020: 4e9a f23d 6252 31bd 73af 353d 943b c6bc
00000030: 8f3d 96bc 76d2 f53d a401 013e 665f c6bc
00000040: 04f7 2b3c 42b3 973c f828 df3d 4b91 073d
00000050: f4f3 193c 6dea a23c 6139 e43b 744e 673c
00000060: 082d c0bc cbf0 0fbd ce3b 3cbd af29 a43d
00000070: 45c0 8339 46bf 1d3d 991a 993a b9cc b8bd
00000080: 0e2f 523c 95d6 273d 7169 81bd f513 7a3d
00000090: 4c04 213e 845b fc3b 83ec a83d 2219 85bc
000000a0: 69f9 613c f6e7 233d 5d1f 373d 21ba b03c
000000b0: d859 0d3d 181f 31bd f94b 6a3b 35d1 9f3d
000000c0: 0b8a 4ebc feea 203e f521 503d aba3 213d
000000d0: 3cf4 d53d dc77 35bd 4056 b53c 60fc b63d
000000e0: 3c90 3abd f7bb df3b 39a9 43bd e648 febc
000000f0: fef2 19bd 4772 903d a735 84bd 5934 d83d
00000100: c40c 6b3c 5cc6 933c a418 84bd 06fe a73d
00000110: 57e4 99bc 4eda c23d 44b2 74bc f8e0 abbc
00000120: 50cd 6abc 8ab1 1bbd d618 013d 3343 3dbd
00000130: f4f1 cf3d 550f a1bd 48b8 e53d 9cc3 b53c
00000140: d943 a23c 953b 34bd a98a f53d a5ea ac3d
00000150: 0ee4 133d d660 93bd 8ce8 e93c 7604 e53c
00000160: 0bbf 36bd c9ea d83b e400 da3d 633c de3d
00000170: b3e9 713c 50ac 4c3b c61c d73c 3f6f dc3d
00000180: 54c6 653d f4b8 2bbd e410 933d cda5 a5bd
00000190: d826 ec3d 6e01 963d 1981 3d3d 9f99 eebb
000001a0: b0e0 60bd 8d2e a33d ec56 e2bc 589e cdbc
000001b0: c0d5 913d 11ed 5f3d 2437 7e3b eec6 1d3d
000001c0: 28ba 933d 12ad 2cbd 3847 033d 5352 a73d
000001d0: 66db e83d ed6c c13d 8a36 8d3d bb95 1c3c
000001e0: 023e 3c3d ca66 913d 19d7 bbbd 1b63 4f3d
000001f0: 70b9 eb3c e24e f23c c51c 1e3c 55df 7abd
0.0511257 0.08653386 -0.0285477 0.040120114 0.05506521 -0.09813083 0.053334795 -0.03313982
0.118458375 -0.043291457 0.044356775 -0.024198331 -0.0183399 0.12003033 0.12598282 -0.024215411
0.010495905 0.018518094 0.10896486 0.033097547 0.009396542 0.019887174 0.006964848 0.014117826
-0.023458973 -0.035141747 -0.04595547 0.08015763 0.0002512952 0.03851249 0.00116809 -0.09023423
0.0128286015 0.040976126 -0.063189395 0.06105419 0.15724295 0.007701339 0.08248236 -0.016247336
0.013792374 0.040016137 0.044707645 0.021573128 0.03450951 -0.043242544 0.003575085 0.07803575
-0.012606154 0.15714642 0.050813634 0.039462727 0.10446975 -0.04430376 0.022135854 0.089348555
-0.04554771 0.006827827 -0.047768805 -0.03104062 -0.03758525 0.07053047 -0.06455546 0.105568595
0.014346305 0.018038921 -0.06450012 0.08202748 -0.018785639 0.095142946 -0.01493508 -0.020981297
-0.014331177 -0.03801111 0.031517826 -0.046206664 0.10153571 -0.078642525 0.112167895 0.022188
0.019807743 -0.044002134 0.11989338 0.084431924 0.03610616 -0.07196204 0.02855327 0.027956229
-0.044615787 0.0066197854 0.10644701 0.108513616 0.014765191 0.0031230636 0.026258837 0.10763406
0.056097344 -0.041924432 0.07180956 -0.080882646 0.11530846 0.073244914 0.046265695 -0.0072814967
-0.05490178 0.07967863 -0.027629338 -0.025099918 0.07120848 0.054669444 0.003879019 0.038519792
0.07213241 -0.04215724 0.03205034 0.08169999 0.11369972 0.09444604 0.06895168 0.009557183
0.045957573 0.070996836 -0.09171886 0.050631624 0.028774947 0.02957863 0.009650414 -0.061248142

fc3.weight f4 [256, 128]
00000000: 22b0 27bc 7f1e 2ebe 20bb d73c 5689 673d
00000010: 3be1 073e f9dd 62bc 5006 17bb ec42 7f3d
00000020: 67e4 e6bc 705b f2bb b143 a83c c00b f03c
00000030: 52fb 80bd 044d e53c 8cf6 8bbd 5e4c 07be
00000040: 7fa5 3b3d 9e45 de3b 2e96 3d3c 70fa 183c
00000050: 513b 90bb f255 01bc fcdc ed3c 739d 61bd
00000060: 0030 7bbd bfcf 59be 7250 ae3c 64c9 9d3d
00000070: fbde a1bd c851 423e 50bf 27bd 24dc 60bd
00000080: 2a46 183e e1ab f6bc a52c 963c f4c1 f43b
00000090: 51f2 823d 2c17 603d 7330 20be c85c 913c
000000a0: 0683 643d 0c5f 6b3d 31b2 10bd 6383 34bd
000000b0: a73e 413d b975 e93b 3b18 1b3d c0ba 7cbd
000000c0: 4ed2 9abd cc9d f8bc a35b e4bd 92b8 273d
000000d0: bc24 81bd 7db9 1cbc e694 1b3d 2fd7 943c
000000e0: b91c 85bd f484 6abc 58bf 46be 5846 cabd
000000f0: 4528 a13e 8b72 f1bb 4bbe b9bc f8fe 6abd
00000100: 5cb7 603d 7edd 893c 307c b23e 899f ffbd
00000110: b806 233d 761c 0dbe 6825 c3bd ec2a c8bc
00000120: 578a 2dbb 2a9d 4a3d e5fc c93c 8543 28bd
00000130: b86b 4ebd 408f 20bd ccf5 253d 4fed 5bbd
00000140: c41d 3f3d 6d56 3b3d 1f0f 133d 3490 9fbb
00000150: d81d 263d 7ca7 26bd b441 6bbe 8a5a 5cbd
00000160: 8c2d 993c 60ff 303b 035e 2c3d 0b54 3e3e
00000170: ee57 e7bd 6899 8abc a4ac 5b3d ced1 1dbd
00000180: 1819 d6bc b23d 37bd 2b4e 8a3c 5d01 cd3b
00000190: 4a4a aabd 557f 16bd 0413 a9bd 87f1 07be
000001a0: 1049 d4bb 25d6 f8ba c3e0 243d 7a53 48bd
000001b0: fcf2 33be 1d66 9dbd 17d7 9abd 76e9 d0bb
000001c0: ba47 593d e92e c03c 149e 163d 3970 0bbc
000001d0: b5e5 80bd fcd3 3ebd e4e7 00be fe7d 093d
000001e0: aa1a 3d3d 77e7 593d 82bd 773c 62bf ed3b
000001f0: 0148 adbe aa1e 243d 2300 1c3d a075 dbbc
00000200: e83e 94ba 6d09 a03e f7aa bdbc 806a 363d
00000210: 4fb2 273e 4a29 5c3c dcaf 273e fbb0 203c
00000220: e91b b53d 62c3 45bc aa3f cf3b dbcf 18bc
00000230: 06f7 ac3d d32c 8a3d 56e1 573d 9663 05ba
00000240: e397 01bd 9df8 0c3d 0715 133e f529 333d
00000250: 432f a4ba 5087 143d f33c 213e 59b2 883c
00000260: 2ebe 7c3d acbb e23e 0641 473d c449 153d
00000270: 9ee7 d03c d94f 1b3e e30b 0e3e 7be7 473d
00000280: e7ff ec3d 864c a5bc a042 4ebd 4ddc 1dbd
00000290: 1b3a 313d c905 823d f9a3 0d3e 174b 383e
000002a0: 0522 0b3d 78c8 0a3a ffc0 07bd 8280 393d
000002b0: fe25 b63c d061 483e 271f 20bd 02cf c23d
000002c0: e8d6 b13d 1fd5 c83c 1eda 113e 7a51 43bc
000002d0: 1f1d 483c ab6d 51bd 9f41 54bd c8a9 6d3c
000002e0: c4c7 883d 1a86 fc3d 3119 183e 0c2b 833d
000002f0: 1ccc 003e d4e3 48bb ba8b dc3c 4366 b73c
00000300: 9e77 60bd f683 3e3b 9284 523e a045 983d
00000310: 66a0 ac3c f6f3 673d cb71 18bd a93e 84bd
00000320: 7c26 143c 6fb2 89b9 ce40 e0bc 7e4d 24bd
00000330: a0dc cc3d d579 a3bc 2152 943d bdac af3b
00000340: 91aa 35bd 74f6 bc3d 29fc 023d b31b 09bd
00000350: 3ffc 893d 28e6 82bd b6a1 5d3e a871 9fbc
00000360: 936c 233c a96c 353e 5053 bf3d 752d 713e
00000370: d8d2 4cbe 590a 5d3d 3c8e 6d3b 62e1 16bd
00000380: ebd6 9a3c 482f a1bd ff49 80bd e29a 403d
00000390: 440b 7e3d 1e85 e8bc 5311 2d3c 4cb3 5e3e
000003a0: fc3e 7c3d 5c0f 5c3d ad89 c7bc 9fb2 bd3d
000003b0: de23 513d e994 c5bb ea09 733d 3d2e 7ebd
000003c0: ea10 5c3d ecc7 6cbd 3ff1 f8bb c9cc 483d
000003d0: dd7f 6a3d e488 6c3d 0e86 9d3e 544a c03c
000003e0: cebe 353d c8c3 063d 3fa8 0bbd ffba 04bd
000003f0: c32b 4a3e 1ac7 3d3d 359f 8e3d 9131 cabc
-0.010234864 -0.17003821 0.026334345 0.056527458 0.13269512 -0.013846868 -0.0023044534 0.06231968
-0.028185083 -0.007396154 0.02054009 0.029302478 -0.062979355 0.027990825 -0.068341345 -0.13212726
0.045812126 0.0067832014 0.01157145 0.009337053 -0.0044016023 -0.007894026 0.029036038 -0.055081796
-0.061325073 -0.21270655 0.021278594 0.07704428 -0.07903858 0.1897651 -0.040953934 -0.054897442
0.14870515 -0.030111255 0.018331835 0.00746941 0.063938744 0.0547096 -0.15643482 0.017744437
0.055789016 0.05746369 -0.035326187 -0.044070613 0.04717889 0.0071246293 0.037864905 -0.061701536
-0.07559644 -0.03034868 -0.11150291 0.040947504 -0.06305835 -0.009565708 0.037983797 0.018169014
-0.06499619 -0.014313925 -0.1940893 -0.09876698 0.31476036 -0.007368391 -0.022673747 -0.057372063
0.054862365 0.016829249 0.34860373 -0.12481601 0.03980133 -0.13780388 -0.09528619 -0.02443453
-0.0026480162 0.04946629 0.024656722 -0.041080017 -0.050395697 -0.039199114 0.040517613 -0.053693112
0.046659246 0.04573672 0.035903092 -0.0048694853 0.040555805 -0.04068707 -0.22974283 -0.053797282
0.018698476 0.0027007684 0.042081844 0.18586747 -0.11296068 -0.016918853 0.05363144 -0.038530163
-0.026135013 -0.04473657 0.016882977 0.006256266 -0.08314951 -0.036742527 -0.0825558 -0.13275729
-0.0064784363 -0.0018984718 0.040253412 -0.048907734 -0.1757316 -0.07685492 -0.075605564 -0.006375487
0.05304692 0.023459869 0.03677185 -0.008510643 -0.06293813 -0.046588883 -0.12588459 0.03356742
0.046168007 0.053199258 0.015120866 0.0072554806 -0.33843997 0.040068306 0.038086068 -0.026789486
-0.0011310251 0.3125719 -0.023152811 0.04453516 0.16376613 0.013437578 0.16375679 0.00980782
0.08843214 -0.012070509 0.006324728 -0.0093269 0.084455535 0.06746831 0.05270513 -0.0005088387
-0.03163899 0.034416784 0.1436349 0.043741185 -0.0012526292 0.036261857 0.15745907 0.016686605
0.061704807 0.44283807 0.048645996 0.0364473 0.025501069 0.15167178 0.13871722 0.04880474
0.11572247 -0.02017809 -0.050356507 -0.038540173 0.043268304 0.0634876 0.13832082 0.17997395
0.03396799 0.00052941544 -0.03314304 0.04528857 0.022234913 0.19568563 -0.03909221 0.0951214
0.08683568 0.024515687 0.14243361 -0.011921281 0.012213974 -0.05112998 -0.051820394 0.014505811
0.06678727 0.12330265 0.1485336 0.06404695 0.12577862 -0.0030653374 0.026922096 0.02238763
-0.054801576 0.0029070354 0.20558384 0.07435155 0.021072578 0.056629144 -0.037217896 -0.06457264
0.0090423785 -0.0002626362 -0.027374651 -0.040112965 0.100030184 -0.019955555 0.07242227 0.005361168
-0.044352118 0.09226695 0.03197876 -0.03347368 0.06737565 -0.06391555 0.21643719 -0.019463375
0.009974617 0.17717232 0.093420625 0.23552497 -0.20002306 0.053964946 0.0036248108 -0.036836036
0.018901309 -0.07870346 -0.06264114 0.047022708 0.062022462 -0.028383788 0.010563212 0.21748084
0.061583504 0.053725585 -0.024357641 0.09262585 0.051059596 -0.0060297144 0.059335627 -0.062055815
0.053727068 -0.057807848 -0.007597118 0.049023423 0.057250846 0.057747737 0.30766338 0.023472942
0.04437142 0.032901555 -0.034096 -0.032404896 0.19743256 0.046332456 0.0696396 -0.024681838

fc3.bias f4 [256]
00000000: 3d9f 9d3c 9b8f c73c 297e 35bd 4e42 60bb
00000010: bd8b a03d 3ab6 c03c fa7f 363d 4853 703d
00000020: 4c3a 2b3d 9828 583d 0c97 153d d6a8 ba3d
00000030: f36c 88bd c959 003b e5fd 0cbc f04c 5b3d
00000040: 8e45 ef3d 3c21 a33b 0ad8 093d 449e 803c
00000050: bc2f 423d 3330 e33c caed 863d 616e a4bc
00000060: feb5 ae3d 30b8 d23d 1d72 30bd b577 10bc
00000070: 8286 debc 8fe0 07bc 0f4e 1c3c 1190 3cbd
00000080: 32f5 77bc 3fb8 9e3c 5581 133e 5b9c 803d
00000090: 0877 8539 6e75 693d 9ee2 f13d 26f2 84bd
000000a0: e7e4 f83d 506c 8d3d 0e87 983d 1cd3 c73d
000000b0: 9e49 2f3d a4f0 63bd 85c5 fdbb 3c43 183d
000000c0: 0a4b 4ebd 3ec2 9d3c 5c89 833d 647a 71bd
000000d0: f70b 04bd 469c 02bd 0816 4f3d 08dd 813c
000000e0: 526a a5bb 6cf9 32bd 73d0 863b c2e5 103d
000000f0: 7605 0b3d 2c5d 78bc 9b2c 7c3c 394c 3c3d
00000100: dfb0 763d 01db d93d 6ef2 123d abbd 1c3e
00000110: 9a68 773d c7c8 ce3c d1ea 693d f185 be3c
00000120: 9275 2d3d f8de 0d3e 884f 303d cc3f 11bd
00000130: 9ac9 b83d 77cd 823d 288f 8ebd 4963 81bc
00000140: a483 603d f968 f8bb 71f4 0b3d 1475 a83c
00000150: 1563 123d a709 02bb 08fa a63c 3561 ca3c
00000160: 5b6f 353e 4f26 27bd fc86 d43b be37 833d
00000170: 8efd f33c bc47 54bc 92f0 50bd a313 bb3c
00000180: 9d66 8c3d 9640 343d 10d0 543d 164d 8a3d
00000190: 7ff4 7e3d 364a b13d e27c 49bd bd93 af3c
000001a0: 5a5d af3c 6536 733d 05b0 913d 2b30 9b3d
000001b0: 926d 703c 924b 3e3c 8956 633d 3ae0 1f3d
000001c0: e2d0 ad3c 663e 45bd 2e00 923c 521f e83c
000001d0: 7a6c 7a3d e51d d53d 7788 9ebb e5d7 c13b
000001e0: badc cdbc 2502 0fbc 76b6 6fbd 9abb 3d3d
000001f0: be8f af3d 62b8 943d b2f4 663d f704 073d
00000200: c864 51bd ba46 423d b876 a43c a771 1a3e
00000210: 29dd 4a3d 2461 d93d da15 fd3c 6fa4 3dbd
00000220: bcd5 b63c d014 5a3d b4f7 0dbc f400 02bd
00000230: e301 483d f9ca 903c 4523 14bd e4e9 403c
00000240: f2cd 60bd 7e96 7e3d 57da d63c a631 39bb
00000250: 780d 363d 105e 39bd 0919 6bbd 2d0f 94bc
00000260: b876 ec3c 4b0a 4fbd 05e0 ae3c afa9 73bd
00000270: d862 2a3c 7c41 b13d 3a20 ca3c 0b07 353c
00000280: e581 03bc c374 8b3c b4d2 573d b9e4 0d3d
00000290: 1159 78bd dcd6 f13c e6c2 c83d 47ab 0a3d
000002a0: 549b 013e ebc5 523d dba3 163d 1cb8 e03b
000002b0: e637 843d 3d9d 9f3d 0400 953b 70d8 a7bd
000002c0: 7379 5fb9 c4a0 b2bc 1b5d 6fbd 7d43 8d3d
000002d0: c119 2c3d 9cf3 f13d bbc5 9ebd 0f4f a83c
000002e0: a5cd 5dbd 9590 263d da9a 823d c83c d83c
000002f0: 37f4 523d e49b 9e3c 4867 34bd 035b 003d
00000300: 6bd7 193d d17f 433d dd38 363d 3593 71bd
00000310: 8fa6 48bc 4ffa 13bd 7604 2abc 78f8 0bbc
00000320: dd9a 12bc 8d3f c13c 469f 71bd dadb a33d
00000330: 4de6 333c e22f 19bd 3075 2f3d 44a9 60bd
00000340: 6e16 edbb 1eef 20bd d86c 973d 9411 643d
00000350: dbd8 6a3d 8842 003e df16 c5bc 373b 1a3d
00000360: c212 e33d 8513 cdbc 114b 853b 1950 233d
00000370: 61fe edbd 16c7 4a3d cde4 fc3c f85e a33c
00000380: 4d81 d23d 056d eabc b257 12bd ee1e 1e3d
00000390: 9283 e13d 7656 00bd 6488 a13d 4179 27bd
000003a0: 695c a53d 6f8b 4b3d 7a51 a4bc c048 55bc
000003b0: f250 07bd 3ceb 34bd ab26 8c3c a002 86bd
000003c0: 925e 6b3d e3f4 3cbd 0a40 cf3d 7d2b 313d
000003d0: 0aff 623d f7ac a83c 0714 a3bb 1161 c03d
000003e0: e26d 6dbd 9b9e 7d3d 43cc dd3c 519d 2d3c
000003f0: f26e d73c b642 45bd ac79 573d a0b2 233b
0.01924097 0.024360469 -0.04430977 -0.0034219208 0.07839153 0.023524392 0.04455564 0.058673173
0.041803643 0.05277309 0.036521003 0.09114234 -0.066614054 0.0019584766 -0.008605455 0.05354017
0.116831884 0.004978327 0.033653297 0.015700467 0.047408804 0.027732944 0.065883234 -0.020072164
0.08530806 0.10289037 -0.043077577 -0.008817603 -0.027163748 -0.008293285 0.009540095 -0.04603583
-0.015134143 0.019374965 0.14404805 0.062798224 0.00025456422 0.056996755 0.11810802 -0.06491499
0.12153035 0.069054246 0.07447635 0.09757063 0.042794816 -0.055649415 -0.0077444934 0.037173495
-0.05036453 0.019257661 0.064226836 -0.05895461 -0.032237973 -0.031887315 0.05055812 0.015852466
-0.0050480748 -0.0436949 0.0041142046 0.035375364 0.033940755 -0.015158933 0.015391494 0.04597113
0.06022727 0.10637475 0.03587573 0.15306728 0.06040249 0.025242222 0.057108704 0.023257228
0.042348452 0.13854587 0.043044597 -0.035461232 0.090228274 0.063868456 -0.06960899 -0.015794413
0.054813042 -0.007580873 0.034168664 0.02056364 0.035739023 -0.001984218 0.020382896 0.024704555
0.1771826 -0.04080802 0.006485818 0.06407116 0.02978399 -0.012956556 -0.051010676 0.022836512
0.068555094 0.044006906 0.051956236 0.06752984 0.06224489 0.08656733 -0.049191363 0.021432752
0.021406818 0.059378047 0.07113651 0.07577547 0.014674561 0.011614697 0.05550245 0.0390322
0.021217767 -0.04815521 0.017822351 0.028335247 0.061138608 0.104060926 -0.004838045 0.005915629
-0.025129665 -0.008728539 -0.058523618 0.04632149 0.085723385 0.07261731 0.056385703 0.03296372
-0.051121503 0.04743073 0.02007614 0.15082417 0.04952732 0.10614231 0.030894209 -0.046299394
0.022318713 0.053242505 -0.008665014 -0.03173919 0.048829924 0.01767491 -0.03616645 0.011774514
-0.054883905 0.06215524 0.02622716 -0.0028258353 0.04444644 -0.04525572 -0.057396922 -0.018073643
0.028865203 -0.050546926 0.021347055 -0.059487995 0.010399543 0.08655068 0.02467357 0.011049042
-0.008026575 0.01702345 0.052691177 0.034641955 -0.060631815 0.029521398 0.09802799 0.03385475
0.12656909 0.05145828 0.03677736 0.006857885 0.06455974 0.07793663 0.004547121 -0.08195579
-0.0002131218 -0.021805175 -0.0584384 0.06897638 0.04201675 0.11814043 -0.07752558 0.02054551
-0.054151196 0.040665228 0.06377192 0.02639617 0.051502433 0.019361444 -0.04404381 0.031336796
0.037558954 0.047729317 0.044487823 -0.05897828 -0.012246742 -0.036127385 -0.01037704 -0.008543126
-0.008948055 0.023589874 -0.058989786 0.08000918 0.010980201 -0.03739918 0.042836368 -0.054848924
-0.00723534 -0.03929054 0.07393807 0.055680826 0.057335716 0.1252538 -0.024058757 0.037654128
0.11087562 -0.025033722 0.0040677865 0.03987131 -0.116207846 0.04950627 0.03087082 0.019942746
0.102785684 -0.028616438 -0.035728164 0.038603716 0.11011423 -0.031332456 0.078873426 -0.04088712
0.080742665 0.04969352 -0.020058382 -0.013017833 -0.03303618 -0.04416965 0.017108282 -0.065434694
0.057463236 -0.04613198 0.10119636 0.043254364 0.055419005 0.020590289 -0.0049767527 0.09393514
-0.05796612 0.061918836 0.027074939 0.010596589 0.02629802 -0.048159324 0.05260627 0.0024978295

fc4.weight f4 [12, 256]
00000000: 1921 f5bd 8652 6fbd 0baa 8a3b 0715 7a3b
00000010: 92be 06bd 01f3 c63c 51d2 a03d 1672 63bd
00000020: c1a6 a03c b579 42bd 8466 d5bb b98d 7abd
00000030: 6cf1 ad3d a810 1fbd 9350 87bd 1e2f 9fbd
00000040: 9064 11bd c0f1 57bc f000 92bd 435b 64bd
00000050: a1ce 023d 13dd 9cbd d20d 9fbc d7d3 a2bc
00000060: 9803 b1bd 2912 65bd 1403 aabd 2dee 11bd
00000070: e252 303d d55f 313d 345a 543b f741 4fbc
00000080: d823 7cbd 6070 39bd 79f8 90be 54f6 5e3d
00000090: 27e5 c13d 7bbc 12bd 279b 1dbd 3352 c93c
000000a0: a78e 7dbd 774e b7bd a14b b0bd 0844 c1bd
000000b0: 50e1 b33a cfa5 a0bc 2353 4fbc 67b1 123d
000000c0: 9f6b ba3d 7b55 0cbc ba18 4cbd dea0 3a3c
000000d0: 77ee 023e 3cab 9cbd 3921 a1bd 34df 5b3c
000000e0: 6703 61bb 35e0 8abc 5fd8 7dbd a74b 3ebd
000000f0: 4b52 12bd 434f 743c 80c5 623c a78f 36be
00000100: a392 54bd 11e4 37be f1f9 90bd ec48 1bbd
00000110: 366f e6be bf81 e8bd d212 5d3e 2091 033e
00000120: 295f 51bd c3b8 b9bd 353b fc3c 130b cf3b
00000130: 5285 b7bd 64ea b4bd b493 8abd 4b30 52bd
00000140: d042 debc 4047 fdbc c35d a2bd 073f f63c
00000150: cf68 373b c825 14bd bc59 3abd 03c4 80bd
00000160: f6c4 afbd b2ae d33c 0bed 3fbd bd93 4abc
00000170: a7ad 5bbd a084 c6ba 0802 31bc 1ca4 90bd
00000180: 0a54 afbd a8fb 8cbb 83b6 14bd bb80 5ebd
00000190: 2434 2c3d cdbb 083e b58d e93d 73bd 00bd
000001a0: aa4d d43d 04f0 ea3d a5c6 c2bd cf50 853d
000001b0: 2549 0abd 4cc4 18bd 018c 033d acaa 793d
000001c0: c4c7 e93d 84e8 22bd e930 52bd c7b0 1c3e
000001d0: b2fa d1bd 8849 6cbd 66e5 45bc 25a8 25bd
000001e0: 0e58 163e cc02 79bd be45 d3bc 08eb e8bc
000001f0: b3f4 9ebc e5f5 b1bc 4d47 72bd 80c9 acbc
00000200: 625d 3bbd 746e 3d3c d26b 37bd fe46 95bd
00000210: 2b74 a7bd ae42 6abd c862 eb3b 98ce bbbc
00000220: 3cc9 c7bd 736b 18bc 37ff 583e 35f7 9abd
00000230: 1000 debd 655a ae3c a151 19bc 0493 dabd
00000240: 7daf 543d 8fa2 8dbe ee78 febb 01c9 06be
00000250: ae87 f13d ba1f 8ebd d6c4 52be 00c9 9b3c
00000260: 14de 68bc 53eb 073d 3ceb 07bd dc78 7b3c
00000270: 60b2 7bbc 6d71 82bc d95b 05bd 3058 9339
00000280: abec d6bd 5024 a6bc 23e0 003d 45a0 1d3c
00000290: 937b 31bd c164 95bd d7cc 1cbe 7fea 53bd
000002a0: dbd9 dabb bde5 6f3d b60a a43d c81f 013d
000002b0: 08d9 57bd cecb 2ebd 3039 ccbd 20f1 323d
000002c0: ee8f 8bbc f13b c63d cc78 e03d 466c 83bd
000002d0: 02fd 1fbd e55d 71bd 0291 193c 49e9 44bd
000002e0: 90d5 11bd 89ae d03d b98b 98bd 7797 72bc
000002f0: bd3b a5bd 12b0 8f3c 399d 8bbc 145f d7bb
00000300: 5eb2 c3bb 2196 1fbd 4540 d13c cf57 0e3e
00000310: 5286 1bbd 06b1 5c3b 850e 8cbd 0e25 2ebd
00000320: 2b29 94bd fc3b dfbc db33 babb a62d 74be
00000330: cd50 1e3a 101f 0a3d d61b 9cbc cecb 133d
00000340: cbd9 4abe 8580 b8bc f4fd cfbd 476d acbd
00000350: a377 98bd 590c 09bd 5ec6 d7bd 7276 023d
00000360: 5b0d b7bd 5e15 98bc 5ab4 bebd 63b1 20bd
00000370: 631b 773d eac3 16bd a18b 49be 599d 1e3d
00000380: 25d2 76bd 1a6e 47be b799 b83c 63df f3bd
00000390: 0c6d b2bd 4188 643c b35c 9fbd 2178 e7bd
000003a0: fd05 be3c a9df a6bd f3dc a13d 02a3 323d
000003b0: a625 7cbd 79b0 543b 7c4d e03c 5f13 b5bb
000003c0: 1c62 1abd 6e65 d23c 4316 73bd b2f1 cd3d
000003d0: f067 b6bd 630e dabc f819 653c a6bf b7bd
000003e0: 9266 07bd d80b aabd 60cb c6bc cf32 97bd
000003f0: c40c ea3b 44a1 813c 3c31 673b 529e 65bd
-0.119692035 -0.05842831 0.0042316965 0.0038159506 -0.032896586 0.024285795 0.07852615 -0.055528723
0.019610764 -0.04747935 -0.006512465 -0.061170314 0.08493313 -0.038834244 -0.06607165 -0.07772659
-0.035496294 -0.013180196 -0.07129085 -0.055751096 0.031935338 -0.07659354 -0.01941577 -0.019876404
-0.086432636 -0.055925522 -0.08301368 -0.035627533 0.043047793 0.043304283 0.0032402398 -0.012650005
-0.06155762 -0.045273185 -0.2831457 0.054434136 0.094675355 -0.03582428 -0.038478043 0.024575328
-0.061903622 -0.08950513 -0.08608175 -0.09436804 0.0013723765 -0.019610314 -0.012654099 0.035813715
0.09102558 -0.008565302 -0.04982827 0.011390893 0.1278628 -0.07649848 -0.07867665 0.013419915
-0.0034334303 -0.016952613 -0.061973926 -0.046458866 -0.035723012 0.014911476 0.013841033 -0.17828237
-0.051897656 -0.17958094 -0.070789225 -0.03791134 -0.45006722 -0.11352872 0.2158921 0.1284833
-0.051116142 -0.090684436 0.03078995 0.006318459 -0.08960976 -0.08833769 -0.067664534 -0.051315587
-0.027131468 -0.030917764 -0.0792804 0.03005935 0.0027986055 -0.036168844 -0.045495734 -0.06287386
-0.08582489 0.025840137 -0.04685692 -0.012364325 -0.053632405 -0.0015145727 -0.010803707 -0.070625514
-0.08560951 -0.0043024607 -0.03630687 -0.054321986 0.042041913 0.1335289 0.114039816 -0.031430673
0.10366376 0.114715606 -0.09510545 0.06509554 -0.033761162 -0.03729658 0.03211594 0.06095378
0.114150554 -0.039772525 -0.051316176 0.1530181 -0.102528945 -0.057687312 -0.012078619 -0.04044356
0.14682028 -0.060793683 -0.025790092 -0.028432384 -0.019403791 -0.021723697 -0.05915003 -0.021092176
-0.045743354 0.011561979 -0.04478056 -0.07288931 -0.08176454 -0.057192497 0.0071834065 -0.02292566
-0.09755179 -0.009302962 0.21191107 -0.07566682 -0.10839856 0.021283338 -0.009357841 -0.10672572
0.05192517 -0.27663085 -0.007765881 -0.13162614 0.11793457 -0.06939645 -0.205829 0.019016743
-0.014213104 0.033183407 -0.03318332 0.015348639 -0.015362352 -0.015923226 -0.032558296 0.0002810373
-0.104943596 -0.020280987 0.031463753 0.009620731 -0.04333074 -0.07294608 -0.15312515 -0.051737305
-0.0066788024 0.058568705 0.080098554 0.03152445 -0.05269721 -0.042674832 -0.09971845 0.043686986
-0.017036404 0.09679402 0.1096054 -0.06417136 -0.039059646 -0.058927435 0.009372951 -0.04807404
-0.03560406 0.1018954 -0.07448525 -0.01480662 -0.08068035 0.017540012 -0.017042743 -0.0065726135
-0.0059721908 -0.038961533 0.025543341 0.13900684 -0.037969895 0.003367485 -0.06838707 -0.042515807
-0.07234415 -0.027250282 -0.005682451 -0.23845538 0.0006039262 0.03372103 -0.019056242 0.036083035
-0.19809644 -0.02252222 -0.101558596 -0.084192805 -0.07444694 -0.03345904 -0.105358824 0.03185124
-0.08938094 -0.018564876 -0.09311743 -0.03923167 0.060328852 -0.036807932 -0.1968217 0.038724277
-0.060259003 -0.19475594 0.022534234 -0.11907842 -0.08712205 0.013948501 -0.07781353 -0.1130221
0.023196215 -0.081481285 0.07903471 0.043612488 -0.06155934 0.0032453819 0.027380697 -0.005525991
-0.03769122 0.025683131 -0.059347402 0.10055865 -0.08906543 -0.026618188 0.013983242 -0.08972101
-0.033056803 -0.0830304 -0.024266899 -0.07382738 0.007142635 0.015823968 0.0035277149 -0.05605919

fc4.bias f4 [12]
00000000: 6c8e eebc c3eb c9bc ad9f f23c 7b2d 8d3b
00000010: 9caa 20bd bbcd ab3b 34d3 47bd fe5a e4bc
00000020: c54f 87bd 3a68 d2ba a96d d63c 1507 153b
-0.029120646 -0.024648553 0.029617155 0.0043084 -0.039225206 0.005243031 -0.048785403 -0.02787542
-0.06607012 -0.001605279 0.026175337 0.0022739817
