good.pt_episode_800.pt (torch, 182492 bytes, 8 tensors)

fc1.weight f4 [64, 5]
0	0x3e33a1a5	0.17542131
1	0xbe32e230	-0.17469096
2	0x3e86a3cc	0.26296842
3	0x3c053d46	0.0081322845
4	0x3e69824d	0.22803612
5	0xbe3daeaa	-0.1852366
6	0x3cdc2534	0.026873209
7	0x3dd86a48	0.105671465
8	0x3e5dec9b	0.21672289
9	0xbdcd07d7	-0.10011261
10	0xbd8eba67	-0.06969147
11	0xbda85ea3	-0.082211755
12	0x3d8a9e11	0.0676843
13	0xbc8e8d64	-0.017401405
14	0xbd51c067	-0.05120888
15	0xbe101673	-0.14071064
16	0x3e72cfc5	0.2371207
17	0x3dcde60e	0.10053645
18	0x3e7e69aa	0.24844995
19	0x3d757e78	0.059935063
20	0xbe30f890	-0.17282319
21	0xbe0cd686	-0.13753709
22	0x3d9d2fa1	0.076751
23	0xbd2d7637	-0.042349067
24	0x3b78cddf	0.0037964506
25	0xbe396962	-0.18106607
26	0xbe4a4dde	-0.19756266
27	0x3e096d6d	0.13420649
28	0xbe362bf7	-0.17790209
29	0xbe433247	-0.19062148
30	0xbaea14e4	-0.0017859009
31	0xbe707612	-0.2348254
32	0x3e6231e2	0.22089341
33	0xbe2b3694	-0.16720039
34	0x3e5d2d51	0.21599318
35	0xbe09a2c1	-0.13440992
36	0x3e2c5c61	0.16832115
37	0xbcd6b826	-0.026210856
38	0x3d4d6d02	0.050152786
39	0xbc013f7d	-0.007888672
40	0x3e44fa4c	0.19236106
41	0xbdb3a9d6	-0.08772628
42	0xbe1d33da	-0.15351811
43	0x3e3a41f0	0.18189216
44	0xbe452b18	-0.1925472
45	0xbe4f9b35	-0.2027405
46	0x3e88c200	0.2671051
47	0xbe035b29	-0.12827744
48	0x3d6f3788	0.058402568
49	0x3e71d861	0.23617698
50	0xbe3fea2b	-0.18741672
51	0x3e617aaf	0.22019456
52	0xbe687785	-0.22701843
53	0x3e0c16d6	0.13680586
54	0x3e347ff7	0.1762694
55	0xbc93140c	-0.017953895
56	0x3c2e064e	0.01062162
57	0x3c5a25a4	0.013314638
58	0x3e5fd7db	0.21859686
59	0x3dfbb597	0.12290495
60	0xbe16c141	-0.14722158
61	0xbe5229ab	-0.20523708
62	0xbe0bb03f	-0.13641451
63	0x3e18ddaa	0.14928308
64	0x3d42214a	0.04739503
65	0x3d904f09	0.07046325
66	0xbdb2a408	-0.08722693
67	0x3e662154	0.22473651
68	0xbad779b8	-0.0016439473
69	0x3e82a167	0.25513765
70	0x3d82da7d	0.063893296
71	0xbdb389e1	-0.08766533
72	0xbde2c044	-0.11071828
73	0x3e897bfc	0.26852405
74	0x3cd3ef4f	0.025870947
75	0x3e18bcb2	0.14915732
76	0x3e052ea3	0.13006072
77	0x3e32b99b	0.17453615
78	0xbd59c5b0	-0.053167045
79	0xbe27648d	-0.16346951
80	0x3e4456ee	0.19173786
81	0xbe1f48dc	-0.15555137
82	0x3da7112c	0.08157572
83	0x3ca6941d	0.020334298
84	0x3e5292b3	0.20563774
85	0xbd675d95	-0.05648573
86	0x3c0ce96d	0.008600575
87	0x3e90183e	0.28143495
88	0xbd824c5c	-0.06362221
89	0xbd0557f1	-0.03255457
90	0xbe26b515	-0.16280015
91	0xbc8b3e30	-0.016997427
92	0x3e1f53e0	0.1555934
93	0x3e6f2dfc	0.23357385
94	0xbe0843b6	-0.1330708
95	0xbdf4acca	-0.119470194
96	0xbc7196b8	-0.014745407
97	0x3bdf9609	0.0068233055
98	0x3ce5fea9	0.028075533
99	0x3e17a457	0.14808784
100	0xbdc160a7	-0.09442263
101	0x3dbad541	0.09122706
102	0x3d400567	0.046880152
103	0x3e64d7a1	0.22347881
104	0x3dc8b3e8	0.097999394
105	0xbd0f635b	-0.035006862
106	0x3d9a9470	0.075478435
107	0xbe69b964	-0.22824627
108	0xbe35e9d5	-0.17764981
109	0xbd5a4d2c	-0.053296253
110	0xbe0b297e	-0.13590047
111	0x3ce890f4	0.028389432
112	0x3c5ff3c6	0.01366896
113	0xbe4fd9c9	-0.20297922
114	0xbd39d032	-0.045364566
115	0x3e5d7654	0.2162717
116	0xbe487b08	-0.19578183
117	0x3e7c420d	0.24634571
118	0x3a2c6f5f	0.0006577875
119	0x3e1d911e	0.15387389
120	0xbe0a29c4	-0.13492495
121	0x3e7e526f	0.24836133
122	0xbd364d26	-0.04450717
123	0x3e1fdb65	0.15611036
124	0xbd4505ed	-0.048101354
125	0x3deff67f	0.11716937
126	0xbe5c3d0f	-0.21507667
127	0x3e4b8563	0.19875102
128	0x3933398a	0.00017092205
129	0x3e6d1fb3	0.23156624
130	0x3e33270e	0.17495367
131	0x3da84e92	0.08218111
132	0xbe792ef2	-0.24334314
133	0x3ba70cb0	0.005097948
134	0x3db4d64d	0.08829937
135	0x3d574624	0.052557126
136	0x3e8989d2	0.2686296
137	0xbe891e12	-0.26780754
138	0xbdb2d6e1	-0.08732391
139	0x3e1c2079	0.15246762
140	0x3e361513	0.17781477
141	0xbe424531	-0.18971707
142	0xbdee0d56	-0.116236374
143	0x3df0d190	0.11758721
144	0x3e1ddcdf	0.15416287
145	0xbdeeee6a	-0.116665676
146	0xbe3bf3db	-0.18354742
147	0xbe60c2fc	-0.2194938
148	0x3d36c5ab	0.044622105
149	0x3e147431	0.14497449
150	0xba00a1cc	-0.0004906922
151	0x3e233d72	0.15941408
152	0x3e0d674c	0.13808936
153	0xbe4bb9b4	-0.19895059
154	0x3d4805f9	0.04883382
155	0x3da47fdb	0.08032199
156	0xbd785284	-0.060625568
157	0xbe6f5466	-0.23372039
158	0x3c73d7c2	0.014882984
159	0x3dac1dc7	0.08404117
160	0xbdc38d36	-0.09548418
161	0x3d07272f	0.032996353
162	0xbb5e76af	-0.0033945253
163	0xbd5cbf5b	-0.05389343
164	0x3e491586	0.19637117
165	0xbe162127	-0.14661084
166	0xbe449ed4	-0.19201213
167	0x3d6a9518	0.057271093
168	0x3e435ce0	0.19078398
169	0xbc5a521e	-0.013325242
170	0x3e823a65	0.25435176
171	0x3e2d2c2e	0.16911384
172	0xbe52e46a	-0.20594946
173	0xbe74c825	-0.23904474
174	0x3e851c82	0.25998312
175	0xbe667f64	-0.22509533
176	0xbe6ed74c	-0.23324317
177	0x3d41e9c1	0.047342066
178	0x3e152a84	0.14567
179	0xbe40d76e	-0.1883218
180	0xbd8963f7	-0.0670852
181	0xbe241e85	-0.16027267
182	0x3d143a30	0.036188304
183	0xbd590dd4	-0.052991703
184	0xbd27bed1	-0.04095346
185	0xbde83f38	-0.11340183
186	0x3e50b7d5	0.20382626
187	0xbda1e609	-0.07905204
188	0xbe48d528	-0.19612563
189	0xbe250cad	-0.16118117
190	0xbe452cc2	-0.19255355
191	0x3d345ffa	0.044036843
192	0xbe1c75cb	-0.1527931
193	0x3e9cf245	0.30653587
194	0x3e3372c1	0.17524244
195	0xbe041af2	-0.12900904
196	0xbd830748	-0.06397873
197	0xbded1e58	-0.11578053
198	0xbd3381a9	-0.043824825
199	0x39ddee6c	0.00042330043
200	0xbd8a77e1	-0.06761146
201	0xbe422cef	-0.18962453
202	0x3d96df45	0.07366804
203	0x3e577650	0.21041226
204	0x3c213e3c	0.009841498
205	0x3e7a1926	0.24423656
206	0x3d830dfd	0.063991524
207	0x3cb4dca5	0.022077868
208	0xbd5437cf	-0.051811036
209	0x3e8288e4	0.25495064
210	0xbe3e3cdd	-0.18577905
211	0xbc99e47a	-0.018785704
212	0x3e04833d	0.12940688
213	0xbe0a19f8	-0.13486469
214	0xbe3610c3	-0.17779832
215	0xbc1782ab	-0.009247462
216	0x3e0aff19	0.13573875
217	0x3dcd65f6	0.10029213
218	0xbe205a27	-0.1565939
219	0xbe62db5d	-0.22153993
220	0x3c0d8c37	0.008639387
221	0x3cb6c2ac	0.022309624
222	0x3e39ea85	0.18155868
223	0xbe5a7a4e	-0.21335718
224	0x3b6d8c26	0.0036246865
225	0x3d621748	0.055197984
226	0xbe024bc5	-0.12724216
227	0xbe137d57	-0.14403282
228	0x3e427daf	0.18993257
229	0x3e1a27cd	0.15054245
230	0xbe425380	-0.18977165
231	0x3dd9739c	0.10617754
232	0xbe2f8261	-0.1713958
233	0xbe672b04	-0.22575003
234	0x3e6e23cc	0.23255843
235	0x3e21edf9	0.15813436
236	0x3e436d3c	0.19084638
237	0xbe79e72e	-0.24404594
238	0x3e3c99f9	0.18418111
239	0xbd6c345c	-0.05766712
240	0xbe324bca	-0.17411724
241	0x3e15ba51	0.14621855
242	0x3d3d725f	0.04625165
243	0x3e4a5459	0.19758739
244	0xbd994862	-0.07484509
245	0xbdd27c35	-0.10277597
246	0xbd0b5a9f	-0.03402197
247	0x3e22bfe7	0.15893517
248	0xbdf15e4c	-0.11785564
249	0xbe179252	-0.1480191
250	0xbdef271e	-0.11677383
251	0xbd8818b5	-0.066453375
252	0x3d997800	0.07493591
253	0x3e68f8fa	0.22751227
254	0x3e5e62d6	0.2171739
255	0x3e68cf19	0.22735251

fc1.bias f4 [64]
0	0x3da00e76	0.07815258
1	0x3d93680f	0.07197582
2	0x3dfe6389	0.124213286
3	0xbdb32cf2	-0.08748807
4	0x3df78e62	0.12087704
5	0xbe302197	-0.17200314
6	0x3de43c11	0.11144269
7	0xbd9199f1	-0.0710944
8	0x3e4620ef	0.193485
9	0xbd0d00fa	-0.03442476
10	0xbd4d827d	-0.05017327
11	0x3db7f0c6	0.08981471
12	0xbe1e3f1f	-0.15453766
13	0xbdc7ec3b	-0.09761854
14	0xbdabe83d	-0.08393905
15	0xbc86635e	-0.016404804
16	0x3dd3fcf7	0.103509836
17	0x3d855915	0.06511132
18	0xbe10c0fe	-0.1413612
19	0xbbfc8b6d	-0.0077070505
20	0x3d1f50db	0.03889547
21	0xbdba2295	-0.09088627
22	0x3d81e16a	0.063418224
23	0xbd3de7d0	-0.04636365
24	0xbddd21e9	-0.107974835
25	0xbde58562	-0.112070814
26	0xbe1f5ea1	-0.15563442
27	0x3d7f858f	0.06238323
28	0x3d20b982	0.039239414
29	0x3caed14f	0.02134004
30	0xbd0553fa	-0.03255079
31	0xbc6a4b04	-0.014300112
32	0x3d953835	0.07286111
33	0x3db535a2	0.0884812
34	0x3d980dba	0.07424493
35	0x3e64e8c6	0.22354421
36	0x3d532976	0.051553212
37	0xbe087269	-0.13324894
38	0x3e141bf0	0.14463782
39	0x3ce6ddec	0.028181992
40	0xbc486914	-0.012232084
41	0xbe2e44e2	-0.17018464
42	0xbd64103c	-0.055679545
43	0xbe8ac128	-0.27100492
44	0xbda1f3bc	-0.07907817
45	0x3e0d6b34	0.13810426
46	0xbe3f04a1	-0.1865411
47	0x3e69ed29	0.22844376
48	0xbd9f9710	-0.07792485
49	0xbe04ae07	-0.12957011
50	0x3e68a4f3	0.22719173
51	0x3e59044c	0.21193045
52	0x3e66cb15	0.22538407
53	0xbe3ca179	-0.18420972
54	0x3da4d964	0.080492765
55	0x3e28cea5	0.16485079
56	0xbde0b9bf	-0.10972928
57	0x3d9f1ce2	0.07769181
58	0xbe0b08c7	-0.13577567
59	0xbe36f649	-0.17867388
60	0x3e1f8877	0.15579401
61	0xbc2bf95b	-0.010496463
62	0xbe183177	-0.1486262
63	0x3da74cba	0.08168931

fc2.weight f4 [128, 64]
0	0xbcf5e0e2	-0.030014459
1	0x3ca70ef6	0.020392876
2	0x3d0a9f33	0.03384323
3	0x3d1a1bf9	0.037624333
4	0xbc9a07f7	-0.018802626
5	0x3d3808d5	0.044930298
6	0x3db22436	0.08698313
7	0xbc541da2	-0.012946518
8	0x3cdb24f8	0.026751027
9	0x3daac708	0.083387434
10	0x3de21deb	0.11040863
11	0x3d614ae4	0.055003062
12	0x3c12f280	0.008968949
13	0xbd1c9c2a	-0.038234867
14	0x3c9c3392	0.01906756
15	0xbd8c96a9	-0.06864674
16	0xbce3f083	-0.027824646
17	0x3c032d7e	0.008006452
18	0x3da9e683	0.0829592
19	0xbd393cfc	-0.045224175
20	0x3d989752	0.07450737
21	0x3d046681	0.032324318
22	0xbc222595	-0.009896656
23	0x3bfc2e3a	0.0076959403
24	0x3d99799f	0.074939005
25	0x3c98f3e1	0.018670978
26	0x3d76d095	0.060257513
27	0xbd1c46d2	-0.038153477
28	0xbc4e1136	-0.012577346
29	0xbd1c642b	-0.038181465
30	0xbdb5e33b	-0.088812314
31	0x3c1f7aef	0.0097338995
32	0xbd717872	-0.058952756
33	0xbcd79f0d	-0.026320959
34	0xbd9d8a85	-0.07692436
35	0xbd21a4ab	-0.03946368
36	0xbd52bdb0	-0.05145043
37	0x3d87efed	0.06637559
38	0x3db4548d	0.08805189
39	0xbcb03e65	-0.021514127
40	0x3e00e059	0.12585582
41	0x3d22e6d6	0.039770924
42	0x3c033459	0.008008086
43	0xbdabd788	-0.08390719
44	0x3e62d4d7	0.22151504
45	0x3d97e15e	0.07416032
46	0x3c61c5fc	0.013780113
47	0x3d20bf8c	0.039245173
48	0x3bbd15fb	0.0057704425
49	0x3ca7b54f	0.020472197
50	0xbca09113	-0.019600427
51	0x3bd98eaf	0.0066393237
52	0x3c8f41ad	0.017487371
53	0xbda68eac	-0.08132681
54	0xbd4cdfc9	-0.050018106
55	0x3c6d61a9	0.014488616
56	0x3dd58193	0.10425105
57	0x3dedc52c	0.11609873
58	0x3c0520ad	0.008125466
59	0xbd14420e	-0.036195807
60	0x3c9b6c83	0.01897264
61	0x3d39b934	0.04534264
62	0x3cc90e73	0.024543023
63	0xbd14c3de	-0.036319606
64	0x3dd84391	0.10559762
65	0xbdfad481	-0.12247563
66	0xbd59ab34	-0.053141788
67	0xbd5e0fb0	-0.05421418
68	0x3cc8a8c4	0.024494536
69	0x3d4a3167	0.04936352
70	0x3d5eb39a	0.0543705
71	0xbe4fff91	-0.20312335
72	0xbe3fa6e8	-0.18716013
73	0xbdb1e482	-0.086861625
74	0xbe23c2a2	-0.15992215
75	0xbbcfabc9	-0.006337617
76	0x3d67535a	0.056475975
77	0x3c5277fd	0.01284599
78	0xbd5d5ef2	-0.054045625
79	0x3d3c5d3c	0.045987353
80	0x3cce6742	0.025195722
81	0x3cb6ad18	0.022299334
82	0xbdac7532	-0.08420791
83	0xbd3b5c0a	-0.045742072
84	0x3d225e97	0.03964099
85	0x3d63d09e	0.055618875
86	0xbd2aeaa9	-0.041727696
87	0x3de9c63a	0.11414762
88	0xbbe1ad12	-0.0068870867
89	0x3da30c3d	0.07961319
90	0xbd33df8f	-0.043914374
91	0xbd128663	-0.035772692
92	0x3dd152f9	0.10220904
93	0xbc9a08a4	-0.018802948
94	0x3ca7ba43	0.020474559
95	0x3b18c9ff	0.0023313758
96	0xbe17ad90	-0.14812303
97	0xbe0ae079	-0.13562192
98	0xbb814306	-0.0039447574
99	0xbd6f9f6c	-0.058501646
100	0xbad21cdf	-0.0016030333
101	0xbcea82dc	-0.028626852
102	0xbe0d26fd	-0.13784404
103	0xbd7c928b	-0.06166319
104	0x3dfcd09b	0.12344476
105	0x3d0b39e3	0.033990752
106	0xbc481880	-0.0122128725
107	0x3c2c6725	0.010522638
108	0x3ea4689a	0.32111055
109	0xbb42b340	-0.0029708892
110	0xbce2e3e4	-0.027696557
111	0xbc473369	-0.012158253
112	0xbdc47300	-0.09592247
113	0x3c3fb434	0.011700679
114	0xbd079c65	-0.033108134
115	0x3d58f576	0.052968465
116	0xbd807f5f	-0.06274294
117	0xbd3af5bf	-0.045644518
118	0xbc58e5d8	-0.013238393
119	0x3c2ad80b	0.010427485
120	0x3e9ee9c1	0.31037715
121	0xbd868679	-0.065686174
122	0xbc06cb56	-0.00822719
123	0x3b5f7ece	0.003410268
124	0xbc6dfaae	-0.014525099
125	0xbc6c748a	-0.014432082
126	0xbdff6283	-0.124699615
127	0xbd3d5ac4	-0.04622914
128	0x3cb9b812	0.02267078
129	0x3dc2f102	0.09518625
130	0x3d85a28f	0.06525146
131	0x3d990cac	0.0747312
132	0xb9acab41	-0.0003293399
133	0x3d0047ae	0.03131836
134	0x3d689be2	0.056789286
135	0xbd5b4b7f	-0.053538796
136	0xbb029fe4	-0.0019931728
137	0xbcaedab9	-0.02134453
138	0xbdfd9bab	-0.12383207
139	0xbd067fa0	-0.032836556
140	0xbcff10a8	-0.031135872
141	0xbd344dfe	-0.04401969
142	0xbcc99f37	-0.024612052
143	0x3d76ad5a	0.060223915
144	0x3d02f4fe	0.031971924
145	0x3d93b9a1	0.0721314
146	0x3dbd7863	0.092514776
147	0xbe2f9b3b	-0.1714906
148	0x3cba7a10	0.022763282
149	0x3d2b170d	0.04177003
150	0x3d30ccb1	0.04316396
151	0xbd5e804b	-0.05432157
152	0xbcf25692	-0.029582296
153	0xbd76ae02	-0.06022454
154	0x3cb44132	0.022003744
155	0xbc7ed3b1	-0.015553401
156	0x3cad73d3	0.021173393
157	0xbd3cc093	-0.04608209
158	0xbd548349	-0.051883016
159	0x3d6a12c2	0.057146795
160	0xbe1c64bd	-0.15272804
161	0xbd9b4612	-0.07581724
162	0xbd74555e	-0.059651725
163	0x3d01a03b	0.03164695
164	0x3d85bedc	0.06530544
165	0x3cee6a96	0.029103559
166	0xbc84403a	-0.016143907
167	0x3b9aef41	0.0047282283
168	0x3ce2136d	0.027597154
169	0x3d54f6cd	0.05199318
170	0xbd50c690	-0.050970614
171	0xbd31fba8	-0.04345289
172	0x3ee98457	0.4560878
173	0xbcb7797d	-0.022396797
174	0x3d38166d	0.044943262
175	0x3d513732	0.05107803
176	0x3dab0e78	0.08352369
177	0x3c3e9c2a	0.011633912
178	0xbcbf95a6	-0.023386788
179	0xbccbd9fb	-0.024884215
180	0xbbdf093e	-0.0068065217
181	0x3d903238	0.070408285
182	0xbd6f3e64	-0.05840911
183	0x3def8446	0.11695151
184	0x3eb8b72b	0.36077246
185	0xbd474357	-0.048648205
186	0x3c8f6fbd	0.017509336
187	0x3ce594bc	0.028025024
188	0x3d66b7fc	0.056327805
189	0xbc9319e3	-0.01795668
190	0xbd460266	-0.04834213
191	0xbd71cb04	-0.0590315
192	0xbca60053	-0.020263826
193	0x3c496a96	0.0122934785
194	0x3d6b94f6	0.057515107
195	0xbd804b01	-0.06264306
196	0x3d0d8f95	0.03456076
197	0xbcec2736	-0.028827291
198	0xbaf4fd13	-0.0018691145
199	0xbab8c1ff	-0.0014095901
200	0xbd691854	-0.056907967
201	0x3d014faa	0.031570114
202	0xbce33574	-0.02773545
203	0xbc85a488	-0.016313806
204	0x3b7fdaeb	0.0039040397
205	0xbd083612	-0.03325469
206	0x3d860ce8	0.065454304
207	0xbd33d46b	-0.04390375
208	0x3d4d653e	0.05014538
209	0xbd0d5c8a	-0.03451208
210	0xbd163731	-0.03667373
211	0x3d48f3ba	0.04906056
212	0x3d70e2ec	0.05881016
213	0x3b18fec0	0.0023345202
214	0x3d2766ff	0.04086971
215	0x3c912647	0.017718447
216	0x3ce95ca4	0.028486557
217	0x3bb5e2ff	0.0055507417
218	0xbd842b2b	-0.06453546
219	0x3af69acb	0.0018814442
220	0xbd26b6f7	-0.040701833
221	0x3b47ce61	0.0030488002
222	0xbc2229db	-0.009897674
223	0xbd591682	-0.05299998
224	0x3c45e127	0.012077606
225	0xbca0c8a5	-0.019626925
226	0xbc131b9f	-0.008978753
227	0xbd4fca33	-0.05072994
228	0x3d8850fc	0.066560715
229	0x3d0f4191	0.03497464
230	0x3cc44ac8	0.02396144
231	0x3d275bbd	0.040858973
232	0xbcae0afb	-0.02124547
233	0xbd4b67ac	-0.049659416
234	0x3d7efb1b	0.06225119
235	0xbd6660d4	-0.056244686
236	0x3ce24cd4	0.027624525
237	0xbd760f85	-0.060073394
238	0xbc257d8f	-0.010100736
239	0x3c881f25	0.016616413
240	0xbd3c3c18	-0.045955747
241	0x3cc7ed01	0.024405004
242	0x3d335fb3	0.043792438
243	0x3d2204c3	0.039555322
244	0x3d200900	0.039071083
245	0xbcd01ce0	-0.025404394
246	0xbc9833f5	-0.018579463
247	0x3c8c9108	0.017159
248	0x3c2c1b11	0.0105045
249	0x3d449587	0.047994163
250	0xbc78eda3	-0.015193376
251	0xbcb787b1	-0.02240357
252	0x3d71e1fb	0.059053402
253	0xbd82efe5	-0.063934125
254	0xbc52ae28	-0.012858905
255	0x3d873267	0.0660141

fc2.bias f4 [128]
0	0x3d44be9d	0.048033345
1	0x3db6ef25	0.08932332
2	0x3c12f6ad	0.008969945
3	0x3cf00994	0.029301442
4	0x3d37e217	0.04489335
5	0xbdbe9715	-0.0930616
6	0x3d3a2240	0.04544282
7	0xbd139234	-0.036028102
8	0x3dd59d08	0.10430342
9	0xbcb3e8ef	-0.021961657
10	0x3d0578e1	0.032585982
11	0xbc91ac51	-0.017782362
12	0x3be36cb7	0.00694045
13	0x3df083da	0.11743899
14	0x3dfa26b8	0.12214416
15	0x3cf8e58a	0.03038289
16	0xbafba18d	-0.0019197926
17	0x3c399066	0.011325931
18	0x3db4bbc3	0.08824875
19	0x3cc64506	0.024202835
20	0x3cdc553f	0.026896117
21	0x3d14c315	0.036318857
22	0x3c9a4e1d	0.018836075
23	0x3d1ead5d	0.03873955
24	0xbc02e5e9	-0.007989385
25	0xbcd643f3	-0.026155448
26	0xbc5dd5c4	-0.013539735
27	0x3d946589	0.07245929
28	0x3d1e093a	0.038583018
29	0x3d7520ed	0.059845854
30	0xbc194117	-0.0093538975
31	0xbd881146	-0.0664392
32	0x3cdf9382	0.027292017
33	0x3cf51447	0.029916896
34	0xbd3da6d6	-0.046301685
35	0x3d3d4c2a	0.046215214
36	0x3e1c017b	0.1523494
37	0xbb9f5cb2	-0.004863345
38	0x3d56a04c	0.052398965
39	0x3b7cc6fd	0.0038570755
40	0x3d04de73	0.032438707
41	0x3cef7834	0.029232122
42	0x3d06ab79	0.032878373
43	0x3c81571c	0.015788607
44	0x3cce5dcc	0.02519121
45	0xbbfaae6b	-0.007650187
46	0xbb95758c	-0.004561132
47	0x3d794bfd	0.060863484
48	0x3c3420ea	0.010994175
49	0x3e0f3ba7	0.139876
50	0x3d3fd21d	0.04683124
51	0x3cec727c	0.028863184
52	0x3db2ab74	0.08724108
53	0xbd054a8d	-0.0325418
54	0x3c852e8b	0.016257545
55	0x3d868e51	0.065701135
56	0xbd216684	-0.039404407
57	0x3cb9f612	0.022700343
58	0xbccab0be	-0.02474248
59	0xb8480800	-4.7691166e-05
60	0xbbeffd33	-0.007323885
61	0x3d81cd4c	0.063379854
62	0xbd419188	-0.04725793
63	0x3dc38e68	0.09548646
64	0x3c2cbfe7	0.0105438
65	0x3c6f50c3	0.014606657
66	0xbd20cc8a	-0.039257564
67	0x3db811c9	0.08987767
68	0xbd0978f9	-0.033562634
69	0x3d7efba5	0.062251706
70	0xb98eb6bd	-0.000272205
71	0xbb412f55	-0.0029477675
72	0xbc2c904f	-0.010532453
73	0xbce451b8	-0.027870998
74	0x3cbd35fd	0.023097033
75	0xbcc6eab0	-0.02428183
76	0x3dc82bb7	0.09773963
77	0xbd6bacb4	-0.05753775
78	0x3d98b729	0.0745681
79	0x3cf17888	0.02947642
80	0x3c238bfb	0.009982104
81	0xbcbf7360	-0.023370445
82	0x3ddd74a5	0.10813264
83	0x3d7cb260	0.06169355
84	0x3d0789ea	0.03309051
85	0xbd5703cc	-0.052493855
86	0x3c710ebe	0.0147129875
87	0x3c2cc3da	0.0105447415
88	0xbd065b35	-0.032801826
89	0xbc3b7e30	-0.01144366
90	0x3dc1dff7	0.09466546
91	0x3d939ff4	0.07208243
92	0xbab7251b	-0.001397285
93	0x3c2806bf	0.010255515
94	0x3c9dcbe8	0.01926227
95	0x3da90417	0.08252733
96	0x3d28cb13	0.04120929
97	0xbd1727b1	-0.036903087
98	0x3d5683e2	0.052371867
99	0xbd71cb1c	-0.05903159
100	0x3dfdf89e	0.124009356
101	0x3d5b37f2	0.05352015
102	0x3d63ec9a	0.055645563
103	0x3c761385	0.015019302
104	0xbd251ed7	-0.040312614
105	0x3d6e80fe	0.058228485
106	0xbc86b276	-0.016442519
107	0xbc1dbb82	-0.009627225
108	0x3d83a38d	0.06427679
109	0x3d4b08a5	0.04956879
110	0x3c71bb1c	0.014754083
111	0x3ce74c2c	0.028234564
112	0x3d5792b4	0.05263014
113	0xbc804b5e	-0.015660938
114	0x3ca80a34	0.020512678
115	0x3d744de4	0.059644595
116	0x3dd57a73	0.10423746
117	0x3d910ff1	0.07083119
118	0x3d82144d	0.06351528
119	0x3cb88919	0.02252631
120	0x3d0a897b	0.033822518
121	0x3d94486f	0.07240378
122	0xbd8b88e3	-0.068132184
123	0x3ce96494	0.028490342
124	0x3d2d077a	0.04224346
125	0x3cb2262d	0.02174672
126	0x3c5b774b	0.013395141
127	0xbd37dbcf	-0.04488736

fc3.weight f4 [256, 128]
0	0xbc4a9f8f	-0.012367143
1	0xbe224ce7	-0.15849648
2	0x3ced49ea	0.028965909
3	0x3d2a1d54	0.041531876
4	0x3d8207b6	0.06349127
5	0xba1dc562	-0.0006018487
6	0x3d1a0c28	0.03760925
7	0x3d6b4360	0.0574373
8	0xbd113a45	-0.03545596
9	0xbcd4fa14	-0.025998153
10	0x3c75b7f2	0.014997469
11	0x3cb07f23	0.021544999
12	0xbd3cbc77	-0.04607817
13	0x3cdffb6d	0.027341569
14	0xbd59ddb2	-0.05318994
15	0xbd3bc999	-0.045846555
16	0x3d40d1fc	0.047075257
17	0x3ba32a8a	0.0049794363
18	0xbd39ccf5	-0.045361478
19	0x3bdff98e	0.006835169
20	0xbd58a3fa	-0.052890755
21	0x3b1b37da	0.0023684413
22	0xbdb3a12c	-0.087709755
23	0xbcce0616	-0.025149386
24	0xbd77a7f3	-0.060462903
25	0xbe5d20f9	-0.2159461
26	0x3caba1bd	0.020951146
27	0x3d8104a5	0.06299714
28	0xbcdfae66	-0.02730484
29	0x3e78e810	0.24307275
30	0xbd707656	-0.058706604
31	0xbd251b6f	-0.040309366
32	0x3e36c870	0.17849898
33	0xbcb50ed6	-0.0221018
34	0x3c5b7d16	0.013396522
35	0x3cac72a1	0.021050753
36	0x3d6cf0f6	0.057846986
37	0x3d4f6a80	0.050638676
38	0xbe1bb14d	-0.15204354
39	0x3d1a47f7	0.037666287
40	0x3d482cde	0.048870914
41	0x3d2cfd9d	0.042234052
42	0xbcd30caf	-0.025762884
43	0xbd047ed3	-0.03234751
44	0x3d0e1c3a	0.034694888
45	0xbe16ea43	-0.14737801
46	0x3d1d1630	0.038351238
47	0xbd82eb32	-0.06392516
48	0xbd76ed85	-0.06028511
49	0xbcc382b8	-0.023866042
50	0xbdfe3f5c	-0.124144286
51	0x3cf4e744	0.029895432
52	0xbd6a174a	-0.057151116
53	0xbbe5e4ea	-0.007015814
54	0x3ce423e4	0.027849145
55	0x3c595ac0	0.013266265
56	0xbd4130e8	-0.04716578
57	0xba88c04d	-0.0010433287
58	0xbec66b59	-0.38753775
59	0xbdbdf063	-0.09274366
60	0x3eab3638	0.33439803
61	0xbc859e8b	-0.01631095
62	0xbc88c08a	-0.016693372
63	0xbd6a9536	-0.057271205
64	0x3d24ffd9	0.040283058
65	0x3c910451	0.017702254
66	0x3edc06d5	0.42973962
67	0xbdaf8c82	-0.085717216
68	0x3d0c3c9d	0.034237493
69	0xbdf6a0a3	-0.12042358
70	0xbe13885b	-0.14407484
71	0x3bc400a8	0.0059815235
72	0xbafda1ea	-0.0019350622
73	0x3d14cd73	0.036328744
74	0x3c945af8	0.018109784
75	0xbd26365d	-0.04057919
76	0xbc82b813	-0.015956914
77	0xbceb01ec	-0.02868744
78	0x3dc72143	0.09723141
79	0xbd7b7fe9	-0.06140128
80	0x3d41c1e0	0.047304034
81	0x3c48d119	0.012256884
82	0x3c9dba95	0.019254008
83	0xbb69addc	-0.0035656607
84	0x3ce3a2c5	0.027787575
85	0xbcf34da1	-0.029700102
86	0xbe235c04	-0.1595307
87	0xbc876450	-0.016527325
88	0x3c604b54	0.013689835
89	0xbced2027	-0.028945995
90	0x3d1cfe0e	0.038328223
91	0x3e86a4b8	0.26297545
92	0xbe2e7b01	-0.1703911
93	0xbc682691	-0.014169351
94	0x3d2137cf	0.039359864
95	0xbd1088eb	-0.035286825
96	0xbc9d0925	-0.0191694
97	0xbc91955e	-0.01777142
98	0x3c4a1a3f	0.012335359
99	0x3b9682bc	0.0045932215
100	0xbe39c180	-0.1814022
101	0xbcdc0164	-0.026856132
102	0xbdae2509	-0.08503158
103	0xbe183080	-0.14862251
104	0xbb9bb5f2	-0.004751914
105	0xbab68059	-0.0013923749
106	0x3d0e0975	0.034676988
107	0xbd98d7b9	-0.07463021
108	0xbd816d63	-0.06319692
109	0xbdd4d927	-0.10392981
110	0xbd876f94	-0.06613079
111	0xbb994d17	-0.0046783793
112	0x3d1f6c1f	0.03892147
113	0x3d855859	0.065109916
114	0x3cd1df75	0.025619248
115	0xbbcbb053	-0.006216088
116	0xbd4c192a	-0.049828686
117	0xbce67a55	-0.028134504
118	0xbe106867	-0.14102326
119	0xbbcea6c0	-0.0063064992
120	0x3d0b2717	0.033972826
121	0x3d399b41	0.045314077
122	0x3ccda74d	0.02510419
123	0xbda7404c	-0.081665605
124	0xbf18825a	-0.595739
125	0x3cefc124	0.029266901
126	0x3cec8553	0.028872168
127	0xbca10e8b	-0.019660255
128	0xb9d6691d	-0.00040895576
129	0x3e957b62	0.29195696
130	0xbbeda109	-0.007251863
131	0x3d0614c1	0.032734636
132	0x3e13f548	0.14449036
133	0x3c218fe4	0.009860966
134	0x3e152344	0.14564234
135	0x3bebbcf6	0.0071941568
136	0x3d8882a3	0.06665542
137	0xbbea7892	-0.0071554864
138	0x3b981cf3	0.004642123
139	0xbbdfb56c	-0.006827047
140	0x3d7f9fdf	0.062408324
141	0x3d4bbd98	0.049741358
142	0x3d2a408f	0.041565474
143	0x3cde9c3a	0.027174104
144	0xbcce2635	-0.025164703
145	0x3c0f20a3	0.008735809
146	0x3e03764a	0.12838092
147	0x3d035ef8	0.03207299
148	0x3e806562	0.2507735
149	0x3ce676f6	0.028132897
150	0x3e0cefb4	0.13763314
151	0x3c5aac98	0.013346814
152	0x3d3c40c1	0.04596019
153	0x3ece662b	0.40312323
154	0x3d18bf3d	0.037291754
155	0x3cd9c4c6	0.026583087
156	0x3cc72449	0.024309294
157	0x3e0c74c9	0.13716425
158	0x3dfb6106	0.12274365
159	0x3d12ddf6	0.03585621
160	0x3de12b10	0.10994542
161	0xbc7153a0	-0.01472941
162	0xbd176835	-0.036964614
163	0xbce258b2	-0.027630184
164	0x3d0620aa	0.032745995
165	0x3db7b133	0.08969345
166	0x3e047b64	0.12937695
167	0x3e157967	0.14597093
168	0x3ccdd153	0.025124228
169	0x39cac578	0.00038675568
170	0xbcc687d0	-0.024234682
171	0x3d089468	0.033344656
172	0x3c85dbaa	0.016340096
173	0x3e3d3520	0.18477297
174	0xbcedd751	-0.029033335
175	0x3d92759b	0.07151338
176	0x3da6d080	0.08145237
177	0x3c9addc7	0.01890458
178	0x3de86dcc	0.11349067
179	0xbc0f9763	-0.008764121
180	0x3c211250	0.009831026
181	0xbd19ab86	-0.037517093
182	0xbd1bb0a2	-0.038010247
183	0x3c2eb5a9	0.010663428
184	0x3d9b47f1	0.07582081
185	0x3dd36021	0.103210695
186	0x3e217bd6	0.15769896
187	0x3d6e11c3	0.058122408
188	0x3def9c0d	0.11699686
189	0xba9b420d	-0.0011845246
190	0x3ca1df1f	0.019759713
191	0x3cb3ef05	0.02196456
192	0xbd24d00a	-0.040237464
193	0x3b996b20	0.0046819597
194	0x3e4d8138	0.20068824
195	0x3d863704	0.06553462
196	0x3c5866ad	0.013208074
197	0x3d83b2a4	0.06430557
198	0xbd6bf05c	-0.05760227
199	0xbd3da625	-0.046301026
200	0x3bd84008	0.00659943
201	0xb9494039	-0.00019192779
202	0xbca4a6ee	-0.02009913
203	0xbcea033f	-0.028566001
204	0x3dd328ad	0.10310493
205	0xbc6ee55e	-0.014581053
206	0x3d890849	0.066910334
207	0x3c2af14c	0.010433506
208	0xbd06590a	-0.032799758
209	0x3d9114e5	0.070840634
210	0x3ccda34b	0.025102278
211	0xbcc86d31	-0.024466129
212	0x3d4c7c29	0.049923096
213	0xbd3fbbd5	-0.04680999
214	0x3e243964	0.16037518
215	0x3c196307	0.009361989
216	0x3beed3b2	0.0072884196
217	0x3e22810c	0.1586954
218	0x3d95eb17	0.073202305
219	0x3e52eff9	0.20599355
220	0xbe24981e	-0.16073653
221	0x3d22bc92	0.039730616
222	0x3b2ea101	0.0026646259
223	0xbcd8c5da	-0.02646153
224	0x3c62f3ec	0.013852101
225	0xbd6bb0f8	-0.057541817
226	0xbd3c1469	-0.045917902
227	0x3d0da73f	0.034583326
228	0x3d7669f3	0.060159635
229	0xbcaada2a	-0.020855982
230	0x3cb06eb6	0.021537166
231	0x3e58dff3	0.2117918
232	0x3d38c63d	0.04511093
233	0x3d2181d9	0.039430473
234	0xbc8deb5b	-0.01732414
235	0x3d97d02a	0.07412751
236	0x3d87a497	0.0662319
237	0x3b4734d7	0.0030396485
238	0x3d380826	0.044929646
239	0xbd3a428e	-0.045473628
240	0x3d218303	0.039431583
241	0xbcace6a3	-0.02110607
242	0xbbe2497c	-0.0069057327
243	0x3d1381c0	0.03601241
244	0x3d2e1be3	0.042507064
245	0x3d36b8a5	0.044609684
246	0x3e890f75	0.26769605
247	0x3c817146	0.015801083
248	0x3d0585ac	0.032598183
249	0x3ccae7dd	0.024768764
250	0xbccd7fca	-0.025085349
251	0xbd906036	-0.07049601
252	0x3e493952	0.19650772
253	0x3d0ba243	0.03409029
254	0x3d532819	0.051551912
255	0xbc948098	-0.018127725

fc3.bias f4 [256]
0	0x3d6b23a0	0.05740702
1	0x3c8ef4cf	0.017450718
2	0xbcd9d8be	-0.026592609
3	0xbb24a80e	-0.0025124582
4	0x3d5e26b5	0.054236133
5	0x3c8dbac7	0.017300976
6	0x3d3771a2	0.044786103
7	0x3d811ff5	0.063049234
8	0x3cfa29db	0.030537536
9	0x3d1e94c5	0.038716096
10	0x3d067f1e	0.032836072
11	0x3da5b2c0	0.080907345
12	0xbd7e0d8f	-0.06202465
13	0x3ce02223	0.027360028
14	0x3c01334f	0.007885768
15	0x3d72d41d	0.05928432
16	0x3dd04cef	0.10170924
17	0x3aa2438b	0.0012379749
18	0x3cd0acbb	0.02547299
19	0x3d75dca0	0.060024858
20	0x3d0ec86d	0.03485911
21	0x3d860826	0.06544523
22	0x3cdc6262	0.026902381
23	0xbc702b6e	-0.014658792
24	0x3dca3815	0.09873978
25	0x3de156e8	0.11002904
26	0xbcfbf6c4	-0.030757315
27	0x3ca4f5da	0.020136762
28	0xbca35b35	-0.019940952
29	0xbbc6b400	-0.006063938
30	0x3be54c26	0.006997603
31	0x3c578bbc	0.013155874
32	0x3c03b448	0.008038588
33	0x3c688dec	0.014193993
34	0x3e7ba7b2	0.2457569
35	0x3d759e12	0.0599652
36	0x3cc07471	0.023493024
37	0x3d7d3373	0.061816644
38	0x3e03fd59	0.12889613
39	0xbd41973c	-0.04726337
40	0x3de9a4f8	0.114084184
41	0x3d90894d	0.07057438
42	0x3d88c46c	0.066780895
43	0x3dee0ff3	0.11624136
44	0x3d002404	0.031284347
45	0xbd276acf	-0.040873345
46	0xbbb9f11b	-0.005674494
47	0x3d59ad2e	0.053143673
48	0xbcf077a3	-0.029353922
49	0x3c913aa8	0.017728165
50	0x3db27e6c	0.08715519
51	0xbd31921f	-0.043352243
52	0xbb942f46	-0.004522237
53	0xbbfd8672	-0.0077369744
54	0x3d7d6514	0.061863974
55	0x3c3e48a8	0.011614002
56	0x3cfd4b9e	0.030919846
57	0xbd0483b7	-0.032352176
58	0x3ce96181	0.028488876
59	0x3d1a13d4	0.037616566
60	0x3cbf8a56	0.023381393
61	0xbc362fb3	-0.011119771
62	0x3c38b9fd	0.011274812
63	0x3d6a103d	0.057144392
64	0x3d873bf2	0.066032305
65	0x3e17a610	0.14809442
66	0x3d4de73c	0.05026935
67	0x3e26d11d	0.16290708
68	0x3e44975e	0.19198367
69	0x3bce473a	0.006295112
70	0x3d5394b7	0.051655497
71	0xbca081d7	-0.019593162
72	0x3d5fb3c6	0.054614805
73	0x3e206112	0.1566203
74	0x3cf5e1e3	0.030014938
75	0xbcd3d2ef	-0.025857417
76	0x3debf900	0.11522102
77	0x3d83fa3a	0.06444211
78	0xbd5596ba	-0.052145697
79	0xbaa1f5b4	-0.001235655
80	0x3d9969fb	0.07490917
81	0xbbd22951	-0.0064136167
82	0x3d2520cf	0.04031449
83	0xba163d4e	-0.0005731181
84	0x3cd56dca	0.026053328
85	0xba3d9c5f	-0.0007233079
86	0x3c960ae9	0.01831575
87	0x3d37d483	0.0448804
88	0x3e470b71	0.19437958
89	0xbcf40bde	-0.029790815
90	0x3cba1358	0.022714302
91	0x3da56c53	0.08077302
92	0x3d71a5f1	0.058996145
93	0xbc885e7a	-0.016646612
94	0xbd19522b	-0.037431877
95	0x3ce58d19	0.028021382
96	0x3e10b7a9	0.14132561
97	0x3cf67fa0	0.030090153
98	0x3d2a7532	0.041615672
99	0x3d8feac7	0.07027202
100	0x3d3adcc1	0.045620684
101	0x3da368bf	0.07978963
102	0xbc96c4cc	-0.018404387
103	0x3c8061c9	0.015671628
104	0x3cf4be38	0.02987586
105	0x3d56c9c1	0.0524385
106	0x3d4efbd5	0.050533134
107	0x3e0d5466	0.13801727
108	0x3c0e2180	0.008674979
109	0x3d01470a	0.03156189
110	0x3d77cc2a	0.06049744
111	0x3dca1d85	0.09868912
112	0x3d4d8580	0.050176144
113	0xbd3ad962	-0.04561747
114	0x3d17279d	0.036903013
115	0x3da8a662	0.0823486
116	0x3da3b457	0.079933815
117	0x3dce9c7e	0.10088442
118	0xbc021032	-0.007938432
119	0xbc7ce122	-0.015434535
120	0xbcf6e04b	-0.030136248
121	0x3c0f2f01	0.008739234
122	0xbd303f2c	-0.043028995
123	0x3cf85ddc	0.030318193
124	0x3da37b07	0.0798245
125	0x3d989669	0.074505635
126	0x3d86092f	0.065447204
127	0x3ce5855b	0.02801769
128	0xbd1f8d76	-0.038953267
129	0x3d0a1d2f	0.033719238
130	0x3c9328dd	0.017963821
131	0x3e26cc13	0.16288786
132	0x3d216bdc	0.039409503
133	0x3dcce051	0.100037225
134	0x3cb96879	0.022632824
135	0xbd0b897f	-0.034066673
136	0x3c975683	0.01847387
137	0x3d2005ef	0.03906816
138	0x3b9b2803	0.0047349944
139	0xbcc8bdc9	-0.02450456
140	0x3d2e6bf8	0.042583436
141	0x3b007446	0.0019600554
142	0xbd238905	-0.039925594
143	0x3cdea2c5	0.027177224
144	0xbd4bec3e	-0.049785845
145	0x3db32d8c	0.08748922
146	0x3d1701e3	0.036867034
147	0x3c9281a1	0.017884078
148	0x3d35c32c	0.044375584
149	0xbd143e49	-0.036192212
150	0x3bd37fb9	0.0064544347
151	0xbc581abc	-0.013189968
152	0x3c945165	0.018105218
153	0xbd8281a8	-0.06372386
154	0x3c6da0b6	0.0145036485
155	0xbd330d5f	-0.043713924
156	0x3bca08a2	0.00616558
157	0x3ddfc6b3	0.10926571
158	0x3d22deca	0.03976325
159	0x3c04ec8a	0.008113036
160	0x3c14e801	0.009088517
161	0x3bb95d0b	0.0056568435
162	0x3d1e545b	0.038654666
163	0x3ccf2039	0.02528392
164	0xbd3c21ec	-0.045930788
165	0x3d0a83db	0.033817153
166	0x3dcaae7c	0.098965615
167	0x3d0e0796	0.034675203
168	0x3e0ea917	0.1393169
169	0x3d08b4a1	0.033375386
170	0x3cb1a9e8	0.021687463
171	0x3ba50069	0.0050354493
172	0x3d9ad333	0.07559814
173	0x3da55310	0.080724835
174	0x3cf98cca	0.030462641
175	0xbda84603	-0.08216479
176	0x3ce9331d	0.028466756
177	0xbd6723e6	-0.05643072
178	0xbdc0125a	-0.093785
179	0x3dba9d4d	0.09112034
180	0x3d286f73	0.04112191
181	0x3defcd17	0.1170904
182	0xbde104d2	-0.109872475
183	0x3c5d0382	0.013489606
184	0xbd6651e8	-0.056230456
185	0x3c84439d	0.016145522
186	0x3d7a88b1	0.061165515
187	0x3c915b5e	0.017743763
188	0x3d066e51	0.03282005
189	0x3c52fb4d	0.012877298
190	0x3d1e4826	0.038643025
191	0x3caeefa8	0.021354511
192	0x3ce15b20	0.027509272
193	0x3d1512d7	0.03639492
194	0x3d05eb64	0.03269519
195	0xbd6c335d	-0.05766617
196	0xbc136672	-0.008996593
197	0xbcd7f95a	-0.026364017
198	0xbc9bd086	-0.01902033
199	0xbbcc6f13	-0.006238827
200	0x3c9b845c	0.018984012
201	0x3c12a8fb	0.008951421
202	0xbd31adc8	-0.04337862
203	0x3db7d4df	0.08976149
204	0x3c03fbec	0.008055668
205	0xbce04f12	-0.027381454
206	0x3d004853	0.031318974
207	0xbd24f547	-0.040272977
208	0xbc4aa1f2	-0.012367712
209	0xbceb81c0	-0.028748393
210	0x3d95d793	0.07316508
211	0x3d4083bb	0.047000628
212	0x3d62d74a	0.055381097
213	0x3e44d222	0.19220784
214	0x3c1ca258	0.00956019
215	0x3d69baa9	0.05706278
216	0x3e04c75d	0.12966676
217	0xbc968fb4	-0.01837907
218	0xb8fc7979	-0.000120389224
219	0x3d9d15d3	0.07670178
220	0xbdd01fe0	-0.1016233
221	0x3d14eb64	0.0363573
222	0x3cabf33c	0.020990007
223	0xbc96250d	-0.018328214
224	0x3daa967a	0.083294824
225	0x3d06b901	0.032891277
226	0xbc75be99	-0.014999055
227	0x3bb73044	0.0055904705
228	0x3dc64b52	0.09682335
229	0x3b9d6147	0.004802856
230	0x3d8e35cf	0.06943857
231	0xbd0791b7	-0.03309795
232	0x3d9678df	0.07347273
233	0x3d237b7b	0.039912682
234	0xbbe9c7d9	-0.0071344194
235	0xbad5d0cd	-0.0016312838
236	0xbcf0ce51	-0.029395254
237	0xbd14bd0a	-0.036313094
238	0x3c4cafbf	0.012493073
239	0xbd701342	-0.058612116
240	0x3d2cfd41	0.04223371
241	0xbd0b0c1b	-0.03394709
242	0x3dd46c2c	0.10372195
243	0x3d0cefb0	0.03440827
244	0x3d5bcff4	0.053665116
245	0x3c36121c	0.011112716
246	0xbb6eda14	-0.0036445903
247	0x3de3f98c	0.11131582
248	0xbd2e88bd	-0.042610873
249	0x3d6744bb	0.05646203
250	0x3d0c0e99	0.03419361
251	0x3cc898a6	0.024486851
252	0x3ca108e6	0.019657563
253	0xbd10fa8d	-0.035395194
254	0x3d1e1195	0.038590986
255	0x3b2898d8	0.0025725868

fc4.weight f4 [12, 256]
0	0xbdf40ca1	-0.11916471
1	0xbd4ff5b7	-0.05077144
2	0xbd32e87b	-0.043678742
3	0x3b3754ef	0.0027974208
4	0xbd0706b9	-0.032965396
5	0x3c922f55	0.017844835
6	0x3d877bb2	0.0661539
7	0xbd9cd069	-0.076569386
8	0x3c6b2144	0.014351193
9	0xbd0efd44	-0.0349095
10	0xbd6a6fd2	-0.057235546
11	0xbd646b75	-0.05576654
12	0xbd6ea525	-0.058262963
13	0xbd214344	-0.03937079
14	0xbd6977f2	-0.056999154
15	0xbd8a4275	-0.06750957
16	0xbd19fa90	-0.03759247
17	0xbc1e6ba3	-0.009669217
18	0xbd74b1b8	-0.0597398
19	0xbd4e46d3	-0.050360512
20	0x3cbf9ae6	0.023389291
21	0xbd93f54c	-0.07224521
22	0xbcc6d357	-0.024270697
23	0xbc6e080c	-0.014528286
24	0xbda0a02b	-0.078430496
25	0xbd51cb45	-0.051219244
26	0xbd95b882	-0.07310583
27	0xbd1d6f1e	-0.038436048
28	0x3d010112	0.03149516
29	0x3d01e132	0.031708904
30	0x3b1bc231	0.002376687
31	0xbde1e0c3	-0.11029198
32	0xbd812d93	-0.06307521
33	0xbd0888e2	-0.033333667
34	0xbea75b71	-0.32686952
35	0x3d496d66	0.049176596
36	0x3daa59f4	0.083179384
37	0xbd13160c	-0.035909697
38	0xbd1f885f	-0.038948413
39	0x3c954491	0.018221172
40	0xbd6249df	-0.05524623
41	0xbd9bc29c	-0.07605478
42	0xbd923b29	-0.0714019
43	0xbda45ba8	-0.080252945
44	0x3a83f7c3	0.0010068346
45	0xbc6b2002	-0.014350893
46	0xbc182adb	-0.009287561
47	0x3d089311	0.03334338
48	0x3d977d3e	0.07396935
49	0xbc9f850e	-0.019472625
50	0xbd420485	-0.04736759
51	0x3c096261	0.008385272
52	0x3def2401	0.11676789
53	0xbd91f6e6	-0.0712717
54	0xbd8f59e1	-0.06999565
55	0x3c215dbb	0.009849007
56	0x3d6702e8	0.056399256
57	0xbc4ae6b4	-0.0123841055
58	0xbd7d9fce	-0.06191998
59	0xbd3ab3a1	-0.045581464
60	0xbcd55339	-0.02604066
61	0x3c337bc2	0.010954799
62	0x3c268a73	0.010164845
63	0xbe5f1d4b	-0.21788518
64	0xbd3e1c8d	-0.046413947
65	0xbe734bd7	-0.237594
66	0xbd88f674	-0.06687632
67	0xbd16ba1d	-0.036798585
68	0xbf00e1c0	-0.5034447
69	0xbdae696d	-0.08516202
70	0x3e3b66ab	0.18300883
71	0xbc3f659e	-0.011681942
72	0xbd3b8757	-0.045783367
73	0xbda64c77	-0.08120053
74	0x3cb8c3b9	0.022554265
75	0x3b97f762	0.0046376446
76	0xbd9e13a2	-0.077185884
77	0xbd977697	-0.07395666
78	0xbd5b3825	-0.05352034
79	0xbd46c6a6	-0.04852929
80	0xbd1b7d25	-0.037961144
81	0xbcfa86e3	-0.030581897
82	0xbd869056	-0.06570499
83	0xbc5856f8	-0.013204329
84	0x3b06e8ad	0.0020585463
85	0xbdff7b58	-0.12474698
86	0xbd2ec778	-0.042670697
87	0xbd65e3a4	-0.0561253
88	0xbd95c0cc	-0.07312164
89	0x3c9b47af	0.01895508
90	0xbd2b2724	-0.041785374
91	0xbcb814e8	-0.022470906
92	0xbd4528de	-0.048134677
93	0xbd0620cc	-0.03274612
94	0xbc019307	-0.007908589
95	0xbd7a6732	-0.06113357
96	0xbe064622	-0.13112691
97	0x3d0da809	0.03458408
98	0xbd171553	-0.03688557
99	0xbd47b46b	-0.048756044
100	0x3cfba09f	0.030716239
101	0x3da8fe6c	0.08251652
102	0x3dc150c5	0.09439234
103	0xbcbcb60c	-0.023036025
104	0x3dae56df	0.08512663
105	0xbcf0fe96	-0.029418271
106	0xbda34959	-0.07972974
107	0x3df22b8d	0.11824713
108	0xbcca1337	-0.024667365
109	0xbd0e7b96	-0.03478583
110	0x3cf5f8e6	0.03002591
111	0x3c061ef3	0.00818609
112	0x3de2a6d7	0.110669784
113	0xbd1b20d8	-0.03787312
114	0xbbd3dfcd	-0.006465888
115	0x3e35e961	0.17764808
116	0xbdb162d3	-0.08661427
117	0xbd868b17	-0.06569498
118	0xbca81752	-0.020518932
119	0xbcd33bc5	-0.025785336
120	0x3e0c5e18	0.13707769
121	0xbd5cb007	-0.05387881
122	0xbc9afcb7	-0.018919332
123	0xbcf5d7b3	-0.03001008
124	0xbcbf553c	-0.023356073
125	0xbcd7e034	-0.026352026
126	0xbd5a5935	-0.05330773
127	0xbced151a	-0.028940726
128	0xbd09e908	-0.0336695
129	0x3c0b62f1	0.008507476
130	0xbdb29a4a	-0.087208346
131	0xbd7fe6fe	-0.06247615
132	0xbd93515c	-0.071932524
133	0xbd657c65	-0.056026835
134	0x3bad0069	0.00527959
135	0xbc8a39e5	-0.01687331
136	0xbda53a09	-0.0806771
137	0xbbdf14c6	-0.0068078963
138	0x3e405774	0.1878336
139	0xbd801630	-0.06254232
140	0xbdb8c3d5	-0.09021727
141	0xbd74e60a	-0.059789695
142	0xbd422425	-0.04739775
143	0xbdd225c1	-0.10261107
144	0x3d68b42e	0.056812458
145	0xbe83fa82	-0.2577706
146	0xbc7d54e3	-0.015462133
147	0xbe12ad2d	-0.14323874
148	0x3dc76c2d	0.0973743
149	0xbd6d7282	-0.05797053
150	0xbe72630b	-0.23670594
151	0x3c647742	0.013944449
152	0xbc2b1ce3	-0.010443899
153	0x3c2bd758	0.010488354
154	0xbcc6c2f1	-0.024262877
155	0x3c384229	0.011246243
156	0xbc386881	-0.011255384
157	0xbcb3f7b1	-0.021968694
158	0xbcfdee1c	-0.030997328
159	0x3956f5f4	0.00020500255
160	0xbdb46de3	-0.08810022
161	0xbcc8d474	-0.024515368
162	0x3cbce69c	0.023059182
163	0x3be7189e	0.007052495
164	0xbd01f851	-0.031730954
165	0xbd78a3b4	-0.060702994
166	0xbe2bbfeb	-0.1677243
167	0xbd4c9e83	-0.049955856
168	0xbc49b451	-0.012311057
169	0x3d354e91	0.04426438
170	0x3d87035b	0.06592437
171	0x3cbd3fb5	0.023101667
172	0xbdeed7c1	-0.116622455
173	0xbd1d45d8	-0.038396686
174	0xbdaabaf0	-0.08336437
175	0x3d24397a	0.040093876
176	0xbcfb0431	-0.030641647
177	0x3db939fd	0.090442635
178	0x3e057302	0.13032153
179	0xbd772f06	-0.06034758
180	0xbd19369b	-0.03740559
181	0xbd638a56	-0.05555185
182	0xbd01f9cd	-0.03173237
183	0xbd50e1cb	-0.050996583
184	0xbd0c6930	-0.034280002
185	0x3dcb2544	0.09919217
186	0xbd833134	-0.06405869
187	0xbc32568f	-0.010884895
188	0xbd8ab9a7	-0.067736916
189	0x3c51a351	0.012795285
190	0xbdd8c893	-0.105851315
191	0xbb9dfda3	-0.0048214956
192	0xbb8fdc97	-0.00439031
193	0xbd1712fa	-0.03688333
194	0x3c998b18	0.018743083
195	0x3dde27cf	0.10847437
196	0xbce40c92	-0.027838025
197	0x3b21fb18	0.0024716314
198	0xbd6bd7b6	-0.057578765
199	0xbcfe89fd	-0.031071657
200	0xbd7bde5c	-0.061491355
201	0xbce03f88	-0.027374044
202	0xbb891483	-0.0041833534
203	0xbe9b2705	-0.30303207
204	0x39e803fe	0.00044253463
205	0x3cc9d84d	0.024639273
206	0xbc64fbcc	-0.013976049
207	0x3cd7aef2	0.026328538
208	0xbe49a84b	-0.19693105
209	0xbc87d1c5	-0.016579518
210	0xbdbd3c59	-0.09240026
211	0xbd910194	-0.07080379
212	0xbd8401ac	-0.064456314
213	0xbd2bd8ee	-0.041954927
214	0xbdc9daf1	-0.09856213
215	0x3d62fc86	0.055416606
216	0xbda1c94c	-0.078997225
217	0xbc5e8b0c	-0.013582956
218	0xbd9bf2ba	-0.07614656
219	0xbd1eeff0	-0.03880304
220	0x3d53b6ac	0.05168788
221	0xbcdc6f1e	-0.026908454
222	0xbe656fa9	-0.22405876
223	0x3cd0de7f	0.02549672
224	0xbd563fd6	-0.052306972
225	0xbe4fbf4d	-0.20287819
226	0xbe204cf5	-0.15654357
227	0xbda00bde	-0.078147635
228	0xbd95eaed	-0.07320199
229	0x3c830400	0.015993118
230	0xbdbde8a0	-0.09272885
231	0xbdc0e23c	-0.09418151
232	0xbc56b42b	-0.013104479
233	0xbd905ca7	-0.07048922
234	0x3d8f6c72	0.07003106
235	0xbc63b019	-0.013896965
236	0xbd578cdf	-0.05262458
237	0x3ce5bbe8	0.028043702
238	0x3ca4b071	0.020103665
239	0xbc3afa92	-0.01141228
240	0xbce23908	-0.027615085
241	0x3c9a5c7f	0.018842934
242	0xbd585a97	-0.05282077
243	0x3db36ef6	0.087613985
244	0xbd99e381	-0.07514096
245	0xbcf3ba8d	-0.02975204
246	0x3c283e18	0.010268711
247	0xbe6411ba	-0.22272387
248	0xbcc60936	-0.024174314
249	0xbd8e3719	-0.06944103
250	0xbce073c1	-0.027398946
251	0xbd806ad1	-0.062703736
252	0x3ca1874e	0.019717839
253	0x3c3df4fc	0.011594053
254	0x3b29db41	0.002591804
255	0xbd4dcad7	-0.05024227

fc4.bias f4 [12]
0	0xbd632675	-0.055456597
1	0xbcbb3e6f	-0.02285692
2	0xba93b243	-0.0011268336
3	0x3c3a5236	0.01137214
4	0xbd0c7f55	-0.03430112
5	0xbc5f580d	-0.013631833
6	0xbd340470	-0.043949544
7	0xbc663ad8	-0.014052115
8	0xbda50003	-0.08056643
9	0xbc8fd0f5	-0.017555693
10	0x3bc26204	0.0059320945
11	0x3d2b91fa	0.04188726
