model.pt_episode_500.pt (torch, 182492 bytes, 8 tensors)

fc1.weight f4 [64, 5]
000000 54 6f 71 3e c4 50 ea 3e 05 a6 32 be f7 82 d8 be
       0.23577625 0.45764744 -0.17446144 -0.42287418
000010 6d f9 96 3e a2 3e cb 3e 1d 28 58 be 4f 4b 2f 3e
       0.29487172 0.39696223 -0.21109052 0.17118572
000020 ab 29 17 be e2 cf 61 3e f9 b8 ad be 77 e2 59 bd
       -0.14761989 0.22051957 -0.33930185 -0.05319449
000030 b8 0b 0a be 14 03 8f 3e 2a 8e 94 3e 86 40 f9 3e
       -0.13481033 0.27932036 0.29014713 0.4868204
000040 32 d0 fb 3c 0a da c6 3e 19 98 31 3b a8 ee bd be
       0.030738924 0.38838226 0.0027098714 -0.37096143
000050 c3 7e 44 be 2e 14 9d be e6 2a a1 3e 3a ef 74 be
       -0.19188981 -0.30679458 0.3147804 -0.23919383
000060 f7 06 97 3e ee 17 b9 bd ed 1a a3 3e 64 9d 60 be
       0.294975 -0.09037767 0.3185648 -0.2193504
000070 1f 12 b3 be 0d 8c ab be 69 18 69 3d 70 a3 17 be
       -0.34974763 -0.33505288 0.056908045 -0.1480844
000080 c3 cf 62 be 32 f0 96 3e 70 b2 b4 3e d6 83 81 be
       -0.22149567 0.2948013 0.35292387 -0.25295895
000090 42 36 dd 3e 65 c6 90 3c 05 f7 3c 3e 03 9a 3e 3d
       0.43205458 0.017672727 0.18453605 0.046533596
0000a0 d1 9b 06 bd 4c 9c 28 be 24 1f 1c bd 93 a6 32 3d
       -0.03286344 -0.16465873 -0.038115636 0.04361589
0000b0 3c 1b 94 be 27 55 88 3e d9 c6 bf 3e c4 bc 58 3e
       -0.28927028 0.26627466 0.37456396 0.21165758
0000c0 93 c2 33 3d 0e e2 41 be 01 21 d9 3e 63 18 eb be
       0.043886732 -0.1893389 0.42407992 -0.45917043
0000d0 92 48 bf 3e bd ec e1 3e 3e d5 82 3e bf d1 00 3f
       0.37360054 0.4412593 0.25553316 0.5032005
0000e0 8b 00 a8 bd f9 0b 96 3c 59 66 d4 3d 9b c9 3e 3d
       -0.082032286 0.018316256 0.10371084 0.046578985
0000f0 57 00 0c 3f dc 20 48 3c 70 95 b8 be 31 ef 1e bd
       0.5468802 0.012214866 -0.36051512 -0.03880233
000100 94 45 5a 3e 33 21 4f be 81 e0 b9 be b9 3c 13 3d
       0.21315604 -0.20227508 -0.36304095 0.03594658
000110 51 4d 16 be b7 0a b3 3e 8e 6b 6b 3e 81 c4 b0 3e
       -0.14677931 0.34969112 0.22990248 0.3452492
000120 d6 0c 16 3e 3a 9a 3f be 3a 0f bc be 39 31 43 3e
       0.14653334 -0.18711177 -0.36730367 0.19061746
000130 84 3b 33 3e 11 fe b7 3d 77 bf c8 3c e1 fc 00 be
       0.17503172 0.08984006 0.02450536 -0.12596466
000140 fe 78 ba 3b ea 90 83 3d 54 a2 a5 be 01 30 c3 3d
       0.005690693 0.064241245 -0.3235041 0.095306404
000150 65 cb 08 3e a6 78 b4 bd 5d 3b 9c 3e 27 07 a5 3e
       0.13358839 -0.08812074 0.3051404 0.3223202
000160 96 dc bf be ea 47 55 3e 5c 5d 65 3e 25 b8 c1 be
       -0.3747298 0.20828214 0.22398895 -0.37835804
000170 b5 9e a5 3e 5a ad 18 be 58 59 3e 3d 8d 02 3a be
       0.32347646 -0.14909878 0.046471924 -0.18165036
000180 89 b6 dd 3e f3 fa 80 be 5e fb 41 3e dd cb 90 3e
       0.43303326 -0.2519146 0.18943545 0.28280535
000190 73 09 99 bd 72 15 88 bd d6 8b 57 3e 7a 19 e3 3e
       -0.074725054 -0.06644715 0.21049437 0.44355375
0001a0 57 72 92 3e 73 79 ee 3e 73 78 9c bd 8a a4 3c 3e
       0.2860286 0.46577033 -0.07640161 0.18422142
0001b0 db 8e dc be 9e c3 a6 3e 65 23 36 3d b3 0b 2f 3e
       -0.4307774 0.3257112 0.04446735 0.17094307
0001c0 e5 3f b7 3e b4 0a 04 bd 29 2c b4 be e9 35 17 be
       0.35790935 -0.03223677 -0.35189942 -0.14766659
0001d0 fc 48 3a be 93 73 b6 3d e0 a7 0d bc ea 80 cc 3d
       -0.18191904 0.08908763 -0.008645982 0.09985526
0001e0 9b 1f c8 3e 73 ad 94 bd f2 ec 8d 3e 39 46 42 be
       0.39086613 -0.07259645 0.27719837 -0.189721
0001f0 ea 6c ed 3c 33 d4 01 bc 3d cb 0d be 12 a8 b6 3e
       0.028982598 -0.007924127 -0.1384706 0.35675102
000200 9e 3c 76 be 85 c4 5b 3e 23 48 18 3e a2 7d e6 3d
       -0.24046561 0.21461685 0.14871268 0.11254431
000210 fb 34 ca be 2d 69 67 be ac ee 68 bd 01 f6 9a 3d
       -0.39493546 -0.22598715 -0.05686824 0.07566453
000220 6c dc 8b 3e 59 43 3d 3e 98 19 ca be a9 1a 8f bd
       0.27316606 0.18482722 -0.3947265 -0.06987507
000230 45 7a 3c 3c de b2 a3 be 43 50 74 3d d4 c0 d6 3e
       0.011503761 -0.31972402 0.059646856 0.4194399
000240 ad 50 97 3e 2e b5 3c 3e e5 ae 3b 3d a2 e9 9e 3e
       0.29553738 0.1842849 0.04582109 0.31037623
000250 7a c7 7a be b0 c9 7e bd 5e f9 9c be c5 64 ba 3c
       -0.24490157 -0.062204063 -0.30659002 0.022753129
000260 6c d2 9f be e7 ec bd 3e bd 28 5b 3e 73 01 e3 3d
       -0.31215227 0.37094805 0.21402259 0.11084261
000270 fa a9 40 be d8 bf c5 3e 9e b5 9c 3e 36 cf a5 be
       -0.18814841 0.38622928 0.30607313 -0.32384652
000280 3d 67 bc 3e 86 46 9a 3e 18 9d e3 bc ed 24 32 be
       0.36797515 0.3013193 -0.02778487 -0.17396899
000290 7f e6 c4 3e 28 af 4f 3b 59 de 40 be 96 a8 c8 be
       0.38457105 0.0031690095 -0.18834819 -0.3919112
0002a0 9f 49 8f 3e 94 ad 3f 3e d3 4b af 3e 61 66 bb 3e
       0.27985856 0.18718559 0.34237537 0.36601546
0002b0 1d be 76 3e 3c 44 db 3d a6 0b 11 3e dd c4 97 be
       0.2409596 0.10706374 0.141646 -0.29642382
0002c0 ea d5 9e 3d ac b3 2c be 15 e5 bd 3d 09 2b ac be
       0.077556446 -0.16865414 0.092722096 -0.33626583
0002d0 2e e4 4c be c3 6f 62 bd f1 71 8f be cb f4 03 3e
       -0.20008919 -0.055282366 -0.28016618 0.1288635
0002e0 99 3f c3 be c3 10 bf 3e 7b 9d 60 be a1 7a 3c be
       -0.3813446 0.37317476 -0.21935074 -0.18406154
0002f0 b7 51 b1 be 87 c1 c6 3e 79 87 b5 3e 06 91 ec 3e
       -0.34632656 0.38819525 0.3545492 0.46204394
000300 c5 ce 8b 3d e8 cf 87 3e 4d 14 ab be d4 b3 e0 3e
       0.068265475 0.26525807 -0.33413926 0.43887198
000310 f2 81 2d be b0 c8 93 bb 8f fc 2c 3e 77 53 93 bc
       -0.16944101 -0.004510008 0.16893218 -0.017984135
000320 fc 23 33 be 11 d3 44 3e 05 7c b1 be 8d 70 bc 3e
       -0.17494196 0.1922114 -0.34664932 0.3680462
000330 4b 1b d5 bc 3b ba 9c 3e 64 9f 6f 3e 0d 95 33 be
       -0.02601399 0.30610833 0.23400646 -0.17537327
000340 c6 c9 be be d4 d4 80 3e 24 89 99 3e a5 3a 3b 3e
       -0.37263316 0.25162375 0.29987442 0.1828409
000350 e3 3e 99 be 0e 62 f5 3e a5 81 4f 3d 54 bd b3 be
       -0.2993079 0.47926372 0.050660748 -0.35105383
000360 86 95 ab be 85 26 95 be d4 a9 e9 3c 54 8a 1b bd
       -0.33512515 -0.2913095 0.028523363 -0.037973717
000370 e9 b5 72 3e 7e 7e f7 3e 3c 89 13 bd 7c c7 b1 3e
       0.23702206 0.48338693 -0.03601955 0.34722507
000380 1b 9c 99 be 49 0a 69 bb f8 98 85 be 1c d7 69 bd
       -0.30001912 -0.003555911 -0.26093268 -0.05708991
000390 45 be cf 3d 80 06 a2 bc 6b d4 9a be fa 9a cb be
       0.10143713 -0.01977849 -0.30240187 -0.39766675
0003a0 59 c0 39 3d e6 09 9c 3d f5 ac a9 b7 72 92 b5 3e
       0.045349453 0.076190755 -2.022691e-05 0.3546329
0003b0 c6 95 2d be be 57 ac 3d e2 a4 07 3e db bd ac be
       -0.16951665 0.08415173 0.13246492 -0.33738598
0003c0 1a 26 ad 3e 3a ff 5f 3e 2e e0 2c 3e fe e5 6d be
       0.33818132 0.21874705 0.16882393 -0.23232266
0003d0 17 91 d5 3d aa 90 16 bc 88 b0 f5 bd 85 af 94 be
       0.10428064 -0.009189764 -0.11996561 -0.2904016
0003e0 ab 93 0e 3e 12 d8 01 be c0 f4 fd 3d e8 04 db 3e
       0.13923518 -0.1268008 0.12400198 0.4277718
0003f0 0f 1f f1 3e cb 47 23 be f4 bf a1 3c da e4 35 be
       0.47094008 -0.15945356 0.01974485 -0.17763081

fc1.bias f4 [64]
000000 7f 75 19 be 86 08 d3 bb 1f 7f 1c be 6f 20 c8 3d
       -0.14986227 -0.006440225 -0.15282868 0.09771811
000010 86 2b d0 3e cc fe 29 3d 64 35 ba 3e a6 d0 68 be
       0.40658206 0.04150276 0.3636886 -0.22735843
000020 e1 00 0a be 2a 27 5a 3d 64 b6 28 be 70 6a 3b be
       -0.13476898 0.053260006 -0.16475827 -0.18302321
000030 e2 7a 39 be 2f e8 99 3d 71 5c 6c 3e f9 7e ab 3e
       -0.18113282 0.07514989 0.23082139 0.3349531
000040 ee 18 b6 3c 0f fa ad be b6 10 aa 3e 07 60 9b bd
       0.022228684 -0.33979842 0.33215874 -0.07586675
000050 80 23 54 3e a1 61 64 be ea 69 dd 3e 38 09 7d be
       0.20716667 -0.22302867 0.4324487 -0.24710548
000060 82 71 ce bd 13 b3 34 be f1 cb 61 3e b0 09 8c 3e
       -0.10080244 -0.17646436 0.22050454 0.2735114
000070 b7 00 c8 3e 2c 9b 30 3e cb 78 cb 3e 25 5f 66 bc
       0.39063045 0.17246693 0.39740595 -0.01406077
000080 0d ee a6 be cb 8f 9e 3e 75 89 c1 3e 68 d2 c3 3e
       -0.32603493 0.3096908 0.37800184 0.38246465
000090 8e bf b1 be a5 66 d0 be 79 75 dc bd 14 c4 d6 be
       -0.34716457 -0.40703312 -0.10764594 -0.4194647
0000a0 f8 cc 8b 3e e9 b6 e7 3d 12 32 49 be 93 3b 30 3c
       0.27304816 0.11314184 -0.19648007 0.010756391
0000b0 65 c4 fa 3e 49 f9 ba 3d 14 9c 3f 3e c9 c4 95 3d
       0.48977962 0.091295786 0.18711883 0.073129244
0000c0 7d b0 67 3e 69 b8 96 be 2d a3 2d 3d 61 d6 35 be
       0.22625919 -0.2943757 0.042391945 -0.1775756
0000d0 50 71 59 be 80 b6 96 3d 43 48 cc 3d d3 da b6 be
       -0.21234632 0.07359028 0.0997472 -0.35713825
0000e0 4e 9a c4 3d c7 ca c8 be 2b d2 86 3e 4f d6 cd 3e
       0.09599744 -0.39217207 0.2633222 0.40202567
0000f0 9d 44 93 be fb 04 4e be 72 73 23 bd a3 db de bb
       -0.28763285 -0.20119087 -0.03990502 -0.006801085

fc2.weight f4 [128, 64]
000000 15 ca 57 be ad 32 36 3e 71 d8 47 be 83 55 8e 3d
       -0.21073182 0.17792769 -0.1951616 0.06949904
000010 89 7b f9 3d 03 f2 05 3d b2 f4 78 3d 4d 3f d0 bd
       0.121817656 0.032701503 0.060780235 -0.10168324
000020 65 44 98 3d 69 f2 51 3d 6b ff 4a 3e 98 41 83 3d
       0.0743492 0.05125657 0.19823997 0.064089954
000030 44 4f 7e 3d 92 4f ce bd 28 37 f5 bd db 70 e5 3c
       0.062087312 -0.100737706 -0.11973411 0.028007915
000040 5b e5 07 3d 7c e2 8b be 0e 7e 81 3e 66 94 33 be
       0.033177715 -0.2732123 0.25291485 -0.17537078
000050 05 fc 88 3d ed 11 1b 3e 9e 4c 28 bd 27 23 1d bd
       0.06688694 0.15143557 -0.041088693 -0.038363602
000060 be b0 19 3e 98 56 61 3e 6e c7 d5 3c 88 d9 00 be
       0.15008828 0.22005689 0.026096072 -0.12582982
000070 cc 32 34 3e e3 c2 5f bd fc 5a 37 bd 89 f4 3a 3e
       0.17597502 -0.054629218 -0.044764504 0.18257345
000080 90 3d e1 bd 8c da aa bd 8b 4a c3 3d ae d8 c4 3c
       -0.1099807 -0.08342466 0.09535702 0.024029102
000090 27 47 a7 3c b7 6c 66 3e 6d f0 b1 bd 94 d2 91 3d
       0.02041967 0.22502409 -0.08688436 0.07120243
0000a0 16 9e 17 3e d7 d5 49 3d 38 3f 8f bd 26 0f e3 bd
       0.14806399 0.0492762 -0.0699448 -0.11086874
0000b0 51 0e 0b be ef c8 9b 3d f6 fc c0 bd 49 f4 c5 3d
       -0.1357968 0.076066844 -0.094232485 0.09665734
0000c0 bc f1 de bd 14 48 bc 3d f4 1a 0a be ea 8c 46 3d
       -0.10885951 0.09193435 -0.13486844 0.04847423
0000d0 36 c8 37 3c e4 e5 d9 bd 18 dd 6d 3c de 33 9f bd
       0.011217168 -0.10639551 0.014518045 -0.07773565
0000e0 26 5f c7 bd 08 42 3d 3e 50 73 b8 3d 51 bc a2 3d
       -0.09734945 0.1848222 0.09006369 0.07946075
0000f0 28 e0 3d 3d 94 62 e3 bd 4a 4f 07 3e 6c 59 3c be
       0.04635635 -0.11102787 0.1321384 -0.18393487
000100 4f 4f 3c bc 28 28 d9 3d 11 6e e7 3d 58 27 f5 bc
       -0.011493518 0.10603362 0.113002904 -0.029925987
000110 49 bf d1 3d 9f 6b 32 3d ad 71 d7 bc e6 8a a3 3d
       0.10241563 0.043559667 -0.026299322 0.07985477
000120 c6 cc bd bd 1b 4f 6b 3c 77 21 6d 3d 75 2e a1 3c
       -0.09267573 0.014362122 0.057893243 0.019675473
000130 f8 3d 04 3e 16 fc be 3d fa dd fd bd 1b fb a5 bc
       0.12914264 0.09325425 -0.12395854 -0.020261338
000140 75 e4 95 3d a3 98 bf bd 75 75 ae 3e 95 70 29 bd
       0.07318965 -0.09355285 0.34073988 -0.041367132
000150 1b 3d dd bb 6b c6 bd 3b 5f 57 f3 bd 2a 6f 79 bd
       -0.006751669 0.0057914755 -0.11881899 -0.06089703
000160 85 83 eb bc 63 58 4f 3e 17 96 91 bc 07 57 70 3d
       -0.028749237 0.2024856 -0.017771764 0.058676746
000170 da 2d 46 bc fb 5a 52 bd 4e 5a e8 3d 72 b9 92 bd
       -0.012095893 -0.051356297 0.11345349 -0.07164277
000180 b1 18 b7 bd 6c b6 3b 3e 0c a0 3e 3d d2 bd e4 bd
       -0.089402564 0.18331307 0.04653935 -0.11169018
000190 57 6e 09 3b 17 b9 1b 3d c9 4c 9b bd 02 fb 83 3c
       0.0020970309 0.038018312 -0.07583005 0.0161109
0001a0 d4 d4 a5 3e 9e 85 a4 bd cd 49 c0 3d 8c bb 38 3d
       0.32388937 -0.08033298 0.093890764 0.045100734
0001b0 b1 91 bf 3d 36 ad cb bd d3 98 82 bd 31 5a 47 bd
       0.0935396 -0.09945147 -0.06376805 -0.048669998
0001c0 31 f0 cc 3c c2 f7 38 3d 43 00 59 3d 77 2a b0 bd
       0.025016876 0.045158155 0.052978765 -0.086018495
0001d0 57 74 03 3d 50 bc 39 bd 47 47 c2 bc d8 13 3e bd
       0.032093372 -0.045345604 -0.023715628 -0.046405643
0001e0 1b 1b 0a 3d 67 2e b7 3d 77 56 11 3c 4d 3c 80 3e
       0.033717256 0.089443974 0.0088707125 0.25046006
0001f0 e1 d2 b9 bd 1f 62 a2 bc 75 cc 91 3d 4a a9 8e 3d
       -0.09073425 -0.019822178 0.07119075 0.06965883
000200 76 82 df 3c 1a cf e2 bd 2a ff 4d bd 66 24 53 bd
       0.027283888 -0.11074658 -0.05029217 -0.051548384
000210 e6 bb cf 3c c6 2f cb 3c 7f 38 be bd 6e df dc bd
       0.025358152 0.024803054 -0.092881195 -0.10784803
000220 5e cb b8 bc b8 1d 3b bd ed 51 a4 bd f1 42 ad bd
       -0.02255791 -0.04568264 -0.080234386 -0.08460034
000230 e7 5a a3 3c 61 ae 87 bd 77 cf 0f bc 31 d2 b4 3d
       0.019940807 -0.06625057 -0.008777491 0.08829153
000240 3d d7 9c bd 2c 7e 3d 3d 7f e5 28 3d 9d 75 8c 3d
       -0.07658241 0.046262905 0.04123449 0.068583705
000250 8a 86 df bd 98 b9 c4 bd 54 7f bd 3d b7 d1 9d bb
       -0.10914333 -0.09605712 0.092528015 -0.0048162597
000260 8b a5 30 3d 3e 0e 5b bd 5f b3 a2 bd dc 87 cb 3d
       0.043126624 -0.05348038 -0.079443686 0.099380225
000270 f7 a4 8b 3c 1d 8b 8d bd 9e 54 c8 bd 93 36 88 bd
       0.017046435 -0.069112994 -0.097817644 -0.06651034
000280 17 3b 2a bd 00 0b d8 3d 96 f2 cd bc 4a 9e cc 3d
       -0.04156026 0.10548973 -0.025140088 0.09991129
000290 e6 c1 c2 3c ae d1 e3 ba 87 51 ae 3d 16 ff ee bc
       0.023774099 -0.0017381215 0.08511644 -0.029174369
0002a0 29 3e a1 bd 57 a9 10 3c 1a ed c0 bd b2 04 e1 bd
       -0.07873184 0.008829436 -0.094202235 -0.10987224
0002b0 bc 21 de bd ae f8 e1 bb ef 60 8d 3c 43 65 92 bd
       -0.10846278 -0.0068961 0.017258136 -0.071482204
0002c0 02 11 59 bd cf 15 31 3d bf ba 8a bd 17 18 b0 bb
       -0.052994736 0.04323369 -0.067739 -0.0053739655
0002d0 b6 1b 37 3b a2 26 42 3d 16 51 d5 3c 9a 99 de 3d
       0.00279401 0.047400124 0.026039641 0.10869141
0002e0 c2 55 ba 3c 36 de d4 3d 68 93 b8 bd fa 20 37 3d
       0.02274597 0.10393946 -0.090124905 0.044709183
0002f0 96 c0 df bd 85 37 a5 3d bf bb 1a 3d 6e 91 dd bb
       -0.10925405 0.0806723 0.037776705 -0.0067617213
000300 43 c6 28 bd 33 19 a1 3d 0c 4c cf 3d ee 99 c6 3d
       -0.041204702 0.078661345 0.10121927 0.096973285
000310 77 05 86 3b 66 dc f9 3c ce d1 ca bd 79 82 b4 bd
       0.004090007 0.030500602 -0.09903298 -0.08813948
000320 7f a4 9e bc d7 86 a3 bb 3c 81 37 3d 8a 5f b5 3d
       -0.019365547 -0.0049904394 0.044800982 0.08856113
000330 68 2a de bd b6 19 53 3d b7 76 20 bd 36 0f c7 bd
       -0.10847932 0.05153819 -0.039175715 -0.09719698
000340 2e 44 65 3d b6 e5 3a bd 0f c6 16 bd c6 21 e8 bd
       0.055973224 -0.045629226 -0.036809977 -0.11334567
000350 5f 4c 97 3c fa 6a 60 bd 6f fb 85 3d f7 57 96 bb
       0.018469034 -0.05478952 0.06542098 -0.004588123
000360 57 01 00 bc 5e 9a 3c bd 57 55 0d ba ce ab ba bd
       -0.007812819 -0.046045654 -0.000539144 -0.091148004
000370 82 ef 4e 3d d3 f1 02 bd 1b 00 01 bd 7f 7b a7 bc
       0.05052138 -0.031968903 -0.03149424 -0.02044463
000380 b4 d8 e7 bd 44 53 c2 3d f7 38 a0 bd 57 4d 1e 3c
       -0.1132063 0.09488538 -0.07823365 0.009661994
000390 aa c4 db 3d ce b2 f1 3c 05 ee 9c 3d e8 95 d6 bd
       0.1073087 0.029504206 0.07662586 -0.10477811
0003a0 64 4a bc bd 56 2a 3d 3d 1a 38 67 3d af 20 93 bc
       -0.091938764 0.046182953 0.056449987 -0.01795992
0003b0 46 c7 e3 bc 37 41 02 bc d6 8c 3a ba ac 26 d0 bd
       -0.027804982 -0.007950119 -0.0007116323 -0.10163626
0003c0 5d c5 9c 3d 87 19 20 3c b4 4d b5 3d e1 d9 86 bd
       0.076548316 0.009771711 0.08852711 -0.06584526
0003d0 e3 0a 1c bd 36 b6 40 bd 57 73 14 3b 57 80 15 bc
       -0.03809632 -0.04704877 0.0022651756 -0.009124837
0003e0 90 f5 d8 3d 2e 04 d9 3a c7 6b aa bd ff cd ad bd
       0.10593712 0.0016557032 -0.08321338 -0.08486556
0003f0 f6 ce d8 bd ee 8e be bd ee 44 ce bc b3 2c 00 bd
       -0.1058635 -0.093046054 -0.025179353 -0.03129263

fc2.bias f4 [128]
000000 9c 51 a2 3d 4a 7d 8e bd c9 47 92 bd a0 39 e9 bd
       0.07925722 -0.06957491 -0.07142598 -0.11387944
000010 a7 96 8c 3c 68 81 db bd 62 85 1d 3e 2b 8c d5 bd
       0.01716168 -0.10718042 0.15382913 -0.104271255
000020 a1 88 f6 3d 77 6f 24 bd 69 48 3a 3d cf d7 33 ba
       0.12037779 -0.040145364 0.045479212 -0.0006860466
000030 25 df 02 be e1 70 49 bc 71 bd f4 3b 08 9a cc 3d
       -0.12780435 -0.012294979 0.0074688722 0.09990317
000040 80 ca 74 bd 04 37 c9 3d 2e fc 13 3d 23 a4 5a bc
       -0.05976343 0.098249465 0.03612917 -0.013344797
000050 87 d0 95 bc 91 95 a3 3d 84 2c fe 3d 56 a0 41 bd
       -0.01828791 0.07987512 0.124108344 -0.04727205
000060 bd ae 80 bd e7 33 22 bd 5e 90 12 bd 17 88 23 bb
       -0.06283329 -0.03960028 -0.03578221 -0.0024952942
000070 52 0f c2 bd c2 c3 ea 3d 2f e5 0c 3d 8e 34 e0 bc
       -0.09475578 0.11463119 0.034398254 -0.02736881
000080 b4 f2 38 bc 52 0a 97 3d 36 0f 5b 3b 18 88 fe 3d
       -0.011288334 0.07375015 0.0033425814 0.124283016
000090 60 f8 94 3d 74 af c6 3d 80 ba d2 bc cf ee b1 3d
       0.07273936 0.09701434 -0.025723696 0.08688127
0000a0 e4 77 28 bd c1 75 c4 3b 27 46 8d 3c 47 5f 8e bd
       -0.04112996 0.0059954827 0.017245365 -0.069517665
0000b0 43 c6 89 bd fb 26 a9 3d 30 09 b8 bd 00 f5 41 3d
       -0.067272685 0.08259388 -0.089861274 0.04735279
0000c0 fa fb fe bc 63 77 26 bd df 32 af bc ea e5 c5 bd
       -0.031126011 -0.0406412 -0.021386562 -0.09662993
0000d0 cc c2 fd bd 22 d5 c6 3d f3 f5 32 3d 57 0b 18 3d
       -0.1239067 0.097086206 0.043691587 0.03712019
0000e0 42 c8 3e bc a5 2c 45 bd 26 f2 e9 bc e3 8b 1d 3d
       -0.011644425 -0.04813828 -0.028557848 0.038463484
0000f0 57 71 00 bd d6 c1 19 3e 46 ed 68 bd 17 59 62 bd
       -0.03135809 0.15015349 -0.056866907 -0.055260744
000100 17 87 af 3b be 35 ac bd f5 23 1d bd 07 6d 30 bd
       0.00535668 -0.08408688 -0.03836437 -0.043072727
000110 de ce d2 3c 9f d0 a0 bd 7e 7b a3 bd ca 97 96 3c
       0.025733408 -0.07852291 -0.07982539 0.018382926
000120 df e9 cd 3d c0 46 70 3d 48 90 58 bc bd 39 a6 3d
       0.10054373 0.058661222 -0.013217993 0.081164815
000130 be be b3 bd b7 95 53 3d fc 61 59 bd 9f e7 18 3d
       -0.087766156 0.05165645 -0.05307196 0.037330266
000140 1d 76 c0 bd 4e 8b df 3c 71 87 93 bd 84 83 9b bc
       -0.09397528 0.027288105 -0.07203568 -0.01898361
000150 4c c5 0e bd 03 47 27 bd ea 0e 7c bd 76 ab c8 bc
       -0.034856126 -0.040839206 -0.06153766 -0.024495821
000160 7d 27 a0 bc f1 10 14 3d 6d 81 dd 3d d2 79 cc 3d
       -0.01955008 0.03614897 0.10815702 0.09984173
000170 6b 1e 2f bd 3a f2 7e bd 4d cf ec 3d 22 a8 c6 3d
       -0.04275362 -0.062242724 0.11562977 0.097000375
000180 22 67 dd bd b0 f0 bc bd 08 cb 7a bd 33 cc d0 3d
       -0.10810687 -0.09225595 -0.061228782 0.10195198
000190 90 d4 2e bd 9f fa 9d bd 16 61 ab bb fc fd 70 3d
       -0.042683184 -0.07713818 -0.0052300794 0.05883597
0001a0 d6 cd c4 3d 50 05 b9 bd f6 49 3a 3b ac 31 ea 3d
       0.096095726 -0.090342164 0.0028425432 0.114352554
0001b0 11 dc 82 bd 5c 11 23 3d ea aa 8e bd e8 fa e2 bd
       -0.063896306 0.039811477 -0.06966193 -0.11083013
0001c0 4c 07 58 3c a3 f9 c1 3c d2 92 76 3d 45 9d 53 bd
       0.013185333 0.023678606 0.060198613 -0.051663656
0001d0 cc 9a 1e 3d 3d 73 02 3e ea 02 e2 3d 45 68 c2 bd
       0.038721845 0.12739272 0.11035712 -0.09492544
0001e0 60 dd b6 bd b0 05 83 3d fb 9e 1f 3e ef 34 19 bd
       -0.08928943 0.06397569 0.1558799 -0.037403997
0001f0 5e b2 be bd 59 b6 b5 3d 81 c9 a4 3c ae 55 48 3d
       -0.093113646 0.08872671 0.020115616 0.048909836

fc3.weight f4 [256, 128]
000000 18 b9 9f 3d d4 ef 73 3d 45 eb 4c bd ff 4f 35 3d
       0.07798976 0.05955489 -0.050029058 0.044265743
000010 0a 64 dc bc ef 5c 67 bd bd 5c 85 bd 7e 56 16 3d
       -0.026903171 -0.056485113 -0.06511829 0.03670358
000020 99 fe a9 bd ed 5e 93 bc ed 80 bd 3c af 65 36 bd
       -0.08300514 -0.0179896 0.023132766 -0.044530567
000030 ad 93 a2 3d dd a3 63 bd 58 26 3c bd c3 67 a0 3d
       0.07938323 -0.055576194 -0.045935005 0.07832291
000040 b8 25 89 bd 86 5c b8 3c ac 16 0e bd dc d0 7d bd
       -0.066966474 0.022505056 -0.03468959 -0.061966762
000050 b7 7b 88 bd b2 73 91 3d da 9f 72 3d 50 73 9d 3c
       -0.06664222 0.07102145 0.059234478 0.019220024
000060 5b f7 16 bd 41 73 20 bd 15 fc b4 3c 0d 6a 99 3d
       -0.03685699 -0.039172415 0.022092858 0.07490931
000070 cb 2d 35 3b 67 da 45 3c c0 30 f9 3c ee ea 1a bd
       0.0027645703 0.012075997 0.030418754 -0.037821703
000080 df 99 64 3d b3 0c 8f bc db 63 b9 bc 01 61 b0 bc
       0.055810805 -0.01746211 -0.022630623 -0.02153063
000090 11 07 3f 3d 56 40 90 bd cd 42 8e bd c1 ab 1a bd
       0.0466376 -0.07043521 -0.06946335 -0.037761454
0000a0 0e 32 71 3a 6c 93 29 bd 2b f2 a2 bd 9f 38 35 bd
       0.0009200879 -0.041400358 -0.07956346 -0.04424345
0000b0 60 62 ff bc 36 e9 6a 3d 57 b6 5a 3d 62 02 d1 3c
       -0.031174839 0.057351314 0.05339655 0.025513832
0000c0 e4 d1 6b bc e7 dd 35 bd f2 b9 44 3c 15 2a 3b bd
       -0.014393304 -0.044401076 0.012007223 -0.04569443
0000d0 d0 be b3 3c 47 bf e9 3c 85 ba 21 bd aa f8 b6 bb
       0.021941572 0.028533591 -0.03948452 -0.0055838423
0000e0 2e 5b 8d 3c 61 11 ca bc 81 94 50 bd 04 66 8e 3d
       0.017255392 -0.02466649 -0.050922874 0.06953052
0000f0 40 49 17 bd db bc 98 3c 44 11 90 3d d8 1b 5d bc
       -0.03693509 0.01864474 0.07034543 -0.013495408
000100 6c f2 07 b9 e9 41 8b bd 60 7c 97 bd 29 2e d9 3c
       -0.00012964912 -0.06799681 -0.073967695 0.026511269
000110 95 36 94 3d 5c f3 7a 3d f0 f4 a8 bd fc ec 87 3c
       0.07236973 0.06126724 -0.08249843 0.016592495
000120 56 45 4d bd 04 c5 74 bd ca 92 66 bc 28 c1 e4 bb
       -0.050114952 -0.0597582 -0.014073083 -0.006981034
000130 6f 42 06 3d 3a 38 0c bd 1e 4a 83 bd 11 9e a2 bb
       0.0327782 -0.03423331 -0.06410621 -0.0049626906
000140 66 69 8f 3c 20 44 a5 bd 8e 4b 71 3d 22 d2 01 3d
       0.017506313 -0.080696344 0.058909945 0.03169454
000150 15 2f 1c 3c 31 de 1a 3c d3 83 a3 3d e5 45 21 3d
       0.00953271 0.009452389 0.07984128 0.039373297
000160 55 61 58 3d c4 68 81 3c 40 29 89 bd a0 a1 84 bc
       0.052827198 0.015797026 -0.06697321 -0.01619035
000170 92 b1 b0 bb d1 9a 2b bb cd 08 95 bc f0 2f 70 3d
       -0.005392262 -0.0026184807 -0.018192673 0.058639467
000180 39 81 57 3d f2 1d 14 3d 50 43 d4 3c 2c 3e 6c bd
       0.05261347 0.03616137 0.025911003 -0.05767648
000190 6d a8 27 bd 39 9f 23 bd ac 72 b2 bc 68 3e 33 bd
       -0.040932108 -0.03994677 -0.021783195 -0.043760687
0001a0 ec 51 74 bc ec d3 a6 3d 34 ab ea bc 56 bf 02 3c
       -0.01491211 0.0814589 -0.02864609 0.007980188
0001b0 fd fb 3d bd 7d b5 1e bd 01 a0 1f bc 30 2e f9 bc
       -0.046382893 -0.0387473 -0.009742738 -0.030417532
0001c0 ce 9e f8 3c c2 3a 9a ba 5d a4 56 3d 3e d1 3e bc
       0.030349161 -0.0011766779 0.052402843 -0.011646567
0001d0 6c e3 32 3d 72 ba 84 bd 23 6e 9f bd a6 d5 c1 3a
       0.043673918 -0.06480874 -0.07784679 0.0014788404
0001e0 74 20 09 bd 59 74 4d 3d eb c2 57 bd 9e 46 de 3c
       -0.033478215 0.050159786 -0.052676123 0.027133282
0001f0 4a ed bd 3b 38 1a 8b 3d f9 5f 8f bd 80 a7 8e 3d
       0.0057961093 0.0679211 -0.07000727 0.06965542
000200 26 90 b6 3e e8 53 06 3e 4e 86 a2 bd 93 d0 9e 3d
       0.35656852 0.13117945 -0.07935773 0.07754626
000210 81 15 9b 3d fd d3 bd 3c 5c 2c 63 3e ff 25 df 3d
       0.07572461 0.023172373 0.2218489 0.10895919
000220 8e 47 81 bd f2 b0 25 bc 92 b1 20 3d 0b 3c bd 3d
       -0.06312476 -0.010112988 0.039231844 0.09239968
000230 36 6c 53 3e b4 e8 8a 3e 85 d6 fd bb 90 d9 0b 3e
       0.20646748 0.27130663 -0.00774652 0.13657212
000240 a0 48 a1 bd d2 f1 89 3d 82 f7 05 3e e0 12 a7 3d
       -0.0787518 0.06735577 0.13082698 0.08157897
000250 0e 97 1d 3d 1b 7d 65 3d 8a aa 82 3e 0a 16 24 3c
       0.038474135 0.056027513 0.25520736 0.01001502
000260 59 71 50 bd b5 a9 84 bd c7 d0 44 3e 85 7b a0 3d
       -0.050889347 -0.064776815 0.19220267 0.078360595
000270 22 e7 83 3d 66 d9 39 bd 32 4d 47 3d 2d 39 12 bd
       0.064405695 -0.045373343 0.048657604 -0.03569906
000280 f4 65 fa 3d 5e 85 6d 3e 4c c1 2a 3e 24 d3 b4 3d
       0.12226477 0.23195407 0.166753 0.088293344
000290 9e f5 8a 3e ee 18 91 3d c0 f2 5f bc d9 c9 3d 3d
       0.27140516 0.07084833 -0.013668716 0.046335075
0002a0 fd 33 8d bc e1 6e 65 3e 65 50 60 bd a1 66 08 bd
       -0.017236704 0.22405578 -0.05476417 -0.033301
0002b0 c3 eb 14 be 9f c4 01 bb ff 1d a4 3c e3 fb 36 3d
       -0.14543061 -0.0019801033 0.020033835 0.04467381
0002c0 26 6f ce 3c 33 fa 56 bd b2 52 cb 3c e9 8d b6 3c
       0.025199484 -0.052484702 0.024819706 0.022284465
0002d0 91 63 3b 3d 21 ab 35 3d 83 e4 a2 bc ba 36 38 bd
       0.04574925 0.044352654 -0.019884354 -0.044974066
0002e0 0c 96 3f 3c b7 2a f2 3b bb 77 1f bd a6 66 7b bd
       0.011693489 0.007390346 -0.038932543 -0.06137719
0002f0 8a 5c ff 3b 44 33 34 bd 85 3e e0 bc 9a 07 a4 3d
       0.007793014 -0.043994203 -0.027373562 0.080092624
000300 cb 77 86 bd 3d 58 4b 3e 3c dc 0c 3e a0 5c ef 3b
       -0.065658174 0.19857879 0.13755888 0.007304743
000310 6d ed 2a 3e a0 a6 43 3e 47 6c ce bd c7 41 d3 bc
       0.16692133 0.19106531 -0.10079246 -0.025788201
000320 1c 94 7b bd d7 45 db 3d 0c 81 0c 3d 52 8d 9a bd
       -0.061420545 0.1070668 0.034302756 -0.07546486
000330 d2 4e d5 3d 44 9e bc 3d 3e 3a cf bd 66 a3 52 bd
       0.104154244 0.09209874 -0.10118531 -0.05142536
000340 18 72 92 3d d7 8d 1f 3c a9 3d 38 3d 1d 3e 04 be
       0.07150668 0.009738407 0.04498068 -0.1291432
000350 ab 59 01 3e 3c b7 27 bd 9c 6b ea 3b 30 91 34 3d
       0.12631862 -0.04094623 0.0071539413 0.044083774
000360 f7 e2 07 3e 66 f2 65 3d 77 04 08 be e1 0e 8f bd
       0.13270174 0.056139372 -0.13282953 -0.0698526
000370 6e 7a 20 3d 82 a8 51 bd f4 97 51 3d f2 15 1a bc
       0.039179258 -0.051186092 0.051170304 -0.009404646
000380 76 e8 0a 3d 57 b6 1e 3d 5f 8b 1c bc fb 31 b4 3d
       0.0339131 0.03874811 -0.009554713 0.087985955
000390 5a ee 39 bd 2b 24 16 3c f8 1c 6d bd d8 7d 46 3e
       -0.045393325 0.009163897 -0.057888955 0.19383943
0003a0 6d e1 bd bc e7 e8 08 3d 0e c3 79 bd 25 85 0b 3e
       -0.02317878 0.033425238 -0.060977034 0.1362501
0003b0 57 89 22 3d d8 0c e6 bc 37 83 86 3d 93 b6 87 3d
       0.03968176 -0.028082296 0.06567996 0.0662662
0003c0 e9 a2 90 3e 9e 73 23 3e 3d 63 04 3d 44 4d 86 3c
       0.2824929 0.15962073 0.032321204 0.016394265
0003d0 b1 b0 7a 3d c6 9a eb bb 59 f6 31 bd 6c fb 04 bc
       0.061203662 -0.0071900813 -0.043447826 -0.008116584
0003e0 4c d9 68 3d 8e 07 ac 3c 32 a7 2c 3e a9 cc a1 3d
       0.056847855 0.020999696 0.16860655 0.07900364
0003f0 fa 0c 80 bd e3 7b a5 bc 26 cb 4b bd 58 63 d2 bd
       -0.06252475 -0.020200675 -0.049754284 -0.102728546

fc3.bias f4 [256]
000000 66 9f 10 3c 53 e2 80 3d 43 33 c5 bc 22 73 c5 bc
       0.008827066 0.06293168 -0.024072295 -0.024102751
000010 07 90 e5 3c 4e 0f 72 3d de 15 a5 bc bc 3c 79 3d
       0.02802278 0.059096627 -0.020152029 0.060848936
000020 d5 cd 8e 3d c3 8f be 3d 2e fd 03 bd 30 b1 41 bd
       0.06972853 0.09304764 -0.032223873 -0.04728812
000030 8d 0d a6 3d f0 53 a8 3d 12 e7 3e 3c 05 12 42 bd
       0.08108053 0.08219135 0.011651771 -0.047380466
000040 6c 57 45 3d 2b dd 59 3d 8d 3c 8d 3d 4b 29 4f 3d
       0.048179075 0.053189438 0.06896315 0.05057649
000050 47 75 9a 3d f8 fe 4c 3d b1 97 22 bd c2 4c c9 3d
       0.075419 0.050047845 -0.039695445 0.098290935
000060 20 fa 24 3d df 65 44 3d b5 54 0a bd 9b ff 47 bd
       0.0402776 0.047948714 -0.03377219 -0.04882775
000070 a5 31 13 3d 65 ec ae bd 3a 46 8a 3c d5 db b0 3c
       0.035936017 -0.085411824 0.01687919 0.0215892
000080 17 ca 6d bd 9b b7 12 bd 68 a1 92 3d 1d 05 6a 3d
       -0.058054056 -0.03581963 0.07159692 0.057133783
000090 26 26 a4 3d dc 58 62 3d 2a 7e 64 3d 40 e9 a0 ba
       0.08015089 0.055260524 0.055784382 -0.0012276545
0000a0 a7 2f cd 3d 22 23 a6 bd c5 36 63 3c 51 82 5b bd
       0.100188546 -0.0811217 0.013868039 -0.053591076
0000b0 61 2c 11 bc b0 7a 36 3c 33 fe 36 3d 90 5d a9 3d
       -0.008860678 0.011137649 0.044676017 0.08269799
0000c0 87 f9 b7 bc 99 9b d5 ba 82 93 30 3d d9 7b 91 3c
       -0.022457851 -0.0016296982 0.043109424 0.01775925
0000d0 06 75 ef 3b dc 9a 7e 3d 64 31 1a bd 63 e1 b2 bd
       0.0073076515 0.062159404 -0.03764476 -0.08734395
0000e0 dd d5 0b bd 73 14 e5 3c d0 9a b6 bc 53 bb 6a bd
       -0.034139503 0.027963853 -0.022290617 -0.057307553
0000f0 1f cc 75 bd a2 e0 1e bd e4 09 4a 3d 38 0d 87 bd
       -0.06000912 -0.038788445 0.04932584 -0.06594318
000100 1e f5 91 bd f3 72 03 bd be 69 8d 3d ae ae be 3b
       -0.071268305 -0.032092046 0.06904934 0.0058191633
000110 d6 b5 6c bd c6 22 a8 bc 4c 71 e6 bc 01 8a 54 bd
       -0.0577906 -0.020524394 -0.028130196 -0.051889423
000120 cc 7f 39 ba e0 b9 a1 3d 05 55 6d bd 85 26 97 3d
       -0.0007076233 0.07896781 -0.05794241 0.07380394
000130 9f f8 0b 3d ec f8 51 bc 0c 51 ef bb a2 77 93 3d
       0.03417265 -0.012815695 -0.0073033627 0.072005525
000140 d4 40 8c 3c 77 42 8f 3d a9 e8 10 bd 73 d2 22 3c
       0.017120756 0.06995099 -0.035378132 0.00993787
000150 4c 23 98 bd 78 85 16 bc 74 b6 a7 3d 82 27 04 bd
       -0.07428607 -0.009187095 0.08189097 -0.03226424
000160 ed 54 df bc 6f 40 a3 3d 2e 7b ce 3c ee 3e 11 bd
       -0.027262175 0.07971274 0.025205221 -0.035460405
000170 9d 42 b3 3d 00 fc bc bc c5 35 d4 3d 03 43 ac bc
       0.0875294 -0.023069382 0.10361818 -0.021028047
000180 bd b3 59 3d 9e ab 24 3d a1 d2 32 bd 25 c4 0a bd
       0.053149927 0.04020273 -0.043657903 -0.033878464
000190 f0 1e 6d 3d 6d ab 07 3e 8e 6e 5c 3d b8 3d 2a bd
       0.057890832 0.13248987 0.05381637 -0.041562766
0001a0 d5 82 76 3d b3 be 17 3c 77 84 49 bd aa 3d 57 3d
       0.060183365 0.009261775 -0.049198594 0.05254904
0001b0 a7 54 c4 3c dc 1e 61 3d b3 39 9a ba 2e 14 fe bc
       0.023966147 0.05496107 -0.0011766463 -0.031015482
0001c0 80 62 fd 3a 5b 79 06 bb c2 82 b9 3c 7b a5 4f bc
       0.0019331723 -0.002051911 0.022645358 -0.012673731
0001d0 cb d3 93 bd ec d8 7a 3c 18 4a 77 3b 65 05 88 bd
       -0.07218131 0.015310507 0.0037733372 -0.06641654
0001e0 99 f9 3a 3d e9 79 79 bd b4 19 77 bd 10 40 99 3c
       0.04564819 -0.06090728 -0.060327247 0.018707305
0001f0 1f 53 87 bd 1a 35 a3 bd 57 39 35 bd 2b 04 69 3d
       -0.06607651 -0.07969113 -0.044244137 0.05688874
000200 f8 5a 7a bd 85 c6 1c 3c c3 b3 68 3d 84 e8 31 bd
       -0.06112191 0.009568815 0.05681206 -0.043434635
000210 33 6d c1 3d c9 07 57 3d a3 4c 98 3d ce c6 66 3c
       0.09444656 0.05249766 0.07436492 0.014085485
000220 c1 70 09 bd 49 df b5 3c d1 95 31 bd d9 58 66 3c
       -0.033554796 0.022201197 -0.043355767 0.014059269
000230 26 5f 94 3d 79 13 87 3d ac 6d e1 3d c2 85 82 3b
       0.072447106 0.06595511 0.110072464 0.0039832303
000240 21 dd 43 3d 1f c6 cf 3d 65 90 3a bd 72 a8 01 bd
       0.047818307 0.101452105 -0.04554786 -0.031654783
000250 22 aa 7b 3b f1 0a 82 3a 57 db 99 bd 5a 5e 06 3d
       0.0038400968 0.0009921474 -0.07512539 0.032804824
000260 3d ff 66 3d b0 bd fe 3c d9 73 d3 3c 79 78 c3 3d
       0.056395758 0.03109631 0.025812076 0.09544463
000270 3f 70 32 3d 82 8f f0 3b 36 0a 36 3d 50 74 b5 3c
       0.043564077 0.007341326 0.04444333 0.022150189
000280 c7 50 23 bd 1f 14 bd 3d 23 93 ac bc 22 a7 80 3d
       -0.039871957 0.092323534 -0.021066254 0.06281878
000290 02 ed ff 3c 12 53 93 3d 5d f1 4f bd 68 c1 ce 3b
       0.031240944 0.07193579 -0.05076729 0.006309677
0002a0 2d 4a 01 bc fd 09 a9 bc c8 3e 1c bd 05 f9 b8 3c
       -0.00789122 -0.020634646 -0.03814581 0.02257968
0002b0 94 90 e6 3c 7b 7b 3d 3d 95 56 bd 3d 1a 28 fe bc
       0.028145112 0.04626034 0.0924503 -0.031024981
0002c0 e3 01 ce 3c 05 cb 9a bd be 5c 12 bb 65 db 09 3c
       0.025147384 -0.07558254 -0.002233311 0.008414124
0002d0 31 6b 19 3d ad 05 07 bd cf 04 b6 3d 42 11 9f 3c
       0.03745574 -0.032964397 0.08887636 0.019417409
0002e0 70 f1 80 3d c2 0e 06 bd b5 9b 48 bd 90 2f a0 bc
       0.062960505 -0.032728918 -0.04897662 -0.01955393
0002f0 56 69 44 bb 0c 5a ab bc 36 3e b5 3c 1e 01 a7 3d
       -0.0029970012 -0.020916961 0.022124391 0.0815451
000300 e5 a9 47 3d 01 df 8d bd 74 4d a6 3d cb 5b 3b bd
       0.04874601 -0.069273 0.08120242 -0.045741837
000310 8c a4 ca bc 90 d5 a0 3c 61 63 9d 3d 89 79 84 3d
       -0.024736665 0.019633085 0.07684971 0.064684935
000320 ad b2 8c bd 4a 9d 7e 3d 1a 21 7d bd ed a8 51 3d
       -0.06870017 0.06216172 -0.061799146 0.05118649
000330 52 f0 b6 3b a5 46 06 bd 06 54 fd ba d9 4e 65 ba
       0.0055828476 -0.032782216 -0.0019327409 -0.0008747406
000340 c9 37 10 bd 36 51 9d bd 3b 3d 9b bd b0 73 d1 bd
       -0.03520945 -0.076815054 -0.07580038 -0.10227144
000350 0d bf 0c 3d ef 49 02 3d 49 c7 59 3d dd 7c 33 bd
       0.034361888 0.03180879 0.05316857 -0.04382025
000360 e8 6b ac bc 96 79 79 3d 35 f2 0b bd 2c 3d 5e 3d
       -0.021047547 0.06090697 -0.034166533 0.054257557
000370 33 78 f6 3b 0a e8 4f bc 1a d4 8a 3d f1 da 5b 3d
       0.007521653 -0.0126896 0.067787364 0.053675596
000380 ea 47 6c 3d e2 44 a0 3d 5b 4c 84 bd 27 97 ca 3d
       0.05768577 0.07825638 -0.06459876 0.09892111
000390 42 7f 80 bd d1 9f 06 3d 4e 49 41 3a fd 7e c7 bb
       -0.062742725 0.032867257 0.0007373289 -0.006088136
0003a0 79 3a 06 bc f6 40 25 bd 9f 1d 95 bc 79 30 06 3c
       -0.008192652 -0.040345155 -0.018202601 0.008190268
0003b0 83 af 8b bd c7 ac e5 3c 62 65 20 3c 55 bb 45 bd
       -0.068205856 0.028036488 0.009789797 -0.048274357
0003c0 32 e0 70 3d 50 85 bd 3c d1 3d 87 3d 39 1e e2 3b
       0.05880756 0.023134857 0.066035874 0.0069005755
0003d0 89 26 99 bd 96 80 df bb 28 a6 75 3d 97 7b a7 bd
       -0.07478053 -0.0068207486 0.059972912 -0.0817787
0003e0 b0 6e ee bc c0 ff 84 bd 19 ff 80 3d 26 98 b7 bc
       -0.029105514 -0.06494093 0.06298656 -0.022411417
0003f0 ff 83 c0 3c 35 f3 58 3c e1 72 26 3d 9f 04 88 bd
       0.02350044 0.013241579 0.0406369 -0.066415064

fc4.weight f4 [12, 256]
000000 ae fe fa 39 4e 61 03 bd 5b d5 84 3d 3d c1 bb bd
       0.00047873467 -0.03207522 0.06486007 -0.09167717
000010 c4 3b ac bd 79 4a 13 bd 7f 8b 01 3d 49 74 83 bd
       -0.08409837 -0.035959695 0.031627174 -0.06418664
000020 ce 88 7e bc 98 13 ca bd 79 84 7c bd 8a d3 1d bd
       -0.0155355465 -0.098670185 -0.061649773 -0.038531817
000030 1e 9f 3b bd fa c2 54 3d dc 2f 15 bc 0b f4 36 bd
       -0.045806043 0.051943757 -0.009105649 -0.04466633
000040 a4 d5 fb 3b 7a cd 45 3e c4 f7 5c bd c2 19 d1 bd
       0.00768538 0.19316664 -0.053947225 -0.10209991
000050 fe 6c 7f bd ef a0 30 bc 6f 51 15 3c a7 6e 67 3e
       -0.062359802 -0.010780557 0.009113654 0.22600804
000060 47 b4 8c bd 2d 11 eb bd 5d 34 25 3d f7 0c 9c bb
       -0.06870323 -0.114778854 0.04033314 -0.0047622877
000070 34 81 b9 bd b1 88 45 be f5 93 3d 3d 24 51 4f bd
       -0.09057847 -0.19290425 0.04628368 -0.05061449
000080 6a 5e 09 bc 9d d9 21 3d c4 f5 f1 bd fc f2 16 be
       -0.0083843265 0.039514173 -0.11814454 -0.14741129
000090 c5 bd 04 be 37 c8 0c 3c d1 4f de bd c7 0c a7 bb
       -0.12963016 0.008592657 -0.108550675 -0.0050979587
0000a0 b4 ba a1 3d 90 36 0b bc a4 e5 97 bd 90 b4 46 bd
       0.07896939 -0.008496895 -0.07416847 -0.04851204
0000b0 0d d1 3e 3d fe 46 46 3d 33 5c 44 3e dc 50 8e ba
       0.046586085 0.048407547 0.19175796 -0.0010857838
0000c0 8c 3f ba 3c e6 14 1c 3e ee dc 38 3d e8 7d f2 bd
       0.02273538 0.15242347 0.04513257 -0.11840421
0000d0 16 4a 75 3c 78 97 b9 bc 93 5f 8a 3e 1a f0 b5 bd
       0.014971277 -0.022655234 0.27026042 -0.08883686
0000e0 67 9e a5 bd 9d c8 6b bd 1c 59 8a bd 5c 24 c2 3d
       -0.080868535 -0.057564367 -0.067552775 0.09479591
0000f0 0c c1 12 3d 6a 8e e9 bc 6d 7f 16 3d e0 17 3f bd
       0.035828635 -0.028510291 0.036742616 -0.04665363
000100 c9 69 c4 bd 0e 64 eb 3b a4 ad 91 bd 30 91 d8 3c
       -0.095904894 0.0071835583 -0.071131974 0.026436418
000110 f6 3f fb bc d4 10 f1 3d c3 5f 8a be ca 2a 0a 3c
       -0.030670147 0.11770788 -0.27026185 0.008433053
000120 8b 2b 2d bd 76 79 48 3d df ab 14 3e 5d 1b 8a bd
       -0.042277854 0.04894396 0.14518689 -0.067435004
000130 37 b9 08 bb 84 db 5f bd a1 59 0b 3d a5 0c ee 3d
       -0.002086235 -0.054652706 0.034021024 0.116235055
000140 c5 7a cd bd 3c 91 2b be 3f 1c 44 bd 3d c5 8a bd
       -0.10033182 -0.16754621 -0.0478785 -0.067759015
000150 42 a8 31 bd 0e 2b b6 3c fb e3 f0 bd 02 c6 5a 3d
       -0.043373354 0.022237327 -0.11762234 0.05341149
000160 f0 20 69 3e 4d c6 27 3c 16 19 3e 3b ee c6 e0 3c
       0.22766471 0.01024015 0.0029006652 0.027438607
000170 51 41 09 3a 56 a6 bd 3a cf df 81 bd 80 06 0b be
       0.0005235868 0.0014469128 -0.06341516 -0.13576698
000180 15 e9 3f bd be e5 91 bd 16 d3 cf 3c 0e 80 d8 bd
       -0.046853144 -0.07123898 0.025369208 -0.105712995
000190 0f 2e c2 3d a6 78 c2 bd 6d 76 5e 3e b8 7d bf bc
       0.09481441 -0.09495668 0.21724863 -0.023375377
0001a0 ee 89 50 3e 5d ec 4a bd 5e 94 13 3c 0f 48 97 bd
       0.20365116 -0.04954182 0.009007541 -0.07386791
0001b0 27 2b 90 3c 80 44 b6 bc a5 7e 20 3d 51 d1 9f bd
       0.017598702 -0.02224946 0.039183278 -0.07803596
0001c0 8d 93 03 3e 0b 46 8a bc e4 7b 15 be c1 71 e3 bd
       0.12849255 -0.016879102 -0.14598042 -0.11105681
0001d0 2f ab a8 3c 6d b0 6a 3b 92 d8 87 3b ae 12 a9 3d
       0.02058944 0.0035810724 0.0041456902 0.08255516
0001e0 58 2e f5 3c 5e 83 c5 3d 7e ef e3 3c 0a 18 4b bd
       0.029929325 0.09644197 0.02782416 -0.049583472
0001f0 9e 19 7b bd 7f c2 a4 bc 57 76 9f 3b 26 e3 ec bc
       -0.061303727 -0.020112274 0.004866402 -0.028916907
000200 ff c5 81 bd 03 f7 4a 3e f3 72 00 be 9e 4f 1f be
       -0.06336593 0.1982079 -0.1254385 -0.15557715
000210 32 94 2a be 32 f8 3f 3d 86 07 71 3c 1c 45 4b be
       -0.16658095 0.046867557 0.014711266 -0.19850582
000220 75 66 c4 bc 31 67 aa bd 8c 7c 12 3c 10 1d 4d 3d
       -0.023974637 -0.083204634 0.008940827 0.050076544
000230 5a 7e 5c 3e d4 aa 34 be 93 4a b3 bd e1 13 97 3d
       0.21532574 -0.17643291 -0.08754458 0.073768385
000240 71 a6 13 3d 31 bc 32 be 6f 83 11 3d 69 e4 5d bd
       0.036047403 -0.17454602 0.035525735 -0.054172907
000250 02 06 0b 3e 11 8b dc bd f5 d7 19 bc bf 29 15 bc
       0.1357651 -0.10768712 -0.009389867 -0.009104191
000260 db 06 40 be 39 36 25 bd b1 9f 20 bd 21 55 d3 bd
       -0.18752615 -0.040334914 -0.039214794 -0.103189714
000270 10 f3 4c bd d5 b0 10 bd d5 7f c3 bd fe 5d f8 3d
       -0.05003649 -0.03532489 -0.095458664 0.121273026
000280 c6 27 5d 3d 81 6d c0 bd 95 40 55 be 2f d7 a4 bc
       0.05399301 -0.09395886 -0.20825417 -0.020122139
000290 dc 5f 35 bd c7 34 a8 3c f1 a8 83 bd a2 e2 fc 3c
       -0.04428087 0.020532979 -0.064287074 0.030869786
0002a0 46 64 34 3c 8c 79 64 bd 77 6a 12 3d 0b 93 8a 3e
       0.011010235 -0.05577998 0.035746064 0.2706531
0002b0 ca 5f 4a 3d d9 c1 ea bd 33 5a ad bd e8 71 ad bd
       0.049407758 -0.11462755 -0.0846447 -0.084689915
0002c0 7f 47 02 3e 03 5a 88 bc 87 aa 0b 3d 98 92 5a 3e
       0.12722586 -0.016644483 0.034098174 0.21344984
0002d0 73 48 2d 3d 5b 5d 6a be 69 bd 46 bc 66 21 4a 3c
       0.04230542 -0.22887175 -0.01213012 0.012337064
0002e0 33 49 6d bd f7 89 21 3b ba 31 82 3d d1 19 a6 bd
       -0.057931136 0.0024648884 0.06357141 -0.08110393
0002f0 55 61 d6 3d 87 aa 33 bc ac 5a 36 3d 8f 30 85 bc
       0.10467783 -0.01096595 0.044520065 -0.016258506
000300 1e 6a 80 bd c6 de 4e bc d1 c8 e4 bd 1f 00 8a 3c
       -0.0627024 -0.0126263555 -0.11171115 0.01684576
000310 6c 83 44 3e 97 a0 95 3c af 75 35 be 39 2c 9e bd
       0.19190758 0.018265052 -0.17720674 -0.077232786
000320 77 84 13 bd 0e 53 59 bc c6 6c 57 3d ac de a1 bd
       -0.036015 -0.013264431 0.05259397 -0.079037994
000330 22 53 f5 bc 5d 88 d2 bd fa 24 d2 bc 8f a0 8c 3d
       -0.029946867 -0.102799155 -0.025652397 0.068665616
000340 ea 13 53 3d 31 1d 93 be 63 82 15 bd 1d 24 a2 bd
       0.051532663 -0.2873321 -0.0365013 -0.07917044
000350 c0 ed 5b 3d d5 a2 28 3d 63 4c 14 3d 3e 06 8a bd
       0.053693533 0.041170914 0.03620566 -0.06739472
000360 eb a1 cf 3d da 86 23 bb 0a 6a 0b be 7a e9 64 3e
       0.10138305 -0.0024952204 -0.1361467 0.22354689
000370 32 22 c3 3d ef 38 ef bd 54 8a 75 bd 7a bb 06 be
       0.095280066 -0.11680781 -0.059946373 -0.13157454
000380 36 6d 4d 3d 6b 3a b3 3c c1 86 02 3d f2 85 40 3e
       0.05015298 0.021878442 0.031866793 0.18801096
000390 3e ac 8d bd 10 e8 ad bc 1e d1 86 3c 02 bb cc b9
       -0.06917618 -0.02122882 0.016457137 -0.00039049244
0003a0 42 2c 27 3d 81 74 b3 bd d8 ef 9d bc 62 0b 20 3d
       0.040813692 -0.08762456 -0.019279405 0.039073355
0003b0 46 b2 bb bd 13 55 81 bc 7a 3e 32 be f6 8d 48 3d
       -0.09164862 -0.015787637 -0.17406645 0.04896351
0003c0 f2 46 c5 bd 88 17 b3 bd ed de 95 3e 51 d9 26 3d
       -0.09632672 -0.087447226 0.2927164 0.040734593
0003d0 f4 1a 21 be 80 11 61 3c f5 4d 37 3d 6e 2f d0 bb
       -0.15732938 0.0137370825 0.04475208 -0.0063533103
0003e0 39 dc 54 bd 44 60 be bc 15 98 0d be 9e ff 4b bd
       -0.051967833 -0.023239262 -0.13827546 -0.049804322
0003f0 67 dd 7d bd 9e 1d e2 3c 5f b3 39 3d bf 74 34 bd
       -0.061978724 0.027602013 0.045337077 -0.04405665

fc4.bias f4 [12]
000000 fc bc 3d bd 17 5b ab bc 8d 7d cd 3b be c8 59 3c
       -0.046322808 -0.020917458 0.0062710703 0.01329249
000010 6f 23 ac bc 3b cc 3b 3d 1a 30 ef 3c 70 a9 b6 bc
       -0.02101299 0.045849066 0.029197741 -0.022297591
000020 e4 29 b8 bd 4d 57 6f bd c8 b2 9d bd f8 83 67 bd
       -0.08992365 -0.058432866 -0.077001154 -0.05652234
