model.pt_episode_800.pt (torch, 182492 bytes, 8 tensors)

fc1.weight f4 [64, 5]
0	0x3e6674ad	0.22505446
1	0x3ee0a4ed	0.43875828
2	0xbe27570c	-0.163418
3	0xbecb7e4d	-0.39744797
4	0x3e8fe081	0.2810097
5	0x3ec08995	0.37604967
6	0xbe5837d8	-0.21115053
7	0x3e2f9aaf	0.17148851
8	0xbe1c8984	-0.15286833
9	0x3e580cc6	0.21098623
10	0xbea32087	-0.31860754
11	0xbd38ba7e	-0.045099728
12	0xbdf46c94	-0.11934772
13	0x3e8b5b15	0.27217928
14	0x3e96aeb7	0.29430172
15	0x3eef8c5c	0.46786773
16	0x3ccc2d83	0.024924045
17	0x3ec02c2e	0.37533706
18	0xba3cabe9	-0.00071972475
19	0xbeb4c6ea	-0.3530801
20	0xbe3e46fb	-0.18581764
21	0xbe98bb5e	-0.2983045
22	0x3e983548	0.2972815
23	0xbe6c7163	-0.23090129
24	0x3e8e1f69	0.2775834
25	0xbdb27e16	-0.08715455
26	0x3e9c8115	0.30567232
27	0xbe5369b4	-0.20645791
28	0xbeac7847	-0.33685514
29	0xbea4f235	-0.3221604
30	0x3d68b31d	0.05681144
31	0xbe129831	-0.14315869
32	0xbe58c643	-0.21169381
33	0x3e926732	0.28594357
34	0x3eb08a8f	0.34480712
35	0xbe7e8c66	-0.24858245
36	0x3ed5f1d9	0.41786078
37	0x3c2a4d83	0.010394457
38	0x3e4088f8	0.1880225
39	0x3d2f080a	0.042732276
40	0xbd0001f9	-0.03125188
41	0xbe220274	-0.15821248
42	0xbd15854c	-0.036504075
43	0x3d2c0cbb	0.04200433
44	0xbe8d8164	-0.2763778
45	0x3e814717	0.2524955
46	0x3eba4491	0.36380437
47	0x3e4d2860	0.20034933
48	0x3d1942d2	0.03741724
49	0xbe439a01	-0.19101717
50	0x3ece5e90	0.4030652
51	0xbee329cf	-0.44367835
52	0x3ebbaa10	0.36653185
53	0x3ed46b56	0.4148814
54	0x3e7eb892	0.24875095
55	0x3ef90b77	0.4864156
56	0xbda21835	-0.079147734
57	0x3c9d1304	0.019174106
58	0x3dcc5bc2	0.09978439
59	0x3d55f067	0.05223122
60	0x3f0636ad	0.5242718
61	0xb9654c72	-0.0002186762
62	0xbeb677f5	-0.35638395
63	0xbd49d445	-0.0492747
64	0x3e579efb	0.2105674
65	0xbe41ed83	-0.1893826
66	0xbeb346a9	-0.35014847
67	0x3d0ca2e1	0.03433502
68	0xbe0fb379	-0.14033307
69	0x3eac70df	0.33679864
70	0x3e5cd6bb	0.21566288
71	0x3eac5318	0.33657146
72	0x3e0f479a	0.13992158
73	0xbe37955e	-0.17928073
74	0xbeb5fb15	-0.35543123
75	0x3e3a4262	0.18189386
76	0x3e303cb1	0.17210652
77	0x3daca9fc	0.084308594
78	0x3ca8ced7	0.020606441
79	0xbdfc3f5c	-0.12316772
80	0x3bcee1e2	0.0063135484
81	0x3d81addc	0.06331989
82	0xbe9d5d3d	-0.30735198
83	0x3dbfffde	0.09374975
84	0x3e0b689e	0.13614127
85	0xbdb9a80e	-0.09065257
86	0x3e971723	0.2950984
87	0x3e9dbd94	0.308087
88	0xbebc942c	-0.36831796
89	0x3e476ea6	0.19475803
90	0x3e589f73	0.21154575
91	0xbebc0e12	-0.36729485
92	0x3e9d9a47	0.30781767
93	0xbe1ac546	-0.15114316
94	0x3d39faa9	0.045405064
95	0xbe401868	-0.1875931
96	0x3ed64053	0.4184595
97	0xbe7fc674	-0.24978048
98	0x3e440c16	0.19145235
99	0x3e8753f7	0.26431248
100	0xbd8d1576	-0.06888859
101	0xbd77cf3c	-0.06050037
102	0x3e495c94	0.19664222
103	0x3ed90fd3	0.42394885
104	0x3e8a6203	0.27027902
105	0x3ee49211	0.4464269
106	0xbdaeda4d	-0.08537731
107	0x3e3e3711	0.18575694
108	0xbed9e6c5	-0.42558876
109	0x3ea68ab3	0.32527694
110	0x3d2edadb	0.042689186
111	0x3e330650	0.17482877
112	0x3eb18102	0.34668738
113	0xbce084f9	-0.027407156
114	0xbeb2da17	-0.34932014
115	0xbe109c11	-0.14122035
116	0xbe33af24	-0.1754728
117	0x3dafd9bb	0.08586451
118	0xbc070e08	-0.008243091
119	0x3dbfa69c	0.0935795
120	0x3ebfc2e8	0.3745339
121	0xbd9b243d	-0.07575271
122	0x3e8b3975	0.27192274
123	0xbe3e7a3b	-0.18601315
124	0x3d00172b	0.031272095
125	0xbbca674a	-0.006176864
126	0xbe0aa7ce	-0.13540575
127	0x3eb05232	0.3443771
128	0xbe70390e	-0.23459265
129	0x3e4c5718	0.19955099
130	0x3e11ae4b	0.14226644
131	0x3dd949f2	0.10609807
132	0xbebe80a5	-0.37207523
133	0xbe5a357d	-0.21309467
134	0xbd5bbafc	-0.05364512
135	0x3d9766c1	0.073926456
136	0x3e86cbeb	0.26327452
137	0x3e36bea9	0.17846169
138	0xbebf4d9a	-0.37363893
139	0xbd88a492	-0.06672014
140	0x3c46df54	0.0121382065
141	0xbea081cb	-0.31349024
142	0x3d6bce45	0.05756976
143	0x3ecd1903	0.40058145
144	0x3e933bfe	0.28756708
145	0x3e365f52	0.178098
146	0x3d254dab	0.040357273
147	0x3e9a7dd3	0.3017412
148	0xbe75de9d	-0.24010701
149	0xbd6f45b4	-0.058416083
150	0xbe997819	-0.2997444
151	0x3c89db80	0.016828299
152	0xbe9d62bc	-0.3073939
153	0x3eb434ae	0.3519644
154	0x3e44ece0	0.19230986
155	0x3ddea109	0.10870559
156	0xbe3be9d4	-0.18350917
157	0x3ebd41ae	0.36964172
158	0x3e97d03b	0.29651055
159	0xbe9d64ca	-0.30740958
160	0x3eb4f2a7	0.3534138
161	0x3e92c74f	0.28667685
162	0xbcca4cdc	-0.024694853
163	0xbe2c705f	-0.16839741
164	0x3ebbce67	0.3668091
165	0x3b68db97	0.0035531276
166	0xbe392e62	-0.180841
167	0xbebd788b	-0.3700603
168	0x3e890b25	0.26766315
169	0x3e39c8ef	0.18143056
170	0x3ea83d15	0.32859102
171	0x3eb73fa5	0.35790744
172	0x3e6487ef	0.2231748
173	0x3dd2955c	0.10282394
174	0x3e0eaa4d	0.13932152
175	0xbe912b05	-0.28353134
176	0x3d983c12	0.074333325
177	0xbe2619d4	-0.1622079
178	0x3db74b3d	0.089498974
179	0xbea59131	-0.32337335
180	0xbe3fd83e	-0.18734834
181	0xbd553c13	-0.052059244
182	0xbe88d819	-0.2672737
183	0x3dfab5e6	0.122417256
184	0xbebb05f4	-0.3652798
185	0x3eb8914d	0.36048356
186	0xbe52f47f	-0.2060108
187	0xbe316c93	-0.17326574
188	0xbeadac54	-0.33920538
189	0x3ebf6040	0.3737812
190	0x3eadc85e	0.3394193
191	0x3ee08d90	0.43858004
192	0x3d7a836f	0.0611605
193	0x3e859594	0.26090682
194	0xbea4e767	-0.32207796
195	0x3ed76ad7	0.420737
196	0xbe33b824	-0.17550713
197	0xb93f4a08	-0.00018242758
198	0x3e1e9df4	0.15489942
199	0xbc7127be	-0.014718948
200	0xbe2a3d0a	-0.16624847
201	0x3e40cfd9	0.18829288
202	0xbead5d46	-0.33860224
203	0x3eb6ef25	0.35729328
204	0xbcbc63e1	-0.022996845
205	0x3e95d774	0.2926594
206	0x3e5f828a	0.2182714
207	0xbe2c1a84	-0.1680699
208	0xbebc866c	-0.36821306
209	0x3e764b30	0.2405212
210	0x3e920d43	0.28525743
211	0x3e362e07	0.17790996
212	0xbe984618	-0.29740977
213	0x3eeb0a20	0.45906162
214	0x3d3b576d	0.045737673
215	0xbead237c	-0.33816135
216	0xbea4fbae	-0.32223266
217	0xbe8e8cad	-0.27841702
218	0x3cdc7624	0.026911803
219	0xbd14f07c	-0.036362156
220	0x3e6026d3	0.2188981
221	0x3eef8b9e	0.46786207
222	0xbd2983c5	-0.04138543
223	0x3eb03a52	0.34419495
224	0xbe932872	-0.28741795
225	0xbb5bd699	-0.0033544658
226	0xbe7dfe40	-0.2480402
227	0xbd5ca36c	-0.05386679
228	0x3dc28a95	0.09499089
229	0xbc9b6ca8	-0.01897271
230	0xbe943a93	-0.2895094
231	0xbebf33a4	-0.37344086
232	0x3d332681	0.043737892
233	0x3d95700e	0.07296763
234	0xb7a3131d	-1.9440015e-05
235	0x3eb2cd5a	0.34922296
236	0xbe26223b	-0.16223995
237	0x3db2e487	0.087349944
238	0x3e072829	0.13198914
239	0xbea4053b	-0.3203524
240	0x3ea609c8	0.32429338
241	0x3e4dfe17	0.20116459
242	0x3e279f38	0.16369331
243	0xbe634ef6	-0.2219809
244	0x3dd04ef1	0.10171307
245	0xbc0ff6d2	-0.008786874
246	0xbde87cd8	-0.11351937
247	0xbe8e15ad	-0.27750912
248	0x3e07f9d3	0.13278894
249	0xbdf67c74	-0.12035456
250	0x3de6e1e9	0.11273558
251	0x3ecdaaf4	0.4016949
252	0x3ee5bfb6	0.44872826
253	0xbe27f1f9	-0.16400899
254	0x3c3b60b7	0.011436633
255	0xbe2f4b02	-0.17118457

fc1.bias f4 [64]
0	0xbe260821	-0.16214038
1	0xbc7e9b5b	-0.015539969
2	0xbe0b3d60	-0.13597631
3	0x3daf704b	0.0856634
4	0x3ec0b45c	0.37637603
5	0x3d2364f4	0.0398912
6	0x3ebfa043	0.37426957
7	0xbe641474	-0.22273427
8	0xbe036709	-0.12832274
9	0x3cdf8c40	0.027288556
10	0xbe1e368c	-0.15450495
11	0xbe165178	-0.14679515
12	0xbe1cd81c	-0.15316814
13	0x3d934e57	0.071926765
14	0x3e503909	0.20334257
15	0x3ea9b6a0	0.33147144
16	0x3cb9a583	0.02266193
17	0xbeb076b4	-0.34465563
18	0x3ea93c1f	0.3305368
19	0xbd9d8342	-0.07691051
20	0x3e5e2839	0.21695031
21	0xbe585c6b	-0.21129005
22	0x3ed27f05	0.41112533
23	0xbe6fd588	-0.234213
24	0xbdd9241c	-0.106025904
25	0xbe2182df	-0.1577258
26	0x3e549841	0.20761205
27	0x3e8a86ed	0.27056065
28	0x3ec203fa	0.3789366
29	0x3e14f2a9	0.14545693
30	0x3ebc86e9	0.36821678
31	0xbbe84b36	-0.007089044
32	0xbeaa87bd	-0.33306685
33	0x3e984cd8	0.29746127
34	0x3ec4c0a6	0.3842823
35	0x3ebb4f5b	0.3658398
36	0xbeab25b6	-0.3342721
37	0xbec56e46	-0.38560694
38	0xbdd99c9b	-0.10625573
39	0xbec82ab8	-0.39095092
40	0x3e8fa880	0.28058243
41	0x3dc1ea7f	0.09468555
42	0xbe3c8e0c	-0.18413562
43	0x3c29a1bb	0.010353501
44	0x3eedfd7b	0.46482453
45	0x3db45f71	0.088072665
46	0x3e39023c	0.18067259
47	0x3d84ed69	0.06490595
48	0x3e4f5f00	0.20251083
49	0xbe901e91	-0.2814832
50	0x3cdefce7	0.027220203
51	0xbe2f3c89	-0.17112936
52	0xbe4c3da0	-0.19945383
53	0x3d847a11	0.06468595
54	0x3de30382	0.110846534
55	0xbeb46af8	-0.3523786
56	0x3dbbb34e	0.09165059
57	0xbec030e8	-0.37537313
58	0x3e803853	0.25042972
59	0x3ebdaefa	0.3704756
60	0xbe8470e3	-0.25867376
61	0xbe40d14b	-0.18829839
62	0xbcc87694	-0.024470605
63	0xbb80cea5	-0.003930884

fc2.weight f4 [128, 64]
0	0xbe4db65a	-0.20089093
1	0x3e3578de	0.17721888
2	0xbe31cc63	-0.17363124
3	0x3d8dbafd	0.06920431
4	0x3de6fbfd	0.11278532
5	0x3cfeb056	0.031089943
6	0x3d7d6225	0.061861176
7	0xbdc85956	-0.097826645
8	0x3d91aa8d	0.07112608
9	0x3d48c1be	0.049012892
10	0x3e420f92	0.18951252
11	0x3d830c87	0.06398874
12	0x3d78a3b2	0.060702987
13	0xbdc11be2	-0.09429146
14	0xbde95fee	-0.1139525
15	0x3ce72a7e	0.028218504
16	0x3cbe48fd	0.023228163
17	0xbe861b0f	-0.2619252
18	0x3e87e70d	0.26543465
19	0xbe303569	-0.17207874
20	0x3d87dc61	0.06633831
21	0x3e18dc63	0.14927821
22	0xbd1919f8	-0.03737828
23	0xbd16894f	-0.03675204
24	0x3e17392f	0.14767908
25	0x3e5c122e	0.2149131
26	0x3cc893be	0.024484511
27	0xbdf9b702	-0.12193109
28	0x3e32dd37	0.174672
29	0xbd428f51	-0.04749996
30	0xbd5673e7	-0.052356627
31	0x3e3876c6	0.18014058
32	0xbdd28884	-0.102799445
33	0xbda49fc8	-0.08038288
34	0x3dbe251e	0.09284423
35	0x3cbbd27e	0.022927519
36	0x3ca0ad4f	0.01961389
37	0x3e48b5ec	0.19600648
38	0xbdaa3e65	-0.08312682
39	0x3d9243fe	0.07141875
40	0x3e219a21	0.15781452
41	0x3d3ca745	0.04605796
42	0xbd86f36a	-0.06589396
43	0xbdd5db76	-0.104422495
44	0xbe03c6a4	-0.12868744
45	0x3d952f17	0.07284372
46	0xbdb9e4a2	-0.090768114
47	0x3dc4838b	0.09595402
48	0xbdcd6994	-0.10029903
49	0x3db5ae3c	0.08871123
50	0xbe025290	-0.12726808
51	0x3d3cac9c	0.04606305
52	0x3c312e5e	0.010814277
53	0xbdcd6a17	-0.10030001
54	0x3c733836	0.014844945
55	0xbd96a789	-0.073561735
56	0xbdbd15ba	-0.0923266
57	0x3e3b1704	0.18270499
58	0x3db1d978	0.08684057
59	0x3db17e3c	0.086666554
60	0x3d388476	0.0450482
61	0xbdd62ee4	-0.104581624
62	0x3dc8f233	0.09811821
63	0xbe3651f8	-0.17804706
64	0xbc08ab8c	-0.008341681
65	0x3dd617ac	0.10453734
66	0x3d9ddf43	0.077085994
67	0xbce8db94	-0.028425016
68	0x3dc05415	0.093910374
69	0x3d2bd1c7	0.041948106
70	0xbcd7f6f8	-0.026362881
71	0x3d8cb142	0.06869747
72	0xbdb732ee	-0.08945261
73	0x3c39fe93	0.011352199
74	0x3d5da3d4	0.054111317
75	0x3ca0b187	0.019615902
76	0x3e0242ee	0.12720844
77	0x3db8623e	0.09003113
78	0xbdf294b6	-0.118447706
79	0xbcad5fc1	-0.021163823
80	0x3daef805	0.085434
81	0xbdb6e91f	-0.08931183
82	0x3eb55268	0.35414433
83	0xbd3b5106	-0.045731567
84	0xbc20f15a	-0.009823168
85	0x3c48c1dc	0.012253251
86	0xbdec8ce8	-0.11550313
87	0xbd6c3b7a	-0.05767391
88	0xbcc23364	-0.023706146
89	0x3e4a574d	0.19759865
90	0xbc8afc3f	-0.016965983
91	0x3d811edc	0.06304714
92	0xbc5fabe2	-0.01365182
93	0xbd368911	-0.04456431
94	0x3db7e93f	0.08980035
95	0xbd92eca1	-0.0717404
96	0xbdafc53f	-0.085825436
97	0x3e34fea4	0.17675263
98	0x3d30ee8f	0.043196257
99	0xbdd78a22	-0.105243936
100	0x3b02d47f	0.0019963083
101	0x3d83a99b	0.06428834
102	0xbd9b902b	-0.07595857
103	0x3c86346a	0.016382415
104	0x3e917934	0.28412783
105	0xbd906cff	-0.07052039
106	0x3db21b99	0.0869667
107	0x3d3221b4	0.043489173
108	0x3dafff93	0.08593669
109	0xbdbf3cc2	-0.093377605
110	0xbd77fdf6	-0.06054493
111	0xbd383227	-0.044969704
112	0x3ccb0b4e	0.024785664
113	0x3d325dea	0.043546595
114	0x3d45a477	0.04825255
115	0xbda9909f	-0.082795374
116	0x3cf9b4fe	0.030481812
117	0xbd3ad7d8	-0.045616
118	0xbcd0da55	-0.025494734
119	0xbd3fa0e7	-0.046784308
120	0x3d038143	0.032105695
121	0x3db22cf3	0.0869998
122	0x3c0abc9f	0.008467822
123	0x3e72a2aa	0.23694864
124	0xbdb88c09	-0.090110846
125	0xbc9bc847	-0.019016398
126	0x3d63df6a	0.055632986
127	0x3d83cee6	0.06435947
128	0x3cd24ec6	0.025672328
129	0xbdd59b6a	-0.104300335
130	0xbd40cb7a	-0.04706905
131	0xbd45f0b6	-0.048325263
132	0x3cc28836	0.023746591
133	0x3cbefe0a	0.023314495
134	0xbdb79ea7	-0.089658074
135	0xbdcfabbe	-0.10140179
136	0xbcb23186	-0.02175213
137	0xbd3483e0	-0.04407108
138	0xbd9db815	-0.077011265
139	0xbda6a919	-0.081377216
140	0x3c9cc10f	0.019135026
141	0xbd811489	-0.06302745
142	0xbc09359f	-0.008374601
143	0x3dae3859	0.08506841
144	0xbd963d65	-0.07335929
145	0x3d36e454	0.044651344
146	0x3d224ba7	0.03962293
147	0x3d85dbc5	0.06536058
148	0xbdd252da	-0.10269709
149	0xbdbbc2f3	-0.09168043
150	0x3db6e57c	0.089304894
151	0xbb9737df	-0.0046148147
152	0x3d2a0bb3	0.041515063
153	0xbd4dda8e	-0.050257258
154	0xbd9c1987	-0.076220565
155	0x3dbf2a15	0.093341984
156	0x3c850b1f	0.016240655
157	0xbd86f145	-0.06588987
158	0xbdbd9076	-0.09256069
159	0xbd819cbb	-0.06328722
160	0xbd23a13f	-0.039948698
161	0x3dcad750	0.09904349
162	0xbcc0bee6	-0.023528527
163	0x3dbfb54c	0.093607515
164	0x3cbac71a	0.022800017
165	0xbad69dfe	-0.001637399
166	0x3da7b7af	0.08189332
167	0xbce1cb66	-0.027562808
168	0xbd9aa451	-0.07550872
169	0x3c0a0f7f	0.008426546
170	0xbdb9dcb4	-0.09075299
171	0xbdd3d102	-0.103425995
172	0xbdd0ee0c	-0.10201654
173	0xbbd4c4fe	-0.00649321
174	0x3c86c717	0.016452355
175	0xbd8bcb6b	-0.06825908
176	0xbd4bdd52	-0.049771614
177	0x3d2a7bf7	0.04162213
178	0xbd8420e7	-0.06451588
179	0xbba97e3f	-0.0051725204
180	0x3b3081de	0.0026932876
181	0x3d3a7978	0.045525998
182	0x3cc81d66	0.02442808
183	0x3dd165ea	0.10224517
184	0x3cb3bbea	0.02194019
185	0x3dc7aa86	0.09749322
186	0xbdb1f990	-0.086901784
187	0x3d308722	0.043097623
188	0xbdd28ce6	-0.102807805
189	0x3d9e9dad	0.07744918
190	0x3d1421e7	0.036165144
191	0xbbd05dbe	-0.006358831
192	0xbd222c6b	-0.03959314
193	0x3d9a7f5b	0.075438224
194	0x3dc2185c	0.094773024
195	0x3dbcb31e	0.092138514
196	0x3b7ed73e	0.0038885619
197	0x3ceca8b6	0.028889041
198	0xbdbecf0e	-0.09316836
199	0xbdade8a1	-0.08491636
200	0xbc980aa7	-0.018559767
201	0xbb9cecff	-0.0047889943
202	0x3d30e764	0.04318942
203	0x3daec5b2	0.08533801
204	0xbdd0f6b8	-0.10203308
205	0x3d45e606	0.04831507
206	0xbd19dcdf	-0.037564155
207	0xbdbcedc2	-0.09225036
208	0x3d58107e	0.052750103
209	0xbd344bde	-0.044017665
210	0xbd102c37	-0.035198417
211	0xbddaee16	-0.106899425
212	0x3c90b287	0.017663253
213	0xbd53374a	-0.0515664
214	0x3d7ec32e	0.062197857
215	0xbb8fbe1f	-0.004386678
216	0xbbf2cefe	-0.0074099293
217	0xbd360086	-0.044434093
218	0xba06bb7f	-0.00051396334
219	0xbdb411f6	-0.08792488
220	0x3d41bbd2	0.04729826
221	0xbcf8aff6	-0.030357342
222	0xbcf4cc86	-0.02988268
223	0xbca0e1a7	-0.01963885
224	0xbddaa504	-0.106760055
225	0x3dba8fc9	0.09109456
226	0xbd999f1f	-0.07501053
227	0x3c17b37f	0.009259104
228	0x3dce90fa	0.10086246
229	0x3ce47f1e	0.027892645
230	0x3d96542d	0.07340274
231	0xbdc96238	-0.09833187
232	0xbdb5b08c	-0.08871564
233	0x3d36907e	0.044571392
234	0x3d5a046a	0.053226866
235	0xbc8c86d7	-0.01715414
236	0xbcd69396	-0.026193421
237	0xbbf74ebe	-0.0075472286
238	0xba33f2fe	-0.0006864517
239	0xbdc2f2fc	-0.09519002
240	0x3d962b85	0.073325194
241	0x3c197faf	0.009368821
242	0x3daeb3dc	0.08530399
243	0xbd804009	-0.06262214
244	0xbd15710b	-0.03648476
245	0xbd39c142	-0.04535032
246	0x3b0dd97f	0.002164453
247	0xbc0ee67f	-0.008721947
248	0x3dcbc1e0	0.09949088
249	0x3acbd07e	0.0015549806
250	0xbda3d1ef	-0.07999026
251	0xbda73427	-0.08164244
252	0xbdcb9b46	-0.099417254
253	0xbdb7f516	-0.08982293
254	0xbcc1113e	-0.023567792
255	0xbcf325b6	-0.029681068

fc2.bias f4 [128]
0	0x3dcb64e6	0.09931354
1	0xbd8486dc	-0.06471035
2	0xbd8badf1	-0.06820286
3	0xbddc05f0	-0.1074332
4	0x3c85fccf	0.0163559
5	0xbdce4db8	-0.100734174
6	0x3e2194c0	0.157794
7	0xbdad56a2	-0.084637895
8	0x3dc8d14e	0.09805547
9	0xbd1dd59f	-0.038533803
10	0x3d71c72b	0.059027832
11	0x3c3b62c7	0.011437125
12	0xbddad2df	-0.10684752
13	0x3b9525d5	0.004551629
14	0x3cc89d4d	0.02448907
15	0x3de3e904	0.111284286
16	0xbd6796d0	-0.05654031
17	0x3dd6ea94	0.10493961
18	0x3d498183	0.049195778
19	0x3b3144be	0.002704903
20	0xbc8f36af	-0.01748213
21	0x3d9cfbb9	0.076652
22	0x3e07b8f3	0.13254146
23	0xbd04ace7	-0.032391455
24	0xbd7429ca	-0.059610166
25	0xbd1b9a0f	-0.03798872
26	0xbd0b2350	-0.033969223
27	0x3c436962	0.011926981
28	0xbd9c9f5a	-0.076475814
29	0x3df5c4b8	0.12000412
30	0x3d166f60	0.03672731
31	0xbcd300de	-0.02575725
32	0x3bc05e2a	0.0058706
33	0x3d85e4bf	0.065377705
34	0x3c915d09	0.017744558
35	0x3e089539	0.13338174
36	0x3d891bb6	0.066947386
37	0x3db5463b	0.08851286
38	0xbd25102e	-0.040298633
39	0x3dbaeea6	0.0912755
40	0xbc7989aa	-0.015230576
41	0x3ccd6aac	0.02507528
42	0x3c86ac4f	0.016439585
43	0xbd4f8273	-0.050661515
44	0xbd8fe524	-0.07026127
45	0x3da28d23	0.07937076
46	0xbdcec738	-0.10096592
47	0x3d75103a	0.059829928
48	0xbca20a25	-0.019780228
49	0xbcc33778	-0.02383016
50	0xbca89907	-0.020580782
51	0xbdbc591c	-0.09196684
52	0xbdbdb15a	-0.09262343
53	0x3dddd4b4	0.108315855
54	0x3d2c5c1b	0.042080026
55	0x3d11717f	0.03550863
56	0x3baffe11	0.0053708632
57	0xbcf65188	-0.030068174
58	0xbcdcbe76	-0.026946288
59	0x3d16f20b	0.036851924
60	0xbcf3aefe	-0.029746529
61	0x3e2ae45a	0.16688672
62	0xbd5bb996	-0.053643785
63	0xbd370900	-0.044686317
64	0x3ba8ed3f	0.005155235
65	0xbdb6002e	-0.08886753
66	0xbcb1984d	-0.021679068
67	0xbd29d32f	-0.041461166
68	0x3d471d87	0.048612144
69	0xbd85c505	-0.06531719
70	0xbd9c9a9d	-0.07646678
71	0x3b45a088	0.0030155499
72	0x3dc0b62f	0.09409749
73	0x3d945d82	0.07244398
74	0xbccd3255	-0.025048414
75	0x3d8c13aa	0.06839688
76	0xbd87337b	-0.06601616
77	0x3d7a41ae	0.061097793
78	0xbd873476	-0.06601803
79	0x3d124dc7	0.035718706
80	0xbdbc48ff	-0.091936104
81	0x3cd2579e	0.025676545
82	0xbd56458d	-0.052312423
83	0xbc937538	-0.01800023
84	0xbd082b74	-0.033244565
85	0xbd5c0443	-0.053715
86	0xbd6edb3a	-0.05831454
87	0xbcd35f5e	-0.02580231
88	0xbac3f25b	-0.0014949547
89	0x3d0d7719	0.03453741
90	0x3db70f10	0.0893842
91	0x3dbfa310	0.093572736
92	0xbd1bc30c	-0.038027808
93	0xbd741a1d	-0.059595216
94	0x3dc59a9a	0.096486285
95	0x3dbcba38	0.09215206
96	0xbdd03372	-0.101660624
97	0xbdb656d8	-0.08903283
98	0xbd3176d1	-0.043326203
99	0x3db5ad54	0.0887095
100	0xbd5e9a88	-0.05434659
101	0xbd76a7b7	-0.06021854
102	0xbbf54929	-0.007485528
103	0x3d409d9b	0.047025304
104	0x3dbbcd12	0.091699734
105	0xbdb26b78	-0.08711904
106	0x3b33b01e	0.0027418206
107	0x3dfc6ad8	0.12325066
108	0xbd3b4277	-0.045717683
109	0x3d5f80cc	0.05456619
110	0xbdab4dfc	-0.08364484
111	0xbdb859c5	-0.09001497
112	0x3c9a8c27	0.018865658
113	0x3d0dd47d	0.034626473
114	0x3d66d598	0.056356043
115	0xbcfd4b9f	-0.030919848
116	0x3d49afce	0.049239926
117	0x3dd42e6c	0.10360417
118	0x3dec6fdf	0.11544775
119	0xbd9dfe8b	-0.07714566
120	0xbd94bf13	-0.07263007
121	0x3d3a4146	0.045472406
122	0x3e1d2d2c	0.15349263
123	0xbcd6c546	-0.026217114
124	0xbdb81886	-0.089890525
125	0x3daf1c81	0.085503586
126	0x3d0d43c8	0.03448847
127	0x3cf9b569	0.03048201

fc3.weight f4 [256, 128]
0	0x3d991f40	0.074766636
1	0x3d66bc24	0.05633177
2	0xbd3fdbca	-0.046840467
3	0x3d2eb627	0.042654183
4	0xbccf305a	-0.02529161
5	0xbd5a293f	-0.05326199
6	0xbd7d85ca	-0.06189517
7	0x3d0fbca6	0.03509202
8	0xbda364c1	-0.07978202
9	0xbc8cc515	-0.01718382
10	0x3cb6e715	0.022326985
11	0xbd2fcbd7	-0.042919006
12	0x3d9bf9d5	0.07616011
13	0xbd56702d	-0.052353073
14	0xbd358c80	-0.044323444
15	0x3d99cdeb	0.07509979
16	0xbd828be0	-0.06374335
17	0x3cb1c2ae	0.021699276
18	0xbd077cd4	-0.03307803
19	0xbd709d2c	-0.05874364
20	0xbd81e1df	-0.063419096
21	0x3d8ad9da	0.06779833
22	0x3d656c2a	0.056011356
23	0x3c96d978	0.018414244
24	0xbd105d83	-0.03524543
25	0xbd19d969	-0.037560854
26	0x3cae623d	0.021287078
27	0x3d92d035	0.071686186
28	0x3b2e93f3	0.0026638478
29	0x3c3c535b	0.011494483
30	0x3cebfd10	0.028807193
31	0xbd145116	-0.036210142
32	0x3d57662f	0.052587684
33	0xbc8872db	-0.01665633
34	0xbcb2ca03	-0.021824842
35	0xbca9c729	-0.02072485
36	0x3d386d39	0.045026038
37	0xbd89a67e	-0.06721209
38	0xbd87a8f5	-0.06624023
39	0xbd1411e9	-0.036149893
40	0x3a63fe5e	0.00086972665
41	0xbd22f994	-0.039788797
42	0xbd9c5853	-0.07634034
43	0xbd2e9ec7	-0.04263189
44	0xbcf22eb0	-0.029563278
45	0x3d5db586	0.054128192
46	0x3d4d82a7	0.050173428
47	0x3cc3ceb2	0.023902271
48	0xbc5e9e34	-0.013587523
49	0xbd2f440f	-0.042789515
50	0x3c3bc320	0.011460096
51	0xbd34903d	-0.04408287
52	0x3cad24f8	0.021135792
53	0x3cdc8b97	0.02692203
54	0xbd1b20ad	-0.03787296
55	0xbbb05ed2	-0.005382397
56	0x3c86c156	0.016449612
57	0xbcbe6ed8	-0.023246214
58	0xbd4360d1	-0.047699753
59	0x3d87cc2c	0.066307396
60	0xbd10af68	-0.03532353
61	0x3c922303	0.01783896
62	0x3d89776c	0.06712231
63	0xbc4fe828	-0.012689628
64	0xb9015894	-0.00012335397
65	0xbd84a811	-0.064773686
66	0xbd90e288	-0.070744574
67	0x3ccbfa79	0.024899708
68	0x3d8d9cbd	0.06914661
69	0x3d6dbfac	0.05804412
70	0xbda25b18	-0.07927531
71	0x3c815324	0.015786715
72	0xbd4011a6	-0.04689183
73	0xbd679154	-0.05653508
74	0xbc595f1a	-0.013267303
75	0xbbd78d78	-0.0065781437
76	0x3cff512e	0.03116664
77	0xbd059e62	-0.03262175
78	0xbd79608c	-0.06088309
79	0xbb9c0439	-0.0047612456
80	0x3c88cf8e	0.016700532
81	0xbd9eaa48	-0.07747322
82	0x3d6417de	0.055686824
83	0x3cf67094	0.030082978
84	0x3c15953d	0.009129819
85	0x3c144459	0.0090494985
86	0x3d9ce9fb	0.07661816
87	0x3d1aac0d	0.037761737
88	0x3d4b2da5	0.049604077
89	0x3c759dd8	0.014991246
90	0xbd828f68	-0.06375009
91	0xbc7c0f90	-0.01538457
92	0xbbaa17ba	-0.0051908167
93	0xbb2500f9	-0.0025177582
94	0xbc8e6ef5	-0.017386893
95	0x3d62fc40	0.055416346
96	0x3d4a4d89	0.04939035
97	0x3d0d841a	0.03454981
98	0x3cc70fa0	0.024299443
99	0xbd5f0a7c	-0.054453358
100	0xbd210e95	-0.039320547
101	0xbd1d0561	-0.038335208
102	0xbcabd8d4	-0.020977415
103	0xbd2ca490	-0.042149127
104	0xbc671e3c	-0.0141063295
105	0x3da03a14	0.078235775
106	0xbcdd7784	-0.027034529
107	0x3bf84afc	0.007577298
108	0xbd376225	-0.044771332
109	0xbd181ba5	-0.03713574
110	0xbc190629	-0.009339848
111	0xbcebfa80	-0.028805971
112	0x3ceb6b1e	0.0287376
113	0xba93a0ea	-0.0011263166
114	0x3d4970ad	0.04917972
115	0xbc383766	-0.011243677
116	0x3d2c4994	0.042062357
117	0xbd7c4134	-0.06158562
118	0xbd98d44b	-0.07462367
119	0x3aba50fa	0.0014214807
120	0xbd02869c	-0.031866655
121	0x3d4040a9	0.046936665
122	0xbd4a8f3b	-0.049453
123	0x3cd112ee	0.025521722
124	0x3bb75372	0.0055946643
125	0x3d848060	0.06469798
126	0xbd88c621	-0.06678415
127	0x3d880da8	0.0664323
128	0x3ebd04cb	0.3691772
129	0x3e05f59f	0.13081978
130	0xbd9bec76	-0.07613461
131	0x3d9836bb	0.07432314
132	0x3d947ba9	0.07250149
133	0x3cb73a25	0.022366593
134	0x3e75bf86	0.23998842
135	0x3dd90a9c	0.10597727
136	0xbd7eae9e	-0.062178247
137	0xbc1f171a	-0.009710098
138	0x3d2f263c	0.042761073
139	0x3e03431b	0.12818567
140	0x3e796c86	0.24357805
141	0x3e8d1f36	0.27562875
142	0xbbcf57c1	-0.0063275998
143	0x3e227af0	0.1586721
144	0xbd9aaec8	-0.07552868
145	0x3d9091ce	0.0705906
146	0x3e023d45	0.12718685
147	0x3da3bcb2	0.07994975
148	0x3d16fd36	0.036862575
149	0x3d58496b	0.05280439
150	0x3e8f1c4f	0.27951285
151	0x3c24006c	0.010009866
152	0xbd433da9	-0.047666226
153	0xbd7c1fba	-0.061553694
154	0x3e444da5	0.19170244
155	0x3d9b02c8	0.0756889
156	0x3d8191e3	0.06326654
157	0xbd23face	-0.040034108
158	0x3d3b1f25	0.045684
159	0xbd0b9f55	-0.034087498
160	0x3e13f212	0.14447811
161	0x3e802750	0.25029993
162	0x3e402eac	0.18767804
163	0x3dba7e38	0.091061056
164	0x3ea063b8	0.3132608
165	0x3d8addae	0.06780563
166	0xbc5d6e12	-0.013515012
167	0x3d386753	0.045020413
168	0xba9b5c8b	-0.0011853141
169	0x3e76e917	0.24112354
170	0xbd531cb5	-0.05154105
171	0xbcf8ae3b	-0.030356517
172	0xbe2e6388	-0.17030156
173	0xbaf6558e	-0.0018793808
174	0x3c94d89e	0.018169697
175	0x3d318532	0.043339916
176	0x3cd74615	0.026278535
177	0xbd485d21	-0.04891694
178	0x3cbf0f80	0.02332282
179	0x3caff411	0.021478685
180	0x3d6b5300	0.0574522
181	0x3d314424	0.043277875
182	0xbc9c4aab	-0.019078573
183	0xbd319ce2	-0.043362506
184	0x3c4a7f19	0.012359404
185	0x3c00b05b	0.007854546
186	0xbd18dde3	-0.037320983
187	0xbd6e32f6	-0.05815407
188	0x3bf228da	0.007390124
189	0xbd2c8d3e	-0.042126887
190	0xbcd30ad5	-0.025762001
191	0x3d9edda9	0.07757122
192	0xbd7fbbe6	-0.062435053
193	0x3e430618	0.19045293
194	0x3e0f4756	0.13992056
195	0x3be228f0	0.006901853
196	0x3e41905e	0.18902728
197	0x3e4655fd	0.1936874
198	0xbdf5e2e4	-0.120061666
199	0xbcd94bbf	-0.026525376
200	0xbd6e606c	-0.058197424
201	0x3dd850e2	0.10562302
202	0x3d02e810	0.031959593
203	0xbd943506	-0.07236676
204	0x3dcc836c	0.09986004
205	0x3db93384	0.09043029
206	0xbdccfab1	-0.10008753
207	0xbd456fb6	-0.04820224
208	0x3d8aa00c	0.06768808
209	0x3c18f3ff	0.009335517
210	0x3d3d99f2	0.04628939
211	0xbe05cca6	-0.13066348
212	0x3df57fa6	0.11987238
213	0xbd2a6e8d	-0.041609336
214	0x3bdd37ec	0.006751051
215	0xbb79436e	-0.0038034576
216	0x3e11dd53	0.14244585
217	0x3d58beb6	0.05291625
218	0xbe02bf06	-0.12768182
219	0xbd887509	-0.06662948
220	0x3d1adfa7	0.037810948
221	0xbd388157	-0.045045223
222	0x3d447691	0.047964636
223	0xbc137c1a	-0.009001756
224	0x3d044e9e	0.032301538
225	0x3d181c7f	0.03713655
226	0xbb9706d2	-0.0046089673
227	0x3dac0351	0.0839907
228	0xbd436c73	-0.047710847
229	0x3c131100	0.008976221
230	0xbd631b69	-0.055446062
231	0x3e48b667	0.19600831
232	0xbcb74795	-0.022373
233	0x3d024f0f	0.031813677
234	0xbd6c8f5e	-0.057753913
235	0x3e0868a5	0.13321169
236	0x3d1c73f8	0.038196534
237	0xbcd17896	-0.025570195
238	0x3d77883c	0.060432658
239	0x3d8c0ce1	0.06838394
240	0x3ead9f7c	0.3391074
241	0x3e4e999e	0.20175788
242	0x3cfee713	0.031116044
243	0x3cc77f67	0.024352742
244	0x3d7aca84	0.06122829
245	0xbbf3d0fd	-0.007440685
246	0xbd2c1e14	-0.042020872
247	0xbabb2753	-0.0014278687
248	0x3d686dce	0.056745343
249	0x3c8adb21	0.016950192
250	0x3e49c995	0.19705804
251	0x3db4c07b	0.08825775
252	0xbd72e644	-0.05930163
253	0xbc9ee20b	-0.019394895
254	0xbd3d1e97	-0.04617175
255	0xbdcd8664	-0.100353986

fc3.bias f4 [256]
0	0x3c0a058e	0.008424176
1	0x3da659b8	0.08122581
2	0xbd05ab4e	-0.032634072
3	0xbc2f6aa1	-0.010706575
4	0x3d09c942	0.0336392
5	0x3d64db9e	0.055873506
6	0xbcef2b2c	-0.02919539
7	0x3d942441	0.072334774
8	0x3d8833fd	0.06650541
9	0x3dc32185	0.09527878
10	0xbc603411	-0.013684289
11	0xbd3f36ce	-0.046683125
12	0x3d9f73b5	0.07785741
13	0x3da1ba18	0.07896823
14	0x3c384d3a	0.011248881
15	0xbd3a6f2a	-0.04551617
16	0x3d30ae89	0.0431352
17	0x3d0f9444	0.035053506
18	0x3d86a2b5	0.06574003
19	0x3d723682	0.059134014
20	0x3db4eb84	0.088339835
21	0x3d3fe5a3	0.046849858
22	0xbd1bfdd9	-0.038083885
23	0x3d9d538a	0.076819494
24	0x3d5e10b7	0.05421516
25	0x3d67c686	0.05658581
26	0xbd03badd	-0.03216063
27	0xbd3d65f5	-0.046239812
28	0x3d2432e1	0.040087584
29	0xbd8fd822	-0.07023646
30	0x3c83ac62	0.01607341
31	0x3ce88966	0.02838583
32	0xbd21f413	-0.039539408
33	0xbd0c1dc3	-0.03420807
34	0x3da5cd76	0.08095829
35	0x3d87cc39	0.06630749
36	0x3dbc0897	0.09181326
37	0x3d55252c	0.052037403
38	0x3d786a2b	0.060648125
39	0xba9a4f68	-0.0011772932
40	0x3dc06fe4	0.093963414
41	0xbd8f2793	-0.0698997
42	0x3ce638d5	0.028103271
43	0xbd1ef813	-0.0388108
44	0xbc0a9289	-0.008457788
45	0x3c2fe0d8	0.010734759
46	0x3cd6d3d5	0.026224056
47	0x3dc5036d	0.09619794
48	0xbcb15faf	-0.02165207
49	0xbc49dadc	-0.012320247
50	0x3d29f9aa	0.041497864
51	0x3d249587	0.040181663
52	0x3be24156	0.0069047613
53	0x3d71672c	0.058936283
54	0xbd44fe62	-0.04809416
55	0xbda71c8e	-0.08159743
56	0xbd124675	-0.035711724
57	0x3d34cb73	0.044139337
58	0xbc1dd141	-0.00963241
59	0xbd9c7dac	-0.076411575
60	0xbc89a39f	-0.016801653
61	0xbd1846ca	-0.037176885
62	0x3d3e6b19	0.046488855
63	0xbd807360	-0.06272006
64	0xbd53a895	-0.051674444
65	0xbcf9b236	-0.030480485
66	0x3d8e72be	0.06955479
67	0x3bb814d6	0.005617718
68	0xbd5f8226	-0.05456748
69	0xbd0b61e6	-0.03402891
70	0xbc8d9dfc	-0.017287247
71	0xbd8127e5	-0.063064374
72	0xba32e5f4	-0.0006824427
73	0x3d9b2008	0.07574469
74	0xbd908e38	-0.07058376
75	0x3daee7cf	0.08540308
76	0x3d055ec7	0.03256109
77	0xbc44c53c	-0.012009915
78	0xbbe21d5c	-0.0069004726
79	0x3d8160ec	0.063173145
80	0x3cd51198	0.026009366
81	0x3d8b7e56	0.06811206
82	0xbc9c419b	-0.019074252
83	0x3c464397	0.012101076
84	0xbd7fddc9	-0.06246737
85	0xbc0feba0	-0.008784205
86	0x3da7a8a9	0.08186466
87	0xbcfba2cb	-0.030717274
88	0xbd171e3d	-0.03689407
89	0x3d9ca697	0.07648962
90	0x3cc1477e	0.02359366
91	0xbd0aa516	-0.033848844
92	0x3dacf9ab	0.08446058
93	0xbcb66228	-0.022263601
94	0x3de68a9d	0.11256907
95	0xbbc2c85e	-0.005944296
96	0x3d84911e	0.064729914
97	0x3d809a44	0.06279424
98	0xbd2c38c9	-0.042046342
99	0xbca6a30a	-0.020341415
100	0x3d3c5cb2	0.04598684
101	0x3e1cefc3	0.15325837
102	0x3d27fcb7	0.041012492
103	0xbd42d1eb	-0.047563475
104	0x3d37ef85	0.044906158
105	0x3ceb6204	0.02873326
106	0xbd3e2863	-0.046425235
107	0x3d678d7b	0.05653141
108	0x3cbb907b	0.022896042
109	0x3d53eb2c	0.05173795
110	0xba939fdb	-0.0011262851
111	0xbccd4fab	-0.025062403
112	0xbb759bcb	-0.0037476893
113	0xbaffbf06	-0.0019511885
114	0x3d2bd4b7	0.041950908
115	0xba112547	-0.0005536866
116	0xbd8d39f3	-0.068958186
117	0x3cc482b6	0.02398811
118	0x3b6a1668	0.0035718922
119	0xbd8efac5	-0.06981424
120	0x3d345fc1	0.04403663
121	0xbd94a911	-0.07258809
122	0xbd69e604	-0.057104126
123	0x3d1b289d	0.03788053
124	0xbd6d205c	-0.05789219
125	0xbd9c9b42	-0.076468006
126	0xbd2e9f7f	-0.042632576
127	0x3d5bd07b	0.05366562
128	0xbd3dc906	-0.04633429
129	0xbb84e365	-0.004055428
130	0x3d9fedba	0.078090146
131	0xbd057858	-0.032585472
132	0x3ddb1ec8	0.106992304
133	0x3d47b761	0.048758868
134	0x3d9083d3	0.070563935
135	0x3ce22b88	0.027608648
136	0xbc6cb5fd	-0.014447686
137	0x3cb8675e	0.022510227
138	0xbd2afbf9	-0.041744206
139	0x3c592529	0.013253489
140	0x3d60e9de	0.054910533
141	0x3d952f8d	0.0728446
142	0x3e041c20	0.12901354
143	0xbc3f49f9	-0.011675351
144	0x3d3b54b8	0.04573509
145	0x3de9ecfa	0.11422153
146	0xbd33f68d	-0.0439363
147	0xbc94f79c	-0.018184476
148	0xbc65c39e	-0.01402369
149	0x3c93969a	0.018016148
150	0xbd93417f	-0.07190227
151	0x3cff8904	0.031193264
152	0x3d8849b4	0.06654683
153	0x3cf18a00	0.029484749
154	0x3d251d04	0.040310875
155	0x3dcf9470	0.10135734
156	0x3d4fbd7d	0.05071782
157	0x3be35bd2	0.006938436
158	0x3d378fc9	0.04481486
159	0x3d052c03	0.032512676
160	0xbc581d17	-0.013190529
161	0x3dc6a67d	0.09699724
162	0xbc10f91f	-0.008848458
163	0x3d741a94	0.05959566
164	0x3cf2b952	0.029629383
165	0x3d8cb93a	0.06871267
166	0xbcf75364	-0.030191131
167	0x3bc18db8	0.005906787
168	0xbba175f8	-0.004927393
169	0xbc44c16f	-0.012009009
170	0xbd15a4f0	-0.03653425
171	0x3be464c9	0.0069700223
172	0x3cd95ce4	0.026533552
173	0x3d26d319	0.040728662
174	0x3dddc87d	0.10829256
175	0xbcad09af	-0.021122782
176	0x3c9c0e21	0.019049706
177	0xbd94312d	-0.07235942
178	0xbb0bc2e6	-0.0021325885
179	0xbc15114e	-0.009098364
180	0x3d12d159	0.03584418
181	0xbc8f642f	-0.017503826
182	0x3ddcab17	0.1077482
183	0x3c98776a	0.018611629
184	0x3d976c44	0.07393697
185	0xbcfee9d4	-0.031117357
186	0xbd8a7eb9	-0.06762452
187	0xbc9a97a6	-0.01887114
188	0xbc5c80f3	-0.013458478
189	0xbca4c034	-0.02011118
190	0x3caea45e	0.02131861
191	0x3dcbac07	0.09944921
192	0x3cd66f29	0.026176052
193	0xbd874529	-0.06604988
194	0x3db55470	0.08853996
195	0xbd34c1f3	-0.044130277
196	0x3c9d5b66	0.019208621
197	0x3c9a3bb8	0.018827304
198	0x3dbe2290	0.09283936
199	0x3dad6e53	0.08468308
200	0xbd8618d5	-0.06547705
201	0x3d71699a	0.0589386
202	0xbd6fed6a	-0.058576025
203	0x3d8a0abe	0.0674033
204	0x3bb0567a	0.0053814026
205	0xbc79c84d	-0.015245509
206	0xbb11a22f	-0.0022221913
207	0x3bcfc56c	0.006340673
208	0xbc9376b9	-0.018000947
209	0xbd8d5cc4	-0.06902459
210	0xbd94a363	-0.07257726
211	0xbdbb1120	-0.09134126
212	0x3d062535	0.032750327
213	0x3cf7602e	0.03019723
214	0x3d215e84	0.039396778
215	0xbd17ae39	-0.037031386
216	0xbd0653ae	-0.032794647
217	0x3d82194d	0.06352482
218	0xbd1d15b5	-0.03835078
219	0x3d1e4a45	0.038645048
220	0xbaa6ae8b	-0.0012716813
221	0x3bbc9168	0.0057546385
222	0x3d989069	0.07449419
223	0x3d7a50f2	0.06111235
224	0x3d5f143a	0.05446265
225	0x3d99ab0a	0.07503326
226	0xbd7b6506	-0.06137564
227	0x3da13174	0.078707606
228	0xbd655590	-0.055989802
229	0x3d1bcc2b	0.038036507
230	0x3a2c8ef6	0.0006582582
231	0x3b11b7ee	0.0022234875
232	0xbc665f16	-0.014060756
233	0xbd070df6	-0.0329723
234	0xbc2a35bb	-0.010388787
235	0xbbad912b	-0.0052968464
236	0xbd6534a0	-0.05595839
237	0x3cd87917	0.026424928
238	0x3cc19586	0.023630869
239	0xbd621d0c	-0.055203483
240	0x3d7bbb35	0.06145783
241	0x3d21b797	0.039481726
242	0x3d438b91	0.047740523
243	0x3bd4ea89	0.0064976853
244	0xbd7a1712	-0.061057158
245	0xbc783cf6	-0.015151253
246	0x3d687278	0.05674979
247	0xbda0e1bf	-0.07855558
248	0xbce26c32	-0.027639482
249	0xbd7ccbd0	-0.06171781
250	0x3d796131	0.060883705
251	0xbcb0fe4e	-0.021605637
252	0x3c830c3b	0.015997043
253	0x3bcc0f4f	0.006227411
254	0x3d1fd909	0.03902534
255	0xbd816ac7	-0.06319194

fc4.weight f4 [12, 256]
0	0x39edcafe	0.00045355404
1	0xbd1fdfc0	-0.039031744
2	0x3daa48f6	0.083146974
3	0xbdbc1c9e	-0.09185146
4	0xbdaec831	-0.08534277
5	0xbd0cb0a1	-0.034348134
6	0x3d4a4560	0.049382567
7	0xbd853bf9	-0.065055795
8	0xbc71551e	-0.014729766
9	0xbdc0b1a5	-0.09408883
10	0xbd8f8c33	-0.07009163
11	0xbd251def	-0.04031175
12	0xbd350546	-0.044194482
13	0x3d478f4a	0.048720635
14	0xbc0e9604	-0.008702759
15	0xbd305a33	-0.04305477
16	0x3c5bbf05	0.013412242
17	0x3e4c89b3	0.19974403
18	0xbd4fc414	-0.050724104
19	0xbdd54428	-0.104133904
20	0xbd83f3e7	-0.06443005
21	0xbc2a0717	-0.010377667
22	0x3c0eb797	0.008710763
23	0x3e6a44f5	0.22877868
24	0xbd9c5f9d	-0.07635424
25	0xbdf371df	-0.118869536
26	0x3d1e9a85	0.03872158
27	0xbb95731f	-0.0045608426
28	0xbdbc22e4	-0.09186342
29	0xbe5c42fa	-0.21509925
30	0x3d36fa1d	0.04467212
31	0xbd5609f6	-0.052255593
32	0xbc48a35c	-0.012245979
33	0x3d1b3fc5	0.037902612
34	0xbdf9d502	-0.12198831
35	0xbe179b78	-0.148054
36	0xbe190588	-0.14943516
37	0x3c062e5f	0.008189767
38	0xbdd85059	-0.105622
39	0xbba072ef	-0.0048965137
40	0x3d9ba1cb	0.07599219
41	0xbc408482	-0.011750342
42	0xbd9afb4f	-0.075674646
43	0xbd5e0a9c	-0.054209337
44	0x3d383735	0.044974525
45	0x3d3c89a6	0.04602971
46	0x3e429729	0.19002976
47	0xbb2636ef	-0.0025362333
48	0x3cb3a5b4	0.0219296
49	0x3e2621eb	0.16223876
50	0x3d324316	0.04352101
51	0xbdf5407c	-0.1197519
52	0x3c681666	0.014165496
53	0xbcb2fda0	-0.021849453
54	0x3e8fc358	0.28078723
55	0xbdb7db82	-0.08977415
56	0xbd9f01ea	-0.07764037
57	0xbd7e6e3f	-0.062116858
58	0xbd8cc9c4	-0.06874421
59	0x3dccc51c	0.09998533
60	0x3d6ab1d8	0.05729851
61	0xbcdc5aba	-0.02689873
62	0x3d0fe595	0.035131056
63	0xbd387e08	-0.045042068
64	0xbdcfc8bb	-0.10145708
65	0x3bde305e	0.006780668
66	0xbd943666	-0.07236938
67	0x3ccb5d80	0.024824858
68	0xbcee0c46	-0.029058587
69	0x3e065825	0.13119562
70	0xbe968e23	-0.29405317
71	0x3baaefb1	0.0052165617
72	0xbd2691b3	-0.040666293
73	0x3d3da2e2	0.046297915
74	0x3e1f862c	0.15578526
75	0xbd8efc3c	-0.06981704
76	0xbb021f5f	-0.0019855124
77	0xbd52a7d4	-0.051429585
78	0x3d04bfc9	0.032409463
79	0x3df9dcf2	0.12200345
80	0xbdcc058c	-0.099619955
81	0xbe42a706	-0.19009027
82	0xbd4a25d7	-0.049352493
83	0xbd8917ee	-0.06694017
84	0xbd3590be	-0.04432749
85	0x3caf9136	0.021431547
86	0xbdf0dbe6	-0.11760692
87	0x3d403522	0.04692567
88	0x3e6ed76e	0.23324367
89	0x3c212c75	0.00983726
90	0x3b377f3e	0.0027999426
91	0x3cd3933e	0.025827046
92	0x3ae04584	0.0017110561
93	0x3ab70c7e	0.0013965515
94	0xbd885175	-0.06656162
95	0xbe12d562	-0.14339212
96	0xbd51ddc9	-0.0512369
97	0xbd9bdb4d	-0.07610188
98	0x3cc29f66	0.023757648
99	0xbdd0785d	-0.101792075
100	0x3dd506d9	0.10401697
101	0xbdc0623e	-0.09393738
102	0x3e6b0fb5	0.2295521
103	0xbdb2d012	-0.087310925
104	0x3e5699dd	0.20957132
105	0xbd4eb8d4	-0.050469235
106	0x3c0cfa86	0.008604651
107	0xbd97ed82	-0.07418348
108	0x3c89914f	0.016792921
109	0xbcafaaa8	-0.02144368
110	0x3d19e4cd	0.037571717
111	0xbd9f9432	-0.07791938
112	0x3e0c6e60	0.1371398
113	0xbc83ac33	-0.016073322
114	0xbe15c354	-0.14625293
115	0xbde3d262	-0.11124112
116	0x3ca21157	0.019783659
117	0xbc04da5d	-0.0081087025
118	0x3b813eba	0.003944245
119	0x3db3a91c	0.087724894
120	0x3ce7faa8	0.028317764
121	0x3dccc379	0.09998221
122	0x3cd6bbce	0.0262126
123	0xbd5d4c65	-0.054027934
124	0xbd88e738	-0.066847265
125	0xbc9e28a7	-0.019306494
126	0x3b98dc7f	0.004664957
127	0xbcdfaf76	-0.027305346
128	0xbd8cd7e1	-0.06877113
129	0x3e48d95f	0.1961417
130	0xbdf9b1f4	-0.12192145
131	0xbe4bdb43	-0.1990786
132	0xbe46b054	-0.19403201
133	0x3d395e5a	0.045255996
134	0x3c66129a	0.014042521
135	0xbe64e525	-0.22353037
136	0xbcd5b88d	-0.026088977
137	0xbda9bab7	-0.08287566
138	0x3c0be2b4	0.008537937
139	0x3d3ff4af	0.046864208
140	0x3e6420b1	0.22278096
141	0xbe4c8ce0	-0.19975615
142	0xbdb6d7ce	-0.0892788
143	0x3da5a1b4	0.08087483
144	0x3d0d0c99	0.034435842
145	0xbe490939	-0.19632424
146	0x3d0ae997	0.033914175
147	0xbd5fa789	-0.054603133
148	0x3e1186c2	0.14211562
149	0xbddff18b	-0.109347425
150	0xbc133e1d	-0.008986977
151	0xbc0e8fe7	-0.008701301
152	0xbe505c34	-0.20347673
153	0xbd1e9c61	-0.038723353
154	0xbd3bab39	-0.045817588
155	0xbddf1197	-0.10892027
156	0xbd58411a	-0.05279646
157	0xbd0a16fd	-0.03371333
158	0xbdbd73b3	-0.092505835
159	0x3e352307	0.17689143
160	0x3d2abb6d	0.04168265
161	0xbdba74ac	-0.09104285
162	0xbe6454ca	-0.2229797
163	0xbc9e3d57	-0.019316358
164	0xbd2ec604	-0.04266931
165	0x3ca19aef	0.019727198
166	0xbd969c4c	-0.0735403
167	0x3cefaef2	0.029258225
168	0x3c196547	0.009362525
169	0xbd642288	-0.055696994
170	0x3d0bd09f	0.034134503
171	0x3e8ae1db	0.2712544
172	0x3d3e960c	0.046529815
173	0xbe05c50a	-0.13063446
174	0xbdaf2a5c	-0.08553001
175	0xbdb234dc	-0.087014884
176	0x3e127253	0.14301424
177	0xbc81c02b	-0.015838703
178	0x3d0510af	0.032486614
179	0x3e5d7a51	0.21628691
180	0x3d26ae9b	0.04069386
181	0xbe83e88a	-0.2576335
182	0xbc6bdffe	-0.014396666
183	0x3c3e76da	0.011625016
184	0xbd73bf50	-0.05950862
185	0x3b1af01f	0.0023641658
186	0x3d8c763d	0.0685849
187	0xbda775cd	-0.081767656
188	0x3deaee38	0.11471218
189	0xbc2d10af	-0.01056306
190	0x3d2fc0d4	0.042908505
191	0x3cc4cc66	0.024023246
192	0xbe700a49	-0.23441423
193	0xbc41ab16	-0.011820575
194	0xbddfeda7	-0.109340005
195	0x3c836647	0.01603998
196	0x3eb6bda8	0.3569157
197	0x3c8f06bf	0.017459271
198	0xbe4a3431	-0.19746472
199	0xbda539a6	-0.08067636
200	0xbd0cea9f	-0.03440344
201	0xbc4c1f5e	-0.01245865
202	0x3d4a3916	0.049370848
203	0xbdb00c81	-0.08596135
204	0xbce81f72	-0.028335307
205	0xbdd9ecf3	-0.106408976
206	0xbcc4f14a	-0.024040837
207	0x3da0180a	0.07817085
208	0x3d39b8ea	0.045342363
209	0xbeae2207	-0.34010336
210	0xbd0ee88b	-0.03488974
211	0xbe0a71bc	-0.13519949
212	0x3d4eba10	0.05047041
213	0x3d2208fd	0.039559353
214	0x3cc6dd05	0.024275312
215	0xbd8610d9	-0.06546182
216	0x3de3d28f	0.11124145
217	0xbb48e588	-0.003065439
218	0xbe4fdca7	-0.20299016
219	0x3e60f716	0.21969256
220	0x3dc3ff4e	0.0957018
221	0xbdee7232	-0.11642875
222	0xbd7b3d4a	-0.061337747
223	0xbe0df430	-0.13862681
224	0x3d403986	0.04692986
225	0x3caca093	0.021072662
226	0x3cf7d9d2	0.030255232
227	0x3e43a852	0.19107178
228	0xbd8e83da	-0.069587424
229	0xbce01cd4	-0.027357496
230	0x3c8172f5	0.015801886
231	0x3c05b847	0.008161611
232	0x3d60b367	0.05485859
233	0xbdb22329	-0.086981125
234	0xbcca4967	-0.024693204
235	0x3d6cc521	0.057805184
236	0xbdbfece9	-0.09371359
237	0xbc757676	-0.014981857
238	0xbe3b3aac	-0.182841
239	0x3d3dcc6b	0.046337526
240	0xbdc52349	-0.09625871
241	0xbdb4cb15	-0.08827797
242	0x3e968748	0.29400086
243	0x3d203f79	0.039123032
244	0xbe371635	-0.17879565
245	0x3d0e45d7	0.034734573
246	0x3d30b41d	0.04314052
247	0xbbc2fbbe	-0.00595042
248	0xbd66e831	-0.05637378
249	0xbcb7c66c	-0.022433482
250	0xbddadead	-0.10687003
251	0xbd3f65f6	-0.046728097
252	0xbdc2398b	-0.09483632
253	0x3cc5aea8	0.024131134
254	0x3d331987	0.043725517
255	0xbd2ddae7	-0.04244509

fc4.bias f4 [12]
0	0xbd3bfb3f	-0.045893904
1	0xbcc910d8	-0.024544165
2	0x3b938a64	0.0045025814
3	0x3c216ccc	0.009852599
4	0xbc757870	-0.014982328
5	0x3d60b9a5	0.054864544
6	0x3cd1dc9d	0.025617892
7	0xbcb9e97e	-0.022694346
8	0xbdc431ad	-0.095797874
9	0xbd6e7e14	-0.058225706
10	0xbdb24aa5	-0.087056436
11	0xbd633612	-0.055471487
