model.pt_episode_100.pt (torch, 182492 bytes, 8 tensors)

fc1.weight f4 [64, 5]
00000000: e1ca 5abe 600f 9ebd b942 963e 046a cb3d
00000010: 0b1c d0bc 856d babd cc93 7b3e 0d23 583e
00000020: 936c 8e3e d173 5c3d 94b3 033e a3b7 6d3c
00000030: a392 3c3e 315e a2be 80b7 503e 2a50 63bd
00000040: e71a e1bd d66b 1dbe ce37 febd b612 993d
00000050: 5dda 6f3e 9950 6abe c194 a23d a47c 983d
00000060: ba51 703d 908d 20bd 51dd 79be 0cff 8dbd
00000070: ebb4 683e 971c 2abe 2312 76be 15ed bd3d
00000080: aa0c 823d a283 353e 83c6 083d 1482 2b3e
00000090: bb30 4ebc 5ff6 f23c fe0a ad3e eab7 09bd
000000a0: 6a5a 44bd 39ff adbb 18cd eb3d ec47 8f3e
000000b0: d259 053e 5eec 3a3e 7ac5 69be d207 37be
000000c0: f616 6b3e f97e 6abb db6f 80be c6ed 7ebd
000000d0: 9914 fb3d f4c3 563e afbd 223e 8c00 903e
000000e0: b257 8fbe 3e10 27be 83b0 243e c19f fd3b
000000f0: a863 81be c7c3 05be 9f45 f6ba 0077 b13c
00000100: 9882 73be dbf9 8039 e250 393e a054 043e
00000110: 1996 07be 8d4d a0be b9e2 1abe 0de8 69be
00000120: 643f 4abc adea 81be 17eb 6ebd 825f 1c3e
00000130: 898b 823d d9d3 88be 5054 73be 0e37 883e
00000140: bb4c 1abe 9eaf 413e d480 ee3d fa67 883d
00000150: 71f4 8bbe 8892 1bbe f475 613e fb6d 11bd
00000160: aea5 a4bd c735 ae3d afcc 9dbd 1fb6 a4bd
00000170: 3dcf 5fbe 3b5d bb3d a19d 50be 930d f7bb
00000180: 0e43 243e dad6 6b3d 9641 9abc 5042 fdbd
00000190: 1485 a13c eac9 48bd 104c 763e 9efc d0bc
000001a0: 6d13 8d3e e6a7 923e 7325 4b3d a3ce 53be
000001b0: e199 02be badf 9a3e a3dc 523e 50d3 12be
000001c0: 0235 7cbe f867 1d3e a817 74be 73fe 71be
000001d0: 8d82 27be 89ff a0bd 4dee 75be 7a23 0b3e
000001e0: 0b80 14be 41a2 b13e 3a8e 3fbe e2cf 8b3e
000001f0: 99bf 3bbe 3af3 873d b9db 5b3d 3e6c 5ebc
00000200: 8563 69be 1877 ebbd 4464 f9bd 5f52 10be
00000210: 61f9 6abd e746 94bc 9311 69bd cfed 143d
00000220: 410a 633a f5e1 81bd ea75 71be 024e 1fbe
00000230: ec4e 6ebe 7996 0d3c 1c29 b1bd 8546 6dbe
00000240: 87c9 f1bd f782 8e3d 9608 e8bd eb2f 9c3e
00000250: 5ae1 77be fb03 613e 2a59 87be 37a9 8d3e
00000260: 16ea 053a d4de 553e 1e8a 803e 8b2a 49be
00000270: c1e9 3abe 1563 d9bd 7e84 66be 8df9 76be
00000280: 2399 c93c 7fc1 333e 5a07 96be df59 383d
00000290: 39e4 9bbe bd35 47be cbb0 84be 120c 04bb
000002a0: 70f8 30be 71cc 3f3c 4395 c93d 617a c1bd
000002b0: 949b 50be 4dce 443e 51a5 85bb df26 7d3e
000002c0: 1305 783e a80c 85be 9f9d dd3d 4d34 efbd
000002d0: 0e93 91be 4c07 a33e ecf4 88be 1be4 af3e
000002e0: 535f 313e 407c 2dbd 9a9d 48be 1de9 25be
000002f0: a73e d9bd 7280 273e fe70 813e 998a 9cbe
00000300: 7515 713d d056 0c3e 288d 173e 5041 983d
00000310: 9e44 9a3d 0eb0 48be a0b5 f0bd 0876 753e
00000320: bffd 07be 0a9e 843e 6cc1 dcbd 40da 583e
00000330: 3920 683d 15ea 7a3e 24e2 a43e b8c2 84be
00000340: 3ea9 373d e4ee 69be 8800 b13e f91b 53bd
00000350: 548e 413e efaf 48be 520b 6b3d 3820 63be
00000360: 8c04 9cbc 1aa1 ac3d 9306 bdbc 4119 3c3d
00000370: 3a37 203e 8624 4e3e 852f 833e f16c 74be
00000380: 6510 30be 9fd6 38be 48f9 6abe c1a7 1bbe
00000390: 38d7 c93d 3b15 8a3e 4d52 dbbd 0f9f 673e
000003a0: 583f 8abe 301d 113e e998 583e 85fd b4bc
000003b0: b5cd 6dbe 3b95 92bc 154b 8a3d ed21 2ebe
000003c0: 87a0 15bd 996e b13c 88e2 d93d 44e5 59be
000003d0: 7121 72be def7 a83e c181 d7bd 635f 653e
000003e0: 9a9a 043d 1ce5 65be 2544 6cbe bf87 103e
000003f0: 4fcc 293d e32a 6abe 7832 3ebe 9380 3f3d
-0.21366455 -0.07717776 0.2934778 0.0993233 -0.025403997 -0.091029204 0.24568099 0.21107121
0.2781721 0.05382139 0.12861472 0.014509114 0.18415312 -0.31712487 0.203825 -0.055496372
-0.10991459 -0.15373167 -0.12412988 0.07474272 0.23423143 -0.22882308 0.07938529 0.07445648
0.05867169 -0.039197505 -0.24400832 -0.06933412 0.22725265 -0.16612469 -0.24030356 0.092737354
0.06350072 0.17725995 0.03339244 0.1674884 -0.01258486 0.029658495 0.3379745 -0.03362266
-0.047937788 -0.005309966 0.11513728 0.2798456 0.13022545 0.1825423 -0.22829238 -0.17874077
0.22957978 -0.0035781248 -0.2508534 -0.062238477 0.12259788 0.20973188 0.15892671 0.28125417
-0.27996594 -0.1631479 0.16082959 0.0077399914 -0.25271344 -0.13062964 -0.0018789059 0.021663189
-0.23780286 0.0002460022 0.1809726 0.12922907 -0.13240851 -0.31309167 -0.1512555 -0.22842427
-0.012344215 -0.25374356 -0.058329668 0.15270808 0.063742705 -0.26724127 -0.23762631 0.26604503
-0.15068333 0.18914649 0.11645666 0.06660457 -0.27334931 -0.15192616 0.22017652 -0.035505276
-0.080394134 0.08506351 -0.07705056 -0.08042549 -0.21856399 0.09148642 -0.2037263 -0.00753946
0.16041204 0.057577945 -0.018830102 -0.12366164 0.019716777 -0.049020685 0.24052453 -0.025511082
0.27553883 0.2864372 0.04959626 -0.20684294 -0.12754013 0.30248815 0.20591979 -0.14338422
-0.24629596 0.15371692 -0.23837149 -0.23632221 -0.16358395 -0.078612395 -0.24016686 0.13587752
-0.1450197 0.34694102 -0.18706599 0.2730704 -0.18334807 0.06638189 0.05367634 -0.013575612
-0.2279187 -0.11497325 -0.12177327 -0.14093922 -0.057366733 -0.018100215 -0.056901526 0.036359604
0.0008660891 -0.06341926 -0.23580137 -0.15557101 -0.23272294 0.0086418325 -0.08650419 -0.23171432
-0.118060164 0.06958573 -0.11329763 0.30505309 -0.24207059 0.21974175 -0.26435214 0.27668163
0.0005108429 0.20885783 0.25105375 -0.19645135 -0.18253233 -0.106146015 -0.2251148 -0.24118634
0.024609154 0.17554282 -0.29302484 0.045007583 -0.30447558 -0.19454093 -0.25916132 -0.0020148796
-0.17282271 0.0117064575 0.098429225 -0.0944717 -0.20371848 0.19219323 -0.004078545 0.2472186
0.24220686 -0.25986218 0.108210795 -0.116798975 -0.28432506 0.31841505 -0.2674936 0.34353718
0.1732152 -0.042354822 -0.1959137 -0.16202207 -0.10607653 0.16357592 0.2528152 -0.30574492
0.058858354 0.13704991 0.1479994 0.07434332 0.07532619 -0.1959841 -0.11753392 0.23970807
-0.1328039 0.25901824 -0.1077908 0.21177006 0.056671355 0.24503358 0.32203782 -0.2592981
0.044839136 -0.22845036 0.34570718 -0.05154035 0.1890195 -0.19598363 0.057383843 -0.22180259
-0.019045137 0.08429165 -0.023074424 0.04592252 0.15646067 0.2013112 0.25622192 -0.23869683
-0.17193754 -0.18050621 -0.22946656 -0.15200712 0.09855503 0.26969323 -0.10709057 0.2261927
-0.27001452 0.1417129 0.2115208 -0.022093544 -0.23223002 -0.017893424 0.06752602 -0.17005129
-0.036530044 0.021659182 0.106389105 -0.21278864 -0.2364557 0.33001608 -0.105227955 0.22399668
0.032374002 -0.2245068 -0.2307287 0.14114283 0.04145461 -0.22867922 -0.1857394 0.046753477

fc1.bias f4 [64]
00000000: 8706 03be fa21 16be c92d f9bb 4ef5 86be
00000010: c3dc c3bd 3cf7 3a3e e004 ab3d ac2e 5fbe
00000020: cf43 59be f61c a2bd b388 2bbe 1f7b 1f3e
00000030: 0922 4dbe 8ba5 c9bd f420 873e 94d0 2b3e
00000040: 5c2f 923e 7252 59be 3dca 9abd 63c1 f9bd
00000050: 2514 c03d e25e 4abe 460d 393e a45c 0e3d
00000060: 66d5 d83d dd6d 893e 98a8 273e 645d d83d
00000070: 12a2 0fbe 120c 62be 9e97 f7bc 0423 233e
00000080: bf24 6dbd e42e 7e3e 114c 8e3e a302 cb3a
00000090: 549e ee3d 3de4 70bd 1000 c83d 6e2a 9dbd
000000a0: 620a 76bc 515f 313d 80b8 323c 1a63 093d
000000b0: d6ec a43d 0f0c ea3d bd5f 153e e98b e8bc
000000c0: e505 5ebe d06f 8b3e ed8d 25be d7a2 523e
000000d0: 4800 a73e c2a1 823e 9be8 cd3d 98fc debd
000000e0: 18e3 873d 911d 9cbd 5f69 8fbe 72cb 9abd
000000f0: 2754 95bc d20f 8bbd 8979 b23e 426b 11be
-0.12795459 -0.14661399 -0.007604335 -0.26359028 -0.09563591 0.18258375 0.08350539 -0.21795148
-0.21217273 -0.0791568 -0.16751365 0.1557431 -0.20032515 -0.09846028 0.2639233 0.16778785
0.28551757 -0.21222857 -0.07558105 -0.12195089 0.09378842 -0.19762757 0.1807147 0.034756318
0.105875775 0.26841632 0.16372907 0.10564688 -0.14026669 -0.22074917 -0.030223664 0.15931326
-0.057896372 0.24822575 0.2779241 0.0015488457 0.116512924 -0.058811415 0.09765637 -0.076741084
-0.015017124 0.04330379 0.010908246 0.033541776 0.08052985 0.11428081 0.14587303 -0.028387027
-0.21681936 0.27233744 -0.16167422 0.20569931 0.32617402 0.25514036 0.100541316 -0.10888022
0.066351116 -0.07622827 -0.2801008 -0.07558335 -0.018228604 -0.06790127 0.3485835 -0.14201072

fc2.weight f4 [128, 64]
00000000: 0e3c cc3d 93c1 b23c 0405 babd 9769 3a3d
00000010: 3e6a 3abe fd5a 6c3d b579 c43c 2eb7 4abb
00000020: 3ee3 81bd bc48 8b3d d123 0c3d 580a 803e
00000030: f1fb 4ebd bd76 d33d 1514 ec3b 5fdd 083c
00000040: 7903 103e d88c 1d3e 74c0 923d d3b8 873d
00000050: 4e5d 903c 4e05 3f3c ddcf 133d ca03 253d
00000060: edcd 4a3e 3a8e a93c f97d 863c 963f 4a3c
00000070: 9576 4cbd 7848 8abd cb4a 7d3d c321 753d
00000080: 67a4 533d 6fa8 b6bc 76d2 533e 0f17 483c
00000090: 526f db3d 991f d4bc 846f c3bd dd77 b0bc
000000a0: f563 f03d 3aa7 8e3c 6a20 8dbd 420a c3bc
000000b0: a01d 93bd f750 d23c 56f9 d63c fc13 44bd
000000c0: 5902 e73c 60e8 06be 0157 5e3d a4a2 293b
000000d0: 9cbe 843d 5835 e53d 4b21 90bc f2e4 153d
000000e0: 0574 c6bd 6ff7 223d d7e2 a6bb 48f4 323d
000000f0: 56bf dfbc f524 803d a53d 40bd 2380 2e3d
00000100: 9a45 173e 2368 6b3d 9f8b 533d 738a 033d
00000110: aede 36be 3fd6 f6bc 9b4f 143d fe22 33bd
00000120: e86a 4cbd c26f f8bd c62f 8cbd 2f4d 54bf
00000130: 6bc5 53bc 8e32 b23d 7faa 8ebd 7363 1d3e
00000140: bd48 bf3d bd98 923e 88ab 9dbc 1bc3 aa3d
00000150: 7f31 3cbd 91bf 63bd 9a98 0d3d 17e0 51bd
00000160: ba87 ac3d 74ae c13c a947 27bd c4d4 7bbd
00000170: 33cd 803d 716b bb3c 7d4a ee3d 6486 2f3d
00000180: 9e91 063c c7af 813d 3650 873d 53f7 8dbb
00000190: df61 353d 551e 443d 2722 19be c1d0 bcbc
000001a0: d5f0 c33d cd14 5d3c c609 9cbd aaea 343d
000001b0: 621b 663d 1813 cdbd 0605 a73c 0638 5d3c
000001c0: 403a 823b f768 81bd 5f41 00bd 67ae 863a
000001d0: 8cd1 083e 180c 623e 1aa2 053c 4e4d fb3b
000001e0: c48d 05bd 298d 64bd 6993 03bc b440 ddbb
000001f0: ef02 0abe 07c8 8bbc b5f8 6f3e c409 ffbc
00000200: c212 343c a725 9b3d 39b5 17be b4a3 81bd
00000210: 85eb bdbc b6bc e23c d173 a23d 5a8a a23d
00000220: 368d 8a3d a5db 01be bef5 87bc 6100 a1bd
00000230: bbc9 50bd a1d2 ddbc 29ea 83bd 2ed9 acbd
00000240: 036f c93a 421d 83bc 1cf6 45bb cf01 17bc
00000250: 0d91 84bd 6db3 f5bc 751c 87bd c97f 5bbd
00000260: a55f 733e ffcd 763d 28e9 73bc 8070 87bb
00000270: 8629 da3b 453f dabd 3eba e43b c228 793d
00000280: d2d1 153e a454 973a a10c f1bc ffc4 cc3d
00000290: 228c d53d 9dd3 79bd dc45 27bd e9b8 433e
000002a0: 83a3 1c3c d797 a23d 9fde 9b3c 3eca 623c
000002b0: 5514 56bd 569b d73d 8996 babb 2c20 fc3c
000002c0: 3ef0 183d f481 07bd 9724 9c3d 9e3c f43c
000002d0: 9b51 52bd 0781 2fbe 371a 25ba 0ac5 1dbc
000002e0: b809 a9bd 7f38 2fbc c5af 4d3d 8e6e dbbc
000002f0: 1932 be3c 4d04 763c 2de6 1cbe 41b2 b7bb
00000300: 8a47 433d a7a6 3a3d eb90 c0bd a86b f4bc
00000310: 2432 e6bc cd9b f13c 059f 9c3b 3913 573d
00000320: 405e 92bc ee25 1f3c b99c 0f3e db41 463b
00000330: 4a01 8abd 0845 113e 0f85 7ebc d874 a3bc
00000340: ab13 3f3e 783d c23d b8f8 e03b 6c1d d33d
00000350: e772 de3c 4866 2c3d 6096 05bd 7a3f 86bb
00000360: 622f 203e d2a9 33bd 81c4 92bd 7a7b 94bd
00000370: f526 6c3d 0953 f6bd b075 4a3d 8b1f e43c
00000380: f0e7 a03d d2fc 8bbd fe7d 6a3d 8090 193d
00000390: a6e3 a23d 5fea 34bd 40c7 813a c148 66bc
000003a0: 1f38 153e bd67 333e de22 6c3d ddc3 f7bb
000003b0: 571e c0ba cac4 0cbe af29 df3d d44e babc
000003c0: d535 763d 58e5 363d ef08 ff3c 3c56 913d
000003d0: 8bcb b23d 8bb1 72bd 1430 003d 4d1e 46bd
000003e0: a8be ea3b c532 683d ed35 d1bc 1237 32bd
000003f0: 6416 15bd 12a8 08bd 8a5a f63c 2d1c 523d
0.09972392 0.021820819 -0.09082988 0.045510855 -0.1820459 0.05770396 0.023983816 -0.0030931938
-0.06342171 0.06800982 0.034213845 0.25007892 -0.05053324 0.10325382 0.0072045424 0.00835356
0.14063825 0.15385759 0.07165614 0.06627049 0.017622616 0.01165898 0.036086906 0.040286817
0.19805117 0.020697702 0.01641749 0.012344262 -0.049917776 -0.067521036 0.061838906 0.05984665
0.05167046 -0.022297112 0.20685753 0.012212529 0.10714592 -0.025893973 -0.09542754 -0.02154153
0.11737815 0.017413724 -0.06890948 -0.023808602 -0.07183385 0.025673373 0.02624194 -0.04787062
0.028199362 -0.13174582 0.054282192 0.0025884295 0.06481668 0.11191815 -0.017594 0.036595292
-0.09690098 0.039786752 -0.0050929594 0.043689996 -0.027312916 0.06257049 -0.04693379 0.04260267
0.14772645 0.05747236 0.051646825 0.032114457 -0.17858383 -0.030131457 0.03620873 -0.043734543
-0.04990664 -0.12130691 -0.068450496 -0.8293027 -0.012925486 0.08701049 -0.06966113 0.15369968
0.093400456 0.28632155 -0.019246832 0.08337995 -0.04594564 -0.055602614 0.03456936 -0.0512391
0.08424325 0.023642756 -0.040839825 -0.061482206 0.06289139 0.02287838 0.11635301 0.042852774
0.008213429 0.06332355 0.06607096 -0.004332462 0.04428279 0.04788049 -0.14954434 -0.02304876
0.095674194 0.013493729 -0.07619052 0.044169106 0.056178458 -0.100134075 0.020388138 0.013502127
0.003974229 -0.063188486 -0.031312343 0.0010275365 0.13361186 0.22074926 0.008156324 0.0076691275
-0.0326059 -0.055798683 -0.008030751 -0.006752098 -0.13477682 -0.017063154 0.23434718 -0.031132586
0.0109908 0.07575541 -0.14815225 -0.06330052 -0.023183594 0.027677875 0.079322465 0.07936545
0.06765215 -0.12681444 -0.016596671 -0.078614004 -0.050973635 -0.027077975 -0.06441147 -0.08439861
0.0015368167 -0.016005162 -0.0030206507 -0.00921674 -0.06472979 -0.029992783 -0.065972246 -0.053588662
0.23766954 0.060255047 -0.014887132 -0.004133284 0.006657782 -0.10656599 0.0069802096 0.060829885
0.14630821 0.0011545611 -0.029424967 0.099985115 0.10427119 -0.060992826 -0.040838107 0.19113506
0.009560469 0.079391174 0.019027052 0.013842164 -0.052265484 0.10527675 -0.0056942147 0.03077706
0.037338488 -0.033082917 0.076241665 0.02981406 -0.051347356 -0.17139064 -0.0006298157 -0.009629497
-0.08253807 -0.010694622 0.050216455 -0.026786115 0.023217248 0.015015674 -0.1532218 -0.0056059663
0.047675647 0.04556909 -0.09402641 -0.02983649 -0.02810008 0.029493237 0.004779699 0.052508567
-0.017867208 0.009713633 0.14024629 0.0030251655 -0.06738527 0.1418649 -0.015534653 -0.019953176
0.18659846 0.094843805 0.006865587 0.10308346 0.0271544 0.04208973 -0.032614112 -0.0040969225
0.15643075 -0.043863125 -0.071663864 -0.07250114 0.05765434 -0.120275564 0.04942864 0.027847072
0.078567386 -0.06835331 0.05724906 0.03749132 0.07953577 -0.044168826 0.00099013 -0.014055432
0.1457219 0.17520042 0.05765044 -0.0075611905 -0.001465748 -0.13746944 0.108966224 -0.022742666
0.060109932 0.044652313 0.03113219 0.07096526 0.08730229 -0.05925135 0.03129585 -0.04836874
0.0071638413 0.056689043 -0.02553841 -0.04350955 -0.036398306 -0.03336341 0.03007247 0.0512964

fc2.bias f4 [128]
00000000: b310 e83b 3f5c 923c adae bbbc 672f 2b3d
00000010: 3e38 093d 0b03 c43c 2a05 8e3c 89db 043d
00000020: 4663 04bd f2d1 b33d f8fd 45bd 9286 1e3d
00000030: 8858 9a3c f65c 73bc 82bc 393d 718c dfbb
00000040: a477 923c f097 c1bd 8207 91bc 7371 afbc
00000050: cb02 d3bd 5b98 aa3d 7c3c d0bc caf8 6a3c
00000060: 8149 f73d 65b7 f83c 64e3 943c 28ee 0a3e
00000070: 43b1 9c3b 87d3 cf3c faa8 ed3d 3a2f 213d
00000080: 364f 8e3d 0959 613d 5167 033e f026 483d
00000090: f0e1 14bd fd8f b6bc ff99 4ebd 84b2 063e
000000a0: fa99 92bd f305 4d3d 34fc 8a3d 071b 0f3c
000000b0: 57d6 32bc ac44 633d f088 fb3c b38a 823d
000000c0: af1d 1b3c 4dc7 b33d df41 8e3d 0455 78bc
000000d0: e6e3 883b fb2b ee3c 63d6 d23d 5c37 453d
000000e0: a7ae 003e 9efb b93d c102 30bc 9ef3 9a3d
000000f0: 2729 823d 54cd 82bb 67ea 7ebc 9d45 5e3c
00000100: 41e8 de3d 1a5e bf3c b3df b93d 4530 d03d
00000110: e589 41bd c8d2 09bb 10f0 b1b9 12fb 983d
00000120: 4b6b fdbc 42e6 60bd a9bb c2bc 3b59 5c3d
00000130: f2b2 4cbc bb0d 653d ce35 953c 160c f03d
00000140: 06fd 90bc ac94 64bd c0ea d13c 50fb 88bd
00000150: 7086 83bd 53a2 af3c a155 513d 50be 773d
00000160: 5cfd 083b b41c 8bbc 13b6 56bc c6be 5a3d
00000170: c236 5dbd 13e6 2a3c 0d3c db3b 7ea2 743d
00000180: f552 90bd 824d 953d 1af5 103d a0f5 9f3d
00000190: d82a a8bd e541 b93c 6ac6 403d f929 01bd
000001a0: a22c febc 8906 913d 9a2c 403d a418 11bd
000001b0: 54d0 8cbd 4507 13bb 2eb1 893d 8b07 34bd
000001c0: d0fd 0a3b df98 443d 92a6 5fbc 152d 8fbd
000001d0: d6b9 5a3c f90b 20bd 4eca fbbc 0db6 6bbd
000001e0: 8625 e23d f2a8 033e 2d94 763d a0f7 0c3d
000001f0: ee7c 023e 180c 84bc c7b5 013d 2086 cb3b
0.007082069 0.017866252 -0.02291044 0.041793253 0.033500902 0.023927232 0.017336447 0.032435928
-0.032321237 0.08780278 -0.048337907 0.038702555 0.018841043 -0.014853707 0.04534579 -0.006822162
0.017879315 -0.09452808 -0.017703775 -0.021416401 -0.10303267 0.08329841 -0.025419466 0.0143415425
0.12074567 0.030360887 0.018174835 0.13567412 0.0047818734 0.025369419 0.11604495 0.03935168
0.06948702 0.05501655 0.12832381 0.04886526 -0.036348283 -0.022285456 -0.05043983 0.13154036
-0.07158275 0.0500545 0.06786385 0.008734471 -0.01091536 0.055485412 0.030704945 0.06374111
0.009467526 0.08778248 0.06946158 -0.015156988 0.0041775582 0.029073706 0.10294797 0.048148498
0.12566625 0.09081195 -0.010742844 0.075659975 0.063555054 -0.003991762 -0.015558816 0.013566402
0.10884143 0.0233603 0.0907587 0.10165457 -0.047250647 -0.0021030176 -0.0003393893 0.07469763
-0.03093495 -0.05490709 -0.023771124 0.053796034 -0.012493836 0.055921298 0.018214133 0.11721055
-0.017698776 -0.055805847 0.025624633 -0.06688559 -0.06422126 0.021439707 0.051107053 0.06048423
0.0020902967 -0.01698146 -0.013104933 0.053404592 -0.0540073 0.0104308305 0.006690508 0.059725277
-0.07047073 0.07290174 0.035389997 0.07810521 -0.08211297 0.022614429 0.047064222 -0.03153417
-0.031027142 0.070813246 0.046917535 -0.03542389 -0.06875673 -0.0022434753 0.067232475 -0.043952506
0.0021208413 0.04799735 -0.013650553 -0.069910206 0.013349971 -0.039073918 -0.030736115 -0.057546664
0.11042313 0.12857416 0.060199905 0.03441584 0.1274297 -0.016119048 0.031667497 0.0062110573

fc3.weight f4 [256, 128]
00000000: c452 103d 8631 7f3a 2224 083d 7ada ebbc
00000010: 919a bf3c 7950 adbb cd09 483d c397 743c
00000020: 726d 0d3d 3036 7f3c b767 bc3c 15fa 49b8
00000030: fa21 5b3d 0584 c4bc cf5c 0a3d 066b 3a3d
00000040: e5fb ecbc 1da0 3fbd 74a1 593c 716d 50bd
00000050: 7539 283d ce4c 2cbd 0ed1 7e3b d481 b0bc
00000060: 79dc 26bd f65d 0d3d 6968 513d c44c 87bc
00000070: 1b8a 2e3d 9f9e f9bc a9c0 fc3c 8a71 f73b
00000080: ed7c eebc dd65 cebc a541 41bd 3097 573d
00000090: b6fa 15bd 1ae1 02bd 4ba4 db3b 9a5a f23c
000000a0: b0b2 313c 0ca2 593d 8389 27bb 4e66 12bd
000000b0: 8395 fcbb ca2b 37bd 67a6 ce3c 34b7 323d
000000c0: cc86 18bd 5536 02bd af45 233d 4348 34bc
000000d0: a910 05bd 028d d8bc e217 37bd 11df b3bc
000000e0: 9f07 49bd 6c3c 6ebb 01c5 a43b 577d 42bd
000000f0: c0c8 2dbd 5945 3f3d 09b0 473d 0458 333c
00000100: 17e9 27bd 63db b33c 18b7 49bd 4aec fb3c
00000110: fa58 173c b904 8dbc 0af2 1fbc 8568 293d
00000120: 8fdc cabc b40e 43bd 6b75 5dbd f7f7 3d3d
00000130: 12cb 163d ad2a e9bc 3bd3 d73c 4ad7 8e3c
00000140: cd15 b8bc 3f18 0c3d a7e7 c53b eb54 4dbd
00000150: 78c5 2abd 6aa4 9b3b af2d de3b dd4a 2bbd
00000160: 7aca 22bd 0aab 073d 8cd6 b63c ee90 ca3c
00000170: 6174 833c e234 e33c 9314 093c 3fb0 49bb
00000180: a263 abbc 1236 8f3c dd61 3e3c 79f3 283d
00000190: fcf9 37b9 153a 13bd 1ddb fe3c 1fc1 d3bc
000001a0: f3b2 fbbc c256 913c 9700 223d 74a0 58bd
000001b0: 4384 1f3d 23ae 8b3c a7fb f03b 63ef 253c
000001c0: 81e1 283d 1854 25bc 7ec0 a73c d6ed 0cbd
000001d0: 5fe1 fcbc e4d7 37ba 23eb ddbb c3d2 5abd
000001e0: 78e1 023c 64ef c03a dc91 d9bc a272 09bd
000001f0: 1f1e 273d 3ab8 3ebd beff 0f3d 8512 033c
00000200: ad54 c33e af7f db3e 349c 613c ef52 df3c
00000210: cb21 4c3d 359b de3c 2e00 953d 5a17 ac3d
00000220: 6f65 753d bdce 053c 7367 f03c c66b 443e
00000230: 485c 98bc 04a0 633d d579 003d 87f2 573d
00000240: a944 22bd b6c0 823c 8193 703e f4be 22bd
00000250: 4080 76bc e072 2f3d 4040 f63d b043 5b3c
00000260: 1ed9 813d 7364 a23e 097b fbbc 3827 913c
00000270: a682 c13c e4de c0bc ee47 723c 9d57 2fbd
00000280: fead 203e cbbc 50bb cd93 173e 7a21 493d
00000290: 6189 dfbc 58cb dc3c d172 37bd fc7e bfbc
000002a0: c1b0 3b3b dd5f d43e 460e b0bc b24d 813e
000002b0: 12ee 9ebd 128f 48bc 5630 be3e 8c7d 62ba
000002c0: ded7 0d3c d4da 9ebb 14fd 0bbc 73a2 c43d
000002d0: 6b52 52bc 3c8a 2b3f 277e e93d 7b84 51bc
000002e0: ac06 393e d6b7 873d 5831 b6bc 6e16 613d
000002f0: 3e0d be3d b190 d43b 5af9 bc3c 4927 fcbd
00000300: edef ee3d b464 323e 35a8 103d 6049 0e3c
00000310: 426b af3c ef6c 82bd ed1e bd3d 222c 223e
00000320: 793b 17bd 9afe 213d 7f87 54bd 73dd 4cbc
00000330: 45ef 39bd 9501 9c3d 1454 a33c 0dd7 8f3d
00000340: 97cf 0b3d 6841 7a3c b65e 3ebd b848 803c
00000350: aac7 473e 05a0 953e eb35 f93c e9ce 643d
00000360: 8dd6 41bd 1972 d1bc c0ca 833c bbdc 7a3c
00000370: fdfd a03c 3570 0f3e f086 04bd 9968 db3d
00000380: abe1 8cbd d360 943e 9a4f 283e 1050 cc3d
00000390: 566e 7f3d 9823 ff3c f6af bf3e f94c 963e
000003a0: ed87 02bd 8ab8 203e d51e 743d e103 debc
000003b0: 4734 54bd 27e7 fcbd e17c 8d3e acd5 193d
000003c0: 824c fb3d 3248 95bd 9a53 5b3e 2f19 b1bc
000003d0: 6c6a 2e3e 3c53 bd3c e7ee ce3e d98e 51bb
000003e0: a078 ee3d 7759 d43d e0ca 953c 8dc1 e1bc
000003f0: ca9f 3b3e d985 883d f21c 913d 7cd1 aa3e
0.03523518 0.00097348576 0.033237584 -0.028790701 0.023389133 -0.005289134 0.04883747 0.014928761
0.034528203 0.015576884 0.022998674 -4.815504e-05 0.0534992 -0.023988733 0.033779915 0.04551222
-0.028928706 -0.046783555 0.013283122 -0.05088562 0.04107042 -0.042065434 0.003888193 -0.021546282
-0.040737603 0.034513436 0.051124964 -0.016516097 0.042612176 -0.030471144 0.030853586 0.0075513767
-0.029112304 -0.025195057 -0.047181744 0.052634418 -0.03661605 -0.031952955 0.006702935 0.029584218
0.010845825 0.053133056 -0.002556414 -0.035742097 -0.007708253 -0.044719495 0.025225831 0.043631747
-0.037237927 -0.031790096 0.039861377 -0.011003557 -0.03248659 -0.026434425 -0.04470051 -0.021956952
-0.049079534 -0.0036351932 0.0050283675 -0.047482815 -0.04242778 0.046696994 0.048751865 0.0109462775
-0.040993776 0.021955198 -0.049246877 0.03075232 0.009237522 -0.017214166 -0.009762296 0.041359443
-0.024763374 -0.047621444 -0.054067057 0.046379056 0.036814757 -0.028462732 0.02634584 0.017436642
-0.022471333 0.03420281 0.006039578 -0.050129812 -0.041692227 0.0047498243 0.0067803483 -0.041819442
-0.039743878 0.0331221 0.0223191 0.024727311 0.016046705 0.027735177 0.008366722 -0.0030775217
-0.020921532 0.017481837 0.011620012 0.04124782 -0.00017545366 -0.035944063 0.03111034 -0.025848923
-0.030724978 0.017741565 0.039551344 -0.052887395 0.038944494 0.017050808 0.007354218 0.010127875
0.041230682 -0.01009085 0.02047753 -0.034406506 -0.030869184 -0.0007013066 -0.0067724152 -0.053423654
0.007988326 0.0014719781 -0.026558809 -0.033556588 0.04080021 -0.04656241 0.035156004 0.008000021
0.3815054 0.42870852 0.013770152 0.027261226 0.049836915 0.027173618 0.07275425 0.084028915
0.059911188 0.008166966 0.029346203 0.19181737 -0.01859869 0.055572525 0.031366188 0.052721526
-0.03961626 0.015961032 0.23493768 -0.03973289 -0.015045226 0.042834163 0.120239735 0.013382837
0.0634024 0.31717262 -0.030698316 0.017718896 0.023621868 -0.023543783 0.014787657 -0.042808164
0.15691373 -0.003185081 0.14802475 0.04910419 -0.027287187 0.02695243 -0.04478723 -0.02337598
0.002863929 0.41479388 -0.021491181 0.2525459 -0.07760252 -0.012241142 0.37146252 -0.0008639924
0.008657424 -0.0048478637 -0.008544225 0.09601297 -0.012837033 0.67007804 0.11401015 -0.012787933
0.18068951 0.06626861 -0.022240326 0.05495303 0.092798695 0.006486975 0.023068119 -0.123121805
0.11666856 0.17421228 0.035316665 0.008684486 0.02141345 -0.06368434 0.09234414 0.15837148
-0.036921952 0.039549448 -0.05188703 -0.0125039695 -0.0453942 0.07617489 0.019937553 0.070234396
0.03413352 0.015274383 -0.046477042 0.015659675 0.1950976 0.29223648 0.030421218 0.055861387
-0.047323752 -0.025567101 0.01608789 0.015311415 0.019652361 0.14007647 -0.03235525 0.1071331
-0.0687898 0.2898012 0.16436616 0.09976208 0.062361084 0.031144902 0.37438935 0.293556
-0.03186791 0.15695396 0.059599716 -0.027101459 -0.051807668 -0.12348776 0.27634338 0.03755729
0.12270452 -0.07289161 0.2141861 -0.021618454 0.17032784 0.023110978 0.40416643 -0.0031976013
0.11644101 0.103686266 0.018285215 -0.027558113 0.18322673 0.066661544 0.07085599 0.3336295

fc3.bias f4 [256]
00000000: aade 433d 926b d7bb a803 2b3d 60d3 12bc
00000010: 2b84 8c3b 8496 c93d 6db8 433d 8e81 283d
00000020: 9013 523d c143 963c fd15 a3bd 9a1a 01bc
00000030: 25eb 1bbd 2988 46bd 40de 183d 6191 c33d
00000040: 2aed 8e3c b788 37bd 812e aa3d a6b8 693b
00000050: a164 6e3d 66b6 8e3d c2ca 933d 16dc e7bc
00000060: 5edc ec3c 6e1a 4e3d 886f 0d3d 9491 25bd
00000070: 31b6 fb3d 18d7 3abc 89e8 98bc df8b 3f3d
00000080: cf9f d43c ae9a b73c f80f 563c 2202 81bc
00000090: 47b8 f3bc 3c3c 3cbd b357 b23b 9c91 873d
000000a0: 4bdf 8a3c 23b3 98ba a366 9dbc 3e9a 773d
000000b0: 2543 e63a 2e12 b3bc 94ad 96bc 9b82 0bbc
000000c0: f6c6 c73b e7b8 923d cee8 a23d a705 31bd
000000d0: bd3d a53d acdb 8bbb a17b b73c cdd4 d43d
000000e0: 3e2f a9bc d93a 8a3c 17e6 98ba 82c7 db3d
000000f0: 45be 95bd 203b 37bc caf7 b33d 3dba 123d
00000100: 2834 893d c415 cb3c 7ed8 adbd 772e 393d
00000110: 993b f3ba e32a af3d 9ec3 813d 65c8 12bd
00000120: 514a 1ebd e851 b8bc 268e 9c3d 0f84 a93d
00000130: c59a 28bc 9e3e a6bc c455 5c3d a621 f23d
00000140: f5d7 ba3d 9d2c b9bd 228c 553d 8be8 383d
00000150: 8ecf 233d 29e7 a03a 3649 933c 9ec9 7b3a
00000160: ae4d 183d 8e4f 223e 9dc5 0a3d b9e4 c5bc
00000170: f00f b23c ec0f 273d f572 143d 3742 563d
00000180: 10d0 ab3d 4849 3bbc c183 a93c 8634 1c3d
00000190: 98ea b83d d3d3 ac3d 3d9e 163d c949 80bc
000001a0: 6a20 31bc c1f7 93bc c41b 24bd 4d15 3c3d
000001b0: ac9d a03c b516 ba3d 6b14 693d 91f7 a93d
000001c0: d0c7 cc3b fa21 023d 04c8 053e 6be5 763d
000001d0: 7912 d43d 1303 1dbd f16b ab3d c9f1 873d
000001e0: da28 d83d 183b 243d 745b 463d 92a1 30bd
000001f0: 3260 9a3d ee49 8f3d 6ae0 8d3d 2685 113e
00000200: fa32 9a3d a113 a63d f6e6 273d 382d 0abd
00000210: 1d1c 0cbd 479f 63bd 7d00 193d dd6a 2abd
00000220: 6fc5 ec3d 0462 bfbc ed8d 0dbb 71c1 813c
00000230: 146b 35bd 0d2a d93a 97ab 17bc b640 5039
00000240: aebe e1bb 247c 8a3d ee0c 5ebd 206d b23c
00000250: 0225 313d 8f5f 02bd 36a9 483d 1b55 a43d
00000260: 9675 983d 5246 753d 7ef0 49bc 3a95 f43d
00000270: 2d08 143d 5883 66bd e9ec 7e3d ab7e 2a3d
00000280: c45f d43c 6fcc 3bbd 490f acbc 1735 cebc
00000290: 3dac d9bc 7b4d 3bba 4f30 3e3d fd2b 37bc
000002a0: db7c 06bd 7fcb afbc 7fd9 a93c f8ff be3d
000002b0: 722b 983d 1c01 4d3d 5d7d b93c 2fef a6bc
000002c0: acfb b83b d2c4 0ebd 9722 9b3d 4b36 c23c
000002d0: f4ca 16bd f552 a03c 6c7c 23bc 92bb 0cbd
000002e0: dc2d b13b c75d 333d f0c3 35bc 6e63 c9bc
000002f0: d0b8 a4bc 8497 363d 1bab 513c 9543 b33c
00000300: 4c1c 04bc 8c11 343d e8b5 8c3d 8342 eebc
00000310: 68ba f0bc 174c 803c 9f4e ed3b ab67 2b3d
00000320: 612d 703d b45a b63d cc27 833d 7b64 1fbd
00000330: dee9 003d 6599 ff3c 571c 623d 5595 dc3c
00000340: ed4a 96bd 57f8 78bd 1f76 4d3b a09a 223d
00000350: cfb2 d23d 8a74 88bb 34d3 1b3d 71e0 66bd
00000360: d06b babb ed02 7f3d 59d2 333d 0aa9 8a3d
00000370: cfb3 5e3c 2cce 3ebd 1c65 e3bb b3ac c03d
00000380: e561 e23d 38ae 973d e61b 883d ef3e 033c
00000390: 0bab 1b3b 9a37 943c 6432 363d 3ea3 51bd
000003a0: 2a89 053d e490 ed3d 2454 bdbd 30e3 08bd
000003b0: caa9 82bc c757 20bd 5e90 04bd 04e8 203d
000003c0: f5a6 b03c a9ad 44bd fd61 67bd 6275 47bd
000003d0: d4a4 e53d f1da 953c eed7 22bd 9471 d23b
000003e0: f4c7 e83c 7346 73bd faa4 09bd f598 0abd
000003f0: 9201 893d ed78 1cbc edea 743d 48ca 2d3c
0.04781977 -0.0065741027 0.041751534 -0.008961529 0.0042882166 0.09843162 0.047783304 0.041139178
0.051288188 0.018342854 -0.07963178 -0.007879877 -0.03806605 -0.048469696 0.03732133 0.09549213
0.017447073 -0.044808116 0.08309651 0.0035663038 0.058201436 0.069683835 0.07216407 -0.028303187
0.028913673 0.050318174 0.034530193 -0.040422037 0.1229061 -0.011403821 -0.018665569 0.04676425
0.025955109 0.022412624 0.013065331 -0.015748087 -0.029750956 -0.04595588 0.0054425835 0.0661957
0.016952178 -0.0011650067 -0.01921398 0.06044983 0.0017567618 -0.021859255 -0.018393315 -0.0085150255
0.006096716 0.071641736 0.0795456 -0.04321828 0.08068416 -0.0042681303 0.022397818 0.10392151
-0.02065241 0.016873764 -0.0011665252 0.107314125 -0.07311682 -0.01118353 0.087874964 0.035822142
0.06699401 0.024790652 -0.08488558 0.045210328 -0.001855719 0.08553102 0.06336139 -0.035835642
-0.038645092 -0.022499993 0.076443 0.08277141 -0.010290806 -0.02029353 0.05379273 0.11822824
0.09123222 -0.090417124 0.052135594 0.045143645 0.03999286 0.0012275922 0.017979246 0.00096049334
0.037183456 0.1585066 0.033879865 -0.024156915 0.021736115 0.04078667 0.036242444 0.05230924
0.08389294 -0.011431046 0.020692708 0.038136028 0.0902912 0.0843884 0.036772 -0.015660184
-0.010810951 -0.018062474 -0.040065542 0.04591875 0.019606434 0.09086362 0.056904238 0.08299173
0.0062494054 0.031770684 0.13064581 0.060277384 0.10355086 -0.03833301 0.083701976 0.06637914
0.10554667 0.04009542 0.04842706 -0.043122835 0.07537879 0.06996523 0.06927569 0.14210948
0.07529254 0.08109213 0.040991746 -0.03373453 -0.0342065 -0.05557182 0.03735398 -0.04160582
0.11561095 -0.023362167 -0.0021599487 0.01583931 -0.04429157 0.0016568318 -0.009257219 0.00019860532
-0.006889186 0.06761959 -0.05421155 0.02178055 0.043248184 -0.031829413 0.048989497 0.08024045
0.07444303 0.059881516 -0.012325404 0.11942525 0.03614061 -0.056277603 0.062237654 0.041624706
0.02592457 -0.04584926 -0.021003382 -0.0251718 -0.026571387 -0.00071450294 0.04643279 -0.011179921
-0.032833915 -0.02145934 0.020733593 0.09326166 0.074301615 0.050049886 0.022642786 -0.020377724
0.005645236 -0.03485567 0.07574957 0.02370753 -0.036814645 0.019570807 -0.009978395 -0.03435857
0.005407078 0.043790605 -0.011094078 -0.024583545 -0.020107657 0.04457809 0.012797142 0.021882812
-0.008063387 0.043962047 0.06870633 -0.02908445 -0.02938576 0.015661282 0.0072420384 0.041846912
0.058637027 0.08904019 0.06404075 -0.038914185 0.031473033 0.031201074 0.05520281 0.026926676
-0.0733851 -0.06078371 0.0031350923 0.039698243 0.10288011 -0.004164283 0.038043216 -0.056366388
-0.005689122 0.06225865 0.043901775 0.06770523 0.013592674 -0.04658334 -0.0069395434 0.0940794
0.11053828 0.074062765 0.06645946 0.00801061 0.0023753073 0.01809292 0.04448165 -0.05118107
0.032601513 0.11599901 -0.09244564 -0.033419788 -0.015950102 -0.03914621 -0.03236424 0.039283767
0.021563986 -0.048017178 -0.056489933 -0.04869593 0.11213079 0.018292876 -0.039756708 0.006422231
0.028415658 -0.059393357 -0.0336046 -0.033837277 0.06689753 -0.009550315 0.059794355 0.01060731

fc4.weight f4 [12, 256]
00000000: d94c e1bb 15e8 eabd dba7 91bd 0e93 d9bc
00000010: a3ae 24be 7f45 a4bd bde7 e2bd 2cc6 3fbe
00000020: 0441 183d b7c7 e9bc 9a9c 20bc 6a91 8cbc
00000030: 5827 b2bc 3a00 e33c 0e04 95ba 8336 51bd
00000040: b376 39bc c351 ed3c 4418 a5bd d46f a03d
00000050: e268 a0bd 2a5c a4bd dda8 8abd f6c8 01bd
00000060: 620f 1bbe c08b c43d b2bf cbbe 8feb d0b9
00000070: 789a 4dbd c66c b13c a0d4 c0bd d331 e73c
00000080: 154a 09bd 37ad 05bd cb12 65bd 56ba cdbd
00000090: 7e67 26bc ff70 d93c 9628 d3bd e796 52be
000000a0: 5a89 f7bd ef3e 143e 696b c03c 42ee 84bd
000000b0: ea64 e7bc 3e16 283e 18e8 dd3d 1310 bbbd
000000c0: 5cbf 183d 3c0e 56be 2d53 8abd dfd0 8dbc
000000d0: b084 61bd 78e1 d7bb 6dcc adbd 593a d8bd
000000e0: 5ddd 9ebe 4c11 acbd 7f37 b4bc f0f8 bfbd
000000f0: 6ae8 cd3d c830 0b3d ac06 90bd edda 09bd
00000100: 791f db3d 8d30 1a3e 377e 873e 2945 5dbd
00000110: 8c38 ee3d e9a7 9cbd 1630 c9be a691 0bbd
00000120: 289d 9f3c 323d b3bc 044d afbc 04bf cdbd
00000130: 4882 383c 0c78 12bc 231a cb3d 2172 5abd
00000140: 3c24 d1bd ac93 793e 2942 dbbd a74b c4bd
00000150: 4e59 19bd decb c6bd 6763 e0be 6466 0d3d
00000160: a825 d4bd 921c 0d3e b0ca 973d c410 28bc
00000170: e4dc abbd 32ba af3d f07f cfbd 5f6b d13c
00000180: 3710 55bd b854 42be 1fb9 c83d dd5d 36be
00000190: 2a73 07bd 8ea4 e8bd 19b9 cbbd 2cd5 00bd
000001a0: 463b 69bd 5930 163e dfb8 ccbb aab5 9c3d
000001b0: 69d0 a1bd e1f6 4fbd 4319 a7bd 3318 b3bd
000001c0: 789d b8be 52ec b1bc df1c c7bd 4633 f3bd
000001d0: 7bf7 babd b0c1 8abc dcfa 13bd 804c 19be
000001e0: a7f3 51bb 26de 9dbd 6771 71bd 4b34 b8bc
000001f0: 0a74 a4bd 0608 d1bd c998 89be 2209 eebd
00000200: 9776 94bd 257b d5bd 36c4 dfbc 4cac 0fbb
00000210: f96c e23c 607f 82bb 9f2c 813d 3d26 67bc
00000220: c28b 92bd f042 b6bc 8a53 163e 3431 0f3d
00000230: 44bd 66bc 556e 253e 6ca2 2cbc ad86 62bd
00000240: f488 193e b8c6 c8bd 1aeb 113c 4938 1b3d
00000250: c413 aabd 94d0 663d 6f75 83bd 0541 c9bd
00000260: a85e 44be f630 2ebe 2b5f b53d 8558 2bbc
00000270: 34ba 073d 95af 8b3c a356 91bd a602 f43d
00000280: 7bc5 ec3d fc70 143d 6ba6 a93c 1123 41be
00000290: fa6d 183d fa31 f43d d618 7dbd fcd1 c8be
000002a0: f0e5 d33d 998d de3c 86f3 6dbe d7d7 c6bd
000002b0: 72ed 3cbe 1564 95bd bafb ef3d dbaf ccbc
000002c0: 6851 f33c 673f 1a3e 89c8 88bd 984b c0bd
000002d0: 94d0 32bc 3b62 e7bc 6d32 79bc 7ed5 fe3c
000002e0: 9c8d 63be 5654 fdbb 5c7c b93c 8625 d6bd
000002f0: f894 edba 52b7 a43b 8480 253c e5c4 93bd
00000300: 7680 abbc 93f0 66be 1477 76bd 87db d9bc
00000310: 1b92 95bd 8e6a 94bd 55d5 bf3c 44cb a2bd
00000320: 76eb 9bbd 3187 7e3d 1c37 64bd 8944 f43d
00000330: a78d 8abc ff85 acbd 124d e4bd 516e 02be
00000340: aac3 7cbc 28c8 a1bd 357b d5bb 2484 5c3a
00000350: 0a7e 8dbd e862 07be 3077 bcbd d5e8 e5bc
00000360: 5491 96bc 386c bebd 9494 e13d 55b4 073c
00000370: efd1 a63c 9349 503c 0187 c8bd 050e ecbd
00000380: 2c48 e4bd d8e0 64be bc71 5dbc f243 e03c
00000390: fd67 773b 7eb7 88bd 283d 7a3c fc37 1c3e
000003a0: 863e f2bd 4e64 b6bd 660a e33d 0ce2 b4bc
000003b0: e1de 833c b004 ae3c 57ce f23d dd04 94bd
000003c0: 584f 143e b849 81bd 1074 a53d 3521 acbc
000003d0: c611 eebd 84e3 86bc d42f 9b3b b36c 80bd
000003e0: 2dae 82bd aed7 45bd 0fee 08bc d100 3bba
000003f0: 457c 29bd cab6 06bd a44f 11be f760 d63b
-0.006875616 -0.114700474 -0.07112094 -0.026559379 -0.16082244 -0.08021068 -0.11079357 -0.1872794
0.03717138 -0.028537614 -0.009802962 -0.017159183 -0.021747276 0.027710069 -0.0011369006 -0.051077377
-0.011319804 0.028969651 -0.08061269 0.078338295 -0.07832505 -0.080253914 -0.06770489 -0.031685792
-0.15142587 0.09596968 -0.3979469 -0.00039848356 -0.05019614 0.021658313 -0.09415555 0.028222
-0.033517916 -0.032635894 -0.055926125 -0.100453064 -0.01015651 0.026543139 -0.103104755 -0.20565377
-0.120867446 0.14477132 0.023488717 -0.064907566 -0.028246362 0.16414735 0.10835284 -0.09133925
0.03729187 -0.20903867 -0.06754146 -0.017311512 -0.05505818 -0.0065881573 -0.08486257 -0.10558004
-0.31028262 -0.084017366 -0.021999119 -0.09373653 0.10054095 0.03398207 -0.070325226 -0.03365605
0.10699362 0.15057583 0.26463482 -0.054021034 0.11631879 -0.07649214 -0.392945 -0.034074448
0.019484118 -0.021879766 -0.021399029 -0.10046199 0.01126153 -0.008939754 0.099170946 -0.053331498
-0.10211989 0.24372739 -0.107059784 -0.09584742 -0.037438683 -0.09706853 -0.43825838 0.034521475
-0.10358745 0.1378043 0.074117064 -0.0102579035 -0.08391741 0.08580436 -0.10131824 0.025563894
-0.052017417 -0.1897763 0.09800934 -0.17809244 -0.033068813 -0.11359511 -0.09947414 -0.031453297
-0.056941293 0.1466688 -0.0062476243 0.07651837 -0.07901079 -0.05077255 -0.08159115 -0.0874485
-0.3605764 -0.021719132 -0.097223036 -0.11875014 -0.091292344 -0.01693806 -0.03612791 -0.14970589
-0.0032036097 -0.07708387 -0.05894604 -0.022485873 -0.08029945 -0.102066085 -0.26874378 -0.11622836
-0.07249182 -0.104238786 -0.02731524 -0.0021922765 0.027639853 -0.0039824694 0.06307339 -0.014108238
-0.07155563 -0.022248715 0.14680305 0.034959033 -0.01408321 0.1615537 -0.010536771 -0.055304218
0.1499365 -0.098035276 0.00890615 0.037895475 -0.08304551 0.05635126 -0.06418883 -0.098268546
-0.19176733 -0.17010865 0.088560425 -0.010458116 0.03313656 0.017051497 -0.07096603 0.11914568
0.11561104 0.036240563 0.020709237 -0.18861033 0.037214257 0.11923595 -0.061791264 -0.39222705
0.103465915 0.027167128 -0.23237428 -0.09709137 -0.18449953 -0.0729448 0.11717935 -0.024986198
0.029701903 0.15063249 -0.06678874 -0.09389418 -0.010913987 -0.028245082 -0.015209776 0.03110766
-0.22221988 -0.007731001 0.022642307 -0.10456376 -0.0018126061 0.0050267363 0.010101441 -0.07215289
-0.020935278 -0.2255271 -0.060172155 -0.026593937 -0.07303258 -0.07246886 0.023417154 -0.07948926
-0.0761327 0.062140647 -0.05571662 0.119271345 -0.016913248 -0.08423995 -0.111475125 -0.12737395
-0.015427509 -0.07899505 -0.0065149316 0.00084120245 -0.06908806 -0.13221323 -0.09202421 -0.028065125
-0.018379845 -0.09297985 0.11014667 0.008282741 0.020363776 0.012712854 -0.09791375 -0.115261115
-0.11146578 -0.22351396 -0.013515886 0.027376149 0.003775119 -0.06675623 0.01527337 0.15255731
-0.11828332 -0.0890585 0.11085968 -0.022080444 0.016097488 0.02124247 0.118557625 -0.0722749
0.14483392 -0.06312889 0.08078778 -0.021011928 -0.11624484 -0.01646591 0.004735926 -0.06270733
-0.06380878 -0.04830139 -0.008357539 -0.00071336055 -0.04137828 -0.032889165 -0.14190537 0.006542321

fc4.bias f4 [12]
00000000: 0ada 73bd 46db f13b 7645 82bd 643b 76bd
00000010: b1e8 2dbc 7bd8 9f3c b214 9bbc 605d d8bc
00000020: 2fcd f2bd 019c 4fbd c720 50bd a8de 26bb
-0.05953411 0.0073808758 -0.06360905 -0.060115233 -0.01061456 0.019512406 -0.018930767 -0.026411712
-0.11855542 -0.050685886 -0.05081251 -0.0025462303
