model.pt_episode_100.pt (torch, 182492 bytes, 8 tensors)

fc1.weight f4 [64, 5]
000000 d1 c4 81 3e d2 9b f4 3e 4e 5c 3d be 57 fc e3 be
       0.25345472 0.4777513 -0.18492243 -0.44528458
000010 cc ae a2 3e 26 54 d8 3e 32 00 5d be 6e 6b 2c 3e
       0.31773984 0.422517 -0.21582106 0.16837856
000020 1a ba 17 be 1f 79 69 3e 9c bf b6 be 8b b1 76 bd
       -0.14817086 0.2280011 -0.3569306 -0.060227912
000030 c5 88 10 be b7 0e 9b 3e d2 4a 9c 3e 85 fc 04 3f
       -0.14114673 0.30284664 0.30525833 0.51947814
000040 8c 08 22 3d 3a c8 d3 3e a7 90 09 3c 19 c0 cb be
       0.039558932 0.41363698 0.008396304 -0.39794996
000050 63 76 6c be 3c 19 b1 be bf 28 a0 3e 8e ba 8b be
       -0.23092036 -0.34589565 0.31281087 -0.27290767
000060 a8 f1 94 3e 1d ca c3 bd 0d e8 ab 3e a4 37 72 be
       0.2909062 -0.095600344 0.33575478 -0.23654038
000070 3f df bb be 2d 59 b4 be 8b 24 51 3d 77 01 1c be
       -0.3669376 -0.35224286 0.05106024 -0.15234934
000080 f5 bd 63 be 5e cf 9f 3e 06 f2 b7 3e ad 6e 83 be
       -0.22240432 0.31212896 0.35926837 -0.25670376
000090 25 d9 e7 3e ea 5f b5 3c e0 3f 41 3e ff 41 64 3d
       0.45282856 0.022140462 0.18872023 0.055727
0000a0 f1 68 0f bd 6c 69 31 be 44 ec 24 bd b3 73 3b 3d
       -0.03501219 -0.17325372 -0.040264383 0.045764636
0000b0 5c e8 9c be a0 93 96 3e 3d 05 d3 3e fb ee 59 3e
       -0.30646026 0.29409504 0.41214934 0.2128257
0000c0 1f 68 40 3d df 21 47 be c1 2c e8 3e cc b1 ef be
       0.046974298 -0.19446515 0.45346645 -0.46815336
0000d0 3f 62 cb 3e bf f0 ef 3e e2 28 86 3e 6a fb 04 3f
       0.39723393 0.46863362 0.26203066 0.5194613
0000e0 03 a6 94 bd 71 39 1d 3d 4d 36 e8 3d a1 cb 71 3d
       -0.07258227 0.03838486 0.11338482 0.059032086
0000f0 bb f9 0c 3f 17 e5 4e 3c d8 8b b7 be 99 49 14 bd
       0.5506856 0.012627861 -0.3584888 -0.036203
000100 b9 3a 6e 3e 73 bb 60 be 44 5b c5 be d9 09 1c 3d
       0.23264588 -0.21946506 -0.38546193 0.03809533
000110 71 1a 1f be d7 d7 bb 3e 93 39 81 3e dd 5e b5 3e
       -0.1553743 0.3668811 0.25239238 0.35423937
000120 ce 94 1b 3e a6 5e 4f be d5 70 c3 be bd c1 55 3e
       0.15193483 -0.2025095 -0.38172022 0.20874687
000130 d4 c4 3e 3e 64 95 bd 3d 54 81 c4 3c 30 47 02 be
       0.18629771 0.092570096 0.02398745 -0.12722468
000140 37 bf 03 3c 7c c3 8e 3d b7 0f ab be cd 46 df 3d
       0.008041195 0.069708794 -0.33410427 0.10902176
000150 88 25 17 3e 47 9e aa bd 1e 46 9d 3e 9f 7b a9 3e
       0.14760411 -0.0833097 0.30717558 0.33102128
000160 85 ae c5 be b6 46 6e 3e f3 06 6c 3e 4a c3 d4 be
       -0.3860971 0.23269162 0.23049526 -0.41555244
000170 d3 ed b2 3e 5d ee 0e be ae 82 ed 3c 37 15 31 be
       0.3494707 -0.13958116 0.028992977 -0.17293249
000180 95 05 ea 3e cc e9 8a be c0 d4 40 3e 04 47 9b 3e
       0.45707384 -0.27131498 0.18831158 0.30327618
000190 fd 14 a0 bd dc 6b 86 bd 6c 39 71 3e f9 ef f1 3e
       -0.07816503 -0.06563541 0.23557061 0.47253397
0001a0 8c d2 9e 3e 49 bc f7 3e f0 00 9b bd 88 3f 51 3e
       0.3102001 0.48385838 -0.07568538 0.20434391
0001b0 a1 6c dc be 78 e4 aa 3e be 73 72 3d a8 43 34 3e
       -0.43051627 0.33377433 0.05919241 0.17603934
0001c0 f4 52 bc 3e 4f 5a e9 bc 23 b9 ba be 09 03 20 be
       0.36782038 -0.028485445 -0.36469373 -0.15626158
0001d0 39 2c 46 be b3 40 bf 3d 00 75 16 bc 2a 1b de 3d
       -0.19352807 0.09338512 -0.009183168 0.10845025
0001e0 b3 f0 d8 3e 0c d1 87 bd 25 2d 94 3e a2 b1 4d be
       0.4237114 -0.066316694 0.28940693 -0.20087293
0001f0 1f 8b c6 3c 01 42 90 bc a9 98 16 be af 32 bc 3e
       0.02423626 -0.017609598 -0.14706673 0.3675742
000200 c2 40 81 be ab 13 67 3e 43 15 21 3e e2 17 f8 3d
       -0.2524472 0.22566096 0.15730767 0.1211393
000210 3b cf db be 6d 03 79 be ec 88 7a bd b9 60 8a 3d
       -0.42931542 -0.24317713 -0.061165735 0.0675673
000220 74 1b 8f 3e 9b 2d 43 3e 74 05 dd be 1f ff b7 bd
       0.27950633 0.19060366 -0.43168223 -0.08984207
000230 f7 fa 22 3c a8 fa a4 be 8b 5c 86 3d ee d5 dd 3e
       0.00994753 -0.32222486 0.0656062 0.43327278
000240 0d 2f 95 3e b5 a9 4f 3e cb 8a 3e 3d 0d 0d a4 3e
       0.2913746 0.20279582 0.046519082 0.32041207
000250 ef c8 7b be b9 bf 63 bd bf 5f ab be cf 5e 7c 3c
       -0.24588369 -0.055602763 -0.33471486 0.0154034635
000260 f7 93 ac be 8b 35 c9 3e 82 2a 68 3e 3a ee f9 3d
       -0.33706638 0.39298663 0.22672465 0.12203641
000270 de 1a 37 be 2b c4 d4 3e b6 fc a0 3e d3 8f b2 be
       -0.17881343 0.41555914 0.31442803 -0.34875354
000280 42 5a cc 3e c7 6e a0 3e 47 41 04 bd 49 e8 38 be
       0.3991261 0.31334516 -0.032288816 -0.1805736
000290 f6 58 d8 3e 78 e7 8b 3c e6 cd 41 be 7e 1c d4 be
       0.42255372 0.017078146 -0.189262 -0.41427988
0002a0 60 f3 9d 3e 3b 43 65 3e ac 45 b3 3e 0e 09 c0 3e
       0.30849743 0.22388928 0.35014093 0.37506908
0002b0 d7 f1 84 3e 39 ba d7 3d b9 6e 16 3e fd 91 a0 be
       0.2596576 0.10533566 0.14690675 -0.3136138
0002c0 0a a3 a7 3d cc 80 35 be 6b 64 cd 3d 29 f8 b4 be
       0.08185394 -0.17724913 0.10028919 -0.3534558
0002d0 6e 7e 5e be 03 0a 74 bd 11 3f 98 be eb c1 0c 3e
       -0.21727917 -0.05957986 -0.29735616 0.13745849
0002e0 d9 d9 d4 be 11 b1 d2 3e 86 49 64 be f0 9c 44 be
       -0.41572455 0.41150716 -0.22293672 -0.19200492
0002f0 a0 02 b6 be 0c 31 de 3e c9 00 c1 3e a7 e0 fd 3e
       -0.35548878 0.43396795 0.37695912 0.4958546
000300 7e 1d 9f 3d cb 31 88 3e 35 40 b2 be f0 8c e8 3e
       0.07769297 0.2660049 -0.3481461 0.45420027
000310 26 69 24 be e5 c4 d2 3a 2e 79 3c 3e 1e a0 e4 bb
       -0.16055736 0.0016080408 0.18405601 -0.0069770953
000320 57 e2 47 be 69 db 4e 3e 8f 2d b8 be 8e 69 c6 3e
       -0.19519936 0.20200886 -0.35972258 0.38752407
000330 8b 57 98 bd a5 c9 a6 3e bf bb 7f 3e 28 a5 2f be
       -0.074385725 0.32575718 0.24973963 -0.17152846
000340 5c cb c2 be f3 dd 8b 3e df 1d a0 3e cd 82 49 3e
       -0.38045776 0.2731777 0.3127279 0.19678803
000350 77 f2 97 be da 41 01 3f 7f 3b 6f 3d 74 8a bc be
       -0.29677173 0.50491107 0.05840635 -0.3682438
000360 a6 62 b4 be a5 f3 9d be 14 44 fb 3c 74 57 24 bd
       -0.35231513 -0.3084995 0.03067211 -0.040122464
000370 04 f2 84 3e 39 19 ff 3e bb ba c1 bc 73 91 b7 3e
       0.25965893 0.4982393 -0.02364861 0.35853156
000380 b7 a8 a1 be 89 a4 7a bb 18 66 8e be 5c 71 7b bd
       -0.31574032 -0.0038245043 -0.27812266 -0.061387405
000390 85 58 e1 3d a0 d3 aa bc 8b a1 a3 be 3a 35 dd be
       0.11003212 -0.020852864 -0.31959185 -0.4320467
0003a0 f3 1a 45 3d 06 d7 a4 3d 15 7a b2 b7 25 08 b8 3e
       0.048121404 0.08048825 -2.1276102e-05 0.35943714
0003b0 23 f8 35 be fb 0f 9f 3d 06 29 00 3e a9 ec b9 be
       -0.17770438 0.0776672 0.12515649 -0.3631337
0003c0 be 71 b4 3e 26 8e 6d 3e 85 af 38 3e 36 6f 79 be
       0.35243028 0.23198757 0.18035705 -0.2435883
0003d0 fa d8 f2 3d ca 5d 1f bc 64 a5 03 be a5 7c 9d be
       0.11857791 -0.009726951 -0.1285606 -0.3075916
0003e0 cb 60 17 3e 32 a5 0a be 0a e2 0f 3e c4 17 ea 3e
       0.14783017 -0.1353958 0.14051071 0.45721257
0003f0 d9 ef fd 3e 83 7e 11 be af ae 6d 3c fa b1 3e be
       0.49597052 -0.14208417 0.01450698 -0.1862258

fc1.bias f4 [64]
000000 14 83 09 be e5 af 9d bb c2 45 24 be 42 71 f9 3d
       -0.13428909 -0.004812228 -0.16042235 0.12179805
000010 4b a6 d5 3e ec cb 32 3d 48 23 b8 3e ad ff 75 be
       0.41728434 0.043651506 0.35964417 -0.24023314
000020 01 ce 12 be 80 51 92 3d ea de 40 be 76 3a 5a be
       -0.14336397 0.07144451 -0.18835035 -0.21311364
000030 c6 da 69 be 4f b5 a2 3d a4 4e 8a 3e b2 31 b1 3e
       -0.22837362 0.07944738 0.27013123 0.34608227
000040 15 0a d4 3c 20 a5 ab be 5c 98 aa 3e 58 55 98 bd
       0.025883714 -0.33524418 0.33319366 -0.07438153
000050 a1 1b 52 3e ba d6 78 be 25 ba f3 3e bc 51 87 be
       0.20518352 -0.24300662 0.47602955 -0.26429546
000060 56 2e c8 bd f0 13 57 be 31 66 73 3e f0 e2 89 3e
       -0.09774463 -0.210037 0.23769452 0.26930952
000070 a2 f5 cb 3e 6c 7e 55 3e de ae d3 3e a6 b4 fa bc
       0.3983584 0.20849007 0.4134435 -0.030603718
000080 43 67 a7 be 6e 95 ae 3e 0f e0 c2 3e a8 6c d5 3e
       -0.3269597 0.3409838 0.38061568 0.4168446
000090 ae 8c ba be ad a3 de be d6 7a cc bd ba 3a ea be
       -0.36435455 -0.4348425 -0.099843666 -0.4574793
0000a0 7b c0 86 3e 6e c5 06 3e d5 12 67 be b3 08 39 3c
       0.26318726 0.13161251 -0.22565778 0.011293578
0000b0 6d c2 04 3f d3 8c c7 3d 69 d2 50 3e f0 cf 9f 3d
       0.5185917 0.09743657 0.20392765 0.07803333
0000c0 ee 37 84 3e 89 85 9f be 62 ce 7d 3d 81 a3 3e be
       0.2582392 -0.31156567 0.0619644 -0.1861706
0000d0 90 0b 6b be 56 8d b6 3d df 42 be 3d 48 f9 b2 be
       -0.2295363 0.089136764 0.092900984 -0.34955812
0000e0 8e 34 d6 3d 70 05 d7 be 4b 9f 8f 3e 7c 2b e8 3e
       0.10459243 -0.41996336 0.28051218 0.45345676
0000f0 84 07 a3 be 3b 9f 5f be d4 b0 2a bd cf 12 79 bc
       -0.3184167 -0.21838085 -0.041672543 -0.015202238

fc2.weight f4 [128, 64]
000000 3d 78 5f be 86 b5 2a 3e bf f1 3d be 2b 4c 98 3d
       -0.21823211 0.16670808 -0.1854925 0.07436403
000010 d4 58 e4 3d 23 bf 0e 3d 0b 13 16 3d 7d 7b d1 bd
       0.11149755 0.03485025 0.036639255 -0.10228632
000020 85 11 a1 3d 62 55 74 3d 65 c9 4b 3e dd 47 75 3d
       0.0786467 0.05965174 0.19901045 0.059882987
000030 17 a9 66 3d d2 e9 df bd d3 20 ce bd 13 02 08 3d
       0.0563136 -0.109332696 -0.100648545 0.033205103
000040 56 89 1e 3d 6c a7 92 be 6e 4d 32 3e c6 71 3a be
       0.038705193 -0.28643358 0.1741235 -0.18207464
000050 3f b8 6e 3d f0 ba 13 3e 06 69 04 bd 47 f0 25 bd
       0.05828118 0.1442678 -0.03232672 -0.04051235
000060 71 63 1a 3e e9 32 3b 3e ae 61 e7 3c 12 82 5c bd
       0.15076996 0.1828114 0.02824482 -0.053834982
000070 71 4d 22 3e 02 50 71 bd da 74 5f bd 9b b9 3c 3e
       0.15849854 -0.058914192 -0.054554798 0.18430178
000080 5c 5a fc bd dd 40 ac bd 56 b3 ce 3d ee 72 d6 3c
       -0.12321922 -0.08410809 0.10092799 0.02617785
000090 47 14 b0 3c 7a 2c 6b 3e f3 22 af bd 0d 34 84 3d
       0.021494044 0.22966185 -0.08551588 0.064552404
0000a0 62 8d 01 3e 76 e6 67 3d 82 4a 9f bd 66 a9 f4 bd
       0.1265159 0.05661627 -0.07777883 -0.11946373
0000b0 66 27 0e be 0f 96 a4 3d 36 97 d2 bd 45 c7 d0 3d
       -0.13882217 0.08036434 -0.102827474 0.10194258
0000c0 b0 54 f3 bd 6a 2a ca 3d 46 6c 11 be 2a 27 58 3d
       -0.11881387 0.09871371 -0.1420146 0.052771725
0000d0 ae 2a 41 3c cc 68 d7 bd db bb 6f 3c 95 d7 b6 bd
       0.011789961 -0.10518035 0.014632191 -0.08927838
0000e0 66 f9 d8 bd 28 d0 21 3e e2 80 c2 3d e5 1f 81 3d
       -0.10594444 0.15802062 0.09497239 0.063049115
0000f0 5f d9 4b 3d d4 fc f4 bd 0d 89 40 3e 9c 47 44 be
       0.049767848 -0.11962286 0.1880228 -0.19167942
000100 9f 3d b0 bc a8 64 da 3d 1e 10 20 3e bb dd 02 bd
       -0.021513758 0.1066373 0.15631148 -0.03194974
000110 2a 2f cb 3d bf 38 3b 3d 4e 26 12 bd 91 ad be 3d
       0.09921105 0.045708414 -0.03568106 0.09310449
000120 ce 33 cd bd 56 1a 8b 3c 21 df 7b 3d 35 fe 7f 3c
       -0.100196466 0.016980331 0.06149209 0.0156245725
000130 41 3a f4 3d 6e 92 cf 3d ca 20 06 be 80 c2 b0 bc
       0.119251736 0.10135351 -0.13098446 -0.02157712
000140 43 ca 3a 3d 4e 0d c4 bd bc 99 a9 3e 76 69 2a bd
       0.045603048 -0.0957285 0.33125103 -0.04160448
000150 95 16 71 bb 88 38 78 bb 7d a5 f2 bd b5 84 85 bd
       -0.0036787142 -0.0037875492 -0.11847971 -0.065194525
000160 dc c2 0e bd dc d3 60 3e 37 63 9a bc af 2e 8e 3d
       -0.0348538 0.21955818 -0.018846137 0.06942498
000170 a9 e3 51 bc 17 4f 62 bd 2d 23 09 3e a8 1c 8d bd
       -0.012810626 -0.055251207 0.13392325 -0.06890231
000180 f3 22 cc bd a0 02 52 3e 42 ff 4d 3d 12 58 f6 bd
       -0.099676035 0.20508814 0.05029226 -0.12028517
000190 77 3b 12 3b 93 c5 15 3d 33 c0 a1 bd a2 9a 32 3c
       0.0022313276 0.036565375 -0.07897987 0.010901125
0001a0 81 27 a3 3e df 33 d2 bd b9 ac cc 3d 5a 11 43 3d
       0.31866077 -0.102638 0.09993882 0.04762397
0001b0 35 ee d2 3d 76 47 dd bd f3 65 8b bd 04 66 7c bd
       0.10299341 -0.10804646 -0.06806555 -0.061620727
0001c0 d6 10 c6 3c c6 89 43 3d fa b4 78 3d 97 f7 b8 bd
       0.02417795 0.047738813 0.060719468 -0.09031599
0001d0 77 41 0c 3d ad f6 15 bd 26 4a b3 bc 3c e8 36 bd
       0.03424212 -0.0366122 -0.021885943 -0.04465507
0001e0 3b e8 12 3d 16 3a cd 3d 97 23 1a 3c d7 64 87 3e
       0.035866003 0.10020845 0.009407899 0.26444122
0001f0 70 c8 cd bd 3f 2f ab bc e3 92 84 3d c2 7b 97 3d
       -0.10047996 -0.020896552 0.06473329 0.07396652
000200 b6 1c f1 3c 5a 69 f4 bd 6a 99 5f bd a6 be 64 bd
       0.029432636 -0.11934157 -0.054589666 -0.05584588
000210 26 56 e1 3c 06 ca dc 3c 40 0b ce bd ae 79 ee bd
       0.0275069 0.026951801 -0.100607395 -0.11644302
000220 fe 30 c3 bc b2 d5 47 bd 0d 1f ad bd 11 10 b6 bd
       -0.023827072 -0.04878778 -0.08453188 -0.08889783
000230 07 28 ac 3c 81 7b 90 bd 97 9c 18 bc 51 9f bd 3d
       0.02101518 -0.070548065 -0.009314678 0.09258903
000240 5d a4 a5 bd 9a 96 4c 3d 9f b2 31 3d bd 42 95 3d
       -0.080879904 0.049948312 0.043383237 0.0728812
000250 ca 20 f1 bd d8 53 d6 bd ea 98 cc 3d d7 9e a6 bb
       -0.11773832 -0.10465211 0.099901035 -0.005084853
000260 ab 72 39 3d 7e a8 6c bd 7f 80 ab bd 1c 22 dd 3d
       0.04527537 -0.057777874 -0.08374118 0.107975215
000270 17 72 94 3c 3d 58 96 bd de ee d9 bd b3 03 91 bd
       0.018120809 -0.07341049 -0.106412634 -0.07080784
000280 37 08 33 bd 40 a5 e9 3d d6 8c df bc 8a 38 de 3d
       -0.043709006 0.11408472 -0.027288835 0.10850628
000290 26 5c d4 3c ee 6b f5 ba a7 1e b7 3d ab 4c 00 bd
       0.025922846 -0.0018724182 0.08941393 -0.031323116
0002a0 49 0b aa bd 77 76 19 3c 5a 87 d2 bd f2 9e f2 bd
       -0.08302934 0.009366623 -0.102797225 -0.11846723
0002b0 fc bb ef bd ee 92 f3 bb 0f 2e 96 3c 63 32 9b bd
       -0.11705777 -0.007433287 0.01833251 -0.0757797
0002c0 42 ab 6a bd ef e2 39 3d df 87 93 bd 37 e5 b8 bb
       -0.05729223 0.045382436 -0.0720365 -0.005642559
0002d0 d6 e8 3f 3b e2 c0 53 3d 56 eb e6 3c da 33 f0 3d
       0.0029283068 0.05169762 0.028188389 0.1172864
0002e0 c6 45 c6 3c 76 78 e6 3d 12 c1 c2 bd 1a ee 3f 3d
       0.024203192 0.11253445 -0.095094815 0.04685793
0002f0 d6 5a f1 bd a5 04 ae 3d df 88 23 3d ae 2b ef bb
       -0.11784904 0.084969796 0.039925452 -0.007298908
000300 63 93 31 bd 53 e6 a9 3d 4c e6 e0 3d 2e 34 d8 3d
       -0.04335345 0.08295884 0.10981426 0.105568275
000310 97 d2 8e 3b 53 bb 05 3d 0e 6c dc bd 99 4f bd bd
       0.0043586004 0.03264935 -0.10762797 -0.09243698
000320 9f 71 a7 bc f7 53 ac bb ba 9c 40 3d aa 2c be 3d
       -0.020439921 -0.005259033 0.047024466 0.09285863
000330 a8 c4 ef bd f6 b3 64 3d d7 43 29 bd 76 a9 d8 bd
       -0.11707431 0.055835687 -0.041324463 -0.10579197
000340 6e de 76 3d ae 65 47 bd 2f 93 1f bd 06 bc f9 bd
       0.06027072 -0.048680954 -0.038958725 -0.12194066
000350 7f 19 a0 3c 3a 05 72 bd 8f c8 8e 3d 17 25 9f bb
       0.019543407 -0.059087016 0.06971847 -0.0048567164
000360 77 ce 08 bc fe ce 4a bd 77 22 16 ba de f1 c6 bd
       -0.008350006 -0.04951381 -0.00057271816 -0.09714101
000370 c2 89 60 3d f3 be 0b bd 3b cd 09 bd 9f 48 b0 bc
       0.054818876 -0.03411765 -0.03364299 -0.021519003
000380 f4 72 f9 bd 84 ed d3 3d 17 06 a9 bd 77 1a 27 3c
       -0.12180129 0.10348037 -0.08253115 0.010199181
000390 ea 5e ed 3d 87 a6 01 3d 25 bb a5 3d 28 30 e8 bd
       0.11590369 0.031652953 0.080923356 -0.1133731
0003a0 0a 2f ca bd ee ee 4b 3d 5a d2 78 3d cf ed 9b bc
       -0.09872253 0.049788408 0.060747482 -0.019034294
0003b0 86 61 f5 bc 57 0e 0b bc ee b3 46 ba ec c0 e1 bd
       -0.02995373 -0.008487306 -0.0007579912 -0.11023125
0003c0 7d 92 a5 3d a7 e6 28 3c d4 1a be 3d 01 a7 8f bd
       0.08084581 0.010308898 0.09282461 -0.07014275
0003d0 03 d8 24 bd 76 50 52 bd 77 40 1d 3b 77 4d 1e bc
       -0.040245067 -0.051346265 0.0023994723 -0.009662024
0003e0 d0 8f ea 3d 6e 9e ea 3a e7 38 b3 bd 1f 9b b6 bd
       0.11453211 0.0017899999 -0.08751088 -0.08916306
0003f0 36 69 ea bd 1e b8 ce bd 2e df df bc d3 f9 08 bd
       -0.11445849 -0.10093711 -0.0273281 -0.033441376

fc2.bias f4 [128]
000000 5f 22 60 3d ed c4 b3 bd e9 14 9b bd e0 d3 fa bd
       0.05472028 -0.08777795 -0.07572348 -0.12247443
000010 c7 63 95 3c a8 1b ed bd 6e 17 22 3e 57 73 00 be
       0.018236054 -0.11577541 0.1582925 -0.12543999
000020 9d e3 15 3e 97 3c 2d bd 47 ad f1 3c 58 ed 6e bc
       0.14637609 -0.04229411 0.02950157 -0.014582954
000030 9d 75 1d be 7f 61 95 bc ed 67 86 bc 6b 44 be 3d
       -0.15376897 -0.018234966 -0.016406978 0.092903934
000040 60 32 83 bd 41 ec c1 3d c0 5b d4 3c c8 cd e2 bc
       -0.06406093 0.0946889 0.025922656 -0.027686015
000050 a7 9d 9e bc b1 62 ac 3d 64 ea f4 3d 3d 0c 78 bd
       -0.019362284 0.084172614 0.11958769 -0.060558546
000060 dd 7b 89 bd 07 01 2b bd 2a 0d ca bc 51 22 9b bc
       -0.06713078 -0.041749027 -0.02466448 -0.018937262
000070 51 ca ee bd e8 85 e4 3d 5b db 14 3d ce ce f1 bc
       -0.116596825 0.11158353 0.036342006 -0.029517557
000080 6b 94 f7 bc ab cd 85 3d d9 49 de bb f1 e1 ec 3d
       -0.030222138 0.06533369 -0.0067837057 0.115665324
000090 35 8d 9f 3d 11 74 e0 3d 63 f2 97 bc 8c 62 b6 3d
       0.07790605 0.10959638 -0.018548196 0.08905515
0000a0 96 b7 54 bd 03 47 9e bc 47 13 96 3c ea 64 b9 bd
       -0.051932894 -0.01932097 0.018319739 -0.09052451
0000b0 c7 df 8f bd 1b f4 b1 3d c6 d4 85 bd 4f f9 21 3d
       -0.07025104 0.086891375 -0.06534724 0.0395444
0000c0 06 f8 0f bd 6a 4d 6b bd ff ff b7 bc 2a 80 d7 bd
       -0.035148643 -0.057446875 -0.022460936 -0.10522492
0000d0 d5 db 0e be 86 1d c1 3d 13 c3 3b 3d 77 d8 20 3d
       -0.13951047 0.09429459 0.045840334 0.039268937
0000e0 7c 3c f7 bc 0f cb 8d bd 66 8c fb bc 03 59 26 3d
       -0.030180208 -0.06923496 -0.030706596 0.040612232
0000f0 77 3e 09 bd 8d 05 08 3e 86 87 7a bd 33 c1 85 bd
       -0.033506837 0.13283367 -0.0611644 -0.065309905
000100 37 54 b8 3b 4a b6 ca bd af b5 64 bd 27 3a 39 bd
       0.0056252736 -0.0989805 -0.05583733 -0.045221474
000110 46 f7 31 3c ad 78 c4 bd 02 ff ae bd 7b 31 07 3d
       0.010862177 -0.095933296 -0.08544733 0.033006173
000120 1f 84 df 3d fe fb 3e 3d 69 41 a2 39 97 c7 e5 3d
       0.10913872 0.046627037 0.00030947782 0.11219709
000130 92 08 e4 bd 3c ae 40 3d c2 7d 20 bd bf b4 21 3d
       -0.11134447 0.047041163 -0.039182432 0.039479014
000140 a7 9f af bd 8e 25 f1 3c 82 c6 ae bd 69 58 03 bd
       -0.08575373 0.029436853 -0.08533956 -0.032066736
000150 6c 92 17 bd 37 41 fa bc 95 d4 86 bd b6 45 da bc
       -0.037004873 -0.030548675 -0.065835156 -0.026644569
000160 f3 80 1a bd c3 77 1e 3d 3f 17 05 3e 12 14 de 3d
       -0.03772063 0.038688432 0.12997149 0.10843672
000170 77 92 27 bd 3d 46 88 bd b9 83 0f 3e 62 42 d8 3d
       -0.040911164 -0.06654022 0.14015092 0.105595365
000180 62 01 ef bd 88 2b cb bd 33 68 a4 bd 24 a9 05 3e
       -0.116701856 -0.09920412 -0.08027687 0.13052803
000190 40 4b fe bc e6 00 b9 bd 67 98 fd bb f4 0b 81 3d
       -0.031041741 -0.090333745 -0.007739115 0.06301108
0001a0 16 68 d6 3d e2 a4 c3 bd 2e 2e 46 3b 7a 2a da 3d
       0.104690716 -0.09552933 0.0030239928 0.10652633
0001b0 88 f4 a9 bd ef 44 c5 3c ca c8 66 bd 27 29 08 be
       -0.08298594 0.024080722 -0.05634383 -0.13296948
0001c0 a1 b6 88 3c 87 b6 96 3c 3b 89 8e 3d 5d da 8f bd
       0.016688647 0.018397583 0.069597684 -0.07024071
0001d0 7d 3e f4 3c fa f5 22 3e 64 43 d9 3d 1e a4 eb bd
       0.029814953 0.15914145 0.10608557 -0.11505912
0001e0 73 8e db bd c3 37 af 3d cf 95 20 3e 2a 5e 6c bd
       -0.107205294 0.085555576 0.15682147 -0.05770699
0001f0 fe fe ce bd 79 83 be 3d 18 25 58 3c 6b f5 8f 3d
       -0.1010723 0.0930242 0.013192438 0.07029232

fc3.weight f4 [256, 128]
000000 38 86 a8 3d 0a c5 82 3d 85 85 5e bd 1f 1d 3e 3d
       0.08228725 0.063852385 -0.054326553 0.04641449
000010 4a fe ed bc 2f f7 78 bd dd 29 8e bd 9e 23 1f 3d
       -0.029051919 -0.060782608 -0.069415785 0.038852327
000020 b9 cb b2 bd 0d 2c 9c bc 1c 9c cc 3c cf 32 3f bd
       -0.08730263 -0.019063974 0.024976783 -0.046679314
000030 cd 60 ab 3d 1d 3e 75 bd f2 e6 49 bd e3 34 a9 3d
       0.08368073 -0.05987369 -0.049292512 0.082620405
000040 d8 f2 91 bd 4e 53 c2 3c cc e3 16 bd 8e b5 87 bd
       -0.07126397 0.023721363 -0.036838338 -0.06626426
000050 d7 48 91 bd d2 40 9a 3d 0d 1d 82 3d 70 40 a6 3c
       -0.07093971 0.07531895 0.06353197 0.020294398
000060 7b c4 1f bd 61 40 29 bd 35 c9 bd 3c 2d 37 a2 3d
       -0.039005738 -0.041321162 0.023167232 0.0792068
000070 eb fa 3d 3b a7 74 57 3c 80 65 05 3d 0e b8 23 bd
       0.002898867 0.013150371 0.0325675 -0.03997045
000080 1f 34 76 3d d3 d9 97 bc f8 61 c4 bc 21 2e b9 bc
       0.0601083 -0.018536484 -0.023972496 -0.022605004
000090 64 a8 4f 3d 76 0d 99 bd ed 0f 97 bd e1 78 23 bd
       0.0506977 -0.074732706 -0.073760845 -0.0399102
0000a0 27 66 81 3a 8c 60 32 bd 4b bf ab bd bf 05 3e bd
       0.0009872363 -0.043549106 -0.083860956 -0.0463922
0000b0 50 7e 08 bd 76 83 7c 3d 97 50 6c 3d a2 9c e2 3c
       -0.033323586 0.06164881 0.057694044 0.027662579
0000c0 24 6c 7d bc 07 ab 3e bd 32 54 56 3c 6c ee 47 bd
       -0.015467677 -0.046549823 0.013081597 -0.04881136
0000d0 f0 8b bc 3c 87 59 fb 3c a5 87 2a bd ca c5 bf bb
       0.023015946 0.030682338 -0.041633267 -0.0058524357
0000e0 4e 28 96 3c a1 ab db bc c1 2e 62 bd 24 33 97 3d
       0.018329766 -0.026815237 -0.05522037 0.07382801
0000f0 60 16 20 bd fb 89 a1 3c 64 de 98 3d 18 b6 6e bc
       -0.03908384 0.019719115 0.07464293 -0.014569782
000100 8c bf 10 b9 09 0f 94 bd 80 49 a0 bd 69 c8 ea 3c
       -0.00013804267 -0.0722943 -0.07826519 0.028660016
000110 b5 03 9d 3d ce 46 86 3d 10 c2 b1 bd 1c ba 90 3c
       0.07666723 0.06556474 -0.086795926 0.017666869
000120 96 df 5e bd a2 2f 83 bd 0a 2d 78 bc 68 5b f6 bb
       -0.054412447 -0.064055696 -0.015147457 -0.0075182207
000130 8f 0f 0f 3d 5a 05 15 bd 3e 17 8c bd 31 6b ab bb
       0.034926947 -0.036382057 -0.068403706 -0.005231284
000140 86 36 98 3c 40 11 ae bd e7 72 81 3d 42 9f 0a 3d
       0.018580686 -0.08499384 0.06320744 0.033843286
000150 35 fc 24 3c 51 ab 23 3c f3 50 ac 3d 05 13 2a 3d
       0.0100698965 0.0099895755 0.08413877 0.041522045
000160 95 fb 69 3d e4 35 8a 3c 60 f6 91 bd c0 6e 8d bc
       0.057124693 0.0168714 -0.071270704 -0.017264724
000170 b2 7e b9 bb f1 67 34 bb ed d5 9d bc 18 e5 80 3d
       -0.005660855 -0.0027527774 -0.019267047 0.06293696
000180 79 1b 69 3d 12 eb 1c 3d 90 dd e5 3c 6c d8 7d bd
       0.056910966 0.038310118 0.02805975 -0.061973974
000190 8d 75 30 bd 59 6c 2c bd cc 3f bb bc 88 0b 3c bd
       -0.043080855 -0.042095516 -0.02285757 -0.045909435
0001a0 16 f6 82 bc 0c a1 af 3d 74 45 fc bc 76 8c 0b 3c
       -0.015986484 0.08575639 -0.030794837 0.008517375
0001b0 3c 92 4d bd 9d 82 27 bd 21 6d 28 bc 38 64 05 bd
       -0.050188288 -0.040896047 -0.010279925 -0.03256628
0001c0 87 1c 05 3d e2 07 a3 ba 9d 3e 68 3d be 3c 4f bc
       0.03249791 -0.0012438262 0.056700338 -0.012648759
0001d0 8c b0 3b 3d 92 87 8d bd 43 3b a8 bd e6 6f d3 3a
       0.045822665 -0.069106236 -0.08214428 0.0016131371
0001e0 94 ed 11 bd 99 0e 5f 3d 2b 5d 69 bd de e0 ef 3c
       -0.035626963 0.05445728 -0.056973618 0.02928203
0001f0 d6 74 cd 3b 58 e7 93 3d 19 2d 98 bd a0 74 97 3d
       0.0062700314 0.0722186 -0.07430477 0.07395291
000200 59 40 8a 3e 42 b2 02 3e 6e 53 ab bd b3 9d a7 3d
       0.27002218 0.12763312 -0.08365522 0.081843756
000210 a1 e2 a3 3d 3c 42 cd 3c 82 7f 4e 3e ba 89 ee 3d
       0.080022104 0.025055997 0.20165828 0.11647363
000220 2b 69 6a bd 12 7e 2e bc cf 88 29 3d 45 e7 15 bd
       -0.057229202 -0.010650175 0.041390236 -0.03659751
000230 e6 97 17 3e a4 cd 39 3e 77 56 1a bc 63 0a db 3d
       0.14804038 0.18144852 -0.009420029 0.106953405
000240 c0 15 aa bd fb ef 99 3d 94 2d 0f 3e 81 57 b1 3d
       -0.0830493 0.07516476 0.1398223 0.08659268
000250 2e 64 26 3d 5b 17 77 3d 99 b1 67 3e 98 5e 66 3c
       0.040622883 0.060325008 0.22626342 0.014060639
000260 99 0b 62 bd d5 76 8d bd 76 f0 54 3e 38 cb 9d 3d
       -0.05518684 -0.06907431 0.20794854 0.077047765
000270 40 46 85 3d d3 00 37 bd 27 9e 6c 3d 4d 06 1b bd
       0.0650754 -0.04467852 0.057768013 -0.037847806
000280 9d 51 c4 3d 08 da 45 3e 68 77 04 3e 93 df ad 3d
       0.09585879 0.19321454 0.12936175 0.08489909
000290 5c 90 41 3e 91 b5 9d 3d 65 02 7f bc cc 53 51 3d
       0.18902725 0.07700647 -0.015564536 0.051105306
0002a0 3e da 00 bd 46 76 4a 3e a5 ea 71 bd d9 90 1d bd
       -0.031458132 0.1977168 -0.059061665 -0.038468216
0002b0 d1 4f ba bd bf 91 0a bb 86 9e f9 3c 59 83 3c 3d
       -0.09097255 -0.0021144 0.030471098 0.0460237
0002c0 96 dc fc 3c 3c 7a 6a bd f2 ec dc 3c 09 5b bf 3c
       0.030866902 -0.057245478 0.026968453 0.023358839
0002d0 42 07 fc 3c c9 dd 41 3d a3 b1 ab bc b6 07 42 bd
       0.03076518 0.04733065 -0.020958727 -0.047370635
0002e0 3e 31 25 3c 7c 6a 11 3c db 44 28 bd 73 80 86 bd
       0.010082541 0.0088754855 -0.04108129 -0.065674685
0002f0 65 7b 08 3c 78 f9 41 bd c5 d8 f1 bc 6c 3e b9 3d
       0.008330201 -0.047357053 -0.02952231 0.09045109
000300 eb 44 8f bd 3b 0a 44 3e 84 bc 07 3e 70 7b 00 3c
       -0.06995567 0.19144528 0.13255507 0.00784193
000310 9d fd c4 3d e4 d0 39 3e 49 2b 7f bd f7 6e aa bc
       0.096186854 0.18146092 -0.06229714 -0.020804865
000320 2e 97 86 bd 82 9e e2 3d ca 24 15 3d 6a 6b 9a bd
       -0.06571804 0.11065389 0.036412038 -0.07540019
000330 b9 e1 e5 3d 66 bd cc 3d 40 eb b4 bd a6 3d 64 bd
       0.11224694 0.099970624 -0.08833933 -0.055722855
000340 cc c3 a1 3d f7 5a 28 3c 52 09 41 3d 7b 6f e5 bd
       0.078986734 0.010275594 0.04712803 -0.11202904
000350 cb 26 0a 3e a2 9a 14 bd dc 05 fc 3b 50 5e 3d 3d
       0.13491361 -0.03628028 0.007691128 0.04623252
000360 26 ce e2 3d 74 32 78 3d 4f f4 0e be 01 dc 97 bd
       0.11074476 0.06059499 -0.13960384 -0.07415009
000370 e4 ee 35 3d c2 42 63 bd 26 d8 72 3d 12 e3 22 bc
       0.044417277 -0.055483587 0.059288166 -0.009941833
000380 96 b5 13 3d a5 10 26 3d f6 0c 86 bc 50 a5 c9 3d
       0.036061846 0.040543217 -0.016363602 0.09845984
000390 05 c2 15 bd 79 c9 3f 3c 4f 24 6d bd 0d 11 1b 3e
       -0.036561985 0.01170575 -0.057895955 0.15143223
0003a0 1c 5d cd bc 07 b6 11 3d a7 ae 85 bd 23 a5 0d 3e
       -0.025068812 0.035573985 -0.06527453 0.13832526
0003b0 bd bb 39 3d 2c 46 ec bc 6b de 9f 3d 47 2b 77 3d
       0.045345057 -0.028842054 0.07806095 0.060344007
0003c0 ff d6 7c 3e 1f 0e 1a 3e 33 39 14 3d a3 3a 94 3c
       0.2469139 0.1504445 0.036187362 0.018094366
0003d0 00 6b 97 3d 03 d1 f6 3a 86 25 37 bd 0c dc de bb
       0.073934555 0.0018830601 -0.04471352 -0.006801134
0003e0 ef e7 87 3d ed 33 fa 3c 4c 19 24 3e 73 09 98 3d
       0.06636035 0.030542338 0.16025275 0.07423677
0003f0 1a da 88 bd 03 49 ae bc 6c a9 5b bd fd 08 cc bd
       -0.066822246 -0.02127505 -0.05362837 -0.09962652

fc3.bias f4 [256]
000000 86 6c 19 3c 24 44 4b 3d 22 c3 8d bc 1c a2 1e bd
       0.009364253 0.04962553 -0.01730496 -0.03872882
000010 2c e3 d9 3c c7 d4 81 3d 65 92 c7 3a d6 8d 51 3d
       0.026597582 0.06339412 0.0015226124 0.051160656
000020 f5 9a 97 3d 0a 0f bd 3d 7d 2c 41 bd 6c dd fc bc
       0.074026026 0.09231384 -0.047161568 -0.0308673
000030 ad da ae 3d 10 21 b1 3d 65 68 4f 3c 45 ac 53 bd
       0.08537803 0.08648884 0.012659167 -0.05167796
000040 ef 1e 58 3d 6c bb 8f 3d ad 09 96 3d 12 9a 34 3d
       0.052763876 0.0701817 0.07326064 0.044092245
000050 59 86 84 3d 38 99 5e 3d d1 64 2b bd 77 24 fa 3d
       0.06470937 0.05434534 -0.041844193 0.12213986
000060 d1 c8 01 3d 70 34 55 3d d5 21 13 bd db 99 59 bd
       0.031685654 0.05205196 -0.035920937 -0.053125244
000070 52 48 19 3d 7f c7 b9 bd 5a 13 93 3c 51 39 89 3c
       0.037422486 -0.09071254 0.017953563 0.016750963
000080 d1 93 95 bd bb 84 1b bd 29 79 85 3d fc 75 4e 3d
       -0.07303584 -0.03796838 0.0651725 0.050405487
000090 df 5c 98 3d 1c f3 73 3d ea 4f 50 3d 60 b6 a9 ba
       0.07439589 0.05955802 0.050857462 -0.0012948029
0000a0 af ce a4 3d 2b 3c a3 bd c6 ed f4 bb 4f 07 89 bd
       0.08047234 -0.079704605 -0.007474634 -0.06690847
0000b0 81 f9 19 bc d0 47 3f 3c d6 71 86 3d 29 3b 8e 3d
       -0.009397865 0.011674836 0.06564681 0.06944878
0000c0 50 8d c1 bc e6 bd 81 3b a2 60 39 3d da be 58 bc
       -0.023626953 0.0039594052 0.04525817 -0.013229096
0000d0 a3 87 00 3c 8e 1a 88 3d b0 bd f8 bc de bf 99 bd
       0.007844838 0.0664569 -0.030363888 -0.07507299
0000e0 71 3f e8 bc 56 87 68 3c 4d 02 1d bd bf ce 05 bd
       -0.028350564 0.014192423 -0.038332272 -0.03266787
0000f0 db 18 b0 bd c2 ad 27 bd 24 a4 5b 3d 58 da 8f bd
       -0.08598491 -0.040937193 0.053623334 -0.07024068
000100 e2 16 bb bd 13 40 0c bd d3 73 8c 3d 9e f7 ce 3b
       -0.09135224 -0.034240793 0.06858029 0.0063161394
000110 16 50 7e bd b2 76 45 3c 68 5f 05 bd d7 86 23 bb
       -0.062088095 0.012052225 -0.03256169 -0.0024952197
000120 d9 99 44 ba 00 87 aa 3d f0 48 47 bd ac ed 83 3d
       -0.0007499732 0.083265305 -0.048653543 0.06441817
000130 bf c5 14 3d 2c 93 63 bc a6 75 00 bc 0c 02 ab 3d
       0.036321398 -0.013890069 -0.00784055 0.0835
000140 23 7d 8d 3c 0c 48 9b 3d 9e 6b 36 bd ce 40 5b 3c
       0.017271584 0.07582101 -0.044536225 0.01338215
000150 61 6a 96 bd 98 52 1f bc 46 22 b5 3d 91 c9 22 bd
       -0.07344509 -0.009724282 0.08844428 -0.03974301
000160 99 ab 1a bc 8f 0d ac 3d 6e 15 e0 3c 0e 0c 1a bd
       -0.009440326 0.084010236 0.027353968 -0.037609152
000170 d7 f3 c2 3d 42 92 cb bc cc 70 c7 3d 4c c5 1b bd
       0.09519165 -0.024850015 0.09738311 -0.038029954
000180 ec ee 40 3d 43 d9 e0 3b c1 9f 3b bd 0b f6 5f bd
       0.047102854 0.006861837 -0.04580665 -0.054678004
000190 de 69 8a 3d 0f 9a d3 3d 31 2b 94 3d eb 6f 23 bd
       0.06758474 0.10332119 0.072348006 -0.039901655
0001a0 ca 41 aa 3d 56 24 4b bc b7 1e 5b bd e0 37 78 3d
       0.083133295 -0.0123988 -0.05349609 0.06060016
0001b0 e7 ee d5 3c 1c b9 72 3d d3 06 a3 ba 07 64 d0 bc
       0.026114894 0.059258565 -0.0012437947 -0.025438322
0001c0 2b 0d 41 3b 7b 46 0f bb ae f2 a8 39 d2 b7 dc bc
       0.0029457312 -0.0021862078 0.00032224267 -0.026943121
0001d0 eb a0 9c bd fe 6d 8f 3b 2c 72 84 3b 3c 5a 87 bd
       -0.0764788 0.0043771258 0.0040419307 -0.06609008
0001e0 73 8d 47 3d aa 0b 3b bd fa 59 84 bd d2 1f a7 3b
       0.04871888 -0.04566542 -0.06462474 0.005100229
0001f0 34 22 91 bd 3a 02 ac bd 77 06 3e bd 6b 9e 7a 3d
       -0.07086602 -0.08398862 -0.046392884 0.061186235
000200 4b 34 97 bd 4b 98 81 3c 84 4e be 3c 58 93 5e bd
       -0.07383021 0.01581969 0.023230799 -0.054339737
000210 37 8a a1 3d 09 a2 68 3d 4b 35 a1 3d 79 a5 6e bb
       0.078876905 0.056795154 0.07871493 -0.0036414547
000220 bd 71 82 bd 77 20 fd 3c f1 62 3a bd 19 f3 77 3c
       -0.0636935 0.03089927 -0.045504514 0.015133643
000230 2c 0c bf 3d 6a 7a 7a 3d e6 0a b9 3d 3a b5 9c 3c
       0.093284935 0.0611519 0.09035282 0.019129384
000240 61 77 55 3d 6d 2b c0 3d 0b bb 46 bd 2b fb 29 bd
       0.0521158 0.09383283 -0.04851822 -0.041499298
000250 4b 5a b6 3c 4a 17 f8 bb 77 a8 a2 bd 7a 2b 0f 3d
       0.022259852 -0.0075711356 -0.07942288 0.03495357
000260 f2 be 42 3d f8 2b 08 3d f5 17 73 3c 21 e4 c5 3d
       0.04754538 0.033245057 0.014837255 0.09662653
000270 60 c9 23 3d e1 14 01 3c 10 56 60 3d cf 35 bb 3b
       0.039986968 0.007878513 0.054769576 0.0057132016
000280 04 ea a1 bd 08 da b1 3d 66 fa 06 bd 42 74 89 3d
       -0.07905963 0.08684164 -0.032953642 0.067116275
000290 a1 c3 08 3d 32 20 9c 3d 7b 35 a2 bd a8 5b e0 3b
       0.03338969 0.07623328 -0.07920357 0.006846864
0002a0 8a a9 1a 3c c6 98 da bc e8 0b 25 bd f1 a0 1d 3d
       0.009439835 -0.026684176 -0.040294558 0.038483564
0002b0 d4 2a f8 3c b9 59 ae 3c 33 ad 83 3d 16 69 0d bd
       0.03029386 0.021283017 0.064295195 -0.034524046
0002c0 c8 77 3e 3c 25 98 a3 bd de 29 1b bb 04 c7 db 3c
       0.011625238 -0.07988004 -0.0023676078 0.026828296
0002d0 51 38 22 3d 36 94 2a bd 8a b2 85 3d 62 de a7 3c
       0.03960449 -0.04164525 0.06528194 0.020491783
0002e0 a1 08 59 3d e2 db 0e bd 03 33 5d bc d6 1b 71 bc
       0.052986745 -0.034877665 -0.013500932 -0.014716109
0002f0 f6 88 65 3c 2c 27 b4 bc 56 0b be 3c 58 0a a3 3d
       0.014009705 -0.021991335 0.023198765 0.07960957
000300 36 1c 5f 3d 21 ac 96 bd 74 ff 92 3d d7 51 48 bd
       0.054470263 -0.0735705 0.0717763 -0.048906174
000310 11 01 4f bc b0 a2 a9 3c 7a 1c 8c 3d 83 7d 35 3d
       -0.012634532 0.020707458 0.06841369 0.04430915
000320 cd 7f 95 bd c5 1b 88 3d ad 5d 87 bd 3f 65 3b 3d
       -0.07299767 0.066459216 -0.06609664 0.045750853
000330 7c 61 dd 3b cc 1d 52 bd 23 77 07 bb d1 66 7c bc
       0.006756006 -0.051297948 -0.0020670376 -0.015405373
000340 27 ee 80 bd 2a bf 9c bd 5b 0a a4 bd a5 b8 8b bd
       -0.06295424 -0.07653649 -0.08009788 -0.068223275
000350 2d 8c 15 3d 0f 17 0b 3d 71 45 92 3d 0d 8f 4b bd
       0.036510635 0.033957537 0.07142151 -0.04969697
000360 29 29 37 3b f4 f2 92 3d 64 9c 3a bd 4c 7d 91 3d
       0.0027948117 0.07175246 -0.045559302 0.071039766
000370 80 c5 d9 3c 21 e0 07 bd 27 14 83 3d ce 7e 45 3d
       0.026583433 -0.03317273 0.06400328 0.048216633
000380 2a e2 7d 3d 02 12 a9 3d 7b 19 8d bd d8 4b ef 3d
       0.061983265 0.08255388 -0.06889626 0.11684388
000390 60 26 82 bd 3e 82 1e 3d ea 7a 56 3a 91 46 44 bd
       -0.06354976 0.038698427 0.0008181768 -0.04791886
0003a0 89 05 cb bb 2c 97 4a bd b0 7b 77 bc e4 2e 07 3d
       -0.006195728 -0.049460575 -0.015105173 0.033003703
0003b0 61 7e a0 bd 07 47 f7 3c 1a 11 d4 bb 73 87 c2 bc
       -0.07836605 0.030185236 -0.006471765 -0.023746228
0003c0 58 49 5c 3d 40 4b 0f bc fd d7 b4 3d 79 b8 f3 3b
       0.053780884 -0.008745968 0.08830259 0.0074377623
0003d0 25 b4 b1 bd f9 4f 5c 3b 34 a0 83 3d b7 48 b0 bd
       -0.08676938 0.0033617003 0.06427041 -0.08607619
0003e0 c6 74 d6 bc e0 cc 8d bd 6a 26 3a 3d 8d ca c0 bc
       -0.026178729 -0.069238424 0.04544679 -0.023534084
0003f0 6a ad 5e 3d ac b0 00 3d 01 40 2f 3d bf d1 90 bd
       0.0543646 0.031418487 0.04278565 -0.07071256

fc4.weight f4 [12, 256]
000000 77 4c 06 3a d9 60 b8 bc 41 18 33 3d bb a9 b2 bd
       0.00051230885 -0.022507118 0.043724302 -0.0872378
000010 ff ad a4 bd 99 17 1c bd b0 71 a6 3c 2b 40 6e bd
       -0.080409996 -0.038108442 0.020317882 -0.058166664
000020 87 11 88 bc e0 ed d0 bd e1 42 52 bd f2 44 0d bd
       -0.01660992 -0.10201621 -0.051333312 -0.03448958
000030 7e d8 48 bd 3a 5d 66 3d fc fc 1d bc 2b c1 3f bd
       -0.049034588 0.05624125 -0.009642836 -0.04681508
000040 50 5a 21 bb 87 5e 39 3e 04 92 6e bd 45 09 ca bd
       -0.002462048 0.18102466 -0.05824472 -0.09865049
000050 6f b7 6a bd 0f 6e 39 bc 8f 1e 1e 3c 34 d5 57 3e
       -0.057303842 -0.011317744 0.00965084 0.21077424
000060 97 2a 70 bd 3f 67 d7 bd 7d 01 2e 3d 17 da a4 bb
       -0.058634367 -0.105177395 0.042481888 -0.005030881
000070 a1 b2 b2 bd 00 f4 12 be 2b c2 4c 3d a0 c9 39 bd
       -0.08725477 -0.14350891 0.04998986 -0.0453583
000080 0a c7 98 ba bd a6 2a 3d 95 91 d2 bd 68 8a 0f be
       -0.0011655998 0.04166292 -0.10281674 -0.14017642
000090 b8 e9 ed bd 57 95 15 3c af 8d da bd e7 d9 af bb
       -0.11616844 0.009129844 -0.10671555 -0.005366552
0000a0 27 d6 00 3d 8f c9 6f bb f3 00 8e bd 19 49 1f bd
       0.03145423 -0.0036588644 -0.06933775 -0.03888807
0000b0 5c 3c 4f 3d 3e e1 57 3d fc 64 34 3e 1c 82 83 3b
       0.050594673 0.052705042 0.17616647 0.004013313
0000c0 5a 19 c6 3c 90 06 c8 3d 1e 54 43 3d a9 50 f4 bd
       0.02418201 0.09766877 0.047687642 -0.11929447
0000d0 2b 72 83 3c 32 c9 c4 bc e8 30 71 3e 65 a8 ac bd
       0.01604565 -0.024021719 0.23553813 -0.08430556
0000e0 10 9e a0 bd 11 d6 50 bd 34 7c 91 bd 50 cb a4 3d
       -0.07842648 -0.0509854 -0.07103768 0.08046591
0000f0 a0 d4 c5 3c aa 28 fb bc 8d 4c 1f 3d 02 ca 4f bd
       0.024149239 -0.030659039 0.038891364 -0.05072976
000100 5f ae a1 bd 4e fe fc 3b 32 30 8c bd 70 2b ea 3c
       -0.07894587 0.007720745 -0.0684513 0.028585166
000110 1b 6d 06 bd 85 f8 c5 3d 7e 3b 71 be 6c ff 32 3c
       -0.032818895 0.09666542 -0.2355785 0.010925155
000120 ab f8 35 bd b6 13 5a 3d a1 e2 f5 3d 74 92 6d bd
       -0.0444266 0.053241454 0.12006117 -0.058000997
000130 57 86 11 bb c4 75 71 bd c1 26 14 3d ed 75 bf 3d
       -0.0022205317 -0.0589502 0.03616977 0.093486644
000140 62 26 ca bd 81 a4 1a be d9 ce 24 bd 2e 34 8a bd
       -0.09870602 -0.15101816 -0.040236328 -0.06748234
000150 36 6c 1b bd 2e f8 be 3c da 60 ee bd b7 dd 53 3d
       -0.037944995 0.0233117 -0.11639567 0.051725116
000160 31 3b 51 3e 6d 93 30 3c 6e cc 4d 3b 2e 61 f2 3c
       0.20432736 0.010777337 0.0031402367 0.029587355
000170 19 2b 19 3b ee e6 cc 3a 80 b1 6e bd 14 66 00 be
       0.0023371635 0.0015632787 -0.058274746 -0.1253894
000180 78 97 16 bd ea b4 89 bd 56 6d e1 3c 16 ed d7 bd
       -0.036765546 -0.0672396 0.027517956 -0.105432674
000190 a7 57 ae 3d 80 3a ba bd 5e 35 3f 3e 9e 2e c2 bc
       0.08512812 -0.09093189 0.18672702 -0.02370387
0001a0 1e b7 31 3e 29 7c 3c bd 7e 61 1c 3c 10 52 8e bd
       0.1735501 -0.046016846 0.009544728 -0.06949246
0001b0 47 f8 98 3c a0 11 bf bc c5 4b 29 3d 37 8a 8d bd
       0.018673075 -0.023323834 0.041332025 -0.06911128
0001c0 0c c6 d2 3d 2b 13 93 bc 5e 94 04 be 39 22 d7 bd
       0.10291681 -0.017953476 -0.12947223 -0.10504574
0001d0 4f 78 b1 3c e8 ef 71 3c b2 a5 90 3b 54 07 94 3d
       0.021663813 0.014766671 0.0044142837 0.0722796
0001e0 4c 64 03 3d b7 04 8b 3d be 89 f5 3c 46 51 3d bd
       0.032078072 0.06788009 0.029972907 -0.046220087
0001f0 38 85 6b bd 9f 8f ad bc 77 43 a8 3b 66 7d fe bc
       -0.057500094 -0.021186648 0.0051349956 -0.031065654
000200 c9 cf 54 bd ea 86 43 3e 41 39 01 be 90 6a fc bd
       -0.051955972 0.19094434 -0.12619497 -0.12325013
000210 69 de 0c be a5 8a 51 3d e3 50 81 3c 7b 2b 29 be
       -0.13756718 0.051157612 0.01578564 -0.16520493
000220 d3 0a 9d bc 77 08 a7 bd ac 49 1b 3c 50 b7 5e 3d
       -0.0191702 -0.081559114 0.009478014 0.05437404
000230 e6 47 43 3e 4a ef 1a be 77 05 a2 bd 78 7e 81 3d
       0.19070396 -0.15130344 -0.079111986 0.0632295
000240 91 73 1c 3d 9f 33 24 be 8f 50 1a 3d d7 58 3a bd
       0.03819615 -0.16035317 0.037674483 -0.04549488
000250 20 1b fa 3d 20 86 d8 bd 15 a5 22 bc df f6 1d bc
       0.12212205 -0.10572457 -0.009927054 -0.009641378
000260 7f 81 25 be 59 03 2e bd e5 a9 02 bd 73 e9 c5 bd
       -0.1616268 -0.04248366 -0.031900305 -0.096636675
000270 ee 9c 39 bd f5 7d 19 bd 95 f3 c3 bd 37 e3 25 3d
       -0.045315675 -0.037473638 -0.09567944 0.040499892
000280 d3 d7 6a 3d 55 dc b7 bd 50 9b 3e be 4f a4 ad bc
       0.057334732 -0.08977572 -0.18613935 -0.021196513
000290 fc 2c 3e bd e7 01 b1 3c 6b 5a 08 bd 71 3e 07 3d
       -0.04642962 0.021607352 -0.033289354 0.033018533
0002a0 ad 42 97 3c 52 85 63 bd 97 37 1b 3d fa 1a 85 3e
       0.01846441 -0.055547066 0.03789481 0.25997144
0002b0 0a fa 5b 3d dd c3 5c bd 85 7b a1 bd cb 8f 9a bd
       0.053705253 -0.053897727 -0.078848876 -0.075469576
0002c0 39 48 b6 3d 23 27 91 bc a7 77 14 3d a3 7b 52 3e
       0.08900494 -0.017718857 0.036246922 0.20554976
0002d0 93 15 36 3d 9a 37 5b be c1 84 0d bc a6 bb 5b 3c
       0.04445417 -0.21407929 -0.008637608 0.013411438
0002e0 35 b6 59 bd 17 57 2a 3b 58 9e 56 3d 32 4c a7 bd
       -0.05315228 0.002599185 0.052397102 -0.0816883
0002f0 cd d0 b1 3d a7 77 3c bc cc 27 3f 3d 2c d0 7e bc
       0.08682404 -0.011503137 0.046668813 -0.015552562
000300 b8 5b 4e 3d 06 79 60 bc 0a d7 e5 bd 3f cd 92 3c
       0.05038044 -0.013700729 -0.11222656 0.017920135
000310 93 20 5a 3d b7 6d 9e 3c 84 7b 09 be c8 84 91 bd
       0.05325372 0.019339425 -0.13426024 -0.07105404
000320 97 51 1c bd 4e ed 6a bc 06 07 69 3d 4b 1d 88 bd
       -0.038163748 -0.014338804 0.056891464 -0.06646212
000330 b1 76 03 bd e1 73 c5 bd 3a bf e3 bc db b1 81 3d
       -0.032095615 -0.09641243 -0.027801145 0.06332751
000340 bc 4a 6b 3d 60 31 81 be 83 4f 1e bd d3 4e 28 bd
       0.05744432 -0.25232983 -0.038650047 -0.041090798
000350 00 88 6d 3d f5 6f 31 3d 7b 75 a9 bc b3 a0 7c bd
       0.057991028 0.04331966 -0.020685902 -0.061676692
000360 60 eb a2 3d d9 e0 48 3a 33 90 ad bc a9 c3 53 3e
       0.079550505 0.00076628994 -0.021186924 0.20680107
000370 a6 df 79 3d 30 6f ec bd 23 08 69 bd b4 3f 01 be
       0.061004303 -0.11544645 -0.056892525 -0.12621957
000380 76 07 5f 3d 8b 07 bc 3c e1 53 0b 3d ec 6c 30 3e
       0.054450475 0.022952816 0.03401554 0.1722905
000390 71 10 86 bd 3c 65 12 bc 12 af 8f 3c 2d b6 52 bc
       -0.06546105 -0.008935269 0.017539535 -0.012860817
0003a0 34 44 7d 3c 08 f5 b4 bd 4f 9c 5e bc 58 06 dc 3c
       0.015458155 -0.088357985 -0.013587072 0.026858494
0003b0 37 c5 ac bd 33 22 8a bc bd c2 1a be 93 30 4c 3d
       -0.08436053 -0.01686201 -0.1511335 0.04985101
0003c0 ad ff c3 bd 7c 64 af bd 5e cd 90 3e 71 a6 2f 3d
       -0.09570251 -0.08564088 0.28281683 0.04288334
0003d0 38 66 ea bd d7 98 6b bb 2c 36 40 3d ae c9 e1 bb
       -0.11445278 -0.0035949254 0.046926662 -0.006890497
0003e0 b0 16 52 bd ca 5a ce bc 35 cb dd bd de 99 5d bd
       -0.051291168 -0.025189776 -0.10829774 -0.054101817
0003f0 b2 04 fb bc cf 75 e4 3c 00 01 45 3d df 41 3d bd
       -0.030641887 0.027888207 0.048096657 -0.046205398

fc4.bias f4 [12]
000000 b4 ac 31 bd 7b 71 9b bc 1e ed f0 3b f7 44 99 3c
       -0.043377593 -0.01897501 0.0073524853 0.018709643
000010 b9 01 2c bd f5 0f ff 3c ca 1c 02 3d 24 63 b8 bc
       -0.04199383 0.031135539 0.031765737 -0.022508211
000020 66 25 90 bd 9d d7 7a bd 81 22 86 bd d5 c5 6e bd
       -0.07038383 -0.06124078 -0.0654955 -0.058294136
