model.pt_episode_200.pt (torch, 182492 bytes, 8 tensors)

fc1.weight f4 [64, 5]
0	0x3e7a3193	0.24432974
1	0x3ef1b4e0	0.4720831
2	0xbe320fde	-0.17388865
3	0xbede1bc7	-0.43380567
4	0x3e9d4921	0.30719855
5	0x3ed5abd0	0.41732645
6	0xbe5bf83e	-0.21481416
7	0x3e2b49f0	0.16727424
8	0xbe1a27a0	-0.15054178
9	0x3e6720d5	0.22571118
10	0xbeb9b67a	-0.3627203
11	0xbd86f810	-0.06590283
12	0xbe182e14	-0.14861327
13	0x3e92baf0	0.28658247
14	0x3e967a77	0.29390308
15	0x3f02376f	0.50865835
16	0x3d119a32	0.035547443
17	0x3ed044df	0.40677544
18	0x3bb4a381	0.0055126552
19	0xbec93ed6	-0.39305753
20	0xbe45ff4f	-0.19335674
21	0xbe9e66f2	-0.30937916
22	0x3eaf6039	0.342531
23	0xbe7317da	-0.23739567
24	0x3ea2a1d2	0.31764084
25	0xbdbfb1c6	-0.093600795
26	0x3ea9b4c5	0.3314573
27	0xbe6dd114	-0.23224288
28	0xbeb9abf7	-0.3626401
29	0xbeb225e5	-0.34794536
30	0x3d6ebab3	0.05828352
31	0xbe19fdbf	-0.15038203
32	0xbe6ab90e	-0.22922155
33	0x3e9c4c57	0.30526993
34	0x3ebad66e	0.36491722
35	0xbe82e5e3	-0.25566015
36	0x3ee6ee99	0.4510391
37	0x3cd863a4	0.0264147
38	0x3e4343c0	0.19068813
39	0x3d5e51af	0.05427712
40	0xbd0d35a9	-0.034475002
41	0xbe2f3624	-0.17110497
42	0xbd22b8fc	-0.039727196
43	0x3d39406b	0.04522745
44	0xbe9ab514	-0.30216277
45	0x3e90b592	0.28263527
46	0x3ecd05f8	0.40043616
47	0x3e5f59a6	0.21811542
48	0x3d48eb02	0.049052246
49	0xbe4a9632	-0.19783857
50	0x3ee6a39a	0.45046693
51	0xbeeeecc3	-0.4666501
52	0x3ec1f1be	0.37879747
53	0x3ee9c740	0.45659828
54	0x3e880f57	0.26574203
55	0x3f04320c	0.51638865
56	0xbda65722	-0.08122088
57	0x3cca1a55	0.02467076
58	0x3ddf8042	0.10913135
59	0x3d683219	0.0566884
60	0x3f0d4fff	0.5520019
61	0x3c15e976	0.0091499
62	0xbebb87d6	-0.36627072
63	0xbd1a046d	-0.037601877
64	0x3e667f35	0.22509463
65	0xbe5c54e3	-0.21516757
66	0xbec0f4b4	-0.37686694
67	0x3d19d691	0.037558142
68	0xbe1ce729	-0.15322556
69	0x3eb9a48f	0.3625836
70	0x3e799065	0.24371488
71	0x3eb52e20	0.35386753
72	0x3e1f6554	0.15565997
73	0xbe4848a6	-0.19558963
74	0xbec1a28f	-0.37819335
75	0x3e4f9c26	0.2027441
76	0x3e38d565	0.18050154
77	0x3dc014f0	0.093789935
78	0x3cde98d8	0.027172491
79	0xbe02f35e	-0.1278815
80	0x3c047a01	0.008085729
81	0x3d8f5c9e	0.07000087
82	0xbea9af12	-0.3314138
83	0x3ddcb0d9	0.107759185
84	0x3e124af2	0.14286402
85	0xbdb991cf	-0.09061014
86	0x3e9c615e	0.30543035
87	0x3eaeb24f	0.34120414
88	0xbec0f5dd	-0.3768758
89	0x3e5ebd60	0.21751928
90	0x3e68cc72	0.2273424
91	0xbed2b74f	-0.41155478
92	0x3eada75e	0.33916754
93	0xbe171d59	-0.14757289
94	0x3d086301	0.033297542
95	0xbe340fe4	-0.17584187
96	0x3ee87c26	0.45407218
97	0xbe8694ab	-0.262853
98	0x3e43acc6	0.19108877
99	0x3e9ac7d8	0.30230594
100	0xbd97f744	-0.07420209
101	0xbd8641ec	-0.06555542
102	0x3e68ba45	0.22727306
103	0x3eee32a0	0.46523
104	0x3e9c5abb	0.30537972
105	0x3ef4ae67	0.47789308
106	0xbda4e845	-0.080521144
107	0x3e4ae9e1	0.1981578
108	0xbedd2f8f	-0.43200347
109	0x3ea7bbf6	0.3276059
110	0x3d5585e0	0.052129626
111	0x3e3099d8	0.17246187
112	0x3ebda327	0.37038538
113	0xbcf0822a	-0.029358942
114	0xbeba49e3	-0.36384496
115	0xbe1dcfc1	-0.15411283
116	0xbe41c5a9	-0.18923058
117	0x3dbd0d6b	0.09231075
118	0xbc1441b8	-0.009048872
119	0x3dd9b49a	0.1063015
120	0x3ed49db0	0.41526556
121	0xbd8bd7e9	-0.06828291
122	0x3e914c74	0.28378642
123	0xbe4d8187	-0.20068942
124	0x3cdf572d	0.027263248
125	0xbc8b0842	-0.016971711
126	0xbe19b1da	-0.15009251
127	0x3eb925e4	0.3616172
128	0xbe8273c5	-0.2547895
129	0x3e64377f	0.22286795
130	0x3e1ee1fb	0.15515892
131	0x3df3b152	0.118990555
132	0xbed768ab	-0.42072043
133	0xbe749cdd	-0.23887964
134	0xbd76225c	-0.06009136
135	0x3d943f05	0.072385825
136	0x3e8eceaf	0.27892062
137	0x3e46e152	0.1942189
138	0xbed5e01b	-0.4177254
139	0xbdaa34fd	-0.08310888
140	0x3c8cb1cb	0.017174622
141	0xbea2fac3	-0.3183194
142	0x3d5c1720	0.05373299
143	0x3ed96dee	0.42466682
144	0x3e9af4dc	0.30264938
145	0x3e4704e0	0.19435453
146	0x3d3a1e21	0.04543889
147	0x3ea64bb0	0.3247962
148	0xbe791574	-0.2432459
149	0xbd814840	-0.06312609
150	0xbea916fe	-0.33025354
151	0x3c661519	0.014043116
152	0xbead16e5	-0.3380653
153	0x3ec1e8b7	0.3787286
154	0x3e65ed6b	0.22453849
155	0x3dfadcf6	0.12249176
156	0xbe39a54f	-0.18129466
157	0x3ece299e	0.40266126
158	0x3e9ddd42	0.3083287
159	0xbeaed652	-0.34147888
160	0x3ec6f9b6	0.3886239
161	0x3ea09421	0.31363013
162	0xbce61b76	-0.028089266
163	0xbe35e498	-0.17762983
164	0x3ed28093	0.4111372
165	0x3c3289ab	0.01089708
166	0xbe4555ab	-0.19270961
167	0xbed20386	-0.41018313
168	0x3e99f81e	0.3007211
169	0x3e55fdf9	0.20897664
170	0x3eb49c79	0.3527563
171	0x3ebf27da	0.37335092
172	0x3e82deda	0.25560647
173	0x3dd7a717	0.10529917
174	0x3e1676fe	0.1469383
175	0xbe9e5eb5	-0.3093163
176	0x3da56fc2	0.08077957
177	0xbe334d84	-0.17510039
178	0x3dc8fddb	0.09814044
179	0xbeb2c4e1	-0.34915832
180	0xbe5a17de	-0.21298167
181	0xbd6fa373	-0.058505487
182	0xbe960bc9	-0.29305866
183	0x3e0a8ea3	0.13530974
184	0xbed07349	-0.40712956
185	0x3ece9004	0.4034425
186	0xbe6305a5	-0.22170122
187	0xbe3e16d2	-0.18563393
188	0xbeb1a814	-0.34698546
189	0x3ed9a36e	0.425075
190	0x3ebdcfb6	0.37072533
191	0x3efaeefa	0.4901045
192	0x3d93c9f1	0.07216252
193	0x3e894d5c	0.26816833
194	0xbeadd2a4	-0.3394977
195	0x3ee75f38	0.45189834
196	0xbe29e21f	-0.16590165
197	0xbbf95cbd	-0.007609932
198	0x3e35d5b3	0.17757301
199	0xbc26ad61	-0.010173173
200	0xbe390b62	-0.18070748
201	0x3e51285a	0.20425549
202	0xbeb678d7	-0.35639068
203	0x3ec591b6	0.3858773
204	0xbd25b8be	-0.040459387
205	0x3ea1e894	0.31622756
206	0x3e787a1b	0.2426533
207	0xbe319a5f	-0.17344044
208	0xbec230d6	-0.37927884
209	0x3e863693	0.26213512
210	0x3ea008f7	0.3125684
211	0x3e446551	0.19179274
212	0xbe9bcaaa	-0.30428058
213	0x3eff84c9	0.49905995
214	0x3d77e2b0	0.06051892
215	0xbeba572c	-0.36394632
216	0xbeb22f5e	-0.34801763
217	0xbe9bc05d	-0.304202
218	0x3cf6dd84	0.030134924
219	0xbd22242c	-0.039585277
220	0x3e825990	0.25458956
221	0x3efef03a	0.49792653
222	0xbcc8ed0c	-0.024527095
223	0x3eb7f093	0.3592573
224	0xbea0dc66	-0.3141815
225	0xbb763df9	-0.003757356
226	0xbe8c32d0	-0.27382517
227	0xbd770acc	-0.06031303
228	0x3ddcf1f5	0.10788337
229	0xbca8a058	-0.02058427
230	0xbea16e43	-0.31529436
231	0xbed8ceaa	-0.42345172
232	0x3d40b463	0.04704703
233	0x3da2a3be	0.079413876
234	0xb7b046cd	-2.1013804e-05
235	0x3ebb23b6	0.36550683
236	0xbe2d0ec8	-0.1690017
237	0x3daab493	0.08335223
238	0x3e08bb5b	0.1335272
239	0xbead9576	-0.33903092
240	0x3eb1e802	0.3474732
241	0x3e6a71ea	0.22895017
242	0x3e36d7bf	0.17855738
243	0xbe75dade	-0.24009272
244	0x3de45bb4	0.111503035
245	0xbc1d2a82	-0.009592654
246	0xbe01721c	-0.12641186
247	0xbe9b495d	-0.3032941
248	0x3e152d83	0.14568143
249	0xbe0871ea	-0.13324705
250	0x3e083385	0.13300903
251	0x3ee56b20	0.44808292
252	0x3eff4364	0.49856102
253	0xbe149b31	-0.14512326
254	0x3c62d188	0.013843901
255	0xbe3c7eb2	-0.18407705

fc1.bias f4 [64]
0	0xbe0be1f2	-0.1366041
1	0x3b6461ce	0.0034848335
2	0xbe2d1606	-0.16902933
3	0x3df6a70a	0.12043579
4	0x3ee16c28	0.4402783
5	0x3d3098a4	0.04311432
6	0x3eb6837a	0.35647184
7	0xbe736dd1	-0.2377236
8	0xbe109ab9	-0.14121522
9	0x3d911e96	0.07085912
10	0xbe399901	-0.18124773
11	0xbe50f77d	-0.2040691
12	0xbe58c2d0	-0.21168065
13	0x3da08207	0.07837301
14	0x3e880149	0.2656348
15	0x3eadbcda	0.33933145
16	0x3ccae02f	0.024765102
17	0xbeab0e95	-0.33409563
18	0x3ea6d0d7	0.32581207
19	0xbda54b18	-0.080709636
20	0x3e51376b	0.20431297
21	0xbe6fe3ec	-0.23426789
22	0x3eec543e	0.46158022
23	0xbe851e74	-0.25999796
24	0xbdbc857f	-0.0920515
25	0xbe53a420	-0.20668077
26	0x3e6effa1	0.23339702
27	0x3e8a7b86	0.27047366
28	0x3ecb26d5	0.39678064
29	0x3e530285	0.2060643
30	0x3ece0fe1	0.4024649
31	0xbcf1565a	-0.029460121
32	0xbea5219f	-0.32252213
33	0x3ea958e7	0.3307564
34	0x3ec3f6a7	0.38274118
35	0x3ed10618	0.40824962
36	0xbeb85966	-0.36005706
37	0xbeda9100	-0.4268875
38	0xbdd06c47	-0.10176902
39	0xbee3496b	-0.4439195
40	0x3e883336	0.2660157
41	0x3e044b97	0.1291946
42	0xbe64dd40	-0.22350025
43	0x3c36d56b	0.011159281
44	0x3f0090b8	0.50220823
45	0x3dc32643	0.09528782
46	0x3e4c6bd9	0.19963016
47	0x3db70714	0.08936897
48	0x3e821bdf	0.2541189
49	0xbe9d5241	-0.30726817
50	0x3d64caa0	0.0558573
51	0xbe3c7039	-0.18402185
52	0xbe66a500	-0.2252388
53	0x3da961d2	0.08270611
54	0x3db2785d	0.08714364
55	0xbeb6f63e	-0.35734743
56	0x3dd1cdfe	0.10244368
57	0xbed0358d	-0.40665856
58	0x3e8d6c03	0.2762147
59	0x3ed75a8d	0.42061272
60	0xbea433e7	-0.32070848
61	0xbe5b38ab	-0.21408336
62	0xbd35933b	-0.044329863
63	0xbca7ed40	-0.020498872

fc2.weight f4 [128, 64]
0	0xbe44eae4	-0.19230229
1	0x3e386995	0.18009026
2	0xbe43a372	-0.19105318
3	0x3d92c034	0.07165566
4	0x3e14aa89	0.14518179
5	0x3d0c8bdb	0.034313064
6	0x3d4d16b0	0.050070465
7	0xbdd9e6b4	-0.10639706
8	0x3d9ede3d	0.07757232
9	0x3d6aee0e	0.057355933
10	0x3e4c44b1	0.19948079
11	0x3d86e749	0.06587083
12	0x3da30c9c	0.079613894
13	0xbddb8342	-0.10718395
14	0xbddaa4da	-0.10675974
15	0x3d046d22	0.03233064
16	0x3d21c52e	0.039494686
17	0xbe8e1104	-0.27747357
18	0x3e4c70b8	0.19964874
19	0xbe34b74d	-0.17648049
20	0x3d713c57	0.058895435
21	0x3e276948	0.16348755
22	0xbd32d8cb	-0.04366378
23	0xbd23bcff	-0.039975163
24	0x3e205211	0.15656306
25	0x3e4e1a3f	0.201272
26	0x3ce2fb1e	0.027707633
27	0xbd541457	-0.05177721
28	0x3e261d4f	0.16222118
29	0xbd608483	-0.054813873
30	0xbd091646	-0.033468507
31	0x3e31cfe9	0.17364468
32	0xbde326f4	-0.11091414
33	0xbdaa5cef	-0.08318507
34	0x3dcfdc04	0.101493865
35	0x3cd20c5e	0.025640663
36	0x3cade0ff	0.02122545
37	0x3e7e8f94	0.24859458
38	0xbdb223e9	-0.086982556
39	0x3d900fc1	0.07034255
40	0x3de79af0	0.11308849
41	0x3db267fa	0.08711238
42	0xbd96fda5	-0.073725976
43	0xbdf042d6	-0.11731498
44	0xbe0f3db3	-0.1398838
45	0x3da262c7	0.079289965
46	0xbdce30a6	-0.10067873
47	0x3dc51a8f	0.09624206
48	0xbde0e766	-0.10981636
49	0x3dc5c3da	0.09656496
50	0xbe0f5689	-0.13997854
51	0x3d53c09a	0.05169735
52	0x3c3e620e	0.011620058
53	0xbddd49c6	-0.10805087
54	0x3c5e911e	0.013584403
55	0xbdb0c006	-0.086303756
56	0xbdd492d6	-0.10379569
57	0x3e22082d	0.15823431
58	0x3dbf0d28	0.09328681
59	0x3d20221d	0.039095033
60	0x3d57d0fe	0.052689545
61	0xbdf09644	-0.11747411
62	0x3e3f879f	0.18704079
63	0xbe3c3a4f	-0.18381618
64	0xbc804e3f	-0.01566231
65	0x3de02870	0.10945213
66	0x3e14c0bc	0.14526647
67	0xbd06a349	-0.032870565
68	0x3e0646a4	0.13112885
69	0x3d390577	0.045171227
70	0xbce9b714	-0.028529681
71	0x3db2d8b8	0.08732742
72	0xbdc8cd3e	-0.09804772
73	0x3c77615e	0.015098898
74	0x3d7bb651	0.061453167
75	0x3c97ed6f	0.018545834
76	0x3e044c8e	0.12919828
77	0x3dcb2bde	0.099204764
78	0xbe080fcd	-0.13287278
79	0xbcb66ef5	-0.022269705
80	0x3d591aab	0.05300395
81	0xbdc77fcf	-0.097411744
82	0x3eae7e77	0.3408086
83	0xbd265f0e	-0.040617995
84	0xbb9c9c20	-0.0047793537
85	0x3b169870	0.0022979043
86	0xbdfec572	-0.124400035
87	0xbd83516d	-0.06412015
88	0xbd05b3f7	-0.03264233
89	0x3e5c2dc6	0.21501836
90	0xbc982fef	-0.018577544
91	0x3d69fe6b	0.057127398
92	0xbc35d50b	-0.011098157
93	0xbd6720df	-0.056427833
94	0x3e0c0b99	0.13676299
95	0xbd9581fb	-0.073001824
96	0xbdc209bb	-0.09474512
97	0x3e47d3bd	0.19514365
98	0x3d48746d	0.048939157
99	0xbdf1f182	-0.11813642
100	0x3b10082f	0.0021977534
101	0x3c9c8c5d	0.0191099
102	0xbda21b1c	-0.07915327
103	0x3c71bc93	0.014754432
104	0x3ea6a935	0.3255097
105	0xbdbb29ad	-0.091388084
106	0x3dcce379	0.100043245
107	0x3d3f5564	0.046712294
108	0x3dcb9846	0.09941153
109	0xbdd8e0e6	-0.10589771
110	0xbd8932ab	-0.06699117
111	0xbd67a123	-0.056550156
112	0x3cca855c	0.024721794
113	0x3d3f919a	0.046769716
114	0x3d6a055c	0.057134017
115	0xbdb6c44f	-0.08924162
116	0x3d0a0e2f	0.033704933
117	0xbd346c3e	-0.04404854
118	0xbcc17131	-0.023613544
119	0xbd3c3c11	-0.04595572
120	0x3d10b4f3	0.035328817
121	0x3dc6a6e5	0.09699801
122	0x3c17f04f	0.009273603
123	0x3e81e6f1	0.25371507
124	0xbdc4c36a	-0.09607585
125	0xbca8fbf7	-0.020627959
126	0x3d980215	0.07422272
127	0x3d961f2a	0.07330163
128	0x3cecb626	0.028895449
129	0xbdf002ca	-0.11719282
130	0xbd5b32da	-0.053515293
131	0xbd605816	-0.054771505
132	0x3cdcef96	0.026969712
133	0x3cd86376	0.026414614
134	0xbdc9a4b0	-0.09845865
135	0xbdea131e	-0.114294276
136	0xbcbf6536	-0.02336369
137	0xbd436f22	-0.047713406
138	0xbdaaebc5	-0.08345751
139	0xbdb3dcc9	-0.08782346
140	0x3ca9f4bf	0.020746587
141	0xbd8e4839	-0.06947369
142	0xbc16694f	-0.009180381
143	0x3dbb6c09	0.091514654
144	0xbda37115	-0.07980553
145	0x3d48300a	0.04887394
146	0x3d2f7f57	0.04284605
147	0x3d930f75	0.071806826
148	0xbdecba3a	-0.115589574
149	0xbdd1ed48	-0.10250336
150	0x3dc8325a	0.09775229
151	0xbba46b8f	-0.005017705
152	0x3d373f63	0.044738185
153	0xbd6841ee	-0.0567035
154	0xbda94d37	-0.08266681
155	0x3dd8bb8c	0.10582647
156	0x3c923ecf	0.017852215
157	0xbd9424f5	-0.072336115
158	0xbdd5884e	-0.10426389
159	0xbd8ed06b	-0.06973346
160	0xbd30d4ef	-0.04317182
161	0x3de53eb0	0.11193597
162	0xbcdb2646	-0.026751649
163	0x3dd9d1fa	0.10635753
164	0x3ccff596	0.02538566
165	0xbaf1055e	-0.001838844
166	0x3db4eb5f	0.08833956
167	0xbcfc32c6	-0.03078593
168	0xbda7d801	-0.08195496
169	0x3c17432f	0.009232326
170	0xbdce20ca	-0.10064848
171	0xbdee3862	-0.11631848
172	0xbdeb556c	-0.11490902
173	0xbbef2c5e	-0.00729899
174	0x3c93fac7	0.018063916
175	0xbd98ff1b	-0.074705325
176	0xbd6644b2	-0.056217857
177	0x3d37afa7	0.04484525
178	0xbd915497	-0.07096212
179	0xbbb6b1ef	-0.0055754106
180	0x3b3db58e	0.0028947326
181	0x3d4f5a52	0.050623246
182	0x3ce284c6	0.027651202
183	0x3debcd4a	0.11513765
184	0x3cc1df36	0.023666006
185	0x3de211e6	0.1103857
186	0xbdbf2d40	-0.09334803
187	0x3d3dbad2	0.046320744
188	0xbdecf446	-0.11570029
189	0x3dabd15d	0.08389542
190	0x3d215597	0.039388265
191	0xbbeac51e	-0.0071646115
192	0xbd2f601b	-0.042816263
193	0x3da7b30b	0.081884466
194	0x3ddc7fbc	0.10766551
195	0x3dd3cd9e	0.10341953
196	0x3b8c9f4f	0.004291452
197	0x3d03880b	0.032112163
198	0xbdd8057e	-0.105479226
199	0xbdbb1c51	-0.0913626
200	0xbca53e57	-0.020171328
201	0xbbaa20af	-0.0051918845
202	0x3d3e1b14	0.046412542
203	0x3dbbf962	0.09178425
204	0xbdeb5e18	-0.11492556
205	0x3d604d66	0.054761313
206	0xbd27108f	-0.040787276
207	0xbdd442e6	-0.10364322
208	0x3d7277de	0.059196346
209	0xbd42ff1e	-0.04760658
210	0xbd1d5fe7	-0.038421538
211	0xbdf55576	-0.11979191
212	0x3c9de637	0.019274814
213	0xbd6d9eaa	-0.058012642
214	0x3d8c9547	0.0686441
215	0xbb9cf1cf	-0.004789568
216	0xbc069b2f	-0.00821571
217	0xbd46686e	-0.048439436
218	0xba13ef2f	-0.0005643246
219	0xbdc28b4e	-0.094992265
220	0x3d5c2332	0.053744502
221	0xbd098bab	-0.033580463
222	0xbd0799f3	-0.0331058
223	0xbcae1557	-0.02125041
224	0xbdf50c64	-0.11965254
225	0x3dcf86f4	0.10133162
226	0xbda6d2cf	-0.08145677
227	0x3c24e72f	0.010064884
228	0x3de8f85a	0.11375494
229	0x3cfee67e	0.031115767
230	0x3da387dd	0.07984898
231	0xbde3c998	-0.11122435
232	0xbdc5c87a	-0.096573785
233	0x3d47885e	0.048714034
234	0x3d746bca	0.05967311
235	0xbc99ba87	-0.018765701
236	0xbcf0faf6	-0.029416543
237	0xbc08db0f	-0.008353009
238	0xba424d5e	-0.00074120413
239	0xbddd5a5c	-0.1080825
240	0x3da35f35	0.07977144
241	0x3c26b35f	0.010174601
242	0x3dbbe78c	0.091750234
243	0xbd8d73b9	-0.06906838
244	0xbd22a4bb	-0.03970788
245	0xbd4de9e6	-0.05027189
246	0x3b1b0d2f	0.002365898
247	0xbc1c1a2f	-0.009527727
248	0x3de62940	0.112383366
249	0x3ae637de	0.0017564257
250	0xbdb1059f	-0.0864365
251	0xbdb467d7	-0.088088684
252	0xbde602a6	-0.11230974
253	0xbdca518e	-0.098788366
254	0xbcdb789e	-0.026790913
255	0xbd06c68b	-0.03290419

fc2.bias f4 [128]
0	0x3d82132f	0.06351315
1	0xbdb28ad9	-0.08717889
2	0xbd98e1a1	-0.0746491
3	0xbdf66d50	-0.120325685
4	0x3c93307f	0.01796746
5	0xbde8b518	-0.11362666
6	0x3e1a777a	0.15084639
7	0xbdfe7d79	-0.12426276
8	0x3e139ef2	0.14416102
9	0xbd2b094f	-0.041756924
10	0x3d028fe0	0.03187549
11	0xbc3e2854	-0.011606295
12	0xbe1d1ea2	-0.15343717
13	0xbc81cd80	-0.01584506
14	0xbbe6a7aa	-0.00703903
15	0x3db1d8f5	0.086839594
16	0xbd80ff18	-0.06298655
17	0x3db90548	0.090342104
18	0x3cbe831a	0.023255873
19	0xbcee0b99	-0.029058265
20	0xbc9c6a5f	-0.01909369
21	0x3daa2f69	0.08309824
22	0x3df40a54	0.119160324
23	0xbd83a62d	-0.0642818
24	0xbd874895	-0.06605641
25	0xbd28cdbf	-0.04121184
26	0xbcfbbc97	-0.030729575
27	0xbc9609d4	-0.018315233
28	0xbdeee84b	-0.116654
29	0x3ddc15d1	0.10746349
30	0x3cd33c38	0.02578555
31	0xbced683e	-0.02898037
32	0xbcf95232	-0.030434702
33	0x3d8a0902	0.06739999
34	0xbc18ea69	-0.0093332315
35	0x3decd620	0.115642786
36	0x3d99eb0e	0.07515536
37	0x3de3cadd	0.111226775
38	0xbbcdae01	-0.0062768464
39	0x3da4ff48	0.080565035
40	0xbd538438	-0.051639766
41	0xbc901731	-0.017589184
42	0x3c93dfff	0.018051146
43	0xbdb163f6	-0.08661644
44	0xbd84da41	-0.06486941
45	0x3dafc0d3	0.085817
46	0xbdac3293	-0.08408084
47	0x3d0ff0be	0.0351417
48	0xbd2f4712	-0.042792387
49	0xbd6471dd	-0.05577265
50	0xbcb5ccb7	-0.022192342
51	0xbdd3199a	-0.103076175
52	0xbe120f42	-0.14263633
53	0x3dbe5d3b	0.09295126
54	0x3d398fcb	0.045303147
55	0x3d1ea52f	0.03873175
56	0xbcf24fdc	-0.029579096
57	0xbd8bcd8c	-0.06826314
58	0xbcf725d6	-0.030169409
59	0x3d2425bb	0.040075045
60	0xbd070b2f	-0.03296965
61	0x3e10fdc5	0.14159305
62	0xbd7620f6	-0.060090028
63	0xbd8934a1	-0.06699491
64	0x3bb620ef	0.005558125
65	0xbdc32ec4	-0.09530404
66	0xbd66893e	-0.056283228
67	0xbd3706df	-0.044684287
68	0x3be94f77	0.0071200687
69	0xbdbad6b1	-0.091229804
70	0xbd904181	-0.07043744
71	0x3d0af0af	0.03392094
72	0x3ddb1d8f	0.10698997
73	0x3d36f63b	0.044668417
74	0x3b415ef8	0.0029506069
75	0x3dc12df9	0.09432597
76	0xbde19d3e	-0.1101632
77	0x3d1f543d	0.038898695
78	0xbd2131dd	-0.039354194
79	0x3d1f8177	0.038941827
80	0xbdbd4b77	-0.092429094
81	0x3cecbefe	0.028899666
82	0xbdb5f4f5	-0.088846125
83	0xbcd03adb	-0.02541869
84	0xbd155f24	-0.036467686
85	0xbcdb639c	-0.026780896
86	0xbd84a14d	-0.06476078
87	0xbcd5df26	-0.026107382
88	0xbd103033	-0.035202216
89	0x3d1c447b	0.038151246
90	0x3e063bde	0.13108775
91	0x3dd9ad82	0.10628797
92	0xbd2312a2	-0.03981269
93	0xbd8612f5	-0.065465845
94	0x3e09a121	0.13440372
95	0x3dd3dbd2	0.10344662
96	0xbdea9ad2	-0.11455311
97	0xbdc6c4f8	-0.097055376
98	0xbda78fd3	-0.08181729
99	0x3deb6634	0.11494103
100	0xbce2e0e8	-0.027695134
101	0xbdc05c2d	-0.09392581
102	0x3ae474d9	0.0017429843
103	0x3d5f3763	0.05449618
104	0x3dd20186	0.10254197
105	0xbdbf9f28	-0.093565285
106	0x3b41c79e	0.0029568444
107	0x3dd7a930	0.10530317
108	0xbda6f0d2	-0.081514016
109	0x3cdc6925	0.026905606
110	0xbd627c02	-0.055294044
111	0xbe080b6a	-0.13285604
112	0x3c66ba85	0.014082556
113	0x3c9ba0b1	0.018997522
114	0x3d877328	0.06613761
115	0xbd9206f9	-0.07130236
116	0x3cd1a4f7	0.025591357
117	0x3e19896d	0.1499383
118	0x3ded3c2c	0.115837425
119	0xbdedc6dd	-0.11610196
120	0xbddd53e6	-0.10807018
121	0x3dadc46b	0.084847294
122	0x3e232aa6	0.15934238
123	0xbd68172f	-0.056662735
124	0xbdca986e	-0.09892355
125	0x3dbc5031	0.09194983
126	0x3c01d6b9	0.007924729
127	0x3d8ca38d	0.06867132

fc3.weight f4 [256, 128]
0	0x3da652f0	0.08121288
1	0x3d8091c2	0.06277801
2	0xbd5a1ef5	-0.05325218
3	0x3d3be9d7	0.045877304
4	0xbce997ba	-0.028514732
5	0xbd74909f	-0.059708234
6	0xbd8bf695	-0.06834141
7	0x3d1cf056	0.03831514
8	0xbdb09871	-0.08622826
9	0xbc99f8c5	-0.01879538
10	0x3cc8358c	0.024439596
11	0xbd3cff87	-0.046142127
12	0x3da92d85	0.08260635
13	0xbd70d78d	-0.058799315
14	0xbd458062	-0.04821814
15	0x3da7019b	0.08154603
16	0xbd8fbf90	-0.070189595
17	0x3cbef65e	0.023310836
18	0xbd14b084	-0.03630115
19	0xbd858246	-0.06518988
20	0xbd8f158f	-0.06986534
21	0x3d980d8a	0.07424457
22	0x3d7fd38a	0.0624576
23	0x3ca40d28	0.020025805
24	0xbd1d9133	-0.03846855
25	0xbd270d19	-0.040783975
26	0x3cbb95ed	0.022898639
27	0x3da003e5	0.07813243
28	0x3b3bc7a3	0.0028652928
29	0x3c530e17	0.012881777
30	0x3d033238	0.032030314
31	0xbd2184c6	-0.039433263
32	0x3d71cd8f	0.059033927
33	0xbc95a68b	-0.01826789
34	0xbcbffdb3	-0.023436403
35	0xbcb6fad9	-0.02233641
36	0x3d4b41d4	0.049623325
37	0xbd96da2e	-0.07365833
38	0xbd94dca5	-0.07268647
39	0xbd214599	-0.039373014
40	0x3a7e65be	0.0009704492
41	0xbd302d44	-0.04301192
42	0xbda98c03	-0.08278658
43	0xbd3bd277	-0.04585501
44	0xbd064b08	-0.0327864
45	0x3d781ce6	0.060574435
46	0x3d67ea07	0.05661967
47	0x3cde3612	0.027125392
48	0xbc790594	-0.015199084
49	0xbd3c77bf	-0.046012636
50	0x3c51eda2	0.012813004
51	0xbd4387dc	-0.047736987
52	0x3cba58a8	0.022747353
53	0x3cf6f2f7	0.030145152
54	0xbd28545d	-0.04109608
55	0xbbbd9282	-0.0057852874
56	0x3c93f506	0.018061172
57	0xbcd74511	-0.02627805
58	0xbd5dc831	-0.054145996
59	0x3d94ffdc	0.07275364
60	0xbd1de318	-0.03854665
61	0x3c9f56b3	0.019450521
62	0x3d96ab1c	0.07356855
63	0xbc6a4f88	-0.014301188
64	0xb90e8c44	-0.00013594428
65	0xbd91dbc1	-0.07121993
66	0xbd9e1638	-0.07719082
67	0x3ce661d9	0.02812283
68	0x3d9ad06d	0.07559285
69	0x3d841386	0.06449036
70	0xbdaf8ec8	-0.08572155
71	0x3c8e86d4	0.017398275
72	0xbd5a7906	-0.053338073
73	0xbd80fc5a	-0.06298132
74	0xbc73c67a	-0.0148788635
75	0xbbf1f4d8	-0.007383924
76	0x3d0cdc47	0.03438976
77	0xbd12d212	-0.03584487
78	0xbd89e3f6	-0.06732933
79	0xbba937e9	-0.0051641357
80	0x3c96033e	0.018312093
81	0xbdabddf8	-0.083919466
82	0x3d7e7f3e	0.062133066
83	0x3d086bfa	0.0333061
84	0x3c22c8ed	0.0099356
85	0x3c217809	0.009855279
86	0x3daa1dab	0.0830644
87	0x3d27dfbd	0.040984858
88	0x3d659505	0.05605032
89	0x3c88029c	0.016602807
90	0xbd8fc318	-0.07019633
91	0xbc8b3b78	-0.01699613
92	0xbbb74b6a	-0.005593707
93	0xbb3234a9	-0.0027192032
94	0xbc9ba2a5	-0.018998453
95	0x3d7d63a0	0.061862588
96	0x3d64b4e9	0.055836592
97	0x3d1ab7ca	0.03777293
98	0x3ce17700	0.027522564
99	0xbd7971dc	-0.0608996
100	0xbd2e4245	-0.04254367
101	0xbd2a3911	-0.04155833
102	0xbcb90c84	-0.022588976
103	0xbd39d840	-0.045372248
104	0xbc80c2ce	-0.01571789
105	0x3dad6dc4	0.08468202
106	0xbcf7dee4	-0.03025765
107	0x3c09592e	0.0083830785
108	0xbd492bac	-0.049113914
109	0xbd254f55	-0.04035886
110	0xbc2639d9	-0.010145628
111	0xbd0330f0	-0.032029092
112	0x3d02e93f	0.031960722
113	0xbaa0d49a	-0.0012270391
114	0x3d63d80d	0.055625964
115	0xbc4ad62e	-0.012380166
116	0x3d397d44	0.04528548
117	0xbd8b544a	-0.06803186
118	0xbda607fb	-0.08106991
119	0x3acf0956	0.0015795629
120	0xbd0fba4c	-0.035089776
121	0x3d5aa809	0.053382907
122	0xbd64f69b	-0.055899244
123	0x3ceb7a4e	0.028744843
124	0x3bc90e46	0.0061357347
125	0x3d91b410	0.07114422
126	0xbd95f9d1	-0.07323039
127	0x3d954158	0.07287854
128	0x3e9176d8	0.28410983
129	0x3e072ecd	0.13201447
130	0xbda92026	-0.08258085
131	0x3da56a6b	0.08076938
132	0x3da1af59	0.07894773
133	0x3cc8dbac	0.02451881
134	0x3e55abd2	0.20866325
135	0x3def5f42	0.11688091
136	0xbd81ad49	-0.0633188
137	0xbc2c4aca	-0.010515878
138	0x3d245834	0.04012318
139	0x3d16cf8f	0.036819037
140	0x3e3ffa8a	0.18747917
141	0x3e513842	0.20431617
142	0xbbf8fb25	-0.007598298
143	0x3de27a1f	0.11058449
144	0xbda7e278	-0.08197492
145	0x3d8dd6c9	0.06925733
146	0x3e0c6093	0.13708715
147	0x3dad0423	0.08448055
148	0x3d2430e6	0.040085696
149	0x3d72b0cb	0.059250634
150	0x3e717f6d	0.23583765
151	0x3c5701f1	0.013123021
152	0xbd5da509	-0.054112468
153	0xbd8b438d	-0.06799994
154	0x3e52b91a	0.20578423
155	0x3da4968e	0.080365285
156	0x3d896932	0.067095175
157	0xbd48e5fa	-0.049047448
158	0x3d5c2ac0	0.053751707
159	0xbd18d305	-0.03731062
160	0x3de17d42	0.11010219
161	0x3e48eed6	0.19622359
162	0x3e05bb9f	0.13059853
163	0x3db62687	0.08894067
164	0x3e6e333d	0.23261733
165	0x3d98b1a2	0.07455756
166	0xbc6abe7e	-0.014327643
167	0x3d4b1c70	0.049587667
168	0xbd511eb0	-0.051054657
169	0x3e56c188	0.20972264
170	0xbd6d8415	-0.05798729
171	0xbd0fa9c5	-0.035074014
172	0xbe0f274e	-0.13979837
173	0xbb085e77	-0.0020808259
174	0x3cc10408	0.023561493
175	0x3d415950	0.047204316
176	0x3cddb856	0.027065437
177	0xbd5d0e0b	-0.05396847
178	0x3cd88662	0.026431266
179	0x3cbd27c1	0.023090245
180	0x3ce20c3a	0.02759372
181	0x3d3c94f6	0.046040498
182	0xbca97e5b	-0.020690134
183	0xbd3ed092	-0.046585627
184	0x3c4082fa	0.011749977
185	0x3c11e3a7	0.008904374
186	0xbd261193	-0.040544104
187	0xbd844d2b	-0.06460031
188	0x3c06481d	0.008195904
189	0xbd3bb129	-0.04582325
190	0xbced7235	-0.028985122
191	0x3daf763b	0.085674725
192	0xbd8d11a3	-0.068881296
193	0x3e4d0036	0.20019612
194	0x3e1023eb	0.14076202
195	0x3bfc9050	0.007707633
196	0x3ddeb0a9	0.10873539
197	0x3e408ab5	0.18802913
198	0xbdb1843e	-0.08667801
199	0xbccf2762	-0.025287334
200	0xbd8463e6	-0.064643666
201	0x3ddf574b	0.10905322
202	0x3d1081e8	0.03528014
203	0xbd9f3d3b	-0.07775351
204	0x3de13382	0.109961525
205	0x3dc58dec	0.0964621
206	0xbdd18d8e	-0.102320775
207	0xbd5fd716	-0.05464848
208	0x3d9d91a4	0.07693794
209	0x3c2627af	0.010141297
210	0x3d3ef18a	0.04661707
211	0xbdf3a14f	-0.118960015
212	0x3e07f383	0.13276486
213	0xbd2642d6	-0.040591083
214	0x3bf79f4c	0.0075568315
215	0x3d3b2b08	0.045695335
216	0x3de8d051	0.11367858
217	0x3d73cbe4	0.059520617
218	0xbe0d9515	-0.13826402
219	0xbd95a8b9	-0.07307572
220	0x3d2ad9a3	0.04171146
221	0xbd5edc32	-0.054409213
222	0x3d6159df	0.05501735
223	0xbc20afca	-0.009807536
224	0x3d11824e	0.03552466
225	0x3d23dd5d	0.04000603
226	0xbc6aacc5	-0.014323418
227	0x3dbdc6ad	0.0926641
228	0xbd2b5e0b	-0.041837733
229	0x3c403ba5	0.01173297
230	0xbd7260f0	-0.059174478
231	0x3e23cf87	0.15997134
232	0xbcc8f68c	-0.024531625
233	0x3d0f82bf	0.0350368
234	0xbd837b5f	-0.064200155
235	0x3e0f9bcb	0.14024274
236	0x3d2f0578	0.042729825
237	0xbcf32c49	-0.029684203
238	0x3d920df1	0.07131565
239	0x3d8a2b8d	0.06746588
240	0x3e854a08	0.26033044
241	0x3e191061	0.14947654
242	0x3d0a5c6b	0.033779543
243	0x3c9a9c76	0.018873435
244	0x3d8a392d	0.06749187
245	0xbba7d09b	-0.0051213033
246	0xbd36df30	-0.044646442
247	0xbc13c389	-0.009018787
248	0x3d7ae10e	0.061249785
249	0x3cce70cd	0.025200272
250	0x3e232418	0.15931737
251	0x3d9c0d0c	0.07619676
252	0xbd86a6d2	-0.06574787
253	0xbcac15bb	-0.021006456
254	0xbd518d4b	-0.051160138
255	0xbdd4dfa0	-0.103942156

fc3.bias f4 [256]
0	0x3c17393e	0.009229956
1	0x3d4869c5	0.048928995
2	0xbcca033c	-0.024659745
3	0xbd1823d3	-0.03714354
4	0x3c8117de	0.015758451
5	0x3d7f42fe	0.062319748
6	0xbbb7003a	-0.005584744
7	0x3d64c290	0.05584961
8	0x3d9567ad	0.07295165
9	0x3dc093ef	0.09403216
10	0xbd535936	-0.05159875
11	0xbd625bb0	-0.05526322
12	0x3daca765	0.084303655
13	0x3daeedc8	0.08541447
14	0x3c4b01d5	0.0123905735
15	0xbd4f45b5	-0.050603587
16	0x3d575c1a	0.05257807
17	0x3d907e0a	0.0705529
18	0x3d93d665	0.07218627
19	0x3d1f127c	0.038835987
20	0x3d83810b	0.06421097
21	0x3d5a32a8	0.053270966
22	0xbd293189	-0.041307006
23	0x3dfca91c	0.123369426
24	0x3cef7313	0.029229676
25	0x3cfed280	0.031106234
26	0xbd10ee8d	-0.03538375
27	0xbd55334b	-0.05205087
28	0x3cedade0	0.029013574
29	0xbdc9cb78	-0.09853262
30	0x3c90e012	0.01768497
31	0x3c968df4	0.018378235
32	0xbd9a2113	-0.0752584
33	0xbd195173	-0.03743119
34	0x3d7a1e9a	0.06106434
35	0x3d32fbf4	0.043697312
36	0x3d8cc53b	0.06873556
37	0x3d6f8c8c	0.058483645
38	0x3d5e75e4	0.054311648
39	0xbaa78318	-0.0012780158
40	0x3de35f2f	0.11102139
41	0xbdbb99ae	-0.091601714
42	0x3ba3de07	0.005000833
43	0xbd8b6d34	-0.06807938
44	0xbc17c639	-0.009263569
45	0x3c3d1488	0.01154054
46	0x3d799cb3	0.060940456
47	0x3d8a1b32	0.06743468
48	0xbcbe935f	-0.023263631
49	0x3c4d3825	0.012525593
50	0x3d372d5a	0.044720985
51	0xb9d5eb75	-0.00040801955
52	0x3bfca8b6	0.0077105416
53	0x3d85e746	0.065382525
54	0xbcb4e859	-0.022083448
55	0xbdc560ce	-0.09637605
56	0xbcea7d9d	-0.02862435
57	0x3c2061e3	0.009788963
58	0xbd16aa12	-0.036783285
59	0xbd391194	-0.04518278
60	0xbdc81dd4	-0.09771314
61	0xbd257a7a	-0.040400006
62	0x3d573d94	0.05254896
63	0xbd8da710	-0.0691663
64	0xbdb85be4	-0.09001902
65	0xbd0a0ccb	-0.033703607
66	0x3da0020b	0.0781289
67	0x3bca910e	0.0061818426
68	0xbd79e986	-0.06101372
69	0x3bd5aa87	0.0065205726
70	0xbd45e222	-0.04831136
71	0xbcbb33f5	-0.022851923
72	0xba403349	-0.0007331861
73	0x3da853b8	0.08219093
74	0xbd39a03a	-0.04531882
75	0x3d74d0f0	0.05976957
76	0x3d129277	0.03578421
77	0xbc5f2c9c	-0.013621476
78	0xbbfc84bc	-0.007706253
79	0x3daece77	0.08535474
80	0x3b4cd380	0.0031253994
81	0x3d7f3129	0.062302742
82	0xbd5d9462	-0.054096587
83	0x3bbb10f6	0.005708809
84	0xbdc14cd4	-0.09438482
85	0xbc1d1f50	-0.009589985
86	0x3da60276	0.08105938
87	0xbd220125	-0.039551873
88	0xbca0cae9	-0.019628005
89	0x3da9da47	0.08293586
90	0x3cdbaede	0.026816782
91	0xbd17d8c6	-0.037071966
92	0x3dd59a95	0.10429875
93	0xbcc72bb2	-0.024312828
94	0x3dc3fb7b	0.095694505
95	0xbd0bd98b	-0.034143012
96	0x3d3e0480	0.04639101
97	0x3cac9420	0.021066725
98	0xbd396c79	-0.045269463
99	0xbd308477	-0.04309508
100	0x3d944226	0.07239179
101	0x3ded4ca5	0.115868844
102	0x3d9d0121	0.07666231
103	0xbd213ca3	-0.03936447
104	0x3dab3b5d	0.08360932
105	0xbc7ae605	-0.01531363
106	0xbd56b827	-0.052421715
107	0x3d376ab0	0.04477948
108	0x3cd18857	0.025577707
109	0x3d6e528c	0.05818419
110	0xbaa0d38b	-0.0012270076
111	0xbd2a5dd1	-0.041593377
112	0x3c3dce50	0.011584833
113	0xbb0d1333	-0.0021526336
114	0x3bc5075a	0.0060128393
115	0xbc8de569	-0.017321305
116	0xbd9a6da3	-0.07540443
117	0x3bd95414	0.0066323373
118	0x3b823ee4	0.0039747823
119	0xbd80831d	-0.06275008
120	0x3d4326e3	0.047644507
121	0xbd27666e	-0.04086917
122	0xbd8226b2	-0.06355037
123	0x3a0a3780	0.00052725524
124	0xbd9807b7	-0.074233465
125	0xbda9cef2	-0.08291425
126	0xbd3bd32f	-0.045855697
127	0x3d7637db	0.06011186
128	0xbd9f985c	-0.07792732
129	0x3cf07609	0.029353159
130	0x3d087134	0.033311084
131	0xbd4b93b2	-0.0497014
132	0x3db4fb54	0.088369995
133	0x3d643b79	0.05572078
134	0x3d9f0203	0.077640556
135	0x3aedd536	0.0018145207
136	0xbd3596fe	-0.04433345
137	0x3c883d40	0.016630769
138	0xbd382fa9	-0.044967327
139	0x3c738c89	0.014865049
140	0x3dc011de	0.09378408
141	0x3d71a2d6	0.058993183
142	0x3dc39846	0.09550528
143	0x3c8ee2a8	0.017442062
144	0x3d5110d1	0.051041428
145	0x3dac9b7c	0.08428094
146	0xbd42547b	-0.047443848
147	0xbd34c7e5	-0.044135947
148	0x3c88e02e	0.01670846
149	0xbcc62995	-0.02418975
150	0xbda0752f	-0.07834851
151	0x3d0cf832	0.034416385
152	0x3d3b5338	0.04573366
153	0x3d05f8b0	0.03270787
154	0x3c91ce87	0.017798675
155	0x3db07d56	0.08617656
156	0x3d1f6ff0	0.03892511
157	0x3bfdc332	0.0077442164
158	0x3d088769	0.033332262
159	0x3bb90287	0.0056460532
160	0xbd6c1394	-0.05763586
161	0x3dae6524	0.08515385
162	0xbd082271	-0.03323597
163	0x3d8740fa	0.0660419
164	0x3d069059	0.032852504
165	0x3d99ecea	0.07515891
166	0xbd84da10	-0.064869046
167	0x3bdbf518	0.006712567
168	0xbbf6dcfc	-0.0075336676
169	0xbcffad7d	-0.031210655
170	0xbd22d8a0	-0.03975737
171	0x3d1d3e80	0.038389683
172	0x3cf3c444	0.029756673
173	0x3ca15610	0.019694358
174	0x3da102b9	0.078618474
175	0xbd2c829a	-0.04211674
176	0x3d33bab7	0.043879237
177	0xbda164dd	-0.07880566
178	0xbb18f696	-0.0023340336
179	0x3cf0e18e	0.029404428
180	0x3d200509	0.039067302
181	0xbd6a46e7	-0.057196524
182	0x3d903d84	0.07042983
183	0x3ca5ab1a	0.02022319
184	0x3d549ce7	0.051907446
185	0xbd0ca89a	-0.03434048
186	0xbccd5aa1	-0.02506763
187	0xbcae14d3	-0.021250164
188	0x3c27ff31	0.0102537135
189	0xbcb1f3e4	-0.021722741
190	0x3cbbd80e	0.022930171
191	0x3d9e665c	0.07734367
192	0x3d591c1f	0.053005334
193	0xbd9478d9	-0.07249612
194	0x3d9c6e0d	0.07638178
195	0xbd43eb47	-0.0478318
196	0xbc4b50d1	-0.012409405
197	0x3ca76f68	0.020438865
198	0x3d5a8bf8	0.05335614
199	0x3d370180	0.044679165
200	0xbd934c85	-0.07192329
201	0x3d85e87d	0.06538484
202	0xbd852a65	-0.06502227
203	0x3d066663	0.032812487
204	0x3bcc4e7f	0.0062349434
205	0xbd4b23d0	-0.0495947
206	0xbb0543db	-0.0020334634
207	0xbafc1305	-0.0019231742
208	0xbd4e2b9b	-0.050334554
209	0xbdb31b89	-0.08745486
210	0xbda1d713	-0.0790235
211	0xbde3021b	-0.11084386
212	0x3d1358e5	0.03597345
213	0x3d08e3c7	0.03342035
214	0x3d916d01	0.07100869
215	0xbd5187b7	-0.05115482
216	0xbb9c556e	-0.004770926
217	0x3d626309	0.05527023
218	0xbd0cf0e4	-0.03440942
219	0x3d9b1660	0.07572627
220	0x3c581564	0.013188694
221	0xbd107be7	-0.035274412
222	0x3d7f2ea3	0.062300336
223	0x3d36a745	0.044593114
224	0x3d797b9a	0.06090889
225	0x3da6deba	0.081479505
226	0xbd8ae633	-0.06782188
227	0x3dfc624d	0.12323437
228	0xbd8c93aa	-0.06864102
229	0x3d1672ed	0.036730696
230	0x3a52145a	0.0008013897
231	0xbc2f82ca	-0.010712335
232	0xbb1be124	-0.0023785317
233	0xbd46da71	-0.048548166
234	0xbcce863b	-0.02521049
235	0x3c74bcee	0.0149376225
236	0xbda23dd5	-0.0792195
237	0x3cf2e077	0.029648049
238	0xbb8022eb	-0.0039104125
239	0xbd3ef156	-0.046616875
240	0x3d791415	0.060810167
241	0x3ae8f77e	0.0017773954
242	0x3da6bb45	0.081411876
243	0x3bef51e9	0.0073034656
244	0xbdb802b7	-0.08984893
245	0xbafd9ce8	-0.001934913
246	0x3d816cec	0.06319603
247	0xbdae156f	-0.08500182
248	0xbcc3412c	-0.023834787
249	0xbd8b9998	-0.06816405
250	0x3d4cd826	0.050010823
251	0xbcbe31fe	-0.023217198
252	0x3cf3ece6	0.029776048
253	0x3cba0f6d	0.022712434
254	0x3d2d0cb9	0.04224846
255	0xbd8e9e77	-0.069638185

fc4.weight f4 [12, 256]
0	0x3a04192f	0.0005039153
1	0xbcde6028	-0.02714546
2	0x3d88fbb2	0.06688632
3	0xbdb62497	-0.08893698
4	0xbda6dff7	-0.08148187
5	0xbd19e451	-0.037571255
6	0x3cbb7df7	0.022887213
7	0xbd79a41f	-0.060947534
8	0xbc85de3f	-0.016341327
9	0xbdce9536	-0.100870535
10	0xbd56a97a	-0.05240772
11	0xbd11e392	-0.03561742
12	0xbd4471ee	-0.047960214
13	0x3d61f6aa	0.055166878
14	0xbc1bc9b4	-0.009508539
15	0xbd3d8de3	-0.04627789
16	0x3ab56c07	0.0013841399
17	0x3e3fdb7e	0.18736073
18	0xbd6a2b74	-0.057170346
19	0xbdcd6f10	-0.10030949
20	0xbd718b26	-0.058970593
21	0xbc373ac7	-0.011183447
22	0x3c1beb47	0.009516544
23	0x3e615053	0.22003298
24	0xbd804286	-0.06262688
25	0xbde19e20	-0.11016488
26	0x3d2bce35	0.0419447
27	0xbba2a6cf	-0.004963733
28	0xbdb4beb0	-0.08825433
29	0xbe2700a5	-0.1630884
30	0x3d485b9b	0.048915487
31	0xbd3d8981	-0.046273712
32	0xbb8c6832	-0.004284882
33	0x3d287375	0.041125733
34	0xbde4da07	-0.11174398
35	0xbe14ef84	-0.14544493
36	0xbdf9f5c9	-0.12205083
37	0x3c13620f	0.008995547
38	0xbdde18f0	-0.108446
39	0xbbada69f	-0.005299404
40	0x3da16a4a	0.07881601
41	0xbba97cec	-0.0051723626
42	0xbd92a284	-0.07159904
43	0xbd299555	-0.04140218
44	0x3d4ad5cc	0.0495203
45	0x3d537aae	0.05163067
46	0x3e3e56b9	0.1858777
47	0x3b41c21d	0.0029565163
48	0x3cc1b2ca	0.023644824
49	0x3e08a3b4	0.13343698
50	0x3d3f76c6	0.04674413
51	0xbdf4665a	-0.119335845
52	0x3c813ee3	0.015777057
53	0xbcc062a2	-0.023484532
54	0x3e841db4	0.25803912
55	0xbdb42071	-0.0879525
56	0xbdaccc0e	-0.08437358
57	0xbd56f66c	-0.0524811
58	0xbd89ade5	-0.06722621
59	0x3db14328	0.08655387
60	0x3ca75943	0.020428305
61	0xbcf6c21a	-0.030121852
62	0x3d1d1945	0.038354177
63	0xbd4b6372	-0.049655385
64	0xbd9db24f	-0.07700025
65	0x3bf897be	0.0075864485
66	0xbd8c3012	-0.06845106
67	0x3ce5c4e0	0.028047979
68	0xbd0439d3	-0.032281708
69	0x3ddce380	0.1078558
70	0xbe87dc66	-0.26535338
71	0x3c94bd0b	0.018156549
72	0xbd33c563	-0.043889415
73	0x3d55ad26	0.05216708
74	0x3e072613	0.13198118
75	0xbd76c8a0	-0.060249925
76	0xbb0f530f	-0.0021869575
77	0xbd6d0f34	-0.057875827
78	0x3d11f379	0.035632584
79	0x3dd46535	0.10370866
80	0xbdcac85a	-0.09901495
81	0xbe36b488	-0.17842305
82	0xbd2e820d	-0.042604495
83	0xbd8b34bf	-0.0679717
84	0xbd329361	-0.043597583
85	0x3cbcc4e6	0.023043107
86	0xbdf43940	-0.11924982
87	0x3d4f5bf9	0.05062482
88	0x3e5b04f1	0.21388604
89	0x3c2e6025	0.01064304
90	0x3b4965de	0.0030730884
91	0x3cedfa9e	0.029050168
92	0x3b059247	0.0020381378
93	0x3ac8805e	0.0015297045
94	0xbd7573df	-0.059924956
95	0xbe01183e	-0.12606904
96	0xbd27c146	-0.040955804
97	0xbd8a5561	-0.06754566
98	0x3cdd06c6	0.026980769
99	0xbdd966fc	-0.10615346
100	0x3db2ae8b	0.08724698
101	0xbdbfae69	-0.09359438
102	0x3e56633e	0.20936295
103	0xbcbee406	-0.02330209
104	0x3e49f669	0.19722904
105	0xbd457436	-0.04820653
106	0x3c1a2e36	0.009410432
107	0xbd9057c4	-0.0704799
108	0x3c96c4ff	0.018404482
109	0xbcbcde58	-0.02305524
110	0x3d27187d	0.04079484
111	0xbd997945	-0.074938335
112	0x3df007c4	0.11720231
113	0xbc90dfe3	-0.017684883
114	0xbe035b65	-0.12827833
115	0xbdddbb2f	-0.10826718
116	0x3caf4507	0.02139522
117	0x3c07d329	0.008290091
118	0x3b8e726a	0.0043471353
119	0x3da22552	0.079172745
120	0x3d013104	0.031540886
121	0x3da6b92d	0.08140788
122	0x3cf1232e	0.02943572
123	0xbd414889	-0.047188316
124	0xbd6e97ef	-0.058250364
125	0xbcab5c57	-0.020918055
126	0x3ba6102f	0.005067847
127	0xbcfa16d6	-0.030528467
128	0xbd5e1ee9	-0.054228697
129	0x3e4b2a0f	0.19840263
130	0xbe017f60	-0.12646246
131	0xbdfeb53b	-0.12436911
132	0xbe1a93bb	-0.15095417
133	0x3d4d2415	0.05008324
134	0x3c7e3b36	0.015517047
135	0xbe3f826f	-0.187021
136	0xbca77ae8	-0.020444348
137	0xbdb0121f	-0.08597206
138	0x3c191664	0.009343717
139	0x3d5a50c0	0.053299665
140	0x3e534828	0.20632994
141	0xbe2cf551	-0.16890456
142	0xbda8b6e3	-0.08238008
143	0x3d8a3a7d	0.06749437
144	0x3d1a4049	0.037658963
145	0xbe2c4508	-0.16823208
146	0x3d181d47	0.037137296
147	0xbd45a2a7	-0.04825082
148	0x3e045f57	0.12926994
149	0xbddcb09b	-0.10775872
150	0xbc2071cd	-0.009792757
151	0xbc1bc397	-0.0095070815
152	0xbe3f2c68	-0.18669283
153	0xbd2bd011	-0.041946474
154	0xbd09b5ae	-0.03362053
155	0xbdcbef25	-0.099577226
156	0xbd3f2b17	-0.046671953
157	0xbd174aad	-0.03693645
158	0xbdccd6ae	-0.100018844
159	0x3d23afef	0.039962705
160	0x3d809291	0.06277955
161	0xbdb861bd	-0.09003017
162	0xbe57e2cd	-0.21082611
163	0xbcab7107	-0.02092792
164	0xbd3bf9b4	-0.045892432
165	0x3caece9f	0.021338759
166	0xbd20aef7	-0.03922936
167	0x3d050b29	0.032481346
168	0x3c8a9ebf	0.0169214
169	0xbd640cdb	-0.055676322
170	0x3d19044f	0.037357625
171	0x3e88d8da	0.26727945
172	0x3d57937a	0.05263088
173	0xbd94abc4	-0.07259324
174	0xbda6267b	-0.08112808
175	0xbda4acdf	-0.08040785
176	0x3df6d955	0.120531715
177	0xbc8ef3db	-0.017450264
178	0x3d12445f	0.035709735
179	0x3e5ab085	0.213564
180	0x3d33e24b	0.04391698
181	0xbe69614c	-0.22791022
182	0xbc15dbd1	-0.009146647
183	0x3c575516	0.013142845
184	0xbd592d4d	-0.053021718
185	0x3b2823cf	0.002565611
186	0x3d6bba0a	0.057550468
187	0xbda72dff	-0.0816307
188	0x3dc6da96	0.09709661
189	0xbc3a445f	-0.01136884
190	0x3d3cf484	0.046131626
191	0xbc5d2825	-0.013498341
192	0x3d49f528	0.049306065
193	0xbc5c1276	-0.013432136
194	0xbde522d8	-0.111882865
195	0x3c9099f7	0.017651541
196	0x3d55ba03	0.052179348
197	0x3c9c3a6f	0.019070832
198	0xbe2e8105	-0.17041405
199	0xbd91a4de	-0.07111524
200	0xbd1a1e4f	-0.03762656
201	0xbc6686be	-0.014070211
202	0x3d64a076	0.05581709
203	0xbd8fef95	-0.070281185
204	0xbd014369	-0.031558428
205	0xbdcc4361	-0.09973789
206	0xbcdf58aa	-0.027263958
207	0x3da7e7c2	0.08198501
208	0x3d5265f1	0.05136675
209	0xbe867b9e	-0.26266187
210	0xbd1c1c3b	-0.03811286
211	0xbceda2d2	-0.029008303
212	0x3d692170	0.056916654
213	0x3d2f3cad	0.042782474
214	0xbca74233	-0.020417308
215	0xbd7f7e2a	-0.06237618
216	0x3db9ee15	0.09078614
217	0xba856122	-0.0010176043
218	0xbdc87475	-0.097878374
219	0x3e5c88aa	0.21536508
220	0x3dbaabc1	0.09114791
221	0xbdec9376	-0.115515634
222	0xbd6f994e	-0.058495812
223	0xbe03adb4	-0.12859231
224	0x3d5aa0e6	0.0533761
225	0x3cb9d443	0.022684222
226	0x3d092099	0.033478353
227	0x3e39b6aa	0.18136087
228	0xbd88e1db	-0.066837035
229	0xbc2a914f	-0.010410621
230	0x3c8d7bca	0.017270941
231	0xbbb15687	-0.005411926
232	0x3cc92dce	0.024557974
233	0xbdb202fa	-0.08691974
234	0xbc6008ae	-0.013673944
235	0x3ce6532c	0.028115831
236	0xbdb1a25b	-0.08673545
237	0xbc87eeeb	-0.016593417
238	0xbe27c18a	-0.16382423
239	0x3d5207ce	0.051276974
240	0xbdc2997d	-0.09501932
241	0xbdaf796a	-0.0856808
242	0x3e924ceb	0.2857431
243	0x3d2d7329	0.042346153
244	0xbe11463e	-0.14186952
245	0xbb2c816a	-0.0026322254
246	0x3d3de7cd	0.04636364
247	0xbbdd631e	-0.0067562005
248	0xbd591509	-0.052998576
249	0xbcc9f43a	-0.02465259
250	0xbe10ef2b	-0.14153735
251	0xbd59334e	-0.053027444
252	0xbd6ae8d2	-0.05735094
253	0x3cf598cf	0.029980091
254	0x3d409a70	0.047022283
255	0xbd3b0e97	-0.04566821

fc4.bias f4 [12]
0	0xbd27dd5c	-0.04098259
1	0xbc9d65d8	-0.019213602
2	0x3bbec10b	0.0058213524
3	0x3c89a1ab	0.016800722
4	0xbc51e7e3	-0.012811634
5	0x3d01078f	0.03150135
6	0x3d030a40	0.031992197
7	0xbcba2e60	-0.022727191
8	0xbdbaa053	-0.09112611
9	0xbd7eabdb	-0.062175613
10	0xbd86af32	-0.065763846
11	0xbd6c6460	-0.057712913
