model.pt (torch, 17128 bytes, 8 tensors)

fc1.weight f4 [16, 11]
00000000: b5c6 58bd 0983 34bd 2a5f 3e3d c8e1 22be
00000010: dd81 eb3d 9e35 183e 8bb3 4e3d ca04 283d
00000020: 5126 c83e 87c3 67bc 6a4b a63e 830c 7ab9
00000030: 6740 843d d216 6fbd 5216 ea3d 053d d0bc
00000040: 4518 0fbd e4f8 863d 4a00 443d f85d a5bd
00000050: 882f 583d 0a91 3abe de3f 643d c801 1fbd
00000060: 8f05 cebe 93de c73e dcb6 20bd 2b07 873b
00000070: 4aa8 123c cb8b 12bb 793b 0d3e e42e f6bb
00000080: 5cb0 443e e8c6 f83b 693c 5dbd cd77 423c
00000090: b094 093d fc46 51bd 30f6 93bc ddf9 31bd
000000a0: 7ccd d2bc b6b2 2a3c 2569 69ba b51e 05bc
000000b0: ab4a 0f3e 0d19 d03e 468f 0ebd 97c3 843e
000000c0: e37e 89bc 0f77 70bc 17b7 2dbe e247 aabc
000000d0: 1c7b d7bd a301 d6bc 98b9 18be 7047 543e
000000e0: 906a 0ebe 7d20 0e3d 5408 e7bd 1c73 413d
000000f0: 0e04 aabb 4bb6 ca3d 828b 24bc 161a a1be
00000100: d43e 5a3c 0194 eebe bb83 44bd 49df c03c
00000110: 79a8 aabc f463 56bd 45d9 683d 3895 24bd
00000120: ea6f 8dbc c58a 57bd 03fd 46bd 621a a13c
00000130: 385e e33c ad2e 0a3e 9592 e7bc ad0d 7e3d
00000140: 597d 20b9 6e08 f3bd b14d 30bc 24ba 47bc
00000150: d42d 21b9 43dc 853d c7f7 c0bb bce5 e9bd
00000160: 3c52 9a3e df81 a3be 4210 d1bc 0f51 243d
00000170: ef3b 773c 8ebd f3ba 3ff1 57b9 8eea 723a
00000180: 4e78 edbd 9882 cf3a ff0a e5bd a1c5 783e
00000190: 1262 a2bd ea22 b33e cf5f 22be 24a4 203e
000001a0: 157d f43c dc71 8cbe fd18 ffbc e062 e83e
000001b0: dd8d dc3d 7fbd 263f 26d3 c53d 0340 6e3d
000001c0: 4927 003e dfcf 98be 3ffa db3c 1b03 b93a
000001d0: c806 8dbb e2e3 01bc 3cda 36be 48b7 193c
000001e0: ffdb b0bd 6d14 053c 51e1 c93e dd7b 05be
000001f0: f1bd bd3e 5889 223e c3d4 153e b05f 38be
00000200: 58a4 d93d a383 86be c808 203e dc09 6abe
00000210: 6312 d7be f551 993e 3662 d73d 59a0 61bb
00000220: 43d6 8ebc 7404 8c3a c5a9 303c ae87 4a3b
00000230: 3473 a13d b9d6 423a 3c1d 3b3e 1b74 11be
00000240: 08d6 fa3c ca49 5d3e 5d13 babd b039 69bd
00000250: 7564 173c acac 73bc c604 b33c 0515 383d
00000260: 41d3 11bd 0200 99bd ca2f ce3e 76a8 7c3d
00000270: e7ae e23e 5955 183e 6e63 703e 45d4 90bd
00000280: 9680 90be ddc8 373d faf0 1fbe 546e 4abd
00000290: 98c9 d53b cfde d43c 0585 9bbd 216d 6fbe
000002a0: f095 8c3e c587 86bc 458d 823b ade4 193c
000002b0: 0912 033c 9497 ec3c 4079 04bd 9261 8cbd
-0.052923877 -0.044070277 0.046477474 -0.15906441 0.11499379 0.14864203 0.050464194 0.041020192
0.39091733 -0.014145738 0.3247941 -0.00023846519 0.06457596 -0.058371373 0.114300385 -0.025419721
-0.034935255 0.06590441 0.04785184 -0.08074564 0.052779704 -0.1821939 0.05572497 -0.038820058
-0.40238616 0.39036998 -0.03923689 0.0041207275 0.008951256 -0.0022361155 0.13792218 -0.007512914
0.19207901 0.007592071 -0.05401269 0.011869383 0.033589065 -0.051093087 -0.018061727 -0.04345118
-0.025732748 0.010418585 -0.00089039124 -0.008124997 0.13993327 0.40644112 -0.034804605 0.25930473
-0.016784137 -0.014676823 -0.16964374 -0.02078623 -0.10521528 -0.026123827 -0.14914548 0.20730376
-0.13907838 0.034698952 -0.11280885 0.047228917 -0.0051884716 0.09898051 -0.010043027 -0.31465214
0.013320643 -0.46597293 -0.04797719 0.02354397 -0.020832287 -0.052341416 0.05684783 -0.04018137
-0.017265279 -0.052622575 -0.048581135 0.0196659 0.027754888 0.13494368 -0.028268138 0.06202476
-0.00015305485 -0.11866842 -0.010760711 -0.0121903755 -0.00015371229 0.06536152 -0.0058889124 -0.114207715
0.30140865 -0.3193502 -0.025520448 0.040116366 0.015089973 -0.001859592 -0.00020593869 0.0009266519
-0.11595212 0.0015831767 -0.11183738 0.2429414 -0.07928862 0.34987575 -0.1585686 0.15687615
0.0298448 -0.27430618 -0.031139845 0.45387936 0.10769246 0.651329 0.09659414 0.058166515
0.12514986 -0.29846093 0.026852725 0.0014115305 -0.004303787 -0.007927867 -0.17856687 0.009382077
-0.08635711 0.008122546 0.39429715 -0.13035531 0.37058976 0.15872705 0.14631943 -0.18005252
0.10627049 -0.26272306 0.1562835 -0.22855324 -0.42006215 0.2994534 0.10516779 -0.003442785
-0.017436152 0.001068248 0.010782664 0.0030903625 0.078833014 0.0007432509 0.18272871 -0.14204447
0.030619636 0.2161018 -0.090857245 -0.05693978 0.009240259 -0.014872711 0.021852862 0.04494192
-0.035601858 -0.074707046 0.40270835 0.061684094 0.44274065 0.14876308 0.2347543 -0.07071737
-0.28223103 0.044869293 -0.15619269 -0.049421623 0.006524276 0.02598515 -0.07593731 -0.23381473
0.27458143 -0.016422162 0.003984126 0.009392899 0.007999905 0.028880872 -0.032342196 -0.068545476

fc1.bias f4 [16]
00000000: 5ab5 3ebe 4a61 9f3d 93f2 b93e b6f5 11bd
00000010: 69e0 673e 8d2e 63bc 01fe 5abd 216f 173e
00000020: 58fe 2b3c 0952 edbc 0546 373e f4f7 4a3e
00000030: 9f94 ac3e 21f4 9abb 5f3b 6b3e 6800 783e
-0.18623868 0.07782228 0.36317882 -0.03563472 0.226442 -0.013866079 -0.053464893 0.14788486
0.010497652 -0.028969781 0.17897804 0.19821149 0.3370714 -0.0047288095 0.22971867 0.24218905

fc2.weight f4 [32, 16]
00000000: 6072 143d 230d 35bd 074a 16bc 9911 033c
00000010: 4f83 8abd 45dc e9b8 58e0 d73b 03a1 773b
00000020: bc8a 883d d4bc 40bd 3c3d 633c 4c78 d739
00000030: 0dbf 30be 0b64 c53b 64e2 8dbc 406e 853d
00000040: 102e 63bd 46e0 d239 cdb9 b0bc 8bd6 843c
00000050: d45a 9ebc 4334 5ebd a703 f63c a77a 9f3c
00000060: 29cc 033b eb4d e03c 1973 b4bc b04d debb
00000070: 7a00 4dbd 4a18 1a3d 8c3e 36bc 4e2e a6bc
00000080: d1fb 333b 5b75 dd3c e695 933d d33e 3bbc
00000090: 11cb 8fbe 251a 833c c61c 2a3b 6667 b23d
000000a0: 4978 d2bc 11dc adbc e4a2 d33a e068 edbb
000000b0: 7ba1 c8bc 65c2 a13d bf54 7abd 35fc 193d
000000c0: dae5 e5bc 5678 8bbd ff40 c83b 3bdc 10bd
000000d0: 743b c63e d284 b6bd 30c7 07bc d241 c6bd
000000e0: 915f 0bbf b649 a8bd 632c 4fbf d31c f33d
000000f0: 338a fa3e 83a8 623e c760 163d e0b7 943d
00000100: 8b01 c0bb dc73 9e3d 5e97 00be a0b7 67bd
00000110: 9440 c33c 0ff7 51bd 1fcd 1abd c6ba d6bd
00000120: e96a 26be c779 573d 85e2 04bf b067 493d
00000130: 0264 92be 0ee3 4ebd 2401 bcbc 873b 673c
00000140: 51d4 413d 9722 af3d 1ba1 f73e 2350 1bbd
00000150: 63ab 8cbd b6d7 1d3e c50e dcbc a2b6 a73d
00000160: 6ebb c83e 171f 583e e0e2 893f 0013 3b3a
00000170: c413 753f 9a3e b93e 3f72 9f3e 2283 a03e
00000180: e4ac 3e3d 19fa 4c3d fa9b af3e 7cdc 583b
00000190: 9942 ef3d 1d95 ec3d 82fb 18bd d625 4a3e
000001a0: 1cef 843e 9b0d 453e 47ab 783f c261 bb3d
000001b0: e650 aa3e b3c2 bb3e 0c9d ce3e 3869 733e
000001c0: 17fe 093e 2c0e 25be 5521 abbf 7b69 85bc
000001d0: d572 d63e 7201 3cbe d94e 8e3c faa4 073e
000001e0: f79f d9bf 2b39 b63d 87a5 d7bf 9f64 3a3e
000001f0: b6f4 57bf f9e7 c6be b987 7b3d fd42 493d
00000200: b181 9d3d 0b34 d73b 9ed0 f33e 2f4b 25bc
00000210: 3a52 483e eb56 f03d e5c9 4ebc f061 0b3e
00000220: c55e f63e ebf9 293d 4481 5a3f 59ba a73d
00000230: 8bb6 823f f002 733e 5956 3dbd 9c53 e23d
00000240: e9ad f5bc 4e91 533d 0e2c a8bc 4621 163d
00000250: d944 4b3e 7e77 3abd 3526 d0bb c6ff dd3c
00000260: 30f0 4fbe 2512 24bd 8d97 54bf e986 e53d
00000270: 489e 503d 7dc1 e73d 8969 b6bd 593e b63d
00000280: 24d4 95bd cdf4 963d d8f2 6bbe 0b8f 023d
00000290: 8bbd 6cbe 70db e23c 7464 2dbd 9659 c03b
000002a0: cdee 1abe e313 ea3a 664c c3be 6112 0b3d
000002b0: 5c89 6ebc 1719 22be 008e c9bd 9d03 16ba
000002c0: 3694 e23d f12c 103e 5022 193f c63c a1bb
000002d0: 3131 1e3e 3179 243e 8e47 8cbb 3e54 f73d
000002e0: 6c24 f53e ff14 f63d 41b9 923f 98a8 e23d
000002f0: eb0c 9f3f c3b5 a83e edef d73d 0a15 553e
00000300: 781e 80bd a4c6 23bb b261 4b3f cc56 5a3d
00000310: 5cfd 6a3e 3224 e33d 62b0 45bd 205c cd3c
00000320: 2174 253f b7fd 0d3c 3481 923f bec5 c63b
00000330: a8d1 d63f abf5 ad3e 4514 d63d ca12 573e
00000340: 3ecf 9abc 5058 cc3d ade1 3b3f fb59 273d
00000350: 3eef 733d d8bc 953d 8109 1abc ce5d 2c3e
00000360: 7d8b 403f 8b1c 293d c868 883f 65da 4fbd
00000370: dc3c b73f 0381 e53e b537 053e 611a 943e
00000380: 8730 b63c 1647 283b fbbf e43c a31a 37bc
00000390: f6a5 89bd b5ae 8bbd 037f 61bd 8951 c6bc
000003a0: bf82 033d 2b64 d3bc 35dd cebd e95a c83b
000003b0: 2f96 bfbc 3451 1a3e a44b 47bd 2355 9a3c
000003c0: ce7f 1cbd 420e 143d d144 853b c713 fabc
000003d0: cc72 83be 859b 45bd 5a90 213d 28da 9abd
000003e0: 38c0 9ebd 5fa9 ec3c 65b9 07bf 76a9 fe3d
000003f0: faab 4ebe 9c71 953c 8505 ca3c fde8 cc3d
0.03624189 -0.04420198 -0.009172923 0.007999801 -0.067633264 -0.00011151334 0.006588023 0.003778518
0.066670865 -0.04705508 0.01386958 0.00041097624 -0.1726038 0.006023889 -0.017319866 0.06515169
-0.05546385 0.00040221418 -0.021572972 0.016215583 -0.01933042 -0.05424906 0.030031038 0.019467665
0.0020110703 0.027380904 -0.02202754 -0.0067841634 -0.050049283 0.03762082 -0.011123311 -0.020285752
0.0027463327 0.027033499 0.07206325 -0.011428553 -0.28084615 0.016003678 0.0025957092 0.08711128
-0.025692122 -0.0212231 0.0016146568 -0.007245168 -0.024491062 0.07898406 -0.061115976 0.03759404
-0.028063703 -0.06810062 0.0061112638 -0.03536628 0.38717234 -0.08912052 -0.008287236 -0.09680523
-0.544427 -0.08217184 -0.80927104 0.11870732 0.48933563 0.22134595 0.036713388 0.07261634
-0.005859559 0.07736942 -0.12557742 -0.056571603 0.023834504 -0.051261004 -0.037793275 -0.10484843
-0.1625172 0.05260637 -0.5190814 0.04917115 -0.28591925 -0.050509505 -0.022949763 0.0141133135
0.04732162 0.08551519 0.483651 -0.03791822 -0.06868627 0.15414318 -0.026862511 0.08189131
0.39205498 0.2110561 1.0772362 0.0007136315 0.95733285 0.36180574 0.3114185 0.31350046
0.0465516 0.0500432 0.34298688 0.0033090403 0.11682624 0.115518786 -0.03734923 0.19740996
0.25963676 0.19243471 0.9713635 0.09149505 0.33264846 0.3667198 0.40354192 0.23770607
0.13475834 -0.16118687 -1.3369547 -0.016285649 0.41884485 -0.18359926 0.017371582 0.13246527
-1.7001942 0.08897623 -1.684739 0.18202446 -0.84357774 -0.38848856 0.061408732 0.04913615
0.07690752 0.0065674833 0.476201 -0.010088726 0.19562617 0.11735328 -0.012621378 0.13611579
0.48119178 0.041498106 0.85353494 0.0818984 1.0211958 0.2373159 -0.046224926 0.110511035
-0.029990153 0.051652245 -0.02052882 0.036652826 0.19850482 -0.045524113 -0.006352211 0.027099501
-0.20306468 -0.040056366 -0.8304375 0.11207373 0.0509322 0.11316202 -0.08906848 0.088986106
-0.07315853 0.07370911 -0.23041856 0.031874698 -0.2311918 0.027692527 -0.042332128 0.0058700545
-0.15130158 0.001785871 -0.38144225 0.033953074 -0.014559116 -0.15829884 -0.098415375 -0.00057225843
0.11063425 0.14079644 0.5981798 -0.004920575 0.15448453 0.16061856 -0.004280991 0.12076615
0.4787935 0.120157234 1.1462785 0.11067313 1.2425817 0.32951173 0.10543809 0.20808807
-0.062558115 -0.0024990225 0.79445946 0.053305432 0.22948211 0.11090888 -0.048263915 0.025068343
0.64630324 0.008666447 1.144568 0.006066053 1.6782732 0.33976492 0.10453085 0.21003261
-0.018897649 0.09977782 0.7339123 0.040857296 0.05955433 0.0731141 -0.00940168 0.16832659
0.7521284 0.041286986 1.0656977 -0.050745387 1.4315448 0.4482499 0.13009532 0.28926376
0.022239937 0.0025677136 0.027923575 -0.011175784 -0.06721108 -0.06820432 -0.05505277 -0.0242088
0.03210711 -0.0258046 -0.10100786 0.006114353 -0.023387043 0.15070039 -0.04865612 0.018839424
-0.03820782 0.03614641 0.0040670414 -0.030527009 -0.2567352 -0.048244018 0.039444305 -0.07561141
-0.077515066 0.028889356 -0.53017265 0.12434666 -0.20182791 0.01824265 0.024660835 0.100053765

fc2.bias f4 [32]
00000000: 1280 d53d 80ff 523c ec8f 363d dd31 003c
00000010: 66b1 a23d c159 323e cee5 8a3e 1afe 9bbb
00000020: 70de 523c fbfd afbd 0290 983d 65c9 1e3e
00000030: f797 8e3e 8eb2 6f3e b2b9 5b3b be8c f03d
00000040: c903 4f3e 601e 5dbd 2ed0 cc3b a851 573d
00000050: 451a 733e 0634 6e3e f566 433e d9c7 693e
00000060: c4d0 243e bbec 32bd b51f 3d3e d127 553e
00000070: 6386 733c accf 5f3e c0d2 133e 96fe 613e
0.10424818 0.012878299 0.04457085 0.007824388 0.07943992 0.17417051 0.27128452 -0.004760516
0.012870416 -0.08593365 0.07449342 0.15506513 0.27850315 0.23407957 0.003352743 0.117455944
0.20216288 -0.053984046 0.006250403 0.052568108 0.2374049 0.23262033 0.19082244 0.22830142
0.16095263 -0.043682795 0.18469127 0.2081597 0.014863583 0.21856564 0.14435863 0.22069773

fc3.weight f4 [64, 32]
00000000: 54d0 8e3d f0b2 13bd e113 7a3d 4980 ba3e
00000010: 756b ba3d 1c73 a13c 5eae 903d 87e9 223f
00000020: e392 29be ce21 e63d 733e 273d 34a3 59bd
00000030: 147f 32be 772e 06bf 9261 d33d 5eb1 f63d
00000040: 50e0 4abf ff75 d03f eaf1 003d c118 723e
00000050: 5219 98bd 54b4 cd3d 07ee 2bbe fa86 32bd
00000060: 3d94 46bd f72f 6e3c 0ade 133d 0283 1b3d
00000070: 2099 0f3e de87 c33d 156b 8bbe dc44 f8bd
00000080: 7729 28be 93a6 bf3a 936d 66be 375a 933d
00000090: d8fb 37be 1078 343e a205 313e c1ef 30bf
000000a0: 5014 ac3e 3764 893d 7f89 85be c102 273e
000000b0: a29b 783f d7a7 813f 1d0c c1bd 2810 aabe
000000c0: 254f bd3f 8783 cbbf e175 6abc 6c8d 31be
000000d0: 5273 723e 142f 8d3e f5e9 af3e b38e 8f3e
000000e0: f260 9e3e acce de3e 095b 753e c238 e83d
000000f0: 9f3e 44be f85b 3a3e 8657 f03e 18e5 0e3f
00000100: 90e2 193c 441d dabc abb4 093d 5a82 f7bb
00000110: da6d 8fbc 19ab 893c bdd1 23bd bd2b ce3b
00000120: aa84 523c 38bd 72bb cbe8 b1bc 5965 06bd
00000130: e867 ac39 71ab b53b 7741 05bd 84e7 19bd
00000140: da8f f4bc cc92 a4bb 29fc 123c bd18 a6bc
00000150: a3e4 bd3c abd9 fcbc 0f1a 9c3b 261f 14bd
00000160: 8c15 fcbc 692d 9abc 069b 5abb 04bd a13c
00000170: 2737 23bd 476a 123b 3e7c 27bc 4141 e4bc
00000180: ffbc b7bd 4e7b 973c 389d b3bd 7919 f93c
00000190: c875 06bd c743 803e 25e4 5a3e 0f4f 23bf
000001a0: 6ddd de3e c378 ce3c ba3e 68bc c0ea 493e
000001b0: c2ab 5d3f 1b39 903f f077 853b fb9d 23be
000001c0: 1376 c83f 0705 f1bf e2b9 a5bc 97ac 8abe
000001d0: ae9d 8a3e bc18 5a3e f495 e73e a8c4 a63e
000001e0: a4fd a43e 9d25 c83e 129f 683e dd92 103e
000001f0: f633 8cbd c2e8 793e cb1e 0d3f 9551 1c3f
00000200: b6b4 1dbe 4078 0a3d 1de0 91bd 92ac a03d
00000210: 076d c63b a431 353e 96db 5a3e 47e5 10bf
00000220: ffdc 8d3e c75c 323d c3ea 0bbd 46fe 053e
00000230: 2d7c 6f3f 8431 803f 5934 b6bd aa16 d9bd
00000240: 05fb ba3f 6d55 cbbf 8106 303d 5852 e9bc
00000250: 828f 8d3e 48f1 793e b97f b93e 9114 843e
00000260: 9c2b 963e b0ef cf3e 18eb 7e3e 1db0 5d3e
00000270: c365 30bd 04ab 7d3e a7f6 ad3e a137 0e3f
00000280: 711b c3bd 7e33 d93c 598b c5bd a788 8e3d
00000290: 4572 9bbc 55e7 823e a274 503e 8c14 2dbf
000002a0: 8fd5 c13e 5913 06bc 7754 56bd 099d 803e
000002b0: a6dd 6c3f 49ff 963f 2286 51bd aa7e 21be
000002c0: 7fe8 b73f c58e d2bf 063e ac3b 1fb6 e6bd
000002d0: 7866 923e 87a1 6d3e d1ca fe3e 66e3 af3e
000002e0: ecd6 9b3e 737e cb3e cd50 863e 5cc1 263e
000002f0: 0e0b 8fbd 60bb 5a3e 5115 ce3e 02ad 0e3f
00000300: 4331 373e fd03 7f3c 8ef7 cc3d 171c 92be
00000310: 53e3 a93d 370d 443e ec65 883d 788f ba3c
00000320: 13a9 553d 0555 54bb 98ca 9d3d 99c5 ae3d
00000330: 8758 753d bf52 973e b6bc b03d ae07 b9bd
00000340: 90ba 72be 9dfc 0fbf 40e9 19bd 86f1 f9bc
00000350: a5e5 be3d 5a5b 3e3d 36d9 a13e 284c bd3d
00000360: eb03 f53c 39f9 7c3e 8004 253e 5e74 5b3e
00000370: b2dc 59bd 74fd f83d 628c a23d 524d 993e
00000380: 490a 11bd 28da fc3b 9072 e0bc fc22 f53b
00000390: 3a80 62bc d424 ce3c 3d3d b1bc c115 b0bb
000003a0: c0d4 4abc 7f8e 6e3c 8e85 23bd 8810 48bc
000003b0: 4499 e3bc cef7 e03b 0e6a 5f3c 73a7 54bc
000003c0: a015 403c 95ef 5e3b ab6f b0bc b39d 993b
000003d0: 0d0f a9bc 87ac 493b 11f2 02bd 4efd e43a
000003e0: 6c11 1dbb e22b 203d 8c83 a73c 8198 093d
000003f0: e6cd 06bc 25a2 85bc 276f bb3a 5a96 7bba
0.06973329 -0.03605932 0.061054114 0.36426 0.09102527 0.019708209 0.07064508 0.63637584
-0.16559939 0.112369165 0.04083104 -0.05313416 -0.17431289 -0.5241465 0.103213444 0.12045549
-0.79248524 1.628601 0.031480707 0.23642255 -0.074267045 0.100441605 -0.16790019 -0.043585755
-0.048481215 0.014537803 0.036100425 0.037966736 0.14023256 0.09547399 -0.27230135 -0.12122509
-0.16422068 0.0014621787 -0.22502737 0.071949415 -0.17967165 0.17623925 0.17287305 -0.69115835
0.33609247 0.067085676 -0.26081464 0.16309644 0.97112477 1.0129346 -0.094261386 -0.3321545
1.4789778 -1.5899514 -0.014310331 -0.17339104 0.23676804 0.2757498 0.34358183 0.28038558
0.30933338 0.43517053 0.23960508 0.11338951 -0.19164513 0.18199146 0.46941775 0.5581832
0.009392396 -0.026625283 0.033619564 -0.007553381 -0.017508436 0.016805219 -0.039994944 0.006291835
0.012849012 -0.0037039053 -0.02171745 -0.032811496 0.00032883813 0.005544119 -0.032533135 -0.037574306
-0.02985375 -0.0050223824 0.0089712525 -0.020275468 0.023180312 -0.03086551 0.0047638486 -0.036162518
-0.030771993 -0.018820481 -0.0033356561 0.01974345 -0.03984752 0.0022341178 -0.010222493 -0.027863147
-0.08971595 0.018491413 -0.087702215 0.030407654 -0.03282717 0.2505171 0.21376093 -0.6379251
0.4352831 0.025204068 -0.014175111 0.19718456 0.86590207 1.1267427 0.0040731356 -0.15978234
1.5661033 -1.8829659 -0.020230237 -0.270848 0.27073425 0.21298498 0.45231593 0.32571912
0.32224762 0.39091197 0.2271693 0.14118524 -0.06845848 0.24405196 0.5512511 0.61061984
-0.15400967 0.033806086 -0.07122824 0.07845415 0.0060554775 0.17694718 0.21372828 -0.5659985
0.2770767 0.04354551 -0.034159433 0.13085279 0.9354885 1.0015111 -0.08896703 -0.10600026
1.4607855 -1.5885445 0.042974953 -0.028481647 0.2764855 0.24408448 0.36230257 0.2579694
0.29330146 0.40612555 0.24894369 0.21649213 -0.043065798 0.24772269 0.33977243 0.5555363
-0.095267184 0.026513811 -0.09645719 0.06959658 -0.018975386 0.25567117 0.20356992 -0.6760948
0.37858245 -0.008183324 -0.052326646 0.25119808 0.9252571 1.1796657 -0.05115331 -0.15770975
1.4367827 -1.644982 0.005256417 -0.112652056 0.28593802 0.23206149 0.49764112 0.3435318
0.3043741 0.3974491 0.2623352 0.16284698 -0.069845304 0.2136054 0.40250638 0.5573274
0.17889886 0.015564916 0.10008155 -0.28537056 0.08295312 0.19145666 0.06660065 0.02277349
0.052163195 -0.0032399308 0.07704657 0.085337825 0.05989888 0.29555318 0.08629744 -0.09034668
-0.2370398 -0.5624483 -0.03757596 -0.030510675 0.09321145 0.04647384 0.3161103 0.09243041
0.029909095 0.24704446 0.16114998 0.2143111 -0.053188987 0.12157717 0.07936932 0.29941803
-0.0354102 0.007716436 -0.027398378 0.007480977 -0.013824517 0.025164045 -0.021635646 -0.005373687
-0.012379825 0.014560341 -0.03992229 -0.012210973 -0.027783044 0.006865478 0.013636125 -0.012979376
0.011723906 0.0034017314 -0.021537622 0.0046879887 -0.02063706 0.0030773 -0.031969134 0.001747051
-0.0023966683 0.03910435 0.020448469 0.033592705 -0.008227801 -0.016312668 0.0014300094 -0.0009597294

fc3.bias f4 [64]
00000000: f41b 593e 0706 3a3e ed46 17bc 2b33 363e
00000010: 74e2 183e daea 3c3e e9b7 c4bc 5392 be3c
00000020: 33a2 d73c d645 0e3d e4d7 613e 1473 243e
00000030: 028d 0f3e b3fd 03be afc9 573e 00b2 2b3e
00000040: 4bd9 213e 439d 3f3e afbd 353e 777b 143e
00000050: cd1d 223e 2df3 5a3e 1728 193e 2386 553e
00000060: 83ab 6b3e 33b8 173e 002e b33d dde6 8cbd
00000070: 0526 8ebb 8074 773e b397 013e 1301 513e
00000080: f1d9 2d3e cf3e d83b 2965 94bd 6e4c 65bd
00000090: ad31 72bb 92e8 cbbd 89cd 573d 72ac 153e
000000a0: ed6c 4a3e 0c39 cd3c 8fdf 42bb 4961 b5bc
000000b0: 6c50 cbbd ba93 223c b37b 803e 06d8 1d3e
000000c0: 31bf d73d 4695 fd3d 89ae 683e 2e94 183e
000000d0: 2f41 133e e48e 0e3e aca8 153e f181 633e
000000e0: 2897 943d a822 173c c1f7 513e 4bef 443e
000000f0: 1756 253e d4b9 9a3a bfc3 363e 17df d13d
0.2120207 0.18166362 -0.009233219 0.17792957 0.14930135 0.18448964 -0.024013476 0.023263132
0.02632246 0.03473457 0.22055012 0.16059524 0.14018634 -0.12889747 0.2107303 0.1676712
0.15805547 0.18712334 0.1774814 0.14500223 0.1583168 0.21381827 0.149567 0.2085195
0.23014645 0.1481636 0.08749008 -0.06879971 -0.0043380284 0.24165535 0.12655525 0.20410566
0.1697767 0.0065992842 -0.07245857 -0.055981092 -0.0036955879 -0.09956469 0.052686248 0.14616564
0.19768114 0.025051616 -0.0029735302 -0.022141116 -0.09927449 0.009922916 0.25094375 0.15414438
0.10534514 0.12381987 0.2272283 0.14900276 0.14380334 0.13921696 0.14615124 0.22217537
0.07255393 0.009224571 0.20504667 0.19231908 0.16146122 0.0011804649 0.17848109 0.10247629

fc4.weight f4 [12, 64]
00000000: 06b8 b33e 8219 9fbe 7c9d 4b3b 5121 8bbe
00000010: 3855 62be d623 87be 5185 4bbd e05e 4f3c
00000020: 343a 643e f638 cfbb f85a b83e 8892 6cbe
00000030: 4e99 adbe abb8 7b3d 73e1 6abe 9af6 583e
00000040: be55 8bbe 150b 65be f0c4 58be d639 bebe
00000050: a752 8abf b7fb 723e 7605 8fbe ef76 ab3e
00000060: a11f 5ebe ef5a 663e 39a2 8bbe 6ff9 1b3d
00000070: da4c 223c 9995 d7be 0234 90be cbdf 7abe
00000080: 0462 e23e 4207 43bc 5680 8e3d 4289 a53d
00000090: eff9 073c 436c 0f3d 75b8 88be ab92 57be
000000a0: 68a1 90be e0af 52bc 7d2e d3bc 897e bf3c
000000b0: 872e bd3d 2229 053c be31 9e3e 0e3a babe
000000c0: ecbb 92be ab44 94be ef15 52be cdd9 84be
000000d0: 4fb0 773e 4e93 633e 68db 06bf 0a84 e5be
000000e0: f799 09bf a0fc a6bc 4060 7cbe 430d 983e
000000f0: d3b5 b6be ae5b 643b 8d94 823e c807 75be
00000100: 0096 1b3f bf00 8cbe d5a0 283b 6fe7 8bbe
00000110: 0d61 6bbe ad20 75be fc3b 8bb9 ca3c d9bc
00000120: af46 b6be 456f e3bc f50f b43e 19cc 6abe
00000130: 728e 94be bc52 0e3d 843e 84be 577b c13e
00000140: ed12 9bbe c270 3bbe 70de 64be 9f89 2fbe
00000150: f6ae 07bf 4097 473e 8d06 98be 6032 9d3e
00000160: 2491 68be 9fbc 4b3e 921b 7dbe 2317 0b3d
00000170: 1341 ae3c 73d5 a7be 9e55 5fbe 22d3 8ebe
00000180: dceb b53e ea1b f33b 4580 493d ac68 cebc
00000190: 1299 d9bc 9411 8c3d 4717 a0be 924e 50be
000001a0: 66bb 9abe ad3e 07bb 4ac5 6cbc 0cbd 78bb
000001b0: 5070 a03d 91da 81bb f68d a13e 7586 81be
000001c0: 2073 9cbe c880 b2be 8e73 8fbe 86f7 5fbe
000001d0: 37c0 753e 7a2b e83d 1eae 41bf 2c92 98be
000001e0: 8c6e 07bf 1efa 7c3c d66a 9cbe da1c 903e
000001f0: 80f5 b6be 35fb e83c 3fe3 1e3e 52a8 41be
00000200: f4ec b63e b797 a6be 5701 933c c4ce 7cbe
00000210: b8cd 40be 750a 77be bb89 44bd d045 c13c
00000220: 1d16 49be 31e5 7ebc 94d2 823e 4cf9 71be
00000230: ea6a 93be e73c 343e 8de7 81be 1b9a d73d
00000240: 11c2 97be 72e9 5abe b9e2 52be 7759 7ebd
00000250: 4268 59bf 291c 9b3e 3858 8dbe d9a9 653e
00000260: 143b 34be d7e6 aa3e cfd2 82be bd79 063d
00000270: c0ce 2e3c 921d 14bf 4d5d 81be 0af4 76be
00000280: 5748 3c3e e8cd 04bc e9fb 613d 9240 c23c
00000290: d45e 24bc beba 083e 22a3 83be d358 4dbe
000002a0: f4d7 82be 82b2 c0bc 1fe9 a63c ff05 7a3c
000002b0: 3a20 843d 0a59 9d3c f243 1f3e 8da2 10bf
000002c0: ec83 92be 83d6 9bbe e080 8fbe c0a2 52be
000002d0: 41bc c23e b5d9 143e 996e d7be 3634 bcbe
000002e0: 1aa6 20bf e79e 9e3c ca4d 91be 3963 773e
000002f0: 619c a6be 220f 8fbb bbc8 f53d 74f5 50be
00000300: 1e5b a33e 3ba4 a0be 92aa 68bc 2e77 7fbe
00000310: 1079 40be f740 6abe 9783 633d 67e9 9e3c
00000320: 0502 f5be 8250 693b 4adc 933e 3815 8abe
00000330: 3c07 a5be e362 963d e179 82be 759d 123e
00000340: c288 7cbe c05a 2abe 58b4 69be b0a4 37be
00000350: aead 38bf a34c 083e ab10 70be f684 603e
00000360: d03b 6abe cc92 c63e 5019 77be 4711 84b9
00000370: db3d c4bc 5b78 fcbe 5d92 7bbe a3f0 88be
00000380: 4657 8f3e 9bbe 9a3c 0139 4a3d 587f 503c
00000390: 754a 6ebb 2726 813d e330 93be 1bb4 71be
000003a0: b58e 5fbe 460f 93bc a348 bb3c bea8 1f3c
000003b0: 016d 813d 464b 563c 1ec3 733e b112 ebbe
000003c0: 0108 a2be 5d6d a8be 6bd0 81be aa04 6cbe
000003d0: 309b 923e b44b 063e 95b6 1dbf 4a22 90be
000003e0: a3a0 f6be ef4e e13c d93b 7bbe b0d2 c83e
000003f0: d132 a2be 7696 543c 9d5f 353e e8f7 6ebe
0.35101336 -0.31074148 0.003106921 -0.27173856 -0.22102821 -0.26394528 -0.049687687 0.012656897
0.22287828 -0.006323929 0.36006904 -0.23102772 -0.33906025 0.06145541 -0.22937565 0.21187821
-0.27213854 -0.22367509 -0.21168876 -0.371535 -1.0806473 0.23728834 -0.27933854 0.33489177
-0.21691753 0.22495626 -0.27272204 0.038079675 0.009906018 -0.4210632 -0.2816468 -0.24499433
0.44215405 -0.011903586 0.06958072 0.080828205 0.008299335 0.035015356 -0.2670323 -0.21052043
-0.28248143 -0.012859315 -0.025779003 0.023375766 0.0923739 0.008127483 0.30897325 -0.36372417
-0.28658998 -0.2895864 -0.2051618 -0.2594742 0.2418835 0.22224161 -0.5267854 -0.448273
-0.53750557 -0.020384133 -0.24646091 0.29697618 -0.35685596 0.0034844684 0.2550396 -0.2392875
0.60775757 -0.2734432 0.002573063 -0.27325007 -0.2298624 -0.23938246 -0.00026556838 -0.026518244
-0.35600802 -0.027763018 0.35168424 -0.2292942 -0.29014927 0.03474687 -0.25828946 0.37789413
-0.30287877 -0.18304732 -0.22350478 -0.17142342 -0.53001344 0.19491291 -0.29692498 0.30702496
-0.22711617 0.19896172 -0.24717548 0.03395761 0.021271264 -0.32780036 -0.21810004 -0.27895457
0.3553151 0.007419099 0.049194593 -0.025196396 -0.026562247 0.0683929 -0.3126776 -0.20342472
-0.302211 -0.0020636723 -0.014451334 -0.0037954478 0.07833922 -0.0039628227 0.3155362 -0.25297895
-0.30556583 -0.34863877 -0.2801785 -0.21871766 0.23999105 0.113364175 -0.75656307 -0.2979902
-0.52903056 0.015440492 -0.3055026 0.28147012 -0.35734177 0.028440097 0.15516375 -0.18911865
0.35727656 -0.32537624 0.017944975 -0.2468825 -0.18828475 -0.24125083 -0.047982913 0.02359286
-0.19637342 -0.015557573 0.25551283 -0.23630255 -0.28792506 0.17601357 -0.25371972 0.1052744
-0.29640248 -0.21378115 -0.205943 -0.06209704 -0.8492471 0.30294922 -0.27606368 0.22428073
-0.17600662 0.33379242 -0.2555146 0.032830942 0.01066941 -0.5785762 -0.25266495 -0.24116531
0.1838697 -0.0081057325 0.05517188 0.02371243 -0.010032374 0.13352486 -0.25710398 -0.20053415
-0.25555384 -0.02352262 0.020374833 0.015260219 0.06451459 0.019207496 0.15553263 -0.5649803
-0.28616273 -0.30437097 -0.2802801 -0.20569897 0.3803425 0.14536174 -0.42076567 -0.36758584
-0.6275345 0.01936288 -0.2837966 0.24158944 -0.32541183 -0.0043658176 0.12001177 -0.20406133
0.31905454 -0.31375298 -0.014200823 -0.24947807 -0.18796182 -0.22876345 0.055545416 0.019398404
-0.47853103 0.0035600965 0.28879005 -0.26969314 -0.32232082 0.0734308 -0.2548361 0.14317878
-0.24661544 -0.16636181 -0.22822702 -0.17933917 -0.72140014 0.13310485 -0.23443858 0.2192572
-0.22874379 0.38783872 -0.2413075 -0.00025189875 -0.023955276 -0.49310574 -0.24567552 -0.2674609
0.27996272 0.018889716 0.04937077 0.012725674 -0.0036360298 0.06306105 -0.28748235 -0.23603861
-0.21831782 -0.017951619 0.022861784 0.009744821 0.06319619 0.01307947 0.238049 -0.45912698
-0.31646731 -0.32895938 -0.25354323 -0.23048654 0.28634024 0.13114816 -0.61606723 -0.2815116
-0.4816943 0.027503459 -0.24534549 0.39223242 -0.31679395 0.012975326 0.17712255 -0.23336756

fc4.bias f4 [12]
00000000: 6bf3 a2bd f48b 0b3e 62ef a3be 3e79 efbd
00000010: 0227 4e3e 2efa d3bd cd08 8fbd 1bd6 b3bd
00000020: 5ba2 27bd 06d4 33be 4506 bcba 62d3 03be
-0.079565845 0.13627607 -0.32018572 -0.11693047 0.20132068 -0.10350452 -0.069841005 -0.08781072
-0.04092632 -0.1756135 -0.001434513 -0.12873605
