model.pt_episode_1000.pt (torch, 182504 bytes, 8 tensors)

fc1.weight f4 [64, 5]
0.21994616 0.4285014 -0.16405064 -0.3878578 0.27866825 0.36746395 -0.20392247 0.16886702
-0.15014474 0.20877272 -0.30110058 -0.036901068 -0.112061635 0.26389948 0.30516583 0.44942307
0.02249608 0.36874446 0.001634978 -0.35203272 -0.17084055 -0.2787806 0.30077702 -0.21031983
0.27944484 -0.085005805 0.29707733 -0.19786292 -0.32826015 -0.3135654 0.054771636 -0.14023688
-0.20135945 0.28089136 0.3418471 -0.2392354 0.40369284 0.007883571 0.18205717 0.040856816
-0.030177508 -0.15391499 -0.0354297 0.040929954 -0.2677828 0.24641398 0.35957035 0.20019376
0.043007758 -0.17911191 0.3842478 -0.43066552 0.36310774 0.40586478 0.23372717 0.47017846
-0.07866981 0.016478492 0.09758769 0.045717683 0.51311135 0.0020987827 -0.35267147 -0.05033234
0.21233615 -0.1841438 -0.34155348 0.033260647 -0.13603558 0.32820365 0.20592631 0.3290436
0.13242176 -0.17826706 -0.34916368 0.17748773 0.16883108 0.08233515 0.02024458 -0.12043321
0.0039966325 0.05910607 -0.3014286 0.08903355 0.12988943 -0.08547852 0.29278564 0.29540125
-0.36808494 0.19083399 0.20976165 -0.3522794 0.30359253 -0.14285098 0.049667757 -0.18350556
0.40123427 -0.23602982 0.18697788 0.2590437 -0.06899639 -0.061895695 0.19311558 0.41416776
0.26328903 0.437165 -0.073881246 0.18447797 -0.40988246 0.32053968 0.039375555 0.17112546
0.33511353 -0.030361814 -0.34683356 -0.13692285 -0.1711753 0.08371576 -0.007974498 0.09143075
0.36409765 -0.07680998 0.26548427 -0.1800723 0.025892435 -0.0045219758 -0.13039495 0.33664268
-0.2266905 0.19390045 0.13796894 0.101800576 -0.36348024 -0.20449968 -0.05149637 0.072468705
0.25654852 0.17208691 -0.36798614 -0.063749194 0.0073722918 -0.31346384 0.061430465 0.39133477
0.27911207 0.17577 0.04317557 0.29035497 -0.23617025 -0.056780268 -0.28605247 0.021713736
-0.29491013 0.34749055 0.19068721 0.101315506 -0.18306048 0.3675197 0.296267 -0.30420575
0.34513694 0.2777385 -0.02314256 -0.16543733 0.3605794 0.002949108 -0.17698972 -0.36185598
0.2586165 0.17670766 0.31892505 0.34987304 0.2108491 0.09701054 0.13889454 -0.27493635
0.07218458 -0.1579104 0.08735023 -0.31477836 -0.18305084 -0.049910497 -0.2586787 0.11811976
-0.3566848 0.34502468 -0.20016907 -0.17325 -0.33635035 0.36370027 0.3313647 0.4210404
0.060336966 0.25657916 -0.31417575 0.40369982 -0.17412928 0.00021427781 0.15226445 -0.013345781
-0.16261588 0.18298747 -0.3300725 0.35096648 -0.020469196 0.28842828 0.22156337 -0.17428493
-0.3646877 0.23722085 0.27836868 0.17326035 -0.28979567 0.4460097 0.040057957 -0.32956636
-0.31363767 -0.26982203 0.025837429 -0.035287783 0.2132745 0.45504767 -0.045702785 0.3313929
-0.28016582 -0.003220169 -0.23944521 -0.05171804 0.09222169 -0.018435523 -0.2809144 -0.36484587
0.04266352 0.070818886 -1.8915418e-05 0.33759293 -0.16107078 0.08419834 0.13076617 -0.325323
0.31827447 0.19438832 0.15812497 -0.21692641 0.10555002 -0.00851828 -0.109221876 -0.26891413
0.12849145 -0.11605707 0.11189441 0.39038044 0.43029878 -0.16711852 0.016525293 -0.16688707
00000000: 9139 613e 8964 db3e e4fc 27be 4c95 c6be
00000010: 9bad 8e3e 3c24 bc3e 0dd1 50be 7aeb 2c3e
00000020: 8bbf 19be 84c8 553e db29 9abe 9325 17bd
00000030: 9280 e5bd d51d 873e b23e 9c3e c81a e63e
00000040: b349 b83c 13cc bc3e c24c d63a a23d b4be
00000050: d3f0 2ebe 55bc 8ebe 72ff 993e 155e 57be
00000060: 6513 8f3e 8617 aebd 851a 983e 949c 4abe
00000070: b711 a8be a58b a0be 3958 603d 429a 0fbe
00000080: 2c31 4ebe fed0 8f3e 9506 af3e 20fa 74be
00000090: d4b0 ce3e 182a 013c 326d 3a3e 7a59 273d
000000a0: d236 f7bc e49b 1dbe bc1e 11bd 2ba6 273d
000000b0: d41a 89be f253 7c3e 9b19 b83e 98ff 4c3e
000000c0: e728 303d 1d69 37be 21bc c43e 3180 dcbe
000000d0: 42e9 b93e 82cd cf3e 2d56 6f3e 3bbb f03e
000000e0: a31d a1bd e7fd 863c 0edc c73d 7742 3b3d
000000f0: 445b 033f bb8b 093b 5b91 b4be 4929 4ebd
00000100: a66e 593e 3190 3cbe 19e0 aebe 513c 083d
00000110: e94c 0bbe 4f0a a83e 59de 523e 6778 a83e
00000120: 9299 073e a48b 36be 95c5 b2be 58bf 353e
00000130: 0ee2 2c3e 559f a83d f6d7 a53c b0a5 f6bd
00000140: 2ff6 823b 3519 723d d954 9abe 3957 b63d
00000150: bc01 053e 5d0f afbd 00e8 953e d53e 973e
00000160: a175 bcbe fc69 433e c2cb 563e f75d b4be
00000170: 7b70 9b3e 8747 12be 6b70 4b3d e2e8 3bbe
00000180: 946e cd3e cdb1 71be 2177 3f3e 60a1 843e
00000190: fb4d 8dbd 5786 7dbd 17c0 453e cc0d d43e
000001a0: d2cd 863e 17d4 df3e 0d4f 97bd cbe7 3c3e
000001b0: 1ddc d1be c71d a43e 4348 213d 833b 2f3e
000001c0: 0094 ab3e 57b9 f8bc 2b94 b1be 8135 0cbe
000001d0: 9448 2fbe 2b73 ab3d 78a7 02bc 0c40 bb3d
000001e0: 026b ba3e 8d4e 9dbd 8eed 873e df64 38be
000001f0: 5f1c d43c 152d 94bb 4186 05be 6e5c ac3e
00000200: 8e21 68be d78d 463e bb47 0d3e d27c d03d
00000210: 151a babe 5d68 51be dced 52bd 796a 943d
00000220: 545a 833e 8d37 303e ae68 bcbe f08e 82bd
00000230: 4493 f13b 557e a0be 839e 7b3d 085d c83e
00000240: c7e7 8e3e 0dfd 333e ded8 303d 68a9 943e
00000250: 9dd6 71be 6d92 68bd 7875 92be 01e1 b13c
00000260: 76fe 96be 48ea b13e 8243 433e 817e cf3d
00000270: 3574 3bbe 8b2b bc3e 4fb0 973e dbc0 9bbe
00000280: cab5 b03e be33 8e3e 7795 bdbc 6768 29be
00000290: dd9d b83e d245 413b cb3c 35be 3045 b9be
000002a0: 6269 843e daf2 343e 254a a33e 8f22 b33e
000002b0: d4e8 573e 76ad c63d 5f3a 0e3e 75c4 8cbe
000002c0: 82d5 933d 44b3 21be ade4 b23d a12a a1be
000002d0: ae71 3bbe f36e 4cbd 8971 84be c6e8 f13d
000002e0: 649f b6be 13a7 b03e 1ff9 4cbe 7368 31be
000002f0: 1d36 acbe ec36 ba3e a2a8 a93e 9b92 d73e
00000300: e523 773d 585e 833e a5db a0be beb1 ce3e
00000310: f24e 32be c3af 6039 36eb 1b3e 43a8 5abc
00000320: c784 26be 1161 3b3e 43ff a8be e1b1 b33e
00000330: 04af a7bc dfac 933e 82e1 623e c077 32be
00000340: 59b8 babe 06ea 723e 5786 8e3e 296b 313e
00000350: 1960 94be 625b e43e d013 243d ecbc a8be
00000360: 1e95 a0be 1d26 8abe 04a9 d33c ec89 10bd
00000370: a164 5a3e 02fc e83e d832 3bbd 55ac a93e
00000380: e571 8fbe 7909 53bb 2031 75be 4cd6 53bd
00000390: bade bc3d 1806 97bc 03d4 8fbe 14cd babe
000003a0: f1bf 2e3d 7e09 913d 8dac 9eb7 fbd8 ac3e
000003b0: bdef 24be 2e70 ac3d 91e7 053e bc90 a6be
000003c0: dff4 a23e bb0d 473e 83eb 213e f521 5ebe
000003d0: 9c2a d83d 4290 0bbc b8af dfbd 1daf 89be
000003e0: 4393 033e 54af edbd e528 e53d f2df c73e
000003f0: 1f50 dc3e 1e21 2bbe 0d60 873c 72e4 2abe

fc1.bias f4 [64]
-0.16360791 -0.015909912 -0.12522063 0.08251105 0.37480617 0.038816825 0.3705401 -0.21474403
-0.12402524 0.02757164 -0.14620624 -0.14000799 -0.14895873 0.06977802 0.189017 0.32135633
0.022084193 -0.34253106 0.3313521 -0.074670844 0.21506277 -0.19867876 0.39354905 -0.225618
-0.101674736 -0.1480162 0.19901706 0.26320028 0.3707816 0.13723654 0.36506802 -0.0026238356
-0.3259719 0.28842136 0.3712093 0.35724482 -0.3256771 -0.3704803 -0.10232034 -0.37422556
0.27598837 0.086343415 -0.17958054 0.0100849075 0.4474549 0.08592392 0.17637509 0.06093509
0.19181454 -0.2728882 0.024624499 -0.16683187 -0.19085884 0.060643267 0.110861376 -0.34713972
0.08950184 -0.36576077 0.24183473 0.36937603 -0.2484475 -0.18360169 -0.030759437 -0.0042500934
00000000: d588 27be 8155 82bc d639 00be 8efb a83d
00000010: 98e6 bf3e 64fe 1e3d 6fb7 bd3e dce5 5bbe
00000020: f200 febd ecdd e13c 17b7 15be 415e 0fbe
00000030: a388 18be c7e7 8e3d ac8d 413e d188 a43e
00000040: e9e9 b43c 3b60 afbe fca6 a93e 07ed 98bd
00000050: 6a39 5c3e 7272 4bbe 437f c93e 6808 67be
00000060: d83a d0bd 8f91 17be 21cb 4b3e 30c2 863e
00000070: 16d7 bd3e bc87 0c3e 32ea ba3e a8f4 2bbb
00000080: cae5 a6be f7ab 933e 250f be3e cbe8 b63e
00000090: 26bf a6be 98af bdbe 548d d1bd 7e9a bfbe
000000a0: 594e 8d3e d1d4 b03d f6e3 37be 2b3b 253c
000000b0: cf18 e53e e1f8 af3d ac9b 343e 1397 793d
000000c0: 086b 443e 01b8 8bbe 51b9 c93c f9d5 2abe
000000d0: 8070 43be 1365 783d 4a0b e33d 4cbc b1be
000000e0: be4c b73d ff44 bbbe 86a3 773e db1e bd3e
000000f0: 0569 7ebe 1502 3cbe 37fb fbbc 5e44 8bbb

fc2.weight f4 [128, 64]
-0.20772092 0.16997965 -0.16351175 0.067415856 0.10711445 0.03001557 0.061369352 -0.09287781
0.06897733 0.046572868 0.18617004 0.060500473 0.047467228 -0.09187198 -0.11421829 0.02629668
0.025647284 -0.25918245 0.26173362 -0.16935997 0.067026846 0.13698584 -0.033504132 -0.035677668
0.14087893 0.20612445 0.023423817 -0.14099087 0.17508554 -0.04846751 -0.030900216 0.18257466
-0.10264837 -0.078418836 0.08993442 0.022390332 0.019076703 0.18130276 -0.08118669 0.06897855
0.17606002 0.005292791 -0.06383436 -0.100125 -0.124124646 0.070694976 -0.08861937 0.0965433
-0.09964532 0.086562485 -0.12401761 0.044988677 0.010545684 -0.0976336 0.014810837 -0.07054362
-0.09017785 0.18639119 0.08469182 0.089657724 0.042600688 -0.10028413 0.079098634 -0.17710897
-0.0038221595 0.1029417 0.06298262 -0.023814276 0.091017246 0.040873732 -0.02281922 0.07017704
-0.08730386 0.014807968 0.05462248 0.022889439 0.1276651 0.087882385 -0.10974067 -0.016428748
0.086005814 -0.08503286 0.34456423 -0.04091737 -0.006866701 0.014396262 -0.10799797 -0.05552516
-0.019914184 0.19206046 -0.016428797 0.06528989 -0.011185338 -0.040271606 0.107590124 -0.0673238
-0.080012076 0.17234133 0.04580434 -0.10094644 0.00192916 0.06285956 -0.069578506 0.019460713
0.29512268 -0.0688532 0.08906062 0.0424148 0.08822923 -0.09122886 -0.058396183 -0.0399658
0.027579993 0.04247222 0.049445327 -0.08064663 0.029407438 -0.041770842 -0.02143715 -0.042965904
0.031031322 0.08510453 0.008199229 0.23452568 -0.08358905 -0.018479211 0.056453258 0.06597893
0.024597954 -0.10000284 -0.045897648 -0.046525754 0.023054857 0.022777308 -0.08750933 -0.097104296
-0.021214943 -0.042996705 -0.07486252 -0.07922847 0.01859784 -0.0608787 -0.008106007 0.082919665
-0.07121054 0.04357697 0.038548555 0.063211836 -0.098399594 -0.08953168 0.08715615 -0.004480518
0.04044069 -0.04810851 -0.07407182 0.09119324 0.015703468 -0.063741125 -0.090411946 -0.061138473
-0.038874324 0.09474599 -0.022945825 0.09145877 0.02226283 -0.0015702506 0.07974457 -0.026488435
-0.073359974 0.008157953 -0.08860424 -0.0991285 -0.09771904 -0.0062246164 0.015915168 -0.066110335
-0.047622867 0.040547755 -0.062367134 -0.0050382237 0.0026261392 0.044451624 0.023395602 0.09794767
0.021403003 0.09347285 -0.08475304 0.04202325 -0.09851031 0.07530043 0.03509077 -0.0060902378
-0.038518768 0.07328948 0.09211276 0.08998977 0.0037542651 0.027814668 -0.091019616 -0.08276761
-0.01802258 -0.0046546976 0.042115048 0.083189264 -0.097735584 0.046520658 -0.03648978 -0.090101615
0.050601356 -0.04294329 -0.034124043 -0.10260193 0.017126067 -0.049417652 0.06004911 -0.004252381
-0.007141336 -0.04335972 -0.00049717625 -0.085776135 0.046012253 -0.029282968 -0.028808307 -0.019101663
-0.10246256 0.08894581 -0.07286178 0.00899051 0.09656496 0.026818272 0.07125399 -0.094034374
-0.086566895 0.04349702 0.05107812 -0.016616954 -0.025119048 -0.007278635 -0.0006696646 -0.092321254
0.07117645 0.009100228 0.083155245 -0.06047339 -0.035410386 -0.044275947 0.0020973047 -0.008453353
0.095193386 0.0014878323 -0.07784151 -0.079493694 -0.09511976 -0.087674186 -0.022965457 -0.028606694
00000000: cbb4 54be 250f 2e3e a06f 27be 5311 8a3d
00000010: d25e db3d 36e3 f53c 6e5e 7b3d b936 bebd
00000020: fd43 8d3d 31c3 3e3d 5ca3 3e3e 58cf 773d
00000030: ff6c 423d 6027 bcbd 47eb e9bd 236c d73c
00000040: 411a d23c 90b3 84be f301 863e b36c 2dbe
00000050: 5f45 893d 0446 0c3e a13b 09bd bf22 12bd
00000060: 9142 103e 4a12 533e 4ee3 bf3c e95f 10be
00000070: a049 333e de85 46bd 7322 fdbc daf4 3a3e
00000080: 4f39 d2bd 0e9a a0bd 8a2f b83d ee6b b73c
00000090: bf46 9c3c 6ea7 393e 3545 a6bd a044 8d3d
000000a0: 1449 343e 266f ad3b 97bb 82bd 560e cdbd
000000b0: 1035 febd 87c8 903d 127e b5bd 7eb8 c53d
000000c0: d812 ccbd ac47 b13d f2fc fdbd 0c46 383d
000000d0: cec7 2c3c 20f4 c7bd 27a9 723c 2c79 90bd
000000e0: 2aaf b8bd 55dd 3e3e e872 ad3d 789e b73d
000000f0: 0f7e 2e3d c461 cdbd 77fe a13d 0e5c 35be
00000100: 327d 7abb 19d3 d23d 08fd 803d 2816 c3bc
00000110: 4067 ba3d 376b 273d 5fef babc fbb8 8f3d
00000120: 5ecc b2bd 1f9d 723c d2bb 5f3d a282 bb3c
00000130: a4ba 023e aefb b33d b7bf e0bd 9595 86bc
00000140: d123 b03d b525 aebd b96a b03e f998 27bd
00000150: 1002 e1bb 4dde 6b3c 0a2e ddbd 5a6e 63bd
00000160: 1223 a3bc 7fab 443e af95 86bc b5b6 853d
00000170: b542 37bc d7f3 24bd 3658 dc3d 0fe1 89bd
00000180: 5fdd a3bd 3f7a 303e 559d 3b3d 02bd cebd
00000190: dedb fc3a 83bc 803d 2d7f 8ebd 136c 9f3c
000001a0: 521a 973e e802 8dbd 6a65 b63d 24bb 2d3d
000001b0: 87b1 b43d 32d6 babd d630 6fbd 2eb3 23bd
000001c0: 70ef e13c 5af7 2d3d 2f87 4a3d 0f2a a5bd
000001d0: dee7 f03c e717 2bbd f69c afbc 04fd 2fbd
000001e0: 6635 fe3c 494b ae3d 0f56 063c 8027 703e
000001f0: bc30 abbd b761 97bc 883b 673d f61f 873d
00000200: a681 c93c 4ace ccbd 2cff 3bbd ca91 3ebd
00000210: 8add bc3c 7a97 ba3c 1738 b3bd 9ede c6bd
00000220: f6ca adbc 501d 30bd 8551 99bd 8942 a2bd
00000230: 7f5a 983c f25b 79bd 0fcf 04bc c9d1 a93d
00000240: d5d6 91bd c47d 323d 17e5 1d3d 3575 813d
00000250: ba85 c9bd 635c b7bd ec7e b23d 4fd1 92bb
00000260: 23a5 253d 6e0d 45bd f7b2 97bd 85c3 ba3d
00000270: 8fa4 803c b58a 82bd e629 b9bd 566c 7abd
00000280: af3a 1fbd 300a c23d e2f8 bbbc bc4e bb3d
00000290: 8a60 b63c ded0 cdba 1f51 a33d 46fe d8bc
000002a0: c13d 96bd efa8 053c 2476 b5bd e203 cbbd
000002b0: ec20 c8bd def7 cbbb 8760 823c db64 87bd
000002c0: 3210 43bd 6715 263d ae74 7fbd af17 a5bb
000002d0: 4e1b 2c3b e812 363d 22a8 bf3c ca98 c83d
000002e0: 5a55 af3c b26e bf3d 0093 adbd 9220 2c3d
000002f0: c6bf c9bd 1d37 9a3d 57bb 0f3d 9e90 c7bb
00000300: dbc5 1dbd cb18 963d 9da5 bc3d 8e4c b83d
00000310: 1e0a 763b 96db e33c 7e68 babd 1182 a9bd
00000320: 17a4 93bc 6f86 98bb d480 2c3d 225f aa3d
00000330: 9829 c8bd 728c 3e3d 4f76 15bd 3287 b8bd
00000340: 5e43 4f3d 4ee5 2fbd a7c5 0bbd f620 d2bd
00000350: f74b 8c3c 2a6a 4abd 0ef6 753d 8f57 8bbb
00000360: de01 eabb f699 31bd ef54 02ba 66ab afbd
00000370: 5877 3c3d d6e2 efbc 66ff ebbc 177b 9cbc
00000380: e4d7 d1bd 3929 b63d 8f38 95bd ef4c 133c
00000390: dac3 c53d feb1 db3c 9ded 913d 1895 c0bd
000003a0: fc49 b1bd ee29 323d 4a37 513d 4720 88bc
000003b0: 76c6 cdbc 9e81 eebb 6e8c 2fba ed12 bdbd
000003c0: f5c4 913d 1f19 153c 4c4d aa3d f2b2 77bd
000003d0: 7b0a 11bd b25a 35bd ef72 093b ef7f 0abc
000003e0: c0f4 c23d 5e03 c33a 5f6b 9fbd 97cd a2bd
000003f0: 26ce c2bd 868e b3bd 0e22 bcbc 9658 eabc

fc2.bias f4 [128]
0.100193076 -0.055181574 -0.06605411 -0.103135705 0.015818713 -0.09643668 0.15387145 -0.07899989
0.09251304 -0.03745943 0.06076406 0.010542285 -0.09880912 0.0028373322 0.029200971 0.11318517
-0.054391563 0.10306171 0.050600473 0.0069835633 -0.016944943 0.07450325 0.12880933 -0.025896192
-0.05746142 -0.036914345 -0.029279545 0.015237474 -0.07080056 0.120164506 0.04081397 -0.024682876
0.008459339 0.060924716 0.016543468 0.13173662 0.06801037 0.08840771 -0.04187862 0.09308215
-0.007248803 0.025256047 0.015902398 -0.04596746 -0.067303985 0.07722201 -0.09782423 0.062074527
-0.014627213 -0.020017155 -0.020043595 -0.08981809 -0.08343076 0.11218054 0.041005652 0.034434255
0.008366346 -0.024427077 -0.025871914 0.03577755 -0.028672155 0.17063077 -0.051495038 -0.04048907
0.0050209383 -0.085977316 -0.018612957 -0.040386792 0.052676562 -0.056960266 -0.071318105 0.0010952642
0.09177499 0.07348025 -0.025137175 0.06743197 -0.058883004 0.06448027 -0.06550502 0.03464433
-0.08122019 0.024602171 -0.051259756 -0.019035162 -0.03217019 -0.05382322 -0.056165792 -0.023681588
0.0022371605 0.033463035 0.08483265 0.09142399 -0.031714592 -0.03958195 0.097056866 0.09000331
-0.09736313 -0.08688408 -0.03770748 0.09230793 -0.054552045 -0.05382416 -0.0024769735 0.044794843
0.08933842 -0.084970295 0.0026746723 0.12294175 -0.04184697 0.055425324 -0.0836248 -0.08456379
0.016514683 0.03108299 0.0583598 -0.02802496 0.050854046 0.09692917 0.11915217 -0.07194719
-0.06727351 0.04183874 0.14891976 -0.02580326 -0.08774178 0.08335484 0.03886808 0.027213102
00000000: 0732 cd3d 1306 62bd 6147 87bd d038 d3bd
00000010: 3f96 813c 9880 c5bd 7a90 1d3e b2ca a1bd
00000020: 7a77 bd3d 0f6f 19bd bce3 783d 8cb9 2c3c
00000030: 705c cabd 89f2 393b e036 ef3c a0cd e73d
00000040: b0c9 5ebd 0512 d33d 7142 4f3d 60d6 e43b
00000050: 1fd0 8abc 2995 983d 98e6 033e 4024 d4bc
00000060: aa5c 6bbd 7f33 17bd a8db efbc 99a6 793c
00000070: e2ff 90bd cf18 f63d 8d2c 273d be33 cabc
00000080: 0a99 0a3c 328c 793d 2b86 873c f7e5 063e
00000090: 0549 8b3d 1a0f b53d ea88 2bbd dba1 be3d
000000a0: 5e87 edbb c5e5 ce3c bf45 823c 6048 3cbd
000000b0: acd6 89bd 9326 9e3d 1258 c8bd dc41 7e3d
000000c0: faa6 6fbc 04fb a3bc 7732 a4bc 8cf2 b7bd
000000d0: bfdd aabd e9be e53d 8bf5 273d ef0a 0d3d
000000e0: 0013 093c 4b1b c8bc 56f1 d3bc 7b8b 123d
000000f0: dee1 eabc d5b9 2e3e 76ec 52bd ded7 25bd
00000100: af86 a43b e014 b0bd 337a 98bc 9f6c 25bd
00000110: 61c3 573d 2b4f 69bd 3a0f 92bd f88e 8f3a
00000120: 87f4 bb3d d07c 963d 7aec cdbc c619 8a3d
00000130: 4e2f 71bd 3b0e 843d 7f27 86bd 37e7 0d3d
00000140: c556 a6bd 7e8a c93c c0f5 51bd a1ef 9bbc
00000150: e4c4 03bd bd75 5cbd 1a0e 66bd e4ff c1bc
00000160: 539d 123b 8910 093d bebc ad3d 803c bb3d
00000170: 29e7 01bd af20 22bd c0c5 c63d a853 b83d
00000180: 5266 c7bd 48f0 b1bd 2973 1abd f10b bd3d
00000190: f771 5fbd b976 5cbd b854 22bb cc7a 373d
000001a0: 10f7 b63d e804 aebd 8e49 2f3b e2c8 fb3d
000001b0: ba67 2bbd aa05 633d 7b43 abbd c82f adbd
000001c0: cd49 873c c1a1 fe3c b00a 6f3d 9a94 e5bc
000001d0: 554c 503d cd82 c63d 0e06 f43d 0c59 93bd
000001e0: b2c6 89bd 195f 2b3d 6c7e 183e 5c61 d3bc
000001f0: f6b1 b3bd f1b5 aa3d 2334 1f3d 03ee de3c

fc3.weight f4 [256, 128]
0.07261789 0.05418302 -0.045766093 0.04157981 -0.024217237 -0.051113244 -0.059746422 0.034017645
-0.07763327 -0.016646633 0.021789799 -0.041844632 0.07401136 -0.050204325 -0.04324907 0.07295104
-0.061594605 0.021162089 -0.032003656 -0.056594893 -0.06127035 0.065649584 0.05386261 0.017877057
-0.034171056 -0.03648648 0.020749891 0.06953744 0.0025966994 0.011225889 0.02773282 -0.03513577
0.050438937 -0.016119143 -0.021287655 -0.020187663 0.043951664 -0.06506334 -0.06409148 -0.03507552
0.00083615247 -0.038714424 -0.07419159 -0.041557517 -0.028488904 0.051979445 0.04802468 0.023132697
-0.013050336 -0.04171514 0.011191502 -0.043008495 0.020598605 0.025847657 -0.036798585 -0.0052481005
0.015912425 -0.022709027 -0.046213 0.06415865 -0.034249157 0.017301774 0.06497356 -0.012152441
-0.000119157194 -0.06262494 -0.06859583 0.023825334 0.06699786 0.055895373 -0.07712656 0.015249528
-0.045809038 -0.054386333 -0.012730116 -0.0063095503 0.030092265 -0.031547375 -0.058734342 -0.004626949
0.016163345 -0.075324476 0.053538077 0.029008605 0.008861226 0.008780905 0.07446941 0.036687363
0.04745533 0.014454059 -0.06160134 -0.014847383 -0.00505652 -0.0024506098 -0.016849706 0.0532676
0.047241602 0.033475436 0.023331283 -0.05230461 -0.038246173 -0.037260834 -0.020440228 -0.041074753
-0.013569143 0.07608703 -0.025960155 0.007308705 -0.04369696 -0.036061365 -0.009071254 -0.027731597
0.027663227 -0.0010927424 0.047030974 -0.010975083 0.040987983 -0.059436873 -0.07247492 0.0013879065
-0.030792281 0.045831457 -0.047304254 0.024447348 0.0054603675 0.06254923 -0.0646354 0.06428355
0.3860455 0.13217083 -0.07398586 0.07217439 0.07035274 0.021829406 0.24097477 0.103553124
-0.06063565 -0.009441504 0.04308531 0.1248132 0.25258228 0.2866408 -0.00527153 0.16250263
-0.073379934 0.07141596 0.12411901 0.07862861 0.0357882 0.050655644 0.28296146 0.010082856
-0.046196237 -0.059404947 0.19020407 0.07462835 0.062037803 -0.037533876 0.045155134 -0.033013124
0.15618725 0.2632673 0.1992409 0.090334415 0.32273382 0.06642884 -0.012431514 0.044574413
0.03172329 0.22979988 -0.0493923 -0.027610779 -0.1813806 -0.0018122324 0.01846613 0.04343422
0.026511883 -0.04648666 0.022785634 0.020941498 0.078135975 0.042832933 -0.018541386 -0.042288132
0.012391267 0.009377417 -0.03624661 -0.05600532 0.0071215304 -0.04007754 -0.024687627 0.07696373
-0.060286306 0.19845706 0.14017417 0.0066332594 0.20753214 0.20070913 -0.1401949 -0.024786469
-0.056048676 0.10150571 0.030663779 -0.06967504 0.096569605 0.08882318 -0.09678719 -0.046464242
0.06627565 0.0090669235 0.047889866 -0.12618583 0.11557488 -0.040816683 0.0064824577 -0.010983871
0.1406639 0.050767504 -0.12321049 -0.06448073 0.037816532 -0.033466432 0.046965625 -0.008733163
0.031227164 0.036062177 -0.0039724708 0.08244306 -0.045853123 0.010179096 -0.052192196 0.21864437
-0.022158507 0.030739304 -0.055605166 0.1296728 0.038964603 -0.023556013 0.058453858 0.06864131
0.35791197 0.2262245 0.030911198 0.027196798 0.061604414 -0.005988549 -0.04021422 0.0013161465
0.057489265 0.016368415 0.2044299 0.09554712 -0.057152882 -0.018857708 -0.044212013 -0.095046446
00000000: b0b8 943d 04ef 5d3d 3a75 3bbd 974f 2a3d
00000010: 3a63 c6bc 1f5c 51bd aab8 74bd 1656 0b3d
00000020: 31fe 9ebd 855e 88bc 8580 b23c 4765 2bbd
00000030: 4593 973d 0da3 4dbd f025 31bd 5b67 953d
00000040: a04a 7cbd 1e5c ad3c 4416 03bd 0cd0 67bd
00000050: 9ef6 7abd 4a73 863d 0a9f 5c3d e872 923c
00000060: f3f6 0bbd d972 15bd adfb a93c a569 8e3d
00000070: 632d 2a3b cbec 373c f02f e33c 86ea 0fbd
00000080: 0f99 4e3d 4b0c 84bc 7363 aebc 9960 a5bc
00000090: a906 343d ee3f 85bd 6542 83bd 59ab 0fbd
000000a0: 3e31 5b3a 0493 1ebd c3f1 97bd 3738 2abd
000000b0: 9061 e9bc 66e8 543d 87b5 443d c880 bd3c
000000c0: 14d1 55bc 7fdd 2abd 905c 373c ad29 30bd
000000d0: 68be a83c 77be d33c 1dba 16bd 42f8 abbb
000000e0: c65a 823c 4808 babc d849 3dbd 9c65 833d
000000f0: d848 0cbd 73bc 8d3c dc10 853d 081b 47bc
00000100: 08e4 f9b8 8141 80bd f87b 8cbd 592d c33c
00000110: 2d36 893d 8cf2 643d 88f4 9dbd 28d9 793c
00000120: 42a2 3bbd 34c4 5ebd fa91 50bc 58c0 cebb
00000130: 0e84 f63c d237 01bd 6c93 70bd a99d 97bb
00000140: fe68 843c b843 9abd be4a 5b3d 74a3 ed3c
00000150: ad2e 113c c9dd 0f3c 6b83 983d 7d45 163d
00000160: 8560 423d b8d0 6c3c b051 7cbd 7042 73bc
00000170: 2ab1 a5bb 699a 20bb 6508 8abc 202f 5a3d
00000180: 6980 413d 8a1d 093d 3f21 bf3c 5c3d 56bd
00000190: 05a8 1cbd d19e 18bd 4472 a7bc 003e 28bd
000001a0: 1c51 5ebc 84d3 9b3d 64aa d4bc dc7d ef3b
000001b0: 95fb 32bd 15b5 13bd 999f 14bc 602d e3bc
000001c0: fe9d e23c 5a3a 8fba 8da3 403d d6d0 33bc
000001d0: 04e3 273d 1474 73bd bb6d 94bd 6aea b53a
000001e0: 1840 fcbc c4b9 3b3d 1bc2 41bd ce45 c83c
000001f0: e2ec b23b d019 803d 915f 84bd 18a7 833d
00000200: c1a7 c53e ca57 073e e685 97bd 2bd0 933d
00000210: 1915 903d 95d3 b23c 17c2 763e a913 d43d
00000220: 165d 78bd 8ab0 1abc 397a 303d 109e ff3d
00000230: 7752 813e 95c2 923e ccbc acbb 1767 263e
00000240: 3848 96bd 8842 923d 1c32 fe3d 0908 a13d
00000250: a696 123d 4b7c 4f3d 53e0 903e 9032 253c
00000260: 4438 3dbd 9a52 73bd dbc4 423e c0d6 983d
00000270: 5a1b 7e3d 1fbd 19bd 97f4 383d c538 07bd
00000280: 8def 1f3e f9ca 863e ce05 4c3e 4001 b93d
00000290: 5e3d a53e d80b 883d 8dad 4bbc a993 363d
000002a0: 48f0 013d a950 6b3e 954f 4abd 0030 e2bc
000002b0: d6bb 39be 6e88 edba 4846 973c 15e8 313d
000002c0: 732f d93c cc68 3ebd f0a8 ba3c 818d ab3c
000002d0: c105 a03d 9671 2f3d 1be4 97bc 5236 2dbd
000002e0: be04 4b3c bda3 193c 5377 14bd d665 65bd
000002f0: ba5b e93b 5928 24bd b53d cabc 299f 9d3d
00000300: c6ee 76bd 5438 4b3e d189 0f3e d05b d93b
00000310: 4e83 543e b286 4d3e 408f 0fbe fe0c cbbc
00000320: 4c93 65bd 3ae2 cf3d 9b32 fb3c cab1 8ebd
00000330: 49c6 c53d ede8 b53d 5d38 c6bd 4a51 3ebd
00000340: 87bb 873d 6f8d 143c 2a28 443d dc36 01be
00000350: 86b2 ec3d 652f 27bd cc6a d43b b2f5 33bc
00000360: 330a 103e 96f1 4f3d c855 fcbd 790e 84bd
00000370: 82e5 1a3d 1914 09bd 075f 403d 8a15 0fbc
00000380: 1cd0 ff3c efb5 133d 802b 82bb e8d7 a83d
00000390: 7cd0 3bbd 39c6 263c 7cc7 55bd 4fe4 5f3e
000003a0: c285 b5bc fed0 fb3c 3ec2 63bd f2c8 043e
000003b0: 5999 1f3d 8af8 c0bc 506d 6f3d d193 8c3d
000003c0: 3d40 b73e 65a7 673e 7b39 fd3c d2cb de3c
000003d0: e954 7c3d 973b c4bb aab7 24bd 8c82 ac3a
000003e0: dd79 6b3d 0e17 863c 1256 513e 35ae c33d
000003f0: 2419 6abd 7b7b 9abc a817 35bd b6a7 c2bd

fc3.bias f4 [256]
0.0081555825 0.083778314 -0.030253366 -0.007866128 0.037854757 0.05372476 -0.026384668 0.072691016
0.06435666 0.09275852 -0.005810039 -0.041461557 0.075708665 0.07681948 0.010980288 -0.044441797
0.046522673 0.03540202 0.06359128 0.0601618 0.08806169 0.045775484 -0.03700951 0.07592535
0.057010863 0.06065098 -0.031086255 -0.04516544 0.041926548 -0.06624539 0.015536223 0.029434646
-0.032950845 -0.033133697 0.081049465 0.066408336 0.09331907 0.049888656 0.059697483 -0.0011437191
0.09170795 -0.06180289 0.02558687 -0.036214087 -0.008189195 0.010466166 0.02726454 0.10062855
-0.021114884 -0.011922154 0.04042349 0.047144283 0.006636168 0.056787536 -0.050159145 -0.07794865
-0.041138146 0.04919059 -0.0037355807 -0.07938868 -0.017167877 -0.03610251 0.04541448 -0.060571313
-0.044766054 -0.029406112 0.06342303 0.0054834215 -0.05241873 -0.03222461 -0.012208503 -0.056441903
-0.0006656556 0.07359594 -0.06861813 0.09126922 0.031486716 -0.011595738 -0.006631879 0.061621085
0.029741667 0.062173948 -0.01002202 0.013903316 -0.057137523 -0.008515611 0.07921053 -0.029594777
-0.037372064 0.07434087 0.022978391 -0.03277447 0.07576469 -0.021726415 0.11196615 -0.0031610515
0.06677533 0.06424664 -0.04097197 -0.02022146 0.04494766 0.1546997 0.038143694 -0.06269451
0.043784577 0.035429116 -0.04535086 0.058354076 0.022358855 0.0495892 -0.0010927109 -0.021628868
-0.004784336 -0.0018840402 0.04581636 -0.0024738258 -0.06680944 0.022065317 0.0034375954 -0.06960189
0.042962257 -0.073401265 -0.05495538 0.046060756 -0.05407008 -0.07431926 -0.041558202 0.051516872
-0.040671278 -0.0059741265 0.08364973 -0.028692218 0.10516095 0.04674256 0.06841519 0.027482837
-0.012224898 0.025497358 -0.040669832 0.012716302 0.054132678 0.070377216 0.13242194 -0.013412965
0.044660717 0.11833639 -0.042861927 -0.012943363 -0.017528018 0.025412824 -0.06975352 0.03011889
0.06614352 0.028410375 0.042060018 0.10111788 0.050012074 0.0066698426 0.047405142 0.03856639
-0.0053731184 0.09612391 -0.0066743344 0.057446912 0.02855501 0.06656392 -0.024749577 0.0057487837
-0.0023706905 -0.0072438708 -0.035459876 0.006286124 0.025459178 0.03611916 0.10630163 -0.016832462
0.012723459 -0.07021067 -0.0020654402 -0.009280833 0.034769807 -0.009468624 0.11486134 0.018074442
0.07859676 -0.030042984 -0.06509405 -0.017740155 -0.01406407 -0.019573994 0.020781424 0.096517354
0.02372971 -0.063901134 0.08948249 -0.043055903 0.020675626 0.018290117 0.095437594 0.09167654
-0.0633283 0.056789853 -0.056427278 0.07483604 0.005247106 -0.010594359 -0.002155043 0.005963033
-0.014531065 -0.06798532 -0.07042851 -0.08995051 0.031675953 0.029122856 0.023297934 -0.034079105
-0.029472476 0.06272755 -0.054448735 0.037899226 -0.0028560522 0.014136412 0.07693941 0.060604613
0.0523139 0.072884515 -0.059226893 0.07405755 -0.05717329 0.03918051 0.0006414711 0.001619465
-0.013075325 -0.029498827 -0.0068306755 -0.0014149736 -0.051875442 0.025350554 0.025374763 -0.050102375
0.05683335 0.04559379 0.047464505 0.006229092 -0.05883825 -0.012482902 0.054601043 -0.07640683
-0.029049834 -0.05956906 0.050646067 -0.02106845 0.022136053 -0.0017611443 0.037950967 -0.061043195
00000000: fe9e 053c f793 ab3d e8d5 f7bc efe0 00bc
00000010: 970d 1b3d 7e0e 5c3d a924 d8bc 07df 943d
00000020: 6dcd 833d 2ef8 bd3d 2462 bebb 98d3 29bd
00000030: 250d 9b3d 8853 9d3d aae6 333c 9a08 36bd
00000040: 8f8e 3e3d b501 113d 253c 823d 386c 763d
00000050: b059 b43d 137f 3b3d 4997 17bd c07e 9b3d
00000060: 3984 693d 296d 783d 9aa8 febc 65ff 38bd
00000070: 2cbb 2b3d aaab 87bd a48b 7e3c ed20 f13c
00000080: 77f7 06bd 33b7 07bd 43fd a53d 1801 883d
00000090: 121e bf3d 0c58 4c3d 5985 743d d8e8 95ba
000000a0: 61d1 bb3d 0725 7dbd 8e9b d13c 3955 14bd
000000b0: f92b 06bc 487a 2b3c e259 df3c 5716 ce3d
000000c0: 1ff9 acbc 2355 43bc 1a93 253d 5d1a 413d
000000d0: 3674 d93b 0c9a 683d ad73 4dbd 8ba3 9fbd
000000e0: 7980 28bd 127c 493d a5d0 74bb 8896 a2bd
000000f0: a6a3 8cbc 3ae0 13bd 8904 3a3d a019 78bd
00000100: 9c5c 37bd 16e5 f0bc efe3 813d 46ae b33b
00000110: 06b5 56bd f4fd 03bd 2c06 48bc a02f 67bd
00000120: 647f 2eba 78b9 963d aa87 8cbd 5beb ba3d
00000130: 37f8 003d 0dfc 3dbc 3c50 d9bb 6466 7c3d
00000140: cca4 f33c 1caa 7e3d 6633 24bc bcca 633c
00000150: 0909 6abd 1085 0bbc 2139 a23d bf70 f2bc
00000160: 7313 19bd 0740 983d 2e3d bc3c 863e 06bd
00000170: 852a 9b3d 98fb b1bc 824e e53d a529 4fbb
00000180: 81c1 883d be93 833d 39d2 27bd 7aa7 a5bc
00000190: 0a1b 383d 9969 1e3e 903c 1c3d fb65 80bd
000001a0: 7557 333d 1f1e 113d d3c1 39bd af04 6f3d
000001b0: eb29 b73c 0c1e 4b3d 4b39 8fba 062f b1bc
000001c0: ebc5 9cbb e6f1 f6ba efa9 3b3d e91f 22bb
000001d0: 63d3 88bd 53c2 b43c 4849 613b 708b 8ebd
000001e0: 31f9 2f3d 6753 96bd e418 61bd 34aa 3c3d
000001f0: 9778 5dbd b234 98bd ef38 2abd 5b03 533d
00000200: ed96 26bd 9bc2 c3bb 8d50 ab3d f10b ebbc
00000210: a05e d73d 2075 3f3d 431d 8c3d b023 e13c
00000220: f04a 48bc d6df d03c 6995 26bd 0958 503c
00000230: 3aba 5d3d ee21 903d 9e99 073e 0ec2 5bbc
00000240: 28ee 363d 595a f23d fd8f 2fbd 6610 54bc
00000250: eb96 8fbc 8e2e d03c efda 8ebd e4bb f63c
00000260: 4176 873d e0bc e83c 2047 2c3d e416 cf3d
00000270: 76d9 4c3d b28e da3b e52b 423d caf7 1d3d
00000280: fc10 b0bb 9ddc c43d 60b4 dabb 744d 6b3d
00000290: 32ec e93c aa52 883d a0bf cabc 4b60 bc3b
000002a0: 965d 1bbb fe5d edbb 603e 11bd d4fb cd3b
000002b0: c48f d03c aff1 133d abb4 d93d 3be4 89bc
000002c0: 0e76 503c 9dca 8fbd 565c 07bb a30e 18bc
000002d0: c96a 0e3d 4a22 1bbc 6c3c eb3d da10 943c
000002e0: 57f7 a03d b41c f6bc 0750 85bd cd53 91bc
000002f0: fc6c 66bc a459 a0bc ce3d aa3c e4aa c53d
00000300: cf64 c23c 99de 82bd 9942 b73d 635b 30bd
00000310: ee5f a93c 28d5 953c c974 c33d e9c0 bb3d
00000320: 45b2 81bd 7a9c 683d 4a20 67bd a343 993d
00000330: eaef ab3b f693 2dbc 9f3b 0dbb 8c65 c33b
00000340: b413 6ebc e33b 8bbd d33c 90bd f937 b8bd
00000350: a5be 013d 0e93 ee3c 4fdb be3c 8896 0bbd
00000360: 4370 f1bc 4d77 803d a305 5fbd 383c 1b3d
00000370: 9b2c 3bbb 699c 673c 6992 9d3d 8b3c 783d
00000380: 1a47 563d 7a44 953d e697 72bd 7cab 973d
00000390: 8a2e 6abd be7b 203d 6628 283a 3a44 d43a
000003a0: e339 56bc 86a7 f1bc dcd3 dfbb a376 b9ba
000003b0: 587b 54bd f7ab cf3c bcde cf3c 2638 4dbd
000003c0: 16ca 683d 8ec0 3a3d 246a 423d 691d cc3b
000003d0: 6000 71bd 1685 4cbc 58a5 5f3d 2f7b 9cbd
000003e0: ebf9 edbc b0fe 73bd 4072 4f3d be97 acbc
000003f0: ab56 b53c 32d6 e6ba 7972 1b3d 6e08 7abd

fc4.weight f4 [12, 256]
0.00043676695 -0.039889406 0.08664903 -0.09398236 -0.0866796 -0.03327376 0.05406656 -0.06555322
-0.014192579 -0.09378613 -0.074584074 -0.042420343 -0.04312011 0.04672344 -0.008434165 -0.041980397
0.01485063 0.19504422 -0.048575357 -0.10335817 -0.06634746 -0.0101090735 0.00844217 0.22509365
-0.07767164 -0.121916726 0.037647206 -0.004426546 -0.093479 -0.21999186 0.043597747 -0.054130763
-0.012928201 0.03682824 -0.12404184 -0.14898685 -0.14851026 0.007921173 -0.10597903 -0.004762217
0.07384344 -0.011635071 -0.07483432 -0.057152748 0.04390015 0.044955336 0.18912388 -0.005974562
0.021392412 0.16766924 0.042446636 -0.117534146 0.01362831 -0.021312267 0.27799878 -0.08846416
-0.07620278 -0.062243167 -0.0668379 0.09714482 0.039537102 -0.025824357 0.034056682 -0.043967694
-0.103861205 0.0065120747 -0.06999491 0.023750484 -0.027984213 0.13080682 -0.28595614 0.021015104
-0.03959192 0.04522354 0.15664399 -0.07412776 -0.0019183641 -0.049280837 0.03133509 0.13078596
-0.09952212 -0.17902175 -0.049643725 -0.06737803 -0.0503006 0.02089436 -0.117579475 0.0507499
0.2308747 0.009568666 0.0027327943 0.024752673 0.002015652 0.0013629773 -0.06762112 -0.14587294
-0.051448666 -0.076999255 0.023060385 -0.09973304 0.1008635 -0.09405095 0.22813389 -0.100344576
0.2079396 -0.05180575 0.008336058 -0.075014085 0.016255734 -0.020906493 0.036497343 -0.07891768
0.14110674 -0.015536135 -0.14706637 -0.11002518 0.019246472 -0.012814737 0.0038099485 0.08897173
0.02724339 0.11071806 0.025138225 -0.054842878 -0.06745478 -0.018769307 0.0045306603 -0.026230972
-0.071288675 0.19192618 -0.11979701 -0.19051224 -0.19189079 0.044181623 0.013505334 -0.23185438
-0.028226549 -0.08073164 0.0082693435 0.045789834 0.2197374 -0.19996406 -0.09252257 0.081624106
0.03336147 -0.18856822 0.0328398 -0.057613816 0.14254642 -0.10854753 -0.0087183835 -0.008432708
-0.20365854 -0.03764898 -0.04748836 -0.1098516 -0.054508608 -0.032638956 -0.09060012 0.23007269
0.042753022 -0.091259785 -0.21234404 -0.018779172 -0.041594937 0.019190012 -0.088420324 0.028183851
0.0068130926 -0.05563967 0.03306013 0.26519415 0.04545544 -0.14079808 -0.0877665 -0.09051863
0.14530171 -0.015301516 0.03141224 0.21215652 0.039619487 -0.2604152 -0.015624909 0.011356423
-0.062377825 0.0022970175 0.07178998 -0.07958666 0.122649215 -0.010294466 0.04183413 0.0361538
-0.3355096 -0.011501068 -0.1081609 0.015502794 0.36683607 0.016922085 -0.19694309 -0.081783436
-0.033329066 -0.0119214635 0.0472221 -0.08724426 -0.027260933 -0.10696672 -0.02320198 0.08038342
0.035633482 -0.34085456 -0.033815365 -0.15160187 0.048321664 0.03848498 0.011264378 -0.06814264
0.11300075 -0.003943321 -0.19774581 0.21693993 0.07756387 -0.11670066 -0.06274402 -0.13966821
0.045828052 0.020535475 0.029180858 0.18680322 -0.06620933 -0.03186063 0.015264699 0.0071889143
0.057625633 -0.087393686 -0.026546147 0.05687706 -0.09550989 -0.01444467 -0.18280734 0.045914005
-0.09362144 -0.08419792 0.2904961 0.03804866 -0.181954 0.041489653 0.042066146 -0.0057706004
-0.054342225 -0.021896295 -0.10951022 -0.045653723 -0.14651264 0.022219297 0.042651143 -0.041370716
00000000: defd e439 1363 23bd 0c75 b13d d379 c0bd
00000010: 1385 b1bd 114a 08bd e674 5d3d c440 86bd
00000020: fe87 68bc f112 c0bd 89bf 98bd f4c0 2dbd
00000030: b69e 30bd 1461 3f3d 742f 0abc a3f3 2bbd
00000040: 0f50 733c acb9 473e f4f6 46bd 73ad d3bd
00000050: 2de1 87bd 87a0 25bc 0751 0a3c f37e 663e
00000060: 4f12 9fbd 7aaf f9bd f533 1a3d 8f0c 91bb
00000070: eb71 bfbd 8c45 61be 8d93 323d 38b8 5dbd
00000080: ced0 53bc 35d9 163d a609 febd 0290 18be
00000090: 1313 18be cfc7 013c 890b d9bd 5f0c 9cbb
000000a0: 3b3b 973d 06a1 3ebc bc42 99bd 0019 6abd
000000b0: a5d0 333d 1623 383d b1a9 413e 42c6 c3bb
000000c0: 243f af3c 7cb1 2b3e 86dc 2d3d beb5 f0bd
000000d0: 4649 5f3c 1097 aebc db55 8e3e b32c b5bd
000000e0: 3410 9cbd b1f2 7ebd 4fe2 88bd ddf3 c63d
000000f0: a8f1 213d 9a8d d3bc 057f 0b3d 7817 34bd
00000100: 2fb5 d4bd 3e63 d53b 7e59 8fbd 6090 c23c
00000110: 263f e5bc 39f2 053e d868 92be de27 ac3c
00000120: 232b 22bd 523c 393d 4867 203e 4cd0 97bd
00000130: 9e71 fbba b4da 49bd 3959 003d c1ec 053e
00000140: 41d2 cbbd 7a51 37be 3857 4bbd 7efd 89bd
00000150: 0008 4ebd a62a ab3c 82cd f0bd 21df 4f3d
00000160: 6b6a 6c3e e5c5 1c3c ae18 333b 1ec6 ca3c
00000170: 0719 043b eea5 b23a f17c 8abd b75f 15be
00000180: d6bb 52bd c9b1 9dbd 22e9 bc3c d640 ccbd
00000190: 8691 ce3d c99d c0bd ee9b 693e 7581 cdbd
000001a0: 1eee 543e 4432 54bd f693 083c fca0 99bd
000001b0: bf2a 853c 1844 abbc 3d7e 153d 989f a1bd
000001c0: 497e 103e 468b 7ebc 9198 16be e254 e1bd
000001d0: c7aa 9d3c e7f4 51bc 54b0 793b cf36 b63d
000001e0: 882d df3c 26c0 e23d aeee cd3c eda2 60bd
000001f0: bb25 8abd 17c2 99bc ef75 943b 56e2 d6bc
00000200: ccff 91bd 4c88 443e 2358 f5bd a415 43be
00000210: 057f 44be caf7 343d 7a45 5d3c 3c6b 6dbe
00000220: 5d3b e7bc a156 a5bd 247c 073c 1f8e 3b3d
00000230: d702 613e 61c3 4cbe 797c bdbd 8a2a a73d
00000240: 09a6 083d 0718 41be 0783 063d 77fc 6bbd
00000250: b0f7 113e 2b4e debd 8dd7 0ebc 5729 0abc
00000260: dd8b 50be d135 1abd 2883 42bd e0f9 e0bd
00000270: 6b44 5fbd 6db0 05bd 8e8c b9bd 2d98 6b3e
00000280: cb1d 2f3d 69e6 babd b770 59be c7d6 99bc
00000290: 745f 2abd 5f34 9d3c b715 b5bd d2e1 e63c
000002a0: 5d40 df3b 6ce6 63bd 0f6a 073d 87c7 873e
000002b0: 7c2f 3a3d 5f2d 10be ecbe b3bd d561 b9bd
000002c0: f9c9 143e 36b3 7abc 1faa 003d 8f3f 593e
000002d0: 0b48 223d 2455 85be 9eff 7fbc 4a10 3a3c
000002e0: e47f 7fbd 8f89 163b a006 933d 55fe a2bd
000002f0: 832f fb3d 1faa 28bc 445a 2b3d 0216 143d
00000300: eac7 abbe fa6e 3cbc 7683 ddbd 6eff 7d3c
00000310: f0d1 bb3e 2fa0 8a3c 73ab 49be 137e a7bd
00000320: 0f84 08bd 3e52 43bc f66b 413d 1ead b2bd
00000330: 5252 dfbc 5e11 dbbd 1412 bebc 10a0 a43d
00000340: 6af4 113d 7d84 aebe fb81 0abd 853d 1bbe
00000350: f0ec 453d 6da2 1d3d 3a8e 383c 5e8e 8bbd
00000360: f06c e73d f936 81bb e17d 4abe 8025 5e3e
00000370: ced9 9e3d c100 efbd f07f 80bd 2f05 0fbe
00000380: 32b6 3b3d 033a a83c b20c ef3c 5849 3f3e
00000390: c298 87bd 4b80 02bd ca18 7a3c fc90 eb3b
000003a0: db08 6c3d 76fb b2bd 4e77 d9bc ecf7 683d
000003b0: b09a c3bd 56a9 6cbc d931 3bbe 5310 3c3d
000003c0: 99bc bfbd f66f acbd e8bb 943e e9d8 1b3d
000003d0: 2652 3abe 0ef1 293d 8d4d 2c3d 4e17 bdbb
000003e0: f495 5ebd dc5f b3bc e546 e0bd 66ff 3abd
000003f0: 6907 16be 3e05 b63c f7b2 2e3d 5774 29bd

fc4.bias f4 [12]
-0.045606058 -0.023430651 0.0048304815 0.008143239 -0.018887253 0.06314655 0.022646846 -0.024331123
-0.09064977 -0.0579404 -0.090255 -0.054976508
00000000: 6bcd 3abd a3f1 bfbc 0449 9e3b 386b 053c
00000010: 71b9 9abc fa52 813d e185 b93c 1052 c7bc
00000020: 96a6 b9bd ea52 6dbd 9dd7 b8bd 0c2f 61bd
