model.pt_episode_400.pt (torch, 182492 bytes, 8 tensors)

fc1.weight f4 [64, 5]
0.23787831 0.45954043 -0.17261451 -0.4263377 0.30287707 0.40583715 -0.2132033 0.17076065
-0.15103681 0.22066502 -0.35407633 -0.06317016 -0.14483199 0.27599943 0.28610867 0.4957316
0.03227226 0.39649454 0.002895495 -0.37408412 -0.19769257 -0.3129504 0.31756255 -0.24511966
0.29732648 -0.09145205 0.3228623 -0.22364789 -0.35404512 -0.33935037 0.057690777 -0.1472912
-0.22727382 0.29692826 0.3537307 -0.2571678 0.4380211 0.020807305 0.18845302 0.050327107
-0.03340063 -0.16680747 -0.038652822 0.044153076 -0.29356778 0.2717534 0.38155454 0.21751322
0.049241334 -0.19308089 0.43509147 -0.4590816 0.37413645 0.4454603 0.25708008 0.5094194
-0.08068237 0.01821625 0.103964455 0.0488788 0.55108756 0.010577427 -0.36541197 -0.04115665
0.2144071 -0.20657258 -0.36733845 0.03648377 -0.14892806 0.35398862 0.23373385 0.34679523
0.15121712 -0.18892767 -0.3686563 0.19538374 0.1769484 0.091640994 0.027041389 -0.12668288
0.0053799637 0.06516256 -0.3270311 0.09912085 0.13638248 -0.08836377 0.303194 0.33147052
-0.37590483 0.2141974 0.22460511 -0.39111274 0.32369074 -0.15441005 0.044507757 -0.18318416
0.4403957 -0.25585905 0.1926527 0.2896472 -0.075283065 -0.065182686 0.21345554 0.45071498
0.28916898 0.4756407 -0.0777906 0.18721142 -0.43642023 0.33018622 0.046184845 0.17116572
0.36288086 -0.030676447 -0.35402387 -0.14981534 -0.18406779 0.090162 -0.008780278 0.10200401
0.39987388 -0.071429156 0.2801515 -0.19478649 0.029542407 -0.007952737 -0.14014946 0.35928652
-0.24491657 0.21709116 0.15086143 0.11469306 -0.40353045 -0.23028465 -0.057942614 0.076695345
0.27649963 0.18763618 -0.40161058 -0.07097302 0.012115214 -0.31753942 0.055135902 0.4210827
0.29383212 0.18816365 0.044487372 0.3172815 -0.24575028 -0.060422312 -0.31074652 0.022958826
-0.31734523 0.37526354 0.22124882 0.116111726 -0.18392809 0.39057598 0.30593154 -0.33166334
0.37200996 0.30450973 -0.027673362 -0.17570947 0.39500338 0.0057856427 -0.18949984 -0.3978846
0.28694785 0.19433498 0.34540978 0.36896068 0.24538676 0.10855467 0.14038838 -0.30072132
0.07863082 -0.17080289 0.093842946 -0.34056333 -0.20438668 -0.05635674 -0.28446367 0.13101225
-0.38993958 0.37451282 -0.22827384 -0.19091964 -0.35168517 0.393685 0.35772872 0.4711569
0.07035459 0.26914498 -0.33784217 0.4453086 -0.16870306 -0.007129262 0.16871843 -0.020397892
-0.17421374 0.20003995 -0.34865808 0.3749291 -0.02638596 0.3104022 0.23562673 -0.17385697
-0.37479955 0.25697476 0.30277124 0.18592444 -0.30321285 0.48626214 0.05260259 -0.35535133
-0.33942264 -0.295607 0.02906055 -0.038510904 0.24055506 0.48857102 -0.03295241 0.35392615
-0.30297646 -0.0036230593 -0.26523018 -0.058164284 0.10358588 -0.020047083 -0.30669937 -0.40626174
0.04588664 0.07726513 -2.0489208e-05 0.3597158 -0.16844131 0.08469761 0.13295573 -0.3385513
0.34153804 0.22119725 0.17228304 -0.23605621 0.105714425 -0.009324061 -0.12211436 -0.2946991
0.14138393 -0.12894955 0.12788197 0.43325678 0.4822689 -0.15592197 0.020956928 -0.17977956
00000000: 5f96 733e e248 eb3e dcc1 30be ef48 dabe
00000010: b412 9b3e e3c9 cf3e f751 5abe e1db 2e3e
00000020: 65a9 1abe 03f6 613e 7e49 b5be 5b5f 81bd
00000030: d64e 14be cc4f 8d3e d67c 923e 88d0 fd3e
00000040: eb2f 043d 5501 cb3e 58c2 3d3b f487 bfbe
00000050: ec6f 4abe 093b a0be 8f97 a23e a600 7bbe
00000060: 2d3b 983e 364b bbbd 354e a53e f403 65be
00000070: 6745 b5be 55bf adbe 2a4d 6c3d 81d3 16be
00000080: 78ba 68be fb06 983e 311c b53e 7fab 83be
00000090: 4d44 e03e 1574 aa3c d4f9 403e cc23 4e3d
000000a0: 19cf 08bd 94cf 2abe 6c52 1ebd dbd9 343d
000000b0: 844e 96be 4323 8b3e 1e5b c33e c9bb 5e3e
000000c0: 48b1 493d ffb6 45be 4fc4 de3e be0c ebbe
000000d0: d08e bf3e 5f13 e43e 00a0 833e 4f69 023f
000000e0: cc3c a5bd 3f3a 953c 51eb d43d 2335 483d
000000f0: 1314 0d3f f24c 2d3c 4717 bbbe e093 28bd
00000100: 898d 5b3e c387 53be c913 bcbe 0170 153d
00000110: 9980 18be ff3d b53e ed57 6f3e 258f b13e
00000120: a9d8 1a3e 4176 41be 85c0 bcbe ad12 483e
00000130: f631 353e 46ae bb3d e785 dd3c 28b9 01be
00000140: 684a b03b f373 853d 9f70 a7be dfff ca3d
00000150: d9a7 0b3e 10f8 b4bd 3e3c 9b3e 81b6 a93e
00000160: 9976 c0be 9056 5b3e e2fe 653e ee3f c8be
00000170: cbba a53e ab1d 1ebe c44d 363d a194 3bbe
00000180: 8c7b e13e f5ff 82be c046 453e a34c 943e
00000190: 022e 9abd 807e 85bd 1794 5a3e 1dc4 e63e
000001a0: f50d 943e 2e87 f33e ae50 9fbd 5ab4 3f3e
000001b0: 7972 dfbe 2b0e a93e 522c 3d3d 1146 2f3e
000001c0: 85cb b93e 2c4d fbbc 9e42 b5be 3169 19be
000001d0: 447c 3cbe dba6 b83d 28db 0fbc 7ae7 d03d
000001e0: 45bc cc3e 7349 92bd 0470 8f3e 1c76 47be
000001f0: eb02 f23c 324c 02bc 5783 0fbe 67f4 b73e
00000200: 69cb 7abe 254d 5e3e 6b7b 1a3e 32e4 ea3d
00000210: 8b9b cebe bdcf 6bbe 3c55 6dbd 7312 9d3d
00000220: 5c91 8d3e b323 403e e79f cdbe 4d5a 91bd
00000230: e47e 463c 8794 a2be 2fd6 613d 2798 d73e
00000240: 2a71 963e f9ad 403e 6438 363d b972 a23e
00000250: f6a5 7bbe 637d 77bd 2b1a 9fbe 2614 bc3c
00000260: 137b a2be 8b22 c03e 0d8f 623e fccb ed3d
00000270: a557 3cbe 93f9 c73e 0fa3 9c3e c7cf a9be
00000280: 1778 be3e b3e8 9b3e 3fb3 e2bc 2fed 33be
00000290: e23d ca3e 7d95 bd3b 3f0c 42be 88b7 cbbe
000002a0: d4ea 923e c0ff 463e 8dd9 b03e 6ae8 bc3e
000002b0: ab46 7b3e e951 de3d f9c1 0f3e 25f8 99be
000002c0: 3209 a13d f4e6 2ebe bb30 c03d 515e aebe
000002d0: be4a 51be 53d6 66bd 39a5 91be 1328 063e
000002e0: 29a6 c7be 25c0 bf3e 9ec0 69be 7080 43be
000002f0: 1410 b4be 1591 c93e 3828 b73e 7a3b f13e
00000300: 1116 903d 5fcd 893e a6f9 acbe 7dff e33e
00000310: 7fc0 2cbe 969c e9bb 86c4 2c3e 7b19 a7bc
00000320: 1665 32be 46d7 4c3e 5083 b2be b5f6 bf3e
00000330: 5e27 d8bc 0aed 9e3e 2248 713e 9007 32be
00000340: bae5 bfbe 3292 833e d504 9b3e fa62 3e3e
00000350: b73e 9bbe 5af7 f83e d075 573d 9cf0 b5be
00000360: cec8 adbe cd59 97be 6410 ee3c 9cbd 1dbd
00000370: 1154 763e fb25 fa3e 1bf9 06bd cf35 b53e
00000380: bb1f 9bbe d970 6dbb 40cc 87be ac3d 6ebd
00000390: d524 d43d c839 a4bc b307 9dbe 8a01 d0be
000003a0: a1f3 3b3d 2e3d 9e3d 3de0 abb7 ab2c b83e
000003b0: e17b 2cbe f175 ad3d 8c25 083e 9956 adbe
000003c0: 13de ae3e 8881 623e f76a 303e b8b8 71be
000003d0: ce80 d83d f2c3 18bc 1817 fabd cde2 96be
000003e0: f3c6 103e 5a0b 04be 7ef3 023e d5d3 dd3e
000003f0: f3eb f63e 02aa 1fbe ddad ab3c 2218 38be

fc1.bias f4 [64]
-0.14842515 -0.006201237 -0.16589579 0.101448946 0.412782 0.042039946 0.3645964 -0.23200405
-0.13691773 0.061046217 -0.16764675 -0.18774977 -0.18616557 0.07622426 0.23756658 0.3412571
0.022564553 -0.33915225 0.33157042 -0.07814183 0.208285 -0.22344972 0.4419397 -0.25140297
-0.10211566 -0.18059291 0.22480203 0.2780638 0.39372054 0.17945363 0.40315643 -0.013774763
-0.32961866 0.31686196 0.38371676 0.39105964 -0.35146207 -0.41958767 -0.10885932 -0.42818528
0.2782777 0.11759318 -0.20153038 0.010890688 0.49750942 0.09237016 0.19103517 0.07572302
0.23014052 -0.29867318 0.04551371 -0.17972435 -0.21664381 0.07549896 0.09928177 -0.36303103
0.098146185 -0.4012887 0.2676197 0.41870496 -0.29548016 -0.20548837 -0.041001525 -0.00685749
00000000: c3fc 17be bf33 cbbb 96e0 29be 77c4 cf3d
00000010: 2a58 d33e 1432 2c3d 61ac ba3e 7892 6dbe
00000020: 2934 0cbe 990b 7a3d 97ab 2bbe 7a41 40be
00000030: 30a2 3ebe 771b 9c3d a744 733e 40b9 ae3e
00000040: 4cd9 b83c 5da5 adbe 99c3 a93e d308 a0bd
00000050: aa48 553e 01d0 64be ec45 e23e e4b7 80be
00000060: 0422 d1bd 59ed 38be 8132 663e 615e 8e3e
00000070: bd95 c93e b1c2 373e 856a ce3e 8baf 61bc
00000080: c7c3 a8be bb3b a23e 8676 c43e f838 c83e
00000090: d6f2 b3be 32d4 d6be a3f1 debd 1a3b dbbe
000000a0: 6a7a 8e3e b1d4 f03d fb5d 4ebe db6e 323c
000000b0: 8eb9 fe3e 912c bd3d b99e 433e ac14 9b3d
000000c0: f5a9 6b3e b1eb 98be 956c 3a3d a909 38be
000000d0: e0d7 5dbe 339f 9a3d 3e54 cb3d 34df b9be
000000e0: de00 c93d b675 cdbe 7305 893e 7f60 d63e
000000f0: 2d49 97be 8b6b 52be 37f1 27bd ccb4 e0bb

fc2.weight f4 [128, 64]
-0.20206237 0.17740268 -0.19587635 0.071585804 0.12275258 0.03323869 0.05498244 -0.1030152
0.075423576 0.05453382 0.19727369 0.06496806 0.069875516 -0.10288645 -0.10999093 0.031145474
0.030914333 -0.27552974 0.23141566 -0.17566481 0.06278236 0.15464805 -0.039735757 -0.03890079
0.15218239 0.21028414 0.026633259 -0.09668262 0.1688005 -0.053885646 -0.03240089 0.17930269
-0.110184275 -0.08449354 0.097645566 0.024566289 0.020688264 0.23397523 -0.08526778 0.07104317
0.1513362 0.06451687 -0.070535995 -0.113017485 -0.13533314 0.07714122 -0.09638123 0.099553294
-0.10847543 0.09300873 -0.13628647 0.049548604 0.011351464 -0.10708296 0.014283336 -0.08185509
-0.0994982 0.17191677 0.091138065 0.08256105 0.04925046 -0.113176614 0.15473098 -0.18344943
-0.011471079 0.10763379 0.13268182 -0.030417161 0.10381468 0.044096854 -0.026627664 0.08230716
-0.09375022 0.015147282 0.05907105 0.019955328 0.13091587 0.09490727 -0.12579374 -0.020136582
0.073327705 -0.09523447 0.34012246 -0.040763665 -0.0062785405 0.005237848 -0.120506145 -0.061971404
-0.029597562 0.20485027 -0.018040357 0.059312787 -0.01202648 -0.052745484 0.1335572 -0.072379164
-0.090246156 0.18544233 0.047854673 -0.113838926 0.002130605 0.033317048 -0.076325245 0.016282229
0.3281977 -0.082324535 0.09659414 0.04563792 0.09611063 -0.101600215 -0.064842425 -0.049933624
0.025653828 0.045695342 0.054529615 -0.08709287 0.03263056 -0.04509556 -0.023378996 -0.046297453
0.034254443 0.0900627 0.009005009 0.25523004 -0.09120195 -0.020090772 0.071295865 0.07133558
0.027821075 -0.112895325 -0.051366545 -0.052622758 0.025895339 0.02534024 -0.09416115 -0.10999678
-0.022826504 -0.046219826 -0.08130876 -0.08567471 0.0202094 -0.067324944 -0.0089117875 0.08936591
-0.07765678 0.046800092 0.041771676 0.06965808 -0.11129208 -0.098205864 0.09360239 -0.004883408
0.04366381 -0.054554753 -0.08051806 0.10152897 0.017315028 -0.07018737 -0.09996639 -0.067584716
-0.042097446 0.10763848 -0.025677275 0.102060035 0.024311285 -0.0017716957 0.08619081 -0.029711556
-0.079806216 0.008963733 -0.09635098 -0.112020984 -0.11061153 -0.0070303967 0.017526729 -0.07255658
-0.05406911 0.043770876 -0.068813376 -0.005441114 0.0028275843 0.048474498 0.026576828 0.11084016
0.023014564 0.106088206 -0.09119928 0.04524637 -0.111402795 0.081746675 0.03831389 -0.006896018
-0.04174189 0.07973572 0.103368014 0.09912203 0.0041571553 0.031037789 -0.10118173 -0.089213856
-0.01963414 -0.0050575878 0.04533817 0.089635506 -0.11062807 0.052612565 -0.039712902 -0.09934573
0.057047598 -0.046166413 -0.037347164 -0.115494415 0.018737627 -0.055863895 0.06649535 -0.0046552713
-0.007947116 -0.04658284 -0.0005475375 -0.09222238 0.051595755 -0.03250609 -0.032031428 -0.020713223
-0.115355045 0.09703413 -0.079308026 0.009796291 0.10945745 0.030041393 0.077700235 -0.10692686
-0.09301314 0.04672014 0.05752436 -0.018228514 -0.028342169 -0.008084415 -0.00072002586 -0.10378501
0.07762269 0.009906008 0.08960149 -0.06691963 -0.038633507 -0.048123144 0.0022987498 -0.009259134
0.10808587 0.0016892774 -0.084287755 -0.08593994 -0.108012244 -0.09449087 -0.02571654 -0.031829815
00000000: 70e9 4ebe 0ca9 353e cf93 48be 949b 923d
00000010: b465 fb3d 4b25 083d 4435 613d a2f9 d2bd
00000020: ad77 9a3d db5e 5f3d 1d02 4a3e f90d 853d
00000030: e51a 8f3d 22b6 d2bd ed42 e1bd cb24 ff3c
00000040: 0e40 fd3c 3c12 8dbe 3af8 6c3e 7ae1 33be
00000050: 0a94 803d 0f5c 1e3e f6c1 22bd 6f56 1fbd
00000060: b3d5 1b3e ba54 573e fe2d da3c 8a01 c6bd
00000070: 0ada 2c3e 32b7 5cbd ccb6 04bd 209b 373e
00000080: 4ba8 e1bd f30a adbd 66fa c73d 3e3f c93c
00000090: 6f7a a93c 3497 6f3e e0a0 aebd 157f 913d
000000a0: e0f7 1a3e 6c21 843d 2d75 90bd b675 e7bd
000000b0: c594 0abe 37fc 9d3d 8663 c5bd 99e2 cb3d
000000c0: 5e28 debd 5c7b be3d ae8e 0bbe 7af3 4a3d
000000d0: 7efb 393c 504e dbbd a704 6a3c a4a3 a7bd
000000e0: b6c5 cbbd f30a 303e 98a6 ba3d c515 a93d
000000f0: daba 493d 24c9 e7bd cc71 1e3e 2bda 3bbe
00000100: 31f1 3bbc 1b6f dc3d bedd 073e 692d f9bc
00000110: ca9c d43d e79e 343d 4222 dabc a890 a83d
00000120: 1e00 c0bd 4e2c 783c 7cf4 713d 5b79 a33c
00000130: cf0e 063e be5e c23d 13d0 00be 79f5 a4bc
00000140: d62c 963d 4a0a c3bd 8824 ae3e cdf7 26bd
00000150: 37bc cdbb 41a2 ab3b edcb f6bd bad5 7dbd
00000160: 9676 f2bc 45c4 513e 5fc9 93bc f7f1 723d
00000170: b70a 45bc a60b 58bd 38c3 083e 873b 94bd
00000180: fad2 b8bd 98e4 3d3e 4303 443d 6224 e9bd
00000190: 9fa1 0b3b 7577 083d 6950 9cbd 4f62 853c
000001a0: 8709 a83e c499 a8bd 26d3 c53d d4ee 3a3d
000001b0: a6d5 c43d c613 d0bd 1bcc 84bd 3387 4cbd
000001c0: fa27 d23c 0a2b 3b3d 725a 5f3d bf5d b2bd
000001d0: 9fa7 053d 1fb6 38bd 4f85 bfbc 66a2 3dbd
000001e0: 634e 0c3d cb72 b83d bf89 133c 83ad 823e
000001f0: 17c8 babd 6795 a4bc 9103 923d 6318 923d
00000200: 06e9 e33c aa35 e7bd ba65 52bd f68a 57bd
00000210: 7622 d43c 5696 cf3c 90d7 c0bd fe45 e1bd
00000220: a6fe babc 0051 3dbd 3585 a6bd 3976 afbd
00000230: 2f8e a53c a9e1 89bd bf02 12bc 7905 b73d
00000240: 850a 9fbd 74b1 3f3d c718 2b3d e5a8 8e3d
00000250: 1aed e3bd 2820 c9bd 9cb2 bf3d ff04 a0bb
00000260: d3d8 323d ce74 5fbd a7e6 a4bd 6cee cf3d
00000270: 3fd8 8d3c 65be 8fbd 2ebb ccbd db69 8abd
00000280: 5f6e 2cbd 9071 dc3d 2659 d2bc da04 d13d
00000290: 7628 c73c 3e38 e8ba cf84 b03d a665 f3bc
000002a0: 7171 a3bd 9fdc 123c aa53 c5bd 426b e5bd
000002b0: 4c88 e2bd 3e5f e6bb 3794 8f3c 8b98 94bd
000002c0: 9277 5dbd 1749 333d 07ee 8cbd 5f4b b2bb
000002d0: fe4e 393b 328d 463d a6b7 d93c 2a00 e33d
000002e0: 0a89 bc3c c644 d93d b0c6 babd 4254 393d
000002f0: 2627 e4bd cd6a a73d 07ef 1c3d fef7 e1bb
00000300: 8bf9 2abd 7b4c a33d 9cb2 d33d 7e00 cb3d
00000310: bf38 883b f642 fe3c 5e38 cfbd c1b5 b6bd
00000320: c7d7 a0bc 1fba a5bb 84b4 393d d292 b73d
00000330: f890 e2bd 4680 573d ffa9 22bd c675 cbbd
00000340: beaa 693d fe18 3dbd 57f9 18bd 5688 ecbd
00000350: a77f 993c 8ad1 64bd b72e 883d 3f8b 98bb
00000360: 9f34 02bc a6cd 3ebd 9f88 0fba 16df bcbd
00000370: 1256 533d 1b25 05bd 6333 03bd c7ae a9bc
00000380: 443f ecbd d4b9 c63d 3f6c a2bd 9f80 203c
00000390: 3a2b e03d 5e19 f63c 4d21 9f3d 78fc dabd
000003a0: ac7d bebd 9e5d 3f3d aa9e 6b3d f753 95bc
000003b0: d62d e8bc 7f74 04bc 1ec0 3cba 3c8d d4bd
000003c0: a5f8 9e3d cf4c 223c fc80 b73d 290d 89bd
000003d0: 2b3e 1ebd c61c 45bd 9fa6 163b 9fb3 17bc
000003e0: 205c dd3d be6a dd3a 0f9f acbd 4701 b0bd
000003f0: 8635 ddbd 6e84 c1bd 7eab d2bc fb5f 02bd

fc2.bias f4 [128]
0.07855435 -0.07196376 -0.072500356 -0.11602819 0.017430274 -0.109329164 0.15606469 -0.106528886
0.12407817 -0.04068255 0.04466514 -0.0046259505 -0.13158984 -0.0106830755 0.007028323 0.10094381
-0.060837805 0.09941764 0.035345316 -0.015365641 -0.018556504 0.08094949 0.12531167 -0.048257094
-0.06390766 -0.040137466 -0.035860196 -0.003359463 -0.09776365 0.11526496 0.03438983 -0.027905997
-0.01269001 0.0759161 0.0013119981 0.12563604 0.07512578 0.09789106 -0.023454681 0.08959116
-0.045780692 0.0039836974 0.017513959 -0.071243554 -0.069807984 0.083668254 -0.0865091 0.047881015
-0.03089351 -0.041445695 -0.021655155 -0.09877868 -0.12980185 0.100087255 0.044228774 0.037657376
-0.012354972 -0.051099297 -0.029095035 0.03900067 -0.031895276 0.15001641 -0.05794128 -0.05630208
0.0054238285 -0.08058852 -0.039891157 -0.043609913 0.021759639 -0.08169681 -0.08027692 0.019260326
0.10269248 0.058047287 -0.012209402 0.080612116 -0.090922505 0.050244473 -0.05255199 0.037867453
-0.094726704 0.027825292 -0.07210345 -0.024786975 -0.035393313 -0.04050164 -0.062612034 -0.025033008
-0.01845712 0.036686156 0.111430734 0.101990476 -0.04202649 -0.0633171 0.118732944 0.09914912
-0.110255614 -0.09333032 -0.063439734 0.10795 -0.042149592 -0.07835687 -0.008006137 0.06553547
0.09824447 -0.09141654 0.0028761174 0.11570075 -0.06613592 0.037790556 -0.06883498 -0.11361957
0.013176226 0.021730263 0.06265365 -0.05334364 0.03772125 0.13162021 0.1129685 -0.098282285
-0.09125063 0.06676976 0.15736769 -0.040555224 -0.094626054 0.08980108 0.020167343 0.05099014
00000000: 1ae1 a03d bc61 93bd 117b 94bd 30a0 edbd
00000010: efc9 8e3c f8e7 dfbd 6ccf 1f3e d12b dabd
00000020: b21c fe3d bfa2 26bd cbf2 363d 4995 97bb
00000030: 7dbf 06be 1108 2fbc d94d e63b a1bb ce3d
00000040: 1031 79bd 7a9b cb3d 40c6 103d 2bc0 7bbc
00000050: cf03 98bc d9c8 a53d b451 003e 3ba9 45bd
00000060: 05e2 82bd 2f67 24bd 24e2 12bd 702a 5cbb
00000070: 4f38 c8bd 0910 ec3d 5adc 0c3d 1e9b e4bc
00000080: c2e9 4fbc e679 9b3d 5af7 ab3a bca6 003e
00000090: 8cdb 993d 1c7b c83d 0824 c0bc 927b b73d
000000a0: 8984 3bbd ad89 823b 6f79 8f3c 24e8 91bd
000000b0: 7df7 8ebd 435a ab3d af2b b1bd e21e 443d
000000c0: 6314 fdbc f6c2 29bd 2766 b1bc 7a4c cabd
000000d0: c7ea 04be 8cfa cc3d 3b29 353d 9f3e 1a3d
000000e0: 826c 4abc 7f4d 51bd b658 eebc 2bbf 1f3d
000000f0: 9fa4 02bd e79d 193e d653 6dbd 039d 66bd
00000100: 5fba b13b 980b a5bd e964 23bd 4fa0 32bd
00000110: 4541 b23c a850 a7bd 3a68 a4bd d5c7 9d3c
00000120: 6f50 d23d fec2 6d3d f209 48bc f717 a53d
00000130: 9435 babd 26cd 4d3d c140 57bd e71a 1b3d
00000140: 1300 c2bd def1 e33c f9aa 93bd 0e0e cbbc
00000150: 94f8 10bd 0ce5 25bd bd3a 80bd 0612 cdbc
00000160: 6333 97bc 3944 163d cc35 e43d 62e0 d03d
00000170: f823 2cbd 65ac 81bd 422a f33d b20e cb3d
00000180: b2cd e1bd f823 bfbd b1ec 81bd e414 dd3d
00000190: 0da5 2cbd 9179 a0bd 2c2c 03bc 7637 863d
000001a0: 6634 c93d 9838 bbbd 3e7d 3c3b 84f4 ec3d
000001b0: 4572 87bd 45ca 1a3d 5bf9 8cbd 61b1 e8bd
000001c0: 19e1 573c aa03 b23c 8f50 803d dc7e 5abd
000001d0: 9981 1a3d 73c7 063e 075c e73d 3948 c9bd
000001e0: 9ce1 babd 95be 883d ff24 213e 3c1d 26bd
000001f0: 4ecb c1bd a1e9 b73d fc35 a53c 09db 503d

fc3.weight f4 [256, 128]
0.07906413 0.060629264 -0.05110343 0.04480293 -0.027440358 -0.057559486 -0.066192664 0.037240766
-0.08407951 -0.018258194 0.02340136 -0.045067754 0.080457605 -0.056650568 -0.04647219 0.07939728
-0.06804085 0.02277365 -0.035226777 -0.063041136 -0.06771659 0.072095826 0.06030885 0.019488618
-0.037394177 -0.0397096 0.022361452 0.07598368 0.0027981445 0.01234459 0.03095594 -0.03835889
0.05688518 -0.017730704 -0.022899216 -0.021799223 0.047474578 -0.071509585 -0.07053772 -0.03829864
0.000936875 -0.041937545 -0.080637835 -0.044780638 -0.031712025 0.058425687 0.054470923 0.026051018
-0.014661897 -0.044938263 0.012275817 -0.046231616 0.022210166 0.029070778 -0.040021706 -0.0056509906
0.017523985 -0.025203677 -0.051997248 0.07060489 -0.037472278 0.018913334 0.071419805 -0.013764001
-0.00013174751 -0.06907118 -0.07504207 0.027048456 0.073444106 0.062341616 -0.083572805 0.016861089
-0.051189326 -0.060832575 -0.014341677 -0.0071153305 0.033315387 -0.034770496 -0.065180585 -0.005029839
0.017774906 -0.08177072 0.05998432 0.032231726 0.009667006 0.009586685 0.08091565 0.039910484
0.05390157 0.01606562 -0.06804758 -0.016458943 -0.00545941 -0.002652055 -0.018461267 0.05971384
0.053687844 0.036698557 0.02644819 -0.058750853 -0.041469295 -0.040483955 -0.022051789 -0.044297874
-0.015180703 0.08253327 -0.029183276 0.008114485 -0.046965167 -0.039284486 -0.009877034 -0.030954719
0.030886348 -0.001193465 0.053477217 -0.011842979 0.044211105 -0.065883115 -0.07892116 0.0015124145
-0.034015402 0.05123416 -0.053750496 0.02767047 0.0058671413 0.068995476 -0.071081646 0.07072979
0.3166975 0.13051564 -0.0804321 0.078620635 0.07679898 0.023444436 0.22522855 0.112882435
-0.06284477 -0.010247285 0.037028395 0.0601974 0.20619449 0.25728005 -0.007631565 0.13217239
-0.079826176 0.068047434 0.13388681 0.082425706 0.039011322 0.057101887 0.2549301 0.010246208
-0.05196372 -0.06585119 0.2000855 0.08019049 0.06690537 -0.04534367 0.05027228 -0.036236245
0.12056055 0.22189245 0.15669335 0.089759104 0.26186597 0.07131444 -0.014363759 0.047415484
-0.033476945 0.22480689 -0.055838544 -0.03427498 -0.14038251 -0.0020136775 0.020251652 0.04616017
0.026005492 -0.05431065 0.025356892 0.022553058 0.035029694 0.04474922 -0.020152947 -0.045511253
0.011346052 0.0067767967 -0.03946973 -0.062451564 0.007927311 -0.04480413 -0.027910748 0.081149265
-0.06673255 0.20194568 0.13910232 0.0074390396 0.14760494 0.19405493 -0.08498624 -0.026673209
-0.06249492 0.11035599 0.034504548 -0.07682656 0.106008336 0.09355448 -0.09995043 -0.052499734
0.07197317 0.009872704 0.044219814 -0.12571919 0.12846737 -0.04110069 0.007288238 0.04462096
0.13131937 0.057213746 -0.13554831 -0.07092697 0.039728828 -0.052260466 0.0526666 -0.009538943
0.034450285 0.0392853 -0.008538172 0.09035469 -0.047144298 0.010638874 -0.059061475 0.19216897
-0.023457251 0.033962425 -0.062051408 0.13956167 0.03816792 -0.028695475 0.06727471 0.06777247
0.28336304 0.16325253 0.033080477 0.01785986 0.063721254 -0.007062312 -0.04400524 -0.0075894394
0.058774546 0.022222634 0.16987066 0.08014274 -0.063599125 -0.020469269 -0.05112719 -0.106022716
00000000: 60ec a13d 6456 783d d551 51bd 4783 373d
00000010: 9aca e0bc 7fc3 6bbd 0590 87bd c689 183d
00000020: e131 acbd 3592 95bc 35b4 bf3c f798 38bd
00000030: f5c6 a43d 6d0a 68bd a059 3ebd 0b9b a23d
00000040: 0059 8bbd ce8f ba3c f449 10bd b61b 81bd
00000050: ffae 8abd faa6 933d 6a06 773d 98a6 9f3c
00000060: a32a 19bd 89a6 22bd 5d2f b73c 559d 9b3d
00000070: 1361 373b f740 4a3c 5097 fd3c 361e 1dbd
00000080: 6f00 693d fb3f 91bc 2397 bbbc 4994 b2bc
00000090: b474 423d 9e73 92bd 1576 90bd 09df 1cbd
000000a0: 9e98 753a b4c6 2bbd 7325 a5bd e76b 37bd
000000b0: 78e4 01bd c64f 6f3d e71c 5f3d f268 d53c
000000c0: 7438 70bc 2f11 38bd 8220 493c 5d5d 3dbd
000000d0: 18f2 b53c d725 ee3c cded 23bd f22b b9bb
000000e0: 768e 8f3c f177 cebc 11fb 54bd 4c99 903d
000000f0: 887c 19bd 23f0 9a3c 8c44 923d 6882 61bc
00000100: b425 0ab9 3175 8dbd a8af 99bd b994 dd3c
00000110: dd69 963d ec59 7f3d 3828 abbd 4420 8a3c
00000120: e6ab 51bd 942b 79bd 5af9 6abc b827 e9bb
00000130: b775 083d 826b 0ebd 667d 85bd 59d1 a4bb
00000140: ae9c 913c 6877 a7bd 1eb2 753d 6a05 043d
00000150: 5d62 1e3c 7911 1d3c 1bb7 a53d 2d79 233d
00000160: e5c7 5c3d 0c9c 833c 885c 8bbd e8d4 86bc
00000170: dae4 b2bb 19ce 2dbb 153c 97bc 8096 743d
00000180: c9e7 5b3d 3a51 163d e0a9 d83c bca4 70bd
00000190: b5db 29bd 81d2 25bd f4a5 b4bc b071 35bd
000001a0: 7cb8 78bc 3407 a93d c411 efbc 9ef2 043c
000001b0: 8c5e 40bd c5e8 20bd 49d3 21bc c094 fdbc
000001c0: 5e05 fd3c 0a6e 9cba ed0a 5b3d 0e09 42bc
000001d0: b416 353d baed 86bd 6ba1 a1bd 363c c63a
000001e0: bc53 0bbd e9da 513d 7b29 5cbd 2ead e23c
000001f0: 2641 c03b 804d 8d3d 4193 91bd c8da 903d
00000200: 2d26 a23e e4a5 053e 96b9 a4bd db03 a13d
00000210: c948 9d3d 8c0e c03c 50a2 663e e82e e73d
00000220: c2b4 80bd 3ae4 27bc 16ab 173d 8d91 763d
00000230: a624 533e 36ba 833e 3512 fabb 3358 073e
00000240: e87b a3bd 745c 8b3d a019 093e cfce a83d
00000250: 56ca 1f3d abe3 693d 3386 823e b6df 273c
00000260: e9d7 54bd fddc 86bd 37e3 4c3e e93a a43d
00000270: af05 893d 49ba 39bd 4eea 4d3d 756c 14bd
00000280: 73e8 f63d c637 633e 3974 203e 9fd3 b73d
00000290: 4c13 863e 4e0d 923d f955 6bbc bd36 423d
000002a0: 1f1f 09bd c733 663e f5b6 64bd ec63 0cbd
000002b0: 6fc0 0fbe e7f7 03bb cbe6 a53c 7212 3d3d
000002c0: 7809 d53c d874 5ebd 42b9 cf3c 31c1 b83c
000002d0: 4c7b 0f3d f54a 373d cb17 a5bc 026a 3abd
000002e0: cbe4 393c e40f de3b 03ab 21bd 36cd 7fbd
000002f0: 8de1 013c 8984 37bd 15a5 e4bc 9631 a63d
00000300: 13ab 88bd d9ca 4e3e d770 0e3e 30c3 f33b
00000310: c025 173e 56b6 463e 440d aebd c681 dabc
00000320: acfa 7fbd 5202 e23d a454 0d3d 3e57 9dbd
00000330: e61a d93d 7e99 bf3d d0b2 ccbd f609 57bd
00000340: ab66 933d 1fc1 213c d61f 353d 88bc 00be
00000350: f38c 033e 3259 28bd 2cd2 ee3b 78c4 363d
00000360: 9678 063e f658 6a3d 2dcd 0abe 2942 91bd
00000370: b2ba 223d 120f 56bd efb8 573d 3a49 1cbc
00000380: be1b 0d3d 9fe9 203d b0e3 0bbc e10b b93d
00000390: 611a 41bd ac4e 2e3c 72ea 71bd f1c7 443e
000003a0: 6c29 c0bc 2f1c 0b3d 9e29 7ebd 41e9 0e3e
000003b0: f755 1c3d c612 ebbc 53c7 893d 4bcc 8a3d
000003c0: f614 913e ac2b 273e 657f 073d d74e 923c
000003d0: 4a80 823d f86a e7bb d73e 34bd d5b0 f8bb
000003e0: 94bd 703d 3e0c b63c 93f2 2d3e e021 a43d
000003f0: 4240 82bd 2baf a7bc bf6a 51bd 7022 d9bd

fc3.bias f4 [256]
0.008961363 0.061623033 -0.024725549 -0.025843104 0.027122734 0.060171 -0.019032765 0.06181792
0.070802905 0.09467443 -0.035650223 -0.045687027 0.08215491 0.08326572 0.011853387 -0.04845484
0.047076736 0.054624066 0.07003752 0.05079669 0.07496987 0.05112222 -0.040232632 0.103095844
0.040992502 0.04644668 -0.034309376 -0.049902122 0.036359135 -0.08716601 0.017147783 0.022090724
-0.06128146 -0.036356818 0.07205157 0.05650613 0.08040979 0.056334898 0.05665584 -0.0012444416
0.102578476 -0.08177796 0.014484094 -0.05462257 -0.008994975 0.011271946 0.04550354 0.07923778
-0.022726445 -0.0009118113 0.04364661 0.014035919 0.007441948 0.06323378 -0.034395378 -0.08705857
-0.030510396 0.025615724 -0.027078923 -0.056790043 -0.071463384 -0.039325632 0.050400212 -0.067017555
-0.07282775 -0.032629233 0.07459042 0.005913249 -0.058864973 -0.01477793 -0.029708628 -0.04352302
-0.00071601686 0.08004218 -0.0579149 0.07217022 0.034709837 -0.013084289 -0.0074376594 0.071771085
0.016363293 0.068291344 -0.039366722 0.0106100505 -0.07903603 -0.009321392 0.084388256 -0.034268785
-0.026495932 0.080787115 0.025742408 -0.035997592 0.09497071 -0.023337975 0.10421273 -0.021153346
0.054030266 0.03802769 -0.04419509 -0.033626366 0.058516216 0.13004556 0.05648819 -0.040553883
0.063800886 0.0040746415 -0.050272968 0.05346452 0.024503333 0.056035444 -0.0011934334 -0.029996343
0.000775178 -0.0020854853 0.020940548 -0.010291874 -0.07325568 0.01640881 0.0038404856 -0.06662682
0.046185378 -0.0579177 -0.06140162 0.016831296 -0.06588746 -0.0807655 -0.044781324 0.057963114
-0.06307063 0.011863849 0.05221848 -0.040976886 0.0963863 0.053572033 0.07549181 0.0143478885
-0.03456277 0.020461105 -0.043892954 0.014327862 0.07610673 0.068134636 0.108447775 0.0069271927
0.04889268 0.1006573 -0.04608505 -0.034173824 0.004187655 -0.0025359308 -0.07619976 0.03334201
0.057839897 0.031633496 0.026535371 0.097313076 0.045777604 0.007475623 0.04276813 0.015052408
-0.044439815 0.09201902 -0.02031254 0.063893154 0.03177813 0.07301016 -0.050981067 0.0064439736
-0.005804355 -0.020574667 -0.038682997 0.023262437 0.028682299 0.039635897 0.09145796 -0.031955898
0.030164972 -0.076656915 -0.0022668852 0.010659407 0.03799293 -0.036848526 0.084799215 0.019686002
0.06122307 -0.033266105 -0.04486165 -0.018430369 -0.0021601634 -0.021185555 0.022392984 0.07315126
0.049174894 -0.070347376 0.08060942 -0.046279024 -0.018197916 0.019901678 0.07381268 0.06141175
-0.069774546 0.063236095 -0.06287352 0.048345312 0.005649996 -0.03463332 -0.001966315 -0.00016933406
-0.038942 -0.076335974 -0.076874755 -0.103483684 0.034899075 0.032345977 0.0614078 -0.044696726
-0.019503295 0.061374053 -0.044949483 0.05768434 0.0124989925 -0.017733295 0.06777888 0.05540464
0.058760144 0.07933076 -0.065673135 0.10357909 -0.06088621 0.037304983 0.000754116 -0.012656422
-0.009478004 -0.041214954 -0.017637258 0.0075674136 -0.06940206 0.028573675 0.009994515 -0.049572542
0.06324963 0.018994346 0.06707759 0.007034872 -0.07551251 -0.00840241 0.061047286 -0.08285307
-0.024211377 -0.0660153 0.058010697 -0.02268001 0.015731331 0.02067151 0.041174088 -0.06748944
00000000: aed2 123c 6f68 7c3d 3c8d cabc ebb4 d3bc
00000010: 7f30 de3c de75 763d 9aea 9bbc ca34 7d3d
00000020: 1d01 913d abe4 c13d f805 12bd 5222 3bbd
00000030: d540 a83d 3887 aa3d b534 423c 9578 46bd
00000040: 89d3 403d 7cbd 5f3d d56f 8f3d 3110 503d
00000050: ce89 993d 8865 513d f9ca 24bd ea23 d33d
00000060: c1e7 273d e03e 3e3d fd87 0cbd 2b66 4cbd
00000070: 51ed 143d 1884 b2bd 8279 8c3c 9bf7 b43c
00000080: 4502 7bbd e3ea 14bd c68f 933d f972 673d
00000090: e3ad a43d 6cbf 663d f40f 683d 881c a3ba
000000a0: aa14 d23d 347b a7bd b24e 6d3c eabb 5fbd
000000b0: a95f 13bc f8ad 383c ec61 3a3d 6b47 a23d
000000c0: cf2c babc 9f06 6fba cac6 323d e9f6 653c
000000d0: 96db f33b b680 813d 2be2 0cbd c34b b2bd
000000e0: f0f0 f9bc 11d8 d13c 9ed4 ddbc ad9c 68bd
000000f0: 655b 92bd ea13 21bd 7470 4e3d 8040 89bd
00000100: b726 95bd 3ba6 05bd ddc2 983d eec3 c13b
00000110: 661c 71bd 221f 72bc 825f f3bc 3245 32bd
00000120: 14b3 3bba 28ed a33d 2d38 6dbd fbcd 933d
00000130: e72b 0e3d 7c5f 56bc 9cb7 f3bb b8fc 923d
00000140: 500c 863c 55dc 8b3d 003f 21bd c7d5 2d3c
00000150: a4dd a1bd c0b8 18bc c0d3 ac3d 6d5d 0cbd
00000160: ff0d d9bc b773 a53d bee1 d23c 3672 13bd
00000170: 0180 c23d 482f bfbc 7c6d d53d c849 adbc
00000180: d74e 5d3d ecc2 1b3d e905 35bd cdbb 09bd
00000190: b3ae 6f3d aa2a 053e 2960 673d d41b 26bd
000001a0: 0aaa 823d 9284 853b 07eb 4dbd 9dfd 5a3d
000001b0: 37bb c83c 6c85 653d fb6c 9cba e4ba f5bc
000001c0: 5135 4b3a a3ac 08bb 838b ab3c 409f 28bc
000001d0: 1307 96bd c56b 863c a8b0 7b3b a473 88bd
000001e0: e12c 3d3d 1c3b 6dbd 4480 7bbd c9e1 893c
000001f0: 01f0 86bd 6268 a5bd 9f6c 37bd bb6a 6d3d
00000200: 2d2b 81bd 9760 423c 0be3 553d 61d7 27bd
00000210: 2e66 c53d 596e 5b3d 739b 9a3d 6813 6b3c
00000220: b191 0dbd 0c9e a73c 19c9 33bd 69bf 6a3c
00000230: d8dd 9b3d 2c8a 8b3d de19 de3d 81fd e23b
00000240: b143 483d 6a25 ce3d adc3 3cbd daf9 0bbd
00000250: 9938 893b dc31 26bb 9f0e 9cbd a291 083d
00000260: 87e9 6c3d 2092 013d b560 d93c 144c c73d
00000270: 4c81 3b3d 12f6 f43b a22d 2f3d 609e 763c
00000280: 8606 36bd 7874 bc3d 7c66 a6bc 6ada 823d
00000290: c929 023d 5a86 953d 86d1 50bd f827 d33b
000002a0: 7532 bebb 348c a8bc 1072 1ebd de90 be3c
000002b0: 24f7 ea3c 4059 223d 504e bb3d 30e4 02bd
000002c0: 881c f73c 4dfe 9cbd 0690 14bb cba4 2e3c
000002d0: 799e 1b3d 7bee 16bd 36ab ad3d 8a44 a13c
000002e0: 0bc5 7a3d 0a42 08bd d9c0 37bd 49fb 96bc
000002f0: 8791 0dbb 548d adbc 7e71 b73c 54d0 953d
00000300: 9d6b 493d 4912 90bd 8d16 a53d 138f 3dbd
00000310: cc13 95bc d808 a33c 1a2b 973d e38a 7b3d
00000320: f5e5 8ebd ed81 813d d5c3 80bd bc05 463d
00000330: 9a23 b93b abdb 0dbd 4bdd 00bb 448f 31b9
00000340: a681 1fbd 0956 9cbd 8370 9dbd 41ef d3bd
00000350: 55f2 0e3d 377d 043d bf86 7b3d ea13 37bd
00000360: 60c5 9fbc 5c63 7b3d f31c 38bd 6a46 6c3d
00000370: 93c8 4c3c 6a45 91bc a7cf 8a3d faef 623d
00000380: 7aae 703d 2a78 a23d a37f 86bd 4621 d43d
00000390: d263 79bd 1ccd 183d deaf 453a e25c 4fbc
000003a0: a149 1bbc 03d1 28bd 037c 90bc 11f8 f73b
000003b0: ab22 8ebd 5713 ea3c 09c0 233c 940c 4bbd
000003c0: 0689 813d 089a 9b3c fa5f 893d c984 e63b
000003d0: 4ea6 9abd 43aa 09bc b80c 7a3d dfae a9bd
000003e0: f056 c6bc 0833 87bd a09c 6d3d 6ecb b9bc
000003f0: fede 803c 4c57 a93c 29a6 283d e737 8abd

fc4.weight f4 [12, 256]
0.0004871282 -0.030834239 0.06560418 -0.09138041 -0.08316854 -0.03649688 0.028431736 -0.06499598
-0.01580414 -0.10049945 -0.057404414 -0.03843194 -0.04634323 0.05301813 -0.009239946 -0.045203518
0.005318621 0.18811502 -0.0550216 -0.10079546 -0.062837735 -0.010914854 0.00924795 0.22125852
-0.065864876 -0.11476099 0.040870328 -0.004829436 -0.0910061 -0.18499917 0.046820868 -0.049850468
-0.0076307184 0.04005136 -0.11738387 -0.1485074 -0.126621 0.0087269535 -0.11098406 -0.005165107
0.080238186 -0.007886933 -0.073676094 -0.045902744 0.04737155 0.04948192 0.18944806 0.0003439533
0.023003973 0.14859083 0.045669757 -0.11882186 0.01523987 -0.022923827 0.2694323 -0.0894014
-0.085594885 -0.054998934 -0.06823176 0.0894982 0.03845705 -0.029047478 0.037279803 -0.047506638
-0.08264764 0.007317855 -0.07037112 0.026973605 -0.031207334 0.1144289 -0.27441415 0.009014374
-0.04281504 0.050018333 0.13819537 -0.06467319 -0.0021198092 -0.05572708 0.03455821 0.11428672
-0.100196145 -0.18175629 -0.046790823 -0.06824515 -0.050544824 0.02250592 -0.119608246 0.04173532
0.2241635 0.010374446 0.0029387916 0.027975794 0.00069804053 0.0014636999 -0.062173568 -0.1303429
-0.046261147 -0.06962401 0.025906395 -0.10554867 0.091127254 -0.095851846 0.21369311 -0.022885388
0.20325804 -0.049811438 0.009141838 -0.07321532 0.017867295 -0.022518054 0.039720464 -0.07744109
0.12557219 -0.017147696 -0.13427003 -0.11162833 0.020858033 0.0037097812 0.0042128386 0.08189247
0.030466512 0.09025329 0.028361347 -0.04990194 -0.06008777 -0.020380868 0.0049335505 -0.029454093
-0.060303126 0.19830304 -0.12571107 -0.14985682 -0.16712216 0.04793449 0.01497986 -0.19768381
-0.023781959 -0.08683349 0.009075124 0.051150918 0.21113013 -0.175433 -0.08506987 0.07179901
0.03658459 -0.17763442 0.036062922 -0.053735163 0.13334262 -0.108200915 -0.009524164 -0.009238488
-0.19385765 -0.0408721 -0.03827865 -0.10135803 -0.049980816 -0.035862077 -0.099013336 0.112159654
0.065587245 -0.09294098 -0.21376312 -0.020390732 -0.04481806 0.020801572 -0.05253225 0.031406973
0.01298306 -0.056007102 0.03628325 0.26624244 0.05048213 -0.09335361 -0.08369187 -0.08530945
0.13188168 -0.016913077 0.03463536 0.2127357 0.042842608 -0.23688869 -0.011116418 0.012605658
-0.05641547 0.0024984626 0.06053837 -0.08179903 0.10343878 -0.011100247 0.045057252 -0.012791212
-0.0381238 -0.012894949 -0.11208222 0.017114354 0.13355662 0.018533645 -0.18620382 -0.07519652
-0.036552187 -0.013533024 0.053668343 -0.07639355 -0.030484054 -0.10257034 -0.026189584 0.08209314
0.055947397 -0.2815897 -0.037038486 -0.052583676 0.054767907 0.0417081 0.0136813605 -0.066157386
0.097782545 -0.0022775305 -0.114378355 0.2192963 0.1012526 -0.116192475 -0.060275313 -0.13102363
0.051227354 0.022147035 0.03240398 0.18417077 -0.06867577 -0.018906998 0.01672573 0.00011227571
0.03449734 -0.08728865 -0.0176757 0.032163545 -0.09080559 -0.01605623 -0.16895215 0.04906233
-0.096122436 -0.08717223 0.28750834 0.04127178 -0.15543607 0.004835864 0.045289267 -0.006487607
-0.053841673 -0.023578215 -0.14945957 -0.050878696 -0.041870486 0.028542686 0.045874264 -0.044593837
00000000: 3e65 ff39 1698 fcbc 7c5b 863d a725 bbbd
00000010: 4454 aabd c17d 15bd ace9 e83c 9d1c 85bd
00000020: af77 81bc a8d2 cdbd e420 6bbd cf6a 1dbd
00000030: 66d2 3dbd 8a29 593d 2463 17bc 5327 39bd
00000040: d447 ae3b 39a1 403e 545e 61bd da6d cebd
00000050: 12b1 80bd 37d4 32bc b784 173c 9891 623e
00000060: 2ae4 86bd cf07 ebbd a567 273d 3f40 9ebb
00000070: 6861 babd 6c70 3dbe 3dc7 3f3d 0130 4cbd
00000080: 1b0b fabb e50c 243d f466 f0bd 5312 18be
00000090: efa8 01be 7ffb 0e3c 9c4b e3bd 0f40 a9bb
000000a0: eb53 a43d 3238 01bc 7ee3 96bd 8404 3cbd
000000b0: ac08 423d 8ead 4a3d acfe 413e a154 b439
000000c0: d472 bc3c 3228 183e 3610 3b3d e058 f3bd
000000d0: a6b0 793c c0ca bbbc 08f3 893e 1518 b7bd
000000e0: 5f4c afbd 9046 61bd 18bd 8bbd d54a b73d
000000f0: 2485 1d3d faf4 edbc b5b2 183d 5296 42bd
00000100: 2a43 a9bd 9eca ef3b bc1e 90bd c0f7 dc3c
00000110: 86a6 ffbc b359 ea3d 0380 8cbe 06b1 133c
00000120: d35e 2fbd 06e0 4c3d 1683 0d3e 6173 84bd
00000130: 7fec 0abb 1442 64bd e98c 0d3d 280f ea3d
00000140: a333 cdbd 521e 3abe bca7 3fbd 1dc4 8bbd
00000150: 1708 4fbd 565e b83c 2bf5 f4bd a8f2 2a3d
00000160: 1e8b 653e 95f9 293c be98 403b 7e2d e53c
00000170: b5fc 363a 9ed9 bf3a b6a9 7ebd 9c78 05be
00000180: 547c 3dbd 0897 8ebd a639 d43c e729 d8bd
00000190: eda0 ba3d f94d c4bd 5ed2 5a3e 237a bbbc
000001a0: e022 503e 1407 4cbd a6c7 153c eaf1 95bd
000001b0: 6f5e 923c c877 b8bc edb1 223d 6f99 9ebd
000001c0: ff95 003e 5379 8cbc 157e 09be 659d e4bd
000001d0: 77de aa3c cd1f 733b da0b 8a3b 3db7 a73d
000001e0: e894 f93c b8d6 b83d 0e56 e83c fa65 4cbd
000001f0: 981e 76bd c7f5 a6bc 9fa9 a13b b649 f1bc
00000200: 6900 77bd f40f 4b3e 67ba 00be 1174 19be
00000210: 1222 2bbe f556 443d 166e 753c a06d 4abe
00000220: 62d2 c2bc c2d5 b1bd d4af 143c a083 513d
00000230: 7f32 583e b5a4 33be 1d39 aebd 5c0b 933d
00000240: b9d9 153d cce5 35be b7b6 133d 6719 5cbd
00000250: f88a 083e 7198 ddbd 3d0b 1cbc 075d 17bc
00000260: 9f82 46be 8169 27bd 13ca 1cbd cd94 cfbd
00000270: afb8 4cbd 1de4 12bd 81c7 cabd f6b3 e53d
00000280: 9b52 863d d757 bebd b8e4 5abe 770a a7bc
00000290: 2493 37bd 0f68 aa3c 0e2c 57bd 99a4 003d
000002a0: e7b6 543c b467 65bd bf9d 143d ee50 883e
000002b0: 5ac6 4e3d 2d30 bfbd a566 abbd b9b6 aebd
000002c0: fe0b 073e 4b8d 8abc cfdd 0d3d 63d7 593e
000002d0: bb7b 2f3d f392 72be a321 36bc f687 4e3c
000002e0: e813 67bd 3fbd 233b 15f7 773d 4086 a7bd
000002f0: b6d7 d33d cfdd 35bc f48d 383d 3b92 51bc
00000300: b427 1cbd 5645 53bc 5d8b e5bd 6733 8c3c
00000310: 11c3 083e dfd3 973c 37ac 3ebe a200 9abd
00000320: bfb7 15bd 9eb9 5dbc 56d3 5b3d 3974 9cbd
00000330: b2b9 f9bc 6610 d2bd 8a8b d6bc 7320 a83d
00000340: 1929 653d 862c 90be abb5 17bd fb61 57bd
00000350: 5054 603d 1dd6 2a3d c927 603c 867d 87bd
00000360: 3742 c83d 9f42 15bb 333f eabd 368f 603e
00000370: 865d cf3d 52f6 edbd 3fe3 76bd 0f2b 06be
00000380: c6d3 513d b36d b53c 09ba 043d 4397 3c3e
00000390: e2a5 8cbd d9e2 9abc 6604 893c 9075 eb38
000003a0: 154d 0d3d 64c4 b2bd a1cc 90bc ecbd 033d
000003b0: 48f8 b9bd 5b88 83bc cb01 2dbe 95f5 483d
000003c0: d7db c4bd 5b87 b2bd 4b34 933e 990c 293d
000003d0: a22a 1fbe 2b76 9e3b 3d81 393d fe95 d4bb
000003e0: 1689 5cbd 1a27 c1bc ee0b 19be 2e66 50bd
000003f0: 6380 2bbd 5ad2 e93c a7e6 3b3d 07a8 36bd

fc4.bias f4 [12]
-0.04510587 -0.020365262 0.005545997 0.013959492 -0.019731734 0.03827144 0.030050168 -0.023635807
-0.09143533 -0.059058525 -0.07293515 -0.056923866
00000000: efc0 38bd 0dd5 a6bc 32bb b53b 5ab6 643c
00000010: 72a4 a1bc 83c2 1c3d c52b f63c e19f c1bc
00000020: 7242 bbbd 5ae7 71bd 065f 95bd 0029 69bd
