model.pt_episode_900.pt (torch, 182492 bytes, 8 tensors)

fc1.weight f4 [64, 5]
00000000: e79f 633e 3130 dd3e 9436 26be 1cb4 c8be
00000010: c94f 8e3e a00c be3e 4a12 53be d969 2c3e
00000020: 03f0 1bbe 2ea0 503e 43f2 a0be 0352 39bd
00000030: 4154 f6bd 8098 863e 0566 983e 8426 ea3e
00000040: 3a3f c43c b69b bd3e ee57 bd39 7878 b7be
00000050: 1653 34be 8ab0 92be df98 9a3e e5ca 5ebe
00000060: e993 8f3e ce4a b0bd cd4d 9a3e 2403 4fbe
00000070: ff44 aabe edbe a2be 40a9 653d b691 10be
00000080: 8376 54be f3ee 903e 53a1 b13e d95f 78be
00000090: 9cee d13e 8905 443c 6ff0 3d3e dfb6 3f3d
000000a0: 629d fbbc 2ccf 1fbe 0452 13bd 73d9 293d
000000b0: 1c4e 8bbe b377 7c3e 9cdc b73e 8e7e 4b3e
000000c0: 3f4f 1f3d cdd4 40be a6a2 c93e cbff debe
000000d0: a832 ba3e ae78 d23e 29af 743e f2e9 f43e
000000e0: 5a3c a0bd 7876 893c 7c2b cb3d f75d 4c3d
000000f0: b64e 053f 86cd 523b c2f4 b5be 3067 4bbd
00000100: 3a73 5c3e 79c3 3ebe 6113 b1be 996f 0a3d
00000110: 3180 0dbe 973d aa3e e9ef 573e 1743 aa3e
00000120: 46e8 0b3e 99dd 36be 5d14 b4be 9a9f 373e
00000130: c387 2d3e 63e3 ad3d 92b7 b43c 1e89 f8bd
00000140: 8238 963b d63c 783d 6244 9cbe 39f3 b93d
00000150: 52e3 063e ce9d b4bd ecd0 953e 36dd 9a3e
00000160: abc6 bcbe fa2b 433e 0e90 5c3e f8e4 b5be
00000170: b58f 9e3e fb54 12be a387 423d 3b54 3ebe
00000180: d1da d03e 5fba 76be 50db 413e 28b7 8b3e
00000190: 4855 8fbd 39e6 7dbd 81ba 463e f754 d63e
000001a0: 2253 8a3e b433 e13e 0365 a6bd d6c5 393e
000001b0: 4c29 d7be 3054 9f3e 2d19 233d 8692 2e3e
000001c0: 7ea3 ae3e 558e f5bc 4617 b3be c968 0ebe
000001d0: dc7b 31be 73a6 ad3d c0da 04bc 5473 bd3d
000001e0: 84ef bc3e 2d95 99bd e5ed 883e 9fa4 3bbe
000001f0: e153 c23c 250c 15bb c0b6 04be 3de6 af3e
00000200: 24d0 68be 267b 483e 037b 0f3e 62e3 d43d
00000210: 5d4d bcbe edce 55be 6c54 57bd 2ce8 953d
00000220: 078a 843e 88d5 333e 3b01 bebe 168b 86bd
00000230: 4bee 233c 409f 9fbe 2084 703d addf ca3e
00000240: 3adf 923e a725 353e 0bb3 2a3d 7766 973e
00000250: 8370 74be f441 7dbd 523f 95be 17c5 a83c
00000260: d7b5 99be c5e5 b33e 3b04 443e 4797 d33d
00000270: d8ac 3bbe 0fd8 bb3e 3cc4 973e 21f2 9dbe
00000280: 1213 b33e f119 913e 5391 c2bc 4ff1 2abe
00000290: 00d6 b93e 62ac 453b 1370 37be 7878 bbbe
000002a0: aa9c 863e 2226 373e b6d2 a63e 92b8 b53e
000002b0: 53fa 5f3e 436d ce3d ae3e 123e bdf7 8ebe
000002c0: ca08 963d 8ce6 23be f517 b53d e95d a3be
000002d0: f6a4 3dbe 83d5 50bd d1a4 86be 564f f63d
000002e0: acd2 b8be 28f0 b23e 945a 54be 619a 35be
000002f0: 3b88 afbe 2601 bb3e 55f9 aa3e 83a8 db3e
00000300: 2e02 723d feb8 833e 9d66 a1be 074f d33e
00000310: e1c6 30be b088 a7ba f239 1e3e f4df 78bc
00000320: 957a 29be 442b 3c3e 9b8b abbe 67ec b43e
00000330: df2e a7bc 7c4b 8e3e 6c9f 513e 686e 3bbe
00000340: b0d8 c1be 14e8 6c3e 2fd8 903e ad18 343e
00000350: 7821 96be 6921 e83e 39a4 4d3d 34f0 aabe
00000360: 66c8 a2be 6559 8cbe 940f d83c 34bd 12bd
00000370: a6c1 5d3e e4a9 eb3e bb7a 2bbd 9f20 ad3e
00000380: 7ade 8ebe 0970 57bb b097 79be dc3c 58bd
00000390: 0212 bf3d 6039 99bc 4b07 92be 5c00 bdbe
000003a0: 39f3 303d c63c 933d d5df a0b7 f0b0 af3e
000003b0: ceac 24be be64 ae3d f5dc 073e 3567 a5be
000003c0: 9b2d a43e 597c 4a3e cd55 233e dfd2 61be
000003d0: 18f0 d23d 8ac3 0dbc 4816 e4bd 65e2 8bbe
000003e0: 8bc6 053e e415 f2bd 186e e53d 0dfb c93e
000003f0: 5630 e13e 6064 2bbe 2769 283c ba17 2dbe
0.22228967 0.4320083 -0.16231757 -0.39199913 0.27795246 0.37119007 -0.20612445 0.16837253
-0.15228276 0.20373604 -0.3143483 -0.045244228 -0.12027789 0.26288223 0.29765335 0.4573251
0.02395593 0.3703286 0.00036114402 -0.35834098 -0.1760982 -0.28650314 0.30194756 -0.21757086
0.28042534 -0.08608018 0.30137482 -0.20216042 -0.33255765 -0.3178629 0.056069613 -0.14118084
-0.20748334 0.28307304 0.34693393 -0.24255313 0.41002357 0.01196421 0.1854875 0.04680526
-0.030714694 -0.15606374 -0.035966888 0.04146714 -0.2720803 0.24655037 0.359105 0.19872496
0.038893934 -0.18831177 0.39381903 -0.4355453 0.36366773 0.41107696 0.23894943 0.47834736
-0.07824011 0.016780123 0.09920403 0.0498943 0.5207323 0.0032165959 -0.35538298 -0.049658954
0.2152833 -0.18629254 -0.34585097 0.033797834 -0.13818432 0.33250114 0.21087612 0.3325431
0.13662824 -0.1785797 -0.35171786 0.17931977 0.1694632 0.08490636 0.02206019 -0.12135528
0.004584373 0.060604893 -0.30520922 0.09079594 0.13172653 -0.08819161 0.29260957 0.30246896
-0.36870322 0.19059744 0.21539328 -0.35526252 0.30969015 -0.1429023 0.047492635 -0.18586819
0.40791944 -0.24094532 0.18931317 0.27288175 -0.06998688 -0.061987136 0.19407083 0.41861698
0.2701655 0.4398476 -0.08124735 0.18141875 -0.42023695 0.31118917 0.03981893 0.17048082
0.3410911 -0.029975096 -0.34978694 -0.1390716 -0.17332405 0.08479013 -0.008108795 0.09250513
0.36901486 -0.07499156 0.26744 -0.18324517 0.023721637 -0.0022742834 -0.12960339 0.34355345
-0.2273565 0.19578227 0.14011769 0.10394932 -0.36777773 -0.20879717 -0.052570745 0.07319674
0.25886557 0.17561924 -0.37110314 -0.06569497 0.010005544 -0.31176186 0.058719754 0.39623776
0.28685933 0.17690144 0.041674655 0.29570362 -0.23871045 -0.061830476 -0.29149872 0.020601792
-0.30021545 0.35136238 0.19142239 0.10331588 -0.18327653 0.36688277 0.29641902 -0.30848792
0.34975487 0.28340104 -0.023750937 -0.16693614 0.36296082 0.0030162563 -0.17913847 -0.36615348
0.262914 0.1788564 0.32582635 0.35492378 0.21872835 0.10079434 0.14281723 -0.27923384
0.07325895 -0.16005915 0.0884246 -0.31907585 -0.18519959 -0.05098487 -0.2629762 0.12026851
-0.3609823 0.3494885 -0.20737678 -0.17734672 -0.34283623 0.36524314 0.3339335 0.42902002
0.05908411 0.25727075 -0.315236 0.4127123 -0.17263366 -0.0012781825 0.15451792 -0.015190113
-0.16550668 0.1837588 -0.33504948 0.3533661 -0.020408092 0.27791965 0.20470971 -0.18303835
-0.37860632 0.23135406 0.28289935 0.17587538 -0.2932241 0.4533799 0.050205443 -0.33386385
-0.31793517 -0.27411953 0.026374616 -0.03582497 0.21655902 0.46028054 -0.04186509 0.3381395
-0.2790411 -0.0032873175 -0.2437427 -0.052792415 0.093296066 -0.018704116 -0.2852119 -0.36914337
0.043200705 0.07189326 -1.9177716e-05 0.3431468 -0.16081545 0.08515309 0.13267882 -0.32305303
0.32066044 0.19773997 0.15950699 -0.22053097 0.102997005 -0.008652577 -0.11137062 -0.27321163
0.1306402 -0.118205816 0.11202639 0.3944935 0.4398219 -0.16737509 0.0102789765 -0.16903582

fc1.bias f4 [64]
00000000: d76c 28be b7cb 81bc d1d6 09be b7be aa3d
00000010: e3bb c03e ac31 213d f35a bf3e fdcc 5fbe
00000020: c133 01be a2d0 c53c 401e 17be 14f5 10be
00000030: 1ea2 18be 0f1b 913d b49d 473e c7d3 a63e
00000040: 8842 b33c eb6d b1be 0631 ac3e 72c8 9dbd
00000050: 5f0b 5e3e ba6d 53be 3cc8 cc3e f86e 6bbe
00000060: af7f d3bd d4f1 17be b131 503e 157d 883e
00000070: 00d4 c03e 6a09 0f3e 086a bc3e f923 7dbb
00000080: d18f a8be 3fdf 953e 3c84 c13e 131c b93e
00000090: 6ef2 a8be c51e c3be 5d4e dabd e8f9 c2be
000000a0: dd61 8e3e 26ee 9c3d 1de9 38be 736e 273c
000000b0: 0428 e93e 292c b23d f4ce 363e f564 823d
000000c0: 56b5 483e 49eb 8dbe 46bb b73c 4109 2dbe
000000d0: 10d7 47be 9fc1 793d d98f e33d 3cfc b3be
000000e0: 0680 b93d 1b02 bdbe 160a 7c3e 697e bd3e
000000f0: 9055 81be 5d35 3ebe 5790 f2bc 1623 aabb
-0.16447769 -0.01584421 -0.13460852 0.08337157 0.37643346 0.03935401 0.37374076 -0.2185554
-0.12617399 0.024147335 -0.14757633 -0.1415599 -0.14905593 0.07085239 0.19493753 0.32583448
0.02188231 -0.34654173 0.33631152 -0.077042475 0.21684025 -0.20647326 0.39996517 -0.2299155
-0.10327088 -0.14838344 0.20331456 0.2665793 0.37661743 0.13968435 0.36799645 -0.0038626178
-0.32922223 0.29271886 0.377962 0.3615423 -0.3299746 -0.38109413 -0.10659478 -0.38081288
0.2780904 0.07662611 -0.18057676 0.010219204 0.45538342 0.08699829 0.17852384 0.06366912
0.19600424 -0.2771857 0.022428166 -0.16898061 -0.19515634 0.060975667 0.11111421 -0.35153377
0.09057622 -0.3691567 0.24613222 0.37010506 -0.25260592 -0.18575044 -0.029609842 -0.005192171

fc2.weight f4 [128, 64]
00000000: b3e5 51be ced0 303e 02e3 2abe f41a 8e3d
00000010: 2ff7 e23d c649 fa3c f760 793d 986f c1bd
00000020: 4577 8f3d 9167 463d ad98 3f3e 24bb 7f3d
00000030: 537f 5b3d a85a bebd d32b e4bd 68f4 e73c
00000040: 80da cd3c 5dd9 85be 8229 853e 969e 2ebe
00000050: 3d8c 883d f2ff 103e 619e 08bd 0756 14bd
00000060: 6297 133e 6936 543e 2e2d c43c 9b2a 05be
00000070: 4a9c 323e 5270 43bd 862f 35bd 38e2 3a3e
00000080: 0ee7 d2bd 56cd a2bd 8bdc bb3d 369f b93c
00000090: 077a 9e3c d4f6 473e c2df a5bd bb43 903d
000000a0: 9563 333e 81e9 b73c 2575 83bd e674 d1bd
000000b0: cf19 00be cffb 923d 5ab1 b7bd 6a5a ca3d
000000c0: 028b ccbd f47a b33d e449 00be 5479 3a3d
000000d0: 16fb 2e3c d567 cabd 5b98 7a3c e4d9 93bd
000000e0: 72e2 babd df10 3c3e 30a6 af3d b38d b63d
000000f0: cded 353d 54c8 d1bd 2dc5 bb3d afc0 35be
00000100: 22e6 9cbb edb6 d83d 67ca 943d 42ca c6bc
00000110: 265a bd3d 7f9e 293d 0a29 bbbc ef3c 903d
00000120: a6ff b4bd c078 703c 4f12 663d 0ce1 be3c
00000130: dcb0 043e f62e b63d 9ff1 e6bd 9b20 8cbc
00000140: 6e21 af3d 45c2 b0bd f021 b43e 4397 2dbd
00000150: e54e e0bb 4bad 793c 3746 e2bd ead4 67bd
00000160: e7f3 a1bc 1d4d 463e f7c8 88bc 41f5 853d
00000170: 5bc5 2fbc 1d2e 26bd dc7b c63d 1c1d 8bbd
00000180: f882 a6bd 87ad 323e bdf9 3c3d 9223 d3bd
00000190: 37a1 003b 50c5 8a3d b0bd 91bd b263 a43c
000001a0: 3646 943e ca36 8fbd ffbe b73d 6cee 2f3d
000001b0: 1c90 b53d 7a09 bdbd 6697 73bd 9670 24bd
000001c0: 31f0 e43c a22a 303d 1f0b 4e3d 575d a7bd
000001d0: 6e4e f53c d5b6 2ebd 29e1 b3bc f65b 32bd
000001e0: fb4d 013d b2ee b33d 5789 083c 1e1e 703e
000001f0: 5e6d aebd ff94 99bc dba8 693d ae3c 883d
00000200: 36e8 cd3c da34 d1bd 7432 3ebd 268a 41bd
00000210: d210 bf3c c2ca bc3c 5f6b b5bd 2e45 cbbd
00000220: 3efe afbc 9850 32bd cd84 9bbd d175 a4bd
00000230: c78d 9a3c 82c2 7dbd 5702 07bc 1105 ac3d
00000240: 1d0a 94bd 0cb1 343d 5f18 203d 7da8 833d
00000250: 4aec cdbd ab8f b9bd 34b2 b43d 9704 95bb
00000260: 6bd8 273d fe73 49bd 3fe6 99bd cdf6 bc3d
00000270: d7d7 823c fdbd 84bd 2e5d bbbd e6d2 7ebd
00000280: f76d 21bd c070 c63d 2a2c bebc 0482 bd3d
00000290: d293 b83c 6e37 d2ba 6784 a53d d664 ddbc
000002a0: 0971 98bd 37dc 073c 6ca9 b7bd 726a cfbd
000002b0: 7c87 ccbd 6e5e d0bb cf93 843c 2398 89bd
000002c0: c276 47bd af48 283d 9fed 81bd f74a a7bb
000002d0: 964e 2e3b 3046 383d d6b6 c33c 5aff cc3d
000002e0: a288 b13c f643 c33d 48c6 afbd da53 2e3d
000002f0: 5626 cebd 656a 9c3d 9fee 113d 2ef7 cbbb
00000300: 23f9 1fbd 134c 983d e5d8 be3d d67f ba3d
00000310: ae70 7a3b 2642 e83c c69b bcbd 59b5 abbd
00000320: 5fd7 95bc b7b9 9abb 1cb4 2e3d 6a92 ac3d
00000330: 2890 ccbd 767f 413d 97a9 17bd 7aba babd
00000340: eea9 533d 9618 32bd eff8 0dbd 8687 d6bd
00000350: 3f7f 8e3c bad0 4ebd 9e5c 7a3d d78a 8dbb
00000360: 6e68 eebb 3ecd 33bd 3788 04ba aede b1bd
00000370: a0aa 3e3d 6649 f4bc f665 f0bc 5fae 9ebc
00000380: 743e d6bd 815c b83d d76b 97bd 3780 153c
00000390: 6a2a ca3d 8e18 e03c e520 943d a8fb c4bd
000003a0: 447d b3bd 365d 343d da9d 553d 8f53 8abc
000003b0: 062d d2bc 2ee8 f2bb b6bf 31ba 3546 bfbd
000003c0: 3df8 933d 674c 173c 9480 ac3d 8219 7cbd
000003d0: c33d 13bd fa8d 37bd 37a6 0b3b 37b3 0cbc
000003e0: 505b c73d ee69 c73a a79e a1bd df00 a5bd
000003f0: b634 c7bd cec1 b5bd 5655 bebc 26bf eebc
-0.2049778 0.17267153 -0.16688159 0.06938735 0.11082303 0.030552756 0.06088349 -0.09445113
0.07005171 0.048438612 0.18710585 0.06243433 0.053588223 -0.09294635 -0.11141171 0.028314784
0.025128603 -0.26142398 0.2600823 -0.17052683 0.06667373 0.14160135 -0.033354167 -0.036214855
0.14413217 0.20723881 0.023947325 -0.13004534 0.17442432 -0.04771454 -0.044234775 0.18250358
-0.102979764 -0.07949321 0.091729246 0.022658926 0.019345297 0.19527751 -0.08099319 0.070441686
0.17518456 0.02245021 -0.06418828 -0.10227375 -0.12509845 0.07176935 -0.08969374 0.09880526
-0.09987451 0.08763686 -0.12528187 0.045525864 0.010679981 -0.09883086 0.015295113 -0.07219294
-0.09125222 0.18365811 0.085766196 0.08913746 0.044416238 -0.10243288 0.09168468 -0.17749284
-0.004788176 0.10581765 0.07265168 -0.024266366 0.0924571 0.04141092 -0.022846717 0.07042872
-0.088378236 0.014677227 0.056169804 0.02330067 0.12958091 0.08895676 -0.11276554 -0.017105391
0.08551298 -0.08630804 0.35182142 -0.042380583 -0.0068453425 0.01523907 -0.11048549 -0.056599535
-0.019769622 0.19365354 -0.01669739 0.06540919 -0.010728206 -0.04057132 0.09691593 -0.067926615
-0.08130449 0.17449008 0.046136606 -0.10309519 0.0019627342 0.067759156 -0.07116258 0.02006707
0.28959817 -0.06992872 0.089719765 0.042951986 0.08865377 -0.09230323 -0.059470557 -0.040146433
0.027946563 0.043009408 0.050303575 -0.081721 0.029944625 -0.04265483 -0.02195795 -0.043544732
0.03156851 0.08785762 0.008333526 0.23448989 -0.08516954 -0.018747805 0.0570458 0.06652199
0.02513514 -0.10215159 -0.046434835 -0.04725089 0.02332345 0.023045901 -0.0885837 -0.09925304
-0.021483537 -0.04353389 -0.07593689 -0.08030284 0.018866433 -0.061953075 -0.008240304 0.08399404
-0.072284915 0.044114158 0.039085742 0.06428621 -0.10054834 -0.090606056 0.08823052 -0.0045476663
0.040977877 -0.049182884 -0.07514619 0.09226761 0.015972061 -0.0648155 -0.09148632 -0.062212847
-0.03941151 0.09689474 -0.023214418 0.09253314 0.022531424 -0.0016038248 0.08081894 -0.027025621
-0.07443435 0.008292249 -0.089678615 -0.10127725 -0.09986779 -0.006358913 0.016183762 -0.06718471
-0.04869724 0.04108494 -0.06344151 -0.005105372 0.0026597134 0.04498881 0.023890894 0.10009642
0.021671597 0.09534447 -0.08582741 0.042560436 -0.10065906 0.07637481 0.035627957 -0.0062245345
-0.039055955 0.07436385 0.09318713 0.09106414 0.0038214135 0.028351855 -0.09209399 -0.08384199
-0.018291174 -0.004721846 0.042652234 0.08426364 -0.09988433 0.047240697 -0.037026968 -0.09117599
0.05167573 -0.04348048 -0.03466123 -0.10475068 0.01739466 -0.050492026 0.061123483 -0.0043195295
-0.0072756326 -0.043896906 -0.0005055698 -0.08685051 0.04654944 -0.029820155 -0.029345494 -0.019370256
-0.10461131 0.09002019 -0.07393616 0.009124807 0.09871371 0.027355459 0.07232837 -0.09618312
-0.08764127 0.044034205 0.052152492 -0.016885547 -0.025656234 -0.007412932 -0.00067805813 -0.09339563
0.07225082 0.009234524 0.08422962 -0.061547764 -0.035947572 -0.044813134 0.0021308789 -0.00858765
0.09734213 0.0015214065 -0.07891589 -0.08056807 -0.09726851 -0.08874856 -0.02323405 -0.029143881

fc2.bias f4 [128]
00000000: 3ac8 d13d c6db 6abd a97a 89bd 609f d7bd
00000010: 87c9 833c 28e7 c9bd edfb 1e3e 747f a6bd
00000020: bdb3 c03d 57a2 1bbd 3ffb 763d cf34 443c
00000030: ff1b d3bd 5fee af3a 368f df3c 6932 e63d
00000040: 4030 63bd 290e d53d 8877 4c3d 81f7 903b
00000050: 6703 8dbc 71c8 9a3d 942a 053e ce90 efbc
00000060: 3ac3 6fbd c766 19bd c813 fcbc 28f8 673c
00000070: ee6a 95bd b6b2 f43d 1abd 173d 4e9a cebc
00000080: d3d7 173c b201 803d 7d76 8d3c 1963 083e
00000090: 3e76 8a3d 6b52 b23d 71fb 2ebd ea23 bb3d
000000a0: 3147 39bc 0e48 c63c 0779 843c 1941 44bd
000000b0: f61a 8abd db59 a03d d74b d3bd 211c 7a3d
000000c0: 6208 8fbc b441 abbc bf65 a6bc d425 babd
000000d0: 87fa aebd 83fb dd3d d328 2a3d 373e 0f3d
000000e0: 3c63 fd3b 4e18 ddbc e657 d8bc c3be 143d
000000f0: 6e48 efbc 6fdc 2c3e 0653 57bd db7c 33bd
00000100: f7b9 a63b 87f9 b2bd 7655 a2bc e79f 27bd
00000110: 6a94 4b3d b6c7 6bbd 903b 9abd a073 b63a
00000120: cf27 be3d 5915 963d cb54 d3bc 3482 883d
00000130: b913 7dbd 39ad 7d3d 1845 88bd 7f1a 103d
00000140: 21a6 b8bd 0ef1 cd3c d75d 52bd b867 8abc
00000150: 2cf8 05bd 4bf4 5fbd aa74 6abd f268 ccbc
00000160: a280 bf3a d143 0b3d 600a b13d c86f bd3d
00000170: 31c8 1cbd 8db3 6fbd 2e1d bf3d f086 ba3d
00000180: e2cc cbbd 9023 b4bd 2b74 24bd 0293 b23d
00000190: cb7c 61bd 8431 69bd 90a4 cdbb c833 3e3d
000001a0: 582a b93d 3038 b0bd d67c 313b 8dcf fc3d
000001b0: be01 33bd 338e 5e3d 6225 aebd 92ab b1bd
000001c0: 8bbd 943c 2d9b 0a3d f929 5b3d d433 e5bc
000001d0: d7c4 4c3d 9f3d c93d 29f7 ed3d da6f 98bd
000001e0: 5395 8fbd 3e4c 2f3d b620 193e ce92 adbc
000001f0: 3ee5 b5bd 39e9 ac3d f2d2 183d 88b2 e33c
0.10243268 -0.0573385 -0.06712849 -0.10528445 0.016087307 -0.09858543 0.1552579 -0.081297785
0.09409282 -0.037996616 0.0602982 0.011975481 -0.10308074 0.001342248 0.027289968 0.11240084
-0.055465937 0.104030915 0.04991868 0.004424036 -0.017213536 0.075577624 0.13004524 -0.029243853
-0.058535792 -0.03745153 -0.030771151 0.014158286 -0.07295786 0.11948149 0.037045576 -0.025220063
0.009267765 0.06250323 0.017268414 0.13319053 0.06760834 0.08707126 -0.042720262 0.091377094
-0.011308477 0.02420428 0.016170992 -0.047913644 -0.06743424 0.078296386 -0.103172 0.061061982
-0.017460052 -0.020905353 -0.020312188 -0.090892464 -0.08543878 0.10838988 0.04154284 0.034971442
0.007732777 -0.026989128 -0.0264091 0.036314737 -0.029209342 0.16880964 -0.05256941 -0.043820243
0.0050880867 -0.08739 -0.019816142 -0.04092398 0.049702086 -0.057563506 -0.07530892 0.0013919957
0.09284937 0.073282905 -0.025797268 0.06665459 -0.061786387 0.061932776 -0.066538036 0.03518152
-0.090160616 0.025139358 -0.051359024 -0.01689516 -0.03270738 -0.054676335 -0.057240166 -0.024952386
0.0014610479 0.03400022 0.08644557 0.09249836 -0.038276855 -0.058520842 0.093317375 0.091077685
-0.09951188 -0.087958455 -0.04014985 0.08719446 -0.055050652 -0.056931987 -0.006275721 0.0464361
0.090412796 -0.08604467 0.0027082465 0.12344275 -0.043702833 0.05433483 -0.08503224 -0.086753026
0.018156787 0.033839393 0.053506825 -0.027978815 0.04999241 0.098262064 0.11619408 -0.07443209
-0.07010903 0.04279732 0.14953884 -0.021188166 -0.08881615 0.08442921 0.037310548 0.027795091

fc3.weight f4 [256, 128]
00000000: f8eb 963d 9455 623d 82a8 3dbd df82 2c3d
00000010: cac9 cabc afc2 55bd 3a1f 79bd 5e89 0d3d
00000020: 7931 a1bd cd91 8abc cdb3 b43c 8f98 2dbd
00000030: 8dc6 993d 9d09 52bd 3859 33bd a39a 973d
00000040: 9858 80bd 668f af3c 8c49 05bd 9c36 6cbd
00000050: 2e5d 7fbd 92a6 883d 9a05 613d 30a6 943c
00000060: 3b2a 0ebd 21a6 17bd f52e ac3c ed9c 903d
00000070: ab60 2c3b 1320 3a3c 8096 e73c ce1d 12bd
00000080: 9fff 523d 933f 86bc bb96 b0bc e193 a7bc
00000090: f139 363d 3673 87bd ad75 85bd a1de 11bd
000000a0: ce97 5f3a 4cc6 20bd 0b25 9abd 7f6b 2cbd
000000b0: 20c8 edbc f64e 593d 171c 493d 10b4 bf3c
000000c0: a437 5abc c710 2dbd d88f 393c f55c 32bd
000000d0: b0f1 aa3c 0725 d83c 65ed 18bd 8a2b aebb
000000e0: 0e8e 843c 903b bcbc 207d 3fbd e498 853d
000000f0: 207c 0ebd bbef 8f3c 2444 873d 9881 4bbc
00000100: 984a feb8 c974 82bd 40af 8ebd e993 c73c
00000110: 7569 8b3d 1c59 693d d027 a0bd b83f 7e3c
00000120: 8ad5 3dbd c42a 63bd 8af8 54bc e826 d3bb
00000130: 9eea fa3c 1a6b 03bd fcf9 74bd f1d0 99bb
00000140: 469c 863c 0077 9cbd 4eb1 5f3d 040a f23c
00000150: f561 133c 1111 123c b3b6 9a3d c578 183d
00000160: 15c7 463d 4837 713c 205c 80bd 00a9 77bc
00000170: 72e4 a7bb b1cd 22bb ad3b 8cbc b095 5e3d
00000180: f9e6 453d d250 0b3d 10a9 c23c eca3 5abd
00000190: 4ddb 1ebd 19d2 1abd 8ca5 a9bc 4871 2abd
000001a0: acb7 62bc cc06 9e3d f410 d9bc 6ce4 f33b
000001b0: dd2e 35bd 5de8 15bd e1d2 16bc f093 e7bc
000001c0: 8e04 e73c a26d 91ba 1d0a 453d 1e04 36bc
000001d0: 4c16 2a3d a4da 77bd 03a1 96bd b21d b83a
000001e0: 5453 00bd 0ced 3d3d ab28 46bd 5eac cc3c
000001f0: 2a20 b53b 184d 823d d992 86bd 60da 853d
00000200: 03bf bf3e 7224 073e 2eb9 99bd 7303 963d
00000210: 6148 923d dd06 b53c 4c21 713e 64b0 d43d
00000220: 2dec 80bd d2e3 1cbc bbda 2e3d 7fc6 003e
00000230: 7a82 7d3e ac3e 913e 26d1 c0bb 0b61 213e
00000240: 807b 98bd 2d72 8e3d cc67 fe3d 4283 a13d
00000250: eec9 143d dbe2 533d c75c 8d3e 8812 1b3c
00000260: 8c6b 3fbd 2ab9 77bd 158d 413e 222f 9b3d
00000270: 8043 803d fada 24bd 26a6 363d 0d6c 09bd
00000280: 658f 193e 8e20 7d3e e6da 3e3e 4903 ba3d
00000290: 981c a53e 244b 883d edb3 52bc 9a69 363d
000002a0: 3cc1 343c 7da5 743e 25b6 4ebd 5e07 efbc
000002b0: 0ff1 2dbe feee f1ba b7d7 8c3c df01 313d
000002c0: eec4 cf3c 47e0 42bd 38dc bc3c c9c0 ad3c
000002d0: ff9a 833d f784 2f3d 6317 9abc 9a69 2fbd
000002e0: 78d6 493c d917 103c 9baa 16bd 66cc 69bd
000002f0: 4ac2 ed3b 223d 29bd 45a4 cebc 7efb 9b3d
00000300: 5655 7bbd 4fd8 423e 0d47 103e 60c2 dd3b
00000310: 8be4 473e 3164 4b3e c240 06be 5ab4 d5bc
00000320: dcf9 69bd 1daf d23d 2540 ff3c 521b 93bd
00000330: 027a c83d 2ceb b53d 1672 cdbd 2609 41bd
00000340: 4f3e 883d b7c0 163c a36c 3d3d d2a5 05be
00000350: 1619 f13d 0561 2cbd 5cd1 d83b 8081 0dbc
00000360: c511 0f3e 2658 543d bad7 00be c141 86bd
00000370: 1e44 173d 0f4e 36bd 11d0 3e3d d248 11bc
00000380: 561b 023d 37e9 153d fc3b 98bb 3c15 a83d
00000390: 45c3 42bd 320a 153c 08a0 5fbd 2a67 4c3e
000003a0: 0ab9 b7bc c71b 003d ce28 68bd 3094 063e
000003b0: 55d8 1c3d 541c cebc 442b 703d 059c 8c3d
000003c0: 47fe ad3e 9acb 533e 25e0 f63c 4bcc c23c
000003d0: e3e1 743d d3d4 04bc e531 29bd 5e8b cfba
000003e0: 932b 653d 6a27 7f3c a92f 463e 9067 ba3d
000003f0: b47f 6ebd c3ae 9cbc cd87 39bd 6d07 c9bd
0.07369226 0.055257395 -0.04630328 0.042116996 -0.024754424 -0.052187618 -0.060820796 0.03455483
-0.07870764 -0.016915226 0.022058392 -0.04238182 0.07508574 -0.0512787 -0.043786258 0.074025415
-0.06266898 0.021430682 -0.032540843 -0.057669267 -0.062344722 0.06672396 0.054936983 0.01814565
-0.034708243 -0.037023667 0.021018485 0.07061181 0.0026302736 0.011360186 0.028270006 -0.035672955
0.05151331 -0.016387736 -0.021556249 -0.020456256 0.04448885 -0.066137716 -0.065165855 -0.035612706
0.00085293956 -0.03925161 -0.07526597 -0.042094704 -0.029026091 0.05305382 0.049099054 0.02340129
-0.01331893 -0.04225233 0.011325799 -0.043545682 0.020867199 0.026384844 -0.037335772 -0.005315249
0.016181018 -0.02297762 -0.046750188 0.06523302 -0.034786344 0.017570367 0.06604794 -0.012421034
-0.00012125558 -0.06369931 -0.0696702 0.024362521 0.06807224 0.056969747 -0.07820094 0.015518121
-0.046346225 -0.055460706 -0.012998709 -0.006443847 0.030629452 -0.032084562 -0.059808716 -0.004694097
0.016431939 -0.07639885 0.05461245 0.029545791 0.008995523 0.008915202 0.07554378 0.03722455
0.048529703 0.014722653 -0.062675714 -0.015115976 -0.0051236684 -0.002484184 -0.0171183 0.054341972
0.048315976 0.034012623 0.023762256 -0.053378984 -0.03878336 -0.03779802 -0.020708822 -0.04161194
-0.013837736 0.0771614 -0.026497342 0.0074430015 -0.044234145 -0.036598552 -0.009205551 -0.028268784
0.028200414 -0.0011095295 0.048105348 -0.01110938 0.04152517 -0.060511246 -0.07354929 0.0014046936
-0.031329468 0.046368644 -0.048378628 0.024984535 0.005527516 0.06362361 -0.06570978 0.06535792
0.37450418 0.13197497 -0.07506023 0.07324877 0.071427114 0.022098 0.23547858 0.10385206
-0.06295047 -0.009575801 0.042689066 0.1257572 0.24756804 0.28368127 -0.0058843074 0.15759675
-0.07445431 0.06955371 0.124221414 0.078863636 0.036325388 0.051730018 0.27609846 0.009464867
-0.046733424 -0.06047932 0.18901475 0.07577349 0.062628746 -0.040247895 0.044592045 -0.03355031
0.14996107 0.2471945 0.1863819 0.09082658 0.32248378 0.06654957 -0.01286028 0.044534303
0.011032399 0.23891254 -0.050466675 -0.029178318 -0.16986488 -0.0018458066 0.017192705 0.043214675
0.025362458 -0.04757717 0.023054227 0.021210091 0.064260475 0.042851415 -0.01880998 -0.04282532
0.0123192 0.008794748 -0.036783796 -0.057079695 0.007255827 -0.041318066 -0.025224814 0.07616328
-0.06136068 0.19027828 0.14089604 0.006767556 0.19520776 0.19862439 -0.1311064 -0.026086975
-0.05712305 0.102873065 0.031158516 -0.07182945 0.09788896 0.08882746 -0.10031526 -0.047127865
0.066525094 0.00920122 0.046246182 -0.13051537 0.11772363 -0.042084713 0.0066167545 -0.008636832
0.13971622 0.051841877 -0.12582293 -0.0655551 0.036930196 -0.044508036 0.046585146 -0.008867459
0.03176435 0.036599364 -0.0046458226 0.08207175 -0.047549505 0.009096669 -0.054595977 0.19961229
-0.0224271 0.03127649 -0.05667954 0.13142467 0.038292248 -0.025159992 0.05863501 0.06865696
0.3398306 0.20683137 0.030136177 0.023779055 0.059785735 -0.008107382 -0.04130735 -0.0015834381
0.05594976 0.015573362 0.19354118 0.09101784 -0.058227256 -0.019126302 -0.045295525 -0.098158695

fc3.bias f4 [256]
00000000: 46d2 073c a9e3 a73d b637 08bd 1f7c 1fbc
00000010: 2734 163d 0e75 603d 6dbe fcbc af6a 943d
00000020: b500 863d 57b8 be3d 2ef5 1bbc 3069 34bd
00000030: 6d40 9d3d d086 9f3d f219 363c e23b 38bd
00000040: 0b4d 363d 0e92 073d 6d6f 843d e926 743d
00000050: d883 b13d 5bb2 3d3d 91ca 19bd b8a6 973d
00000060: 429a 643d 0b4e 703d 9587 01bd ad32 3bbd
00000070: dcde 273d baaa 8dbd 1a79 813c 35ba eb3c
00000080: 5d35 12bd 7bea 09bd 9abc a63d 33b1 873d
00000090: 498a bd3d 9cbe 503d cb49 763d 201c 98ba
000000a0: a904 be3d acda 84bd 9cf0 d33c f2d7 1bbd
000000b0: 415f 08bc 90ad 2d3c 7790 c93c 0807 cb3d
000000c0: 672c afbc 7b18 4abc 62c6 273d 1371 363d
000000d0: c6da dd3b 9c00 6d3d fb1a 4bbd 927e a5bd
000000e0: ae44 24bd 6803 423d f725 c9bb 273b a0bd
000000f0: 9c7f a9bc 8213 16bd d137 3c3d 3080 7cbd
00000100: 714b 43bd a64b f5bc ef32 873d 8ee1 b53b
00000110: 961b 5bbd 12db 16bd 5411 6cbc 5324 84bd
00000120: acb2 30ba c0ec 983d 88f1 90bd 82ef b63d
00000130: 7f2b 033d ac5e 40bc ccb6 ddbb 8a29 803d
00000140: 54c8 e23c 0659 813d a5c3 66bc e489 553c
00000150: a596 7ebd 58b8 0dbc 4ad8 a33d 52c7 f2bc
00000160: 014b 20bd 4f73 9a3d 7670 be3c ce71 08bd
00000170: 078b a23d e02e b4bc d0ef e43d adcf 9abb
00000180: 8cb5 863d 450f 813d 8105 2abd 404b a7bc
00000190: 8d23 343d d355 1d3e 6c39 203d 2e38 6fbd
000001a0: 50a6 323d 8c43 053d 1bf5 3bbd 36e3 693d
000001b0: 335d b93c 9c84 4f3d 936c 91ba 35c4 bfbc
000001c0: 4f6f 9abb 7658 fbba 4f5a 343d 70e1 07bb
000001d0: ab06 8bbd 98d2 b83c d8af 653b 43e1 8ebd
000001e0: 792c 323d 94b5 99bd 747f 65bd c023 303d
000001f0: ce62 63bd fa67 9abd 376c 2cbd eb69 573d
00000200: dce2 2ebd 1c41 e3bb 56b3 a63d e272 f5bc
00000210: 9909 da3d d150 433d 8b50 8e3d cff7 df3c
00000220: b6e0 54bc 3f7f c63c b1c8 28bd 99be 543c
00000230: eca5 593d e24c 923d fcbe 063e 3c81 6abc
00000240: 7021 393d bc6a ef3d 45c3 31bd aa31 81bc
00000250: 7f7f 82bc 0449 b23c 370e 91bd 7422 fb3c
00000260: 18dd 873d 7023 ed3c 34ed 253d 7e6f cf3d
00000270: ac29 4c3d 42f5 de3b acc7 3f3d 0872 163d
00000280: 0cfc 11bc 49c3 c63d e18c f4bb 04b4 6f3d
00000290: c252 ee3c f285 8a3d daf1 dcbc 9393 be3b
000002a0: 0fe1 a8bb a605 0bbc a871 13bd a395 cd3b
000002b0: 54f6 d43c 973b 1d3d 3dc8 da3d ec29 9abc
000002c0: d039 633c e5fd 91bd 9e8f 09bb a23d 1dbc
000002d0: 119e 103d d028 54bc f789 e73d 2244 963c
000002e0: 3d40 9e3d 4483 fabc 4d40 8fbd d792 93bc
000002f0: aab3 67bc ec8c a2bc 1671 ac3c 6735 cd3d
00000300: d56a a93c e111 85bd ff4f b63d ab8e 32bd
00000310: 64aa a93c 7008 983c ede6 c03d 639d b53d
00000320: 8de5 83bd 0a03 6d3d da86 6bbd 6559 923d
00000330: 3223 ae3b bbea 59bc e76e 0fbb d475 f03b
00000340: cfd3 84bc 5176 8cbd 1b70 92bd 6dd9 b7bd
00000350: edf1 033d 9ef9 f23c 541e 013d b46e 12bd
00000360: 01ba 09bd bb61 7f3d a85c 37bd 48de 123d
00000370: 1177 9bbb 2c1b 2f3c 493a 9c3d e267 7a3d
00000380: aaad 5a3d c277 973d 76fe 76bd 746c 963d
00000390: 5e39 69bd 1c00 1d3d ae5b 2a3a 13a7 083b
000003a0: 4fdf 74bc 4bb5 fdbc 4672 13bc 6710 babb
000003b0: 6a3a 5ebd 8712 d43c 7655 ca3c 5abd 5cbd
000003c0: eaa3 703d 074a 373d 5150 3c3d f983 d03b
000003d0: 6366 76bd cd4c 7bbc e80b 643d 77ae 9ebd
000003e0: 9995 eebc 4065 78bd 2d63 593d 06cb aebc
000003f0: 5c22 973c b15f 023b c1a5 1d3d fe6e 7ebd
0.008289879 0.081977196 -0.033256255 -0.009734183 0.03667083 0.054799132 -0.03085252 0.07246911
0.065431036 0.09312504 -0.009518905 -0.044045627 0.07678304 0.07789385 0.011114584 -0.044978984
0.044507068 0.033098273 0.06466565 0.05960742 0.08667725 0.04631267 -0.037546698 0.07404846
0.055811174 0.058668178 -0.03162344 -0.045702625 0.04098402 -0.06917329 0.015804816 0.028775314
-0.035695422 -0.033670884 0.08141442 0.06625595 0.092548914 0.05096303 0.06012897 -0.0011605062
0.092782326 -0.06487021 0.025871567 -0.03804774 -0.008323492 0.010600463 0.024605019 0.099134505
-0.021383477 -0.012334938 0.040960677 0.04454143 0.0067704646 0.05786191 -0.049586277 -0.08080782
-0.04010456 0.04736653 -0.006138559 -0.078237824 -0.020690732 -0.036639698 0.04595167 -0.061645687
-0.04767937 -0.029943299 0.06601512 0.00555057 -0.053493105 -0.036830015 -0.014408428 -0.06452241
-0.00067404914 0.074670315 -0.070773184 0.08932401 0.032023903 -0.0117413215 -0.006766176 0.06257923
0.027683415 0.06315808 -0.014084731 0.013033364 -0.062155385 -0.008649908 0.08000238 -0.029636059
-0.03913403 0.075415246 0.023246985 -0.033311658 0.079366736 -0.021995008 0.11178553 -0.004724464
0.06577596 0.063017406 -0.041509155 -0.020421624 0.043979216 0.1536477 0.03911726 -0.058403187
0.04361564 0.03253512 -0.045888048 0.05710145 0.022627449 0.050663576 -0.001109498 -0.023408988
-0.004712976 -0.0019176144 0.044031437 -0.0020733736 -0.06788381 0.022561356 0.0035047438 -0.06976559
0.043499444 -0.075053364 -0.056029752 0.043002844 -0.05551415 -0.07539363 -0.04209539 0.052591246
-0.04269682 -0.006935252 0.08139674 -0.029962007 0.10646362 0.047684494 0.06948956 0.027339844
-0.012993028 0.024230598 -0.04120702 0.012984895 0.05313675 0.071435705 0.13158792 -0.014313038
0.045197904 0.1169028 -0.043399114 -0.015770752 -0.015929936 0.021763332 -0.070827894 0.030656077
0.06633967 0.028947562 0.040509418 0.10128687 0.04984443 0.0068041394 0.04682128 0.036729842
-0.00891019 0.097052164 -0.007463083 0.058521286 0.029092196 0.06763829 -0.026970793 0.005815932
-0.005153782 -0.008485233 -0.035997063 0.0062739416 0.025996365 0.038386907 0.10682724 -0.018818818
0.013868764 -0.07128505 -0.0020990144 -0.009597214 0.035306994 -0.012949184 0.113056116 0.018343035
0.07727096 -0.03058017 -0.06994686 -0.018014355 -0.014141956 -0.019842587 0.021050017 0.10019951
0.020680824 -0.06497551 0.08901977 -0.04359309 0.020711131 0.01855871 0.094190456 0.0886791
-0.06440268 0.057864226 -0.05750165 0.07145957 0.005314254 -0.013300593 -0.0021886171 0.007338265
-0.01621428 -0.068585046 -0.07150289 -0.089770176 0.03221314 0.029660042 0.031523064 -0.035750106
-0.033624653 0.062349062 -0.0447661 0.035856515 -0.0047444184 0.010687631 0.076283045 0.061134227
0.053388275 0.07395889 -0.060301267 0.073449045 -0.056939475 0.038330182 0.00064986467 0.0020851537
-0.014945819 -0.030970236 -0.008999413 -0.005678225 -0.054254927 0.02588774 0.024698954 -0.053891517
0.05875007 0.044748332 0.045975033 0.0063633886 -0.060156237 -0.015338135 0.055675417 -0.0774812
-0.029124068 -0.060643435 0.053073097 -0.021337043 0.018449001 0.0019893462 0.038488153 -0.06211757

fc4.weight f4 [12, 256]
00000000: 6e64 e939 1fa4 21bd 5a4b a93d b815 c0bd
00000010: cb89 afbd 597d 0abd 733d 583d b9da 85bd
00000020: 8eee 6cbc 46b7 c0bd 5c56 94bd c6b6 29bd
00000030: fed1 32bd ba28 433d bc62 0cbc eb26 2ebd
00000040: 2d10 6f3c 7d1c 4b3e 845d 4bbd 1cb4 d3bd
00000050: 7677 85bd cfd3 27bc 4f84 0c3c 660b 6a3e
00000060: 5134 9dbd 6ceb f5bd 3d67 1c3d d73f 93bb
00000070: 27f5 bdbd 8b6e 5abe d5c6 343d 5390 59bd
00000080: e733 56bc 7d0c 193d f29e febd 4c5e 18be
00000090: cf38 16be 17fb 033c efbc d8bd a73f 9ebb
000000a0: 836e 993d 690c 43bc 1bf3 9abd 8bf8 64bd
000000b0: ed03 363d 5e56 3a3d b309 433e e8ad 93bb
000000c0: 6c72 b13c 011f 2b3e ce0f 303d 03d5 f2bd
000000d0: d6af 633c 58ca b0bc c172 8e3e 4c9a b8bd
000000e0: c911 9dbd ae32 7ebd 6639 8bbd 4d28 cd3d
000000f0: 972f 453d 2af4 d7bc 4db2 0d3d c04a 36bd
00000100: f46e d6bd cec9 d93b f782 90bd f0f6 c63c
00000110: b6a5 e9bc 114e 073e cc16 94be 4c0e 693c
00000120: 6b5e 24bd 9a6f 3b3d be97 213e ed3c 94bd
00000130: 2ed8 ffba 4441 4ebd 818c 023d 45b4 013e
00000140: f902 cbbd fdba 3fbe 0791 4bbd c35a 89bd
00000150: 91ca 41bd ee5d ad3c 9819 f0bd 5681 3d3d
00000160: fd91 6e3e 2df9 1e3c f64b 353b ae2c cf3c
00000170: b368 d33a 36d9 b43a 2030 8abd c89f 14be
00000180: 3bc0 52bd 90a5 9bbd 6a1c bf3c 9c97 cebd
00000190: 6656 d13d c1db c0bd 5d51 6b3e 47c7 b8bd
000001a0: ea52 563e 8102 52bd 3ec7 0a3c c441 99bd
000001b0: 075e 873c 6077 adbc 85b1 173d ec4f a1bd
000001c0: ecfc 0f3e eb78 81bc 8619 17be 2282 e3bd
000001d0: 0fde 9f3c 6cd6 1fbc e416 7e3b 219a b53d
000001e0: 1894 e33c 4182 db3d 3e55 d23c e078 5ebd
000001f0: a47c 89bd 5ff5 9bbc 37a9 963b e648 dbbc
00000200: a603 91bd 5b26 473e b802 f8bd ac5e 40be
00000210: 87cc 41be 122b 373d 0aac 613c 2314 67be
00000220: 64a0 debc 35c0 a7bd 6caf 093c 67c1 3d3d
00000230: 1eb5 633e e44d 49be 51c0 babd f802 a83d
00000240: 51d9 0a3d b1d4 40be 4fb6 083d c56b 68bd
00000250: 28c8 113e 7f04 debd d50a 11bc 9f5c 0cbc
00000260: fe03 4fbe 1969 1cbd 63c5 3dbd 5ad3 debd
00000270: 0e00 5bbd b5e3 07bd 32e6 bbbd 01e2 683e
00000280: 4dfb 273d 15b6 bbbd 19e7 5dbe 0f0a 9cbc
00000290: bc92 2cbd a767 9f3c aeed afbd 6248 eb3c
000002a0: f46c fa3b 1598 64bd 579d 093d 4e0d 8a3e
000002b0: c462 3c3d 5928 0abe 7bc2 b2bd eca2 b6bd
000002c0: 662e 103e c619 7fbc 67dd 023d 9713 5b3e
000002d0: 537b 243d 30af 82be f03f 78bc 9243 3c3c
000002e0: b281 7bbd d7bc 183b dfa0 943d 4fda a5bd
000002f0: 883f f33d 67dd 2abc 8c8d 2d3d febd a63c
00000300: eedb 8fbe 42a2 3ebc 72e3 debd ff32 813c
00000310: 248d b93e 77d3 8c3c eec4 47be 3edc a6bd
00000320: 57b7 0abd ceb8 47bc 86d2 453d 9622 b1bd
00000330: e2b8 e3bc 2c79 dabd ba8a c0bc 783b 9d3d
00000340: 9d75 1c3d 17c1 aabe 43b5 0cbd 7332 13be
00000350: 8053 4a3d b5d5 1f3d c078 f73c 71a9 89bd
00000360: 90af e93d d232 82bb cacb 50be fd7c 623e
00000370: c7a5 b43d 0e13 efbd 167d 7cbd 9cfa 0dbe
00000380: 7ae9 3d3d 4b6d aa3c 4273 f33c e1f9 413e
00000390: 97f0 8abd 607a f0bc 5a7f 7e3c 2f26 fb3b
000003a0: 8ef8 6c3d df6d b2bd 5e94 cfbc 11d1 713d
000003b0: 4280 c1bd e60f 71bc 618e 3cbe d49b 3e3d
000003c0: eb83 c0bd fa65 b2bd 95c1 963e 310c 1e3d
000003d0: 7a01 38be 8b12 163d d580 2e3d 964a bfbb
000003e0: baf0 5dbd 2493 b5bc 872f d8bd ae32 3dbd
000003f0: d532 dcbd c852 bc3c 3fe6 303d 9fa7 2bbd
0.0004451605 -0.03946316 0.08266325 -0.093791425 -0.08571204 -0.033810947 0.052792978 -0.06535859
-0.014461173 -0.09409957 -0.07243034 -0.041434072 -0.043657295 0.04764626 -0.008568462 -0.042517584
0.014591259 0.19835086 -0.04964973 -0.103370875 -0.06516926 -0.01024337 0.008576467 0.2285591
-0.07675994 -0.12007794 0.038184393 -0.0044936943 -0.09275275 -0.21331231 0.044134934 -0.053116154
-0.013073898 0.037365425 -0.1243266 -0.14879721 -0.14670108 0.00805547 -0.10582911 -0.0048293653
0.074917816 -0.011904814 -0.075659 -0.05590109 0.044437338 0.045492522 0.19046669 -0.004506815
0.021661006 0.16711046 0.042983823 -0.11857035 0.013896903 -0.02158086 0.27821925 -0.09013805
-0.07669408 -0.06206005 -0.06798057 0.100174524 0.04814109 -0.026361544 0.03459387 -0.04450488
-0.104703814 0.0066463714 -0.070562296 0.02428767 -0.0285214 0.13213374 -0.28923643 0.0142246
-0.040129106 0.04576073 0.15780541 -0.07238183 -0.0019519383 -0.05035521 0.031872276 0.12666424
-0.09912676 -0.18723674 -0.049698856 -0.067067645 -0.047312323 0.021162953 -0.117236316 0.046265922
0.23297878 0.009702963 0.0027663684 0.02528986 0.0016129225 0.0013797644 -0.0674746 -0.14514077
-0.051452857 -0.07599938 0.023328979 -0.10087511 0.10221557 -0.09416915 0.22980256 -0.09022384
0.20930067 -0.05127192 0.008470355 -0.07483247 0.016524328 -0.021175086 0.03703453 -0.07876572
0.14061326 -0.015804728 -0.1475583 -0.11108805 0.019515065 -0.009755712 0.0038770968 0.088672884
0.027780578 0.10718203 0.025675412 -0.054314494 -0.067132264 -0.0190379 0.0045978087 -0.02676816
-0.07080774 0.19448225 -0.121098936 -0.18786114 -0.18925677 0.04471881 0.013773927 -0.22566275
-0.02717609 -0.081909575 0.00840364 0.04632702 0.2223706 -0.19658619 -0.09118713 0.08203691
0.033898655 -0.18831135 0.033376988 -0.056743402 0.1423651 -0.10840701 -0.00885268 -0.008567004
-0.20216367 -0.038186166 -0.04633082 -0.10880156 -0.05346685 -0.033176143 -0.09174766 0.22742464
0.041011143 -0.09165589 -0.21670188 -0.019047765 -0.042132124 0.019458605 -0.08590256 0.028721038
0.0076423828 -0.0558091 0.033597317 0.26963276 0.045992628 -0.13491954 -0.087285005 -0.08917794
0.140802 -0.01557011 0.031949427 0.21394192 0.040156674 -0.25524282 -0.015151963 0.011490719
-0.061402984 0.0023305917 0.07257246 -0.0809828 0.11877352 -0.010428763 0.042371318 0.020354267
-0.2809748 -0.011635365 -0.108832255 0.015771387 0.36240494 0.017190678 -0.19508716 -0.081474766
-0.033866253 -0.012190057 0.048296474 -0.08649175 -0.02779812 -0.10667643 -0.02350365 0.076773584
0.038198102 -0.3335044 -0.034352552 -0.14374714 0.049396038 0.039022166 0.030208945 -0.067217715
0.11410439 -0.0039733434 -0.2039024 0.22117992 0.08820682 -0.11673556 -0.06164273 -0.13865131
0.04636524 0.020804068 0.029718045 0.18942977 -0.0678417 -0.029355228 0.015533293 0.007664464
0.057854228 -0.087123625 -0.025339302 0.059037272 -0.09448291 -0.014713263 -0.18413688 0.046535328
-0.09400161 -0.08710857 0.29444566 0.038585845 -0.17969313 0.036638778 0.042603333 -0.0058377488
-0.054184653 -0.022164889 -0.1055594 -0.04619091 -0.10751883 0.022988692 0.04318833 -0.041907903

fc4.bias f4 [12]
00000000: 9923 3bbd 83e6 bdbc 73a7 873b 1499 0e3c
00000010: 801f 8ebc 04c3 783d fc83 c23c 6913 cabc
00000020: 5d93 bfbd 1f55 6dbd 422f b5bd bfc0 62bd
-0.045688245 -0.023181206 0.0041398345 0.008703489 -0.017349005 0.060732856 0.023744576 -0.024667459
-0.09354279 -0.057942506 -0.08846904 -0.0553596
