muygood.pt_episode_1000.pt (torch, 182504 bytes, 8 tensors)

fc1.weight f4 [64, 5]
0.18366072 0.1718352 0.24144356 -0.25781256 -0.2479236 0.22366866 0.12038417 -0.0754038
0.06154664 0.23801732 0.010221955 0.3531855 -0.1831826 0.38293356 0.18225549 0.0075797914
0.20542908 -0.2573733 -0.16951013 -0.27467784 0.37029767 -0.20009096 0.2322196 0.15843327
0.10625072 -0.077274345 -0.031929452 -0.33450437 -0.32268155 0.30442643 0.13679162 0.05823529
-0.052570853 -0.17590779 0.39215043 -0.04002616 -0.1977995 -0.26047766 0.110201694 -0.03681934
0.37516043 -0.12584727 0.3998458 -0.03159585 0.043541424 0.24891447 -0.03450912 0.051080994
0.07889502 -0.052510116 -0.25943005 0.20374295 0.25061834 -0.20428342 -0.24308424 0.25810692
-0.33305925 -0.20434132 -0.09533826 -0.0606614 0.31294683 -0.35645533 0.2313529 -0.19067733
-0.013405591 -0.01562413 0.41562226 0.18287155 0.34431794 -0.26018932 0.1234464 -0.23476085
-0.21884145 -0.07948274 0.20158957 0.12415256 0.28288928 -0.2269993 0.052034114 -0.2056049
-0.1695849 0.07793839 -0.28612366 0.0736061 -0.32764295 0.1721463 0.33748347 0.006984464
-0.07092954 0.23530935 0.03663149 0.2762093 0.034315392 -0.23748307 -0.06488277 0.31766275
0.16399369 -0.11835985 -0.28808528 0.40495035 0.2537678 0.13513061 -0.1732062 -0.28009963
0.1508106 -0.26667956 0.117472105 -0.23129328 -0.13852954 0.009782803 0.20161441 0.0508964
0.17586009 0.049119562 -0.09958684 -0.35758212 0.3517858 0.038062677 -0.06833538 0.229809
0.036590148 -0.12039826 -0.11842061 0.12306795 -0.16626662 0.3390829 -0.18998782 0.14423686
-0.31616557 0.17398494 -0.047366373 0.29601425 -0.093854524 -0.3151345 0.17662273 0.26252857
0.3429646 0.3210107 -0.033172317 -0.26998946 0.21302876 0.18136589 0.09551318 -0.2733352
0.22899896 0.1281676 -0.11742772 -0.31897214 0.28603694 0.2694145 0.3559509 -0.10815155
-0.24297409 0.35282573 -0.083794385 0.10363718 0.25879464 0.2868768 0.33162934 -0.11010973
-0.2743391 0.23563011 0.17352362 0.0006310383 0.17374422 -0.20026241 -0.019410204 -0.24459189
0.36735725 0.22661564 -0.20095614 -0.08904064 -0.05436845 0.40874347 0.24817534 0.11801948
0.08839275 -0.092350595 -0.15050404 -0.22262943 0.19572878 -0.29976806 0.26892462 0.17830051
0.0063022845 -0.11205375 0.31175837 0.29384616 0.11903745 0.28049102 0.24677394 0.27325678
-0.38258335 0.24763629 0.21419308 -0.10315315 -0.00520997 -0.24662094 -0.1570231 -0.21662429
0.14614047 0.118786044 0.036738418 -0.04867804 -0.28802806 -0.099400304 -0.15052868 -0.20013823
0.19617525 0.0422873 0.13974956 0.32995465 0.3769992 -0.19015093 0.16561498 -0.2217485
-0.12379193 -0.24196485 0.33881482 -0.0707827 -0.2451656 0.290601 0.10276329 -0.1307464
0.0017611363 0.08472673 -0.028222432 0.052835695 0.023350842 -0.3423603 -0.28003514 0.17463632
0.05048365 0.226915 0.048354115 -0.17858519 -0.33621547 -0.33921024 0.15269183 -0.25298476
-0.19373952 0.24830613 -0.014121409 0.37330332 0.1652775 0.022610867 -0.24777004 -0.10014928
-0.022582222 0.18372102 0.2587255 0.3519616 -0.06290621 0.2785609 -0.2937746 -0.16417752
00000000: 8e11 3c3e 91f5 2f3e fb3c 773e 0200 84be
00000010: afdf 7dbe 6609 653e fa8b f63d 4f6d 9abd
00000020: 5418 7c3d d0ba 733e fd79 273c bbd4 b43e
00000030: 3894 3bbe de0f c43e 2fa1 3a3e e65f f83b
00000040: 005c 523e 6fc6 83be 1094 2dbe 93a2 8cbe
00000050: a897 bd3e a5e4 4cbe faca 6d3e 553c 223e
00000060: fa99 d93d 0342 9ebd 75c8 02bd 2844 abbe
00000070: 8436 a5be c8dd 9b3e 1a13 0c3e 2188 6e3d
00000080: 8954 57bd 2c21 34be f1c7 c83e 79f2 23bd
00000090: f48b 4abe 545d 85be 6db1 e13d e0cf 16bd
000000a0: 0715 c03e 1bde 00be 97b8 cc3e a66a 01bd
000000b0: 7e58 323d 6fe3 7e3e 6f59 0dbd 4e3a 513d
000000c0: b693 a13d d914 57bd 04d4 84be fea1 503e
000000d0: 0c51 803e ac2f 51be 13eb 78be 9726 843e
000000e0: be86 aabe da3e 51be b540 c3bd 1778 78bd
000000f0: 913a a03e 5081 b6be c6e7 6c3e eb40 43be
00000100: 20a3 5bbc 5afc 7fbc 71cc d43e ae42 3b3e
00000110: 714a b03e 8937 85be 77d1 fc3d 2665 70be
00000120: f917 60be d9c7 a2bd 7f6d 4e3e b343 fe3d
00000130: ddd6 903e 8172 68be b921 553d 178a 52be
00000140: aaa7 2dbe 2a9e 9f3d cd7e 92be ccbe 963d
00000150: d1c0 a7be 1f47 303e a2ca ac3e eedd e43b
00000160: 8243 91bd eff4 703e e70a 163d 4e6b 8d3e
00000170: 4c8e 0c3d c32e 73be 42e1 84bd b1a4 a23e
00000180: f6ed 273e a666 f2bd ea7f 93be a755 cf3e
00000190: daed 813e ae5f 0a3e f75c 31be 3869 8fbe
000001a0: 186e 1a3e 398a 88be 3795 f03d 25d8 6cbe
000001b0: b0da 0dbe 0d48 203c 0274 4e3e be78 503d
000001c0: ab14 343e 9831 493d 2ff4 cbbd 0115 b7be
000001d0: 451d b43e 9ce7 1b3d 6bf3 8bbd 0d53 6b3e
000001e0: 8ddf 153d 5d93 f6bd 8186 f2bd 0d0b fc3d
000001f0: cc41 2abe 469c ad3e 2b8c 42be d4b2 133e
00000200: 74e0 a1be 1c29 323e 3e03 42bd 2e8f 973e
00000210: cd36 c0bd 4f59 a1be 97dc 343e 256a 863e
00000220: 0e99 af3e 845b a43e b2df 07bd 0f3c 8abe
00000230: 3624 5a3e fbb7 393e 6a9c c33d 97f2 8bbe
00000240: b47e 6a3e 5e3e 033e f27d f0bd 5150 a3be
00000250: 6f73 923e b3f0 893e 323f b63e 8f7e ddbd
00000260: 33ce 78be 93a5 b43e 649c abbd bb3f d43d
00000270: bb80 843e 84e1 923e 52cb a93e 3681 e1bd
00000280: 2d76 8cbe 0549 713e 2db0 313e 436c 253a
00000290: 01ea 313e 9711 4dbe 2602 9fbc 4c76 7abe
000002a0: 4016 bc3e ee0d 683e 72c7 4dbe f05a b6bd
000002b0: 74b1 5ebd d346 d13e ad21 7e3e 32b4 f13d
000002c0: 4207 b53d 4f22 bdbd bb1d 1abe f8f8 63be
000002d0: 206d 483e 337b 99be 7db0 893e 6994 363e
000002e0: 6583 ce3b 707c e5bd cb9e 9f3e 0173 963e
000002f0: e8c9 f33d 859c 8f3e 4fb2 7c3e 50e8 8b3e
00000300: f7e1 c3be 5e94 7d3e 6e55 5b3e f541 d3bd
00000310: 65b8 aabb 338a 7cbe aaca 20be c2d2 5dbe
00000320: d9a5 153e 1946 f33d 067b 163d a062 47bd
00000330: 6a78 93be 6392 cbbd 3124 1abe 09f1 4cbe
00000340: 2ae2 483e 7335 2d3d 821a 0f3e d1ef a83e
00000350: 0a06 c13e edb6 42be f996 293e 0a12 63be
00000360: a086 fdbd a2c5 77be 2379 ad3e 85f6 90bd
00000370: b10c 7bbe a7c9 943e 8f75 d23d 62e2 05be
00000380: eed5 e63a 3585 ad3d bb32 e7bc 3e6a 583d
00000390: 444a bf3c d949 afbe c460 8fbe ddd3 323e
000003a0: f2c7 4e3d 685c 683e f70e 463d 09df 36be
000003b0: 6f24 acbe f7ac adbe 3f5b 1c3e 3887 81be
000003c0: a763 46be f643 7e3e 7b5d 67bc 9d21 bf3e
000003d0: 813e 293e 6d3a b93c 6eb7 7dbe 111b cdbd
000003e0: 5afe b8bc 5d21 3c3e ab77 843e 5034 b43e
000003f0: f9d4 80bd 899f 8e3e a069 96be 271e 28be

fc1.bias f4 [64]
-0.029174063 -0.07988651 0.19811584 0.124221124 -0.17264114 -0.16547163 0.1295671 -0.32073346
-0.011790311 -0.16845591 -0.070465766 0.33627495 -0.12267046 -0.31758478 -0.3040389 0.09916157
-0.2016086 -0.18462175 -0.051035117 0.4225355 -0.091689885 -0.08448049 -0.32255518 0.15991749
-0.25767195 -0.18667364 -0.032307394 -0.24597096 0.098034255 0.27260455 -0.17267607 -0.06326963
-0.04648319 -0.007924408 -0.18860945 -0.33458224 -0.3257751 0.14439365 0.11843097 -0.27949736
0.3881494 0.13963464 0.20522273 0.13966845 -0.04245252 0.24467565 -0.10728331 0.04690451
0.11905557 0.20007777 0.33600917 0.31540745 0.26209757 -0.022325369 -0.13585605 0.06250903
0.35539418 0.057982396 0.19092865 -0.14552227 0.09009974 0.21583153 -0.12133559 -0.22984354
00000000: 72fe eebc 8a9b a3bd e1de 4a3e a567 fe3d
00000010: d7c8 30be 6571 29be 3dad 043e 2d37 a4be
00000020: 262c 41bc b57f 2cbe 5b50 90bd 3b2c ac3e
00000030: a63a fbbd 799a a2be fdaa 9bbe 3915 cb3d
00000040: 7c72 4ebe 7c0d 3dbe 330a 51bd 9356 d83e
00000050: e8c7 bbbd 1b04 adbd f425 a5be 69c1 233e
00000060: 94ed 83be 6027 3fbe c254 04bd d0df 7bbe
00000070: 2fc6 c83d d392 8b3e ffd1 30be 8293 81bd
00000080: 2865 3ebd 60d5 01bc d622 41be 5d4e abbe
00000090: fecb a6be eedb 133e f08b f23d 471a 8fbe
000000a0: 85bb c63e 62fc 0e3e e825 523e 3f05 0f3e
000000b0: b2e2 2dbd 418c 7a3e 5ab7 dbbd f21e 403d
000000c0: 68d3 f33d 30e1 4c3e 6509 ac3e 167d a13e
000000d0: a731 863e b1e3 b6bc d91d 0bbe bc04 803d
000000e0: 3af6 b53e f37e 6d3d cd82 433e ca03 15be
000000f0: 3686 b83d f102 5d3e cb7e f8bd 1b5c 6bbe

fc2.weight f4 [128, 64]
0.1025604 -0.04207341 0.018534025 -0.020574044 -0.04209768 -0.04334823 -0.00961137 0.08305712
-0.006206543 -0.019779036 -0.17787986 -0.039880626 -0.25319847 -0.06034624 0.05876726 -0.022043025
0.0072079957 -0.03957648 0.009699844 0.1209621 0.09119088 -0.06052663 0.0586616 0.0875214
-0.009475721 -0.031448867 0.004469577 -0.0066395113 0.09345992 0.0046268236 -0.058972806 0.03152308
0.013331674 -0.106209576 0.08368879 0.08949778 0.09240251 0.048563108 -0.045560163 0.07716052
-0.067563534 0.00725651 0.10341554 -0.063972935 -0.39927885 0.07479568 0.0016629439 -0.094286494
-0.013498476 -0.018421706 0.03777909 0.02678715 0.09319202 -0.20193684 -0.003092006 -0.014563742
0.008312503 -0.0064805346 0.019327639 -0.003032437 0.089691184 0.04723825 -0.026110664 0.06786442
-0.06788924 -0.04456069 0.029528642 0.030069074 0.050510257 0.067723066 -0.034372546 -0.06304304
-0.08431764 -0.0733975 -0.07819605 0.08982147 0.050438076 0.02969998 -0.051428445 -0.002653046
-0.05947003 -0.06350413 -0.085802145 0.013150358 0.016273614 -0.09050779 0.06395964 0.039440595
0.0035750077 0.0920972 0.010722731 -0.09595198 0.07202572 0.08423887 -0.014660162 0.024745267
0.09388556 -0.09200023 0.029117739 -0.08637836 -0.084331624 -0.066803336 0.004159658 0.067077786
0.05270104 0.088105164 -0.07171857 -0.07996932 0.014691622 0.031339772 0.041018195 -0.04419088
0.02422944 0.052445494 -0.09150412 -0.072174385 -0.059748165 -0.080894455 0.028361669 0.09372007
0.07653044 -0.011554434 -0.055211667 0.050122924 0.004824265 -0.095924325 0.0526978 -0.010425492
0.07614614 0.056806564 0.023967622 0.007504402 -0.049189575 0.005030333 0.02706767 0.090443306
0.09427149 0.012369374 0.00191416 0.09220584 0.092410274 -0.024352964 -0.041888632 0.038029946
-0.01374744 -0.09500225 -0.02386544 -0.055441532 0.053683255 -0.060620274 0.048885524 -0.015072563
-0.055173066 -0.094612435 -0.048706822 0.018614363 -0.018200155 -0.093448766 0.00491996 -0.08962862
-0.09638608 0.03586445 -0.043134715 0.011702413 -0.08745622 -0.047175474 -0.01681782 -0.07072599
-0.06753783 0.052685864 -0.035533614 -0.02502143 0.077066675 -0.07089117 -0.06005074 -0.0029665765
0.07323016 0.06942734 -0.09629997 -0.08559755 -0.090312116 0.012666436 0.02094352 0.007230247
0.07491031 -0.04759645 -0.046755936 -0.030635646 0.045060057 -0.054539695 -0.046407875 0.048093904
-0.038301997 0.084360085 0.096057825 -0.039465286 -0.08095699 -0.08313485 0.010696626 0.017258417
0.0035885314 -0.004204126 -0.0488517 -0.08537484 -0.033549182 0.033042226 -0.0034576722 0.057880875
-0.07198912 -0.0025657117 -0.15583324 0.015525595 -0.061997008 0.023428468 -0.02684104 -0.20773034
0.015097094 -0.10027475 -0.22290932 -0.08362153 -0.100799814 0.08035227 0.010457458 -0.051052354
-0.09464403 0.12257105 0.073940076 -0.009902659 0.031850494 -0.10574789 0.04482743 0.031154843
0.05545696 0.033154584 -0.009438654 0.06905359 -0.019830719 0.115317635 -0.022359686 -0.051618233
0.07087632 -0.0119093405 0.090749815 -0.06936746 -0.003821936 -0.028544169 -0.06515949 0.015473598
0.14425533 -0.034514852 0.04069696 0.01536565 -0.08335209 0.08376027 -0.05049452 0.08090249
00000000: 300b d23d 2b55 2cbd abd4 973c e68a a8bc
00000010: 9e6e 2cbd ea8d 31bd 0279 1dbc da19 aa3d
00000020: 4260 cbbb a507 a2bc 2326 36be de59 23bd
00000030: 3ba3 81be 9e2d 77bd f0b5 703d 9393 b4bc
00000040: 0d31 ec3b f21a 22bd 18ec 1e3c faba f73d
00000050: 49c2 ba3d c6ea 77bd 2547 703d 6b3e b33d
00000060: 0e40 1bbc 87d0 00bd 8875 923b 4290 d9bb
00000070: ea67 bf3d 9c9c 973b 788d 71bd 581e 013d
00000080: 186d 5a3c 6884 d9bd 0765 ab3d 9d4a b73d
00000090: 873d bd3d 1cea 463d 4b9d 3abd 5606 9e3d
000000a0: c05e 8abd 05c8 ed3b 87cb d33d 3e04 83bd
000000b0: 476e ccbe 7a2e 993d 23f7 d93a 4719 c1bd
000000c0: b628 5dbc 1ee9 96bc 3fbe 1a3d ba70 db3c
000000d0: 75db be3d 88c8 4ebe 41a3 4abb c39c 6ebc
000000e0: 2a31 083c aa5a d4bb ff54 9e3c dabb 46bb
000000f0: 03b0 b73d e57c 413d 08e6 d5bc 80fc 8a3d
00000100: 8409 8bbd 4585 36bd 0de6 f13c 6b53 f63c
00000110: d8e3 4e3d 64b2 8a3d 3aca 0cbd b61c 81bd
00000120: baae acbd 6e51 96bd 4025 a0bd 52f4 b73d
00000130: 2898 4e3d 5f4d f33c a2a6 52bd bade 2dbb
00000140: d996 73bd 740e 82bd 09b9 afbd 9974 573c
00000150: 3e50 853c 265c b9bd 46fd 823d 768c 213d
00000160: ad4a 6a3b 759d bc3d 65ae 2f3c 7982 c4bd
00000170: 3882 933d 6e85 ac3d 2d31 70bc 96b6 ca3c
00000180: 1347 c03d 9e6a bcbd 5388 ee3c 23e7 b0bd
00000190: 0fb6 acbd 30d0 88bd be4d 883b 1460 893d
000001a0: 0cdd 573d 7b70 b43d 30e1 92bd f4c6 a3bd
000001b0: 21b5 703c 225e 003d b202 283d 7f01 35bd
000001c0: d27c c63c 16d1 563d 8366 bbbd 2ad0 93bd
000001d0: 7eba 74bd feab a5bd bb56 e83c 4ff0 bf3d
000001e0: febb 9c3d cf4e 3dbc a125 62bd b24d 4d3d
000001f0: de14 9e3b f973 c4bd a6d9 573d afcf 2abc
00000200: 82f2 9b3d 00ae 683d bf57 c43c 7de7 f53b
00000210: 027b 49bd 7ed5 a43b 05bd dd3c 573a b93d
00000220: 6911 c13d eaa8 4a3c 8de4 fa3a 6ad6 bc3d
00000230: 9941 bd3d de7f c7bc 6a93 2bbd 4ac5 1b3d
00000240: f13c 61bc 8a90 c2bd 7581 c3bc a916 63bd
00000250: f9e2 5b3d f74c 78bd 303c 483d e9f2 76bc
00000260: 27fd 61bd 2ac4 c1bd ce80 47bd 267d 983c
00000270: 7e18 95bc 1162 bfbd 9e37 a13b 368f b7bd
00000280: 1166 c5bd 9ae6 123d 07ae 30bd 7abb 3f3c
00000290: 3f1c b3bd 123b 41bd 86c5 89bc cad8 90bd
000002a0: 4651 8abd 22cd 573d b28b 11bd bef9 ccbc
000002b0: 22d5 9d3d 642f 91bd c4f7 75bd e56a 42bb
000002c0: b2f9 953d ec2f 8e3d eb38 c5bd c54d afbd
000002d0: 8ff5 b8bd e286 4f3c bf91 ab3c b5eb ec3b
000002e0: 946a 993d 7ff4 42bd 2783 3fbd 9bf7 fabc
000002f0: e590 383d 0465 5fbd 2f16 3ebd 1dfe 443d
00000300: 8ee2 1cbd fbc4 ac3d f7b9 c43d 5aa6 21bd
00000310: c7cc a5bd 9b42 aabd e740 2f3c 8661 8d3c
00000320: 912d 6b3b c4c2 89bb b818 48bd 01d9 aebd
00000330: de6a 09bd 4957 073d 1d9a 62bb 7f14 6d3d
00000340: 086f 93bd 8025 28bb c092 1fbe 115f 7e3c
00000350: 93f0 7dbd 0fed bf3c bee1 dbbc 43b7 54be
00000360: cd59 773c d95c cdbd 5742 64be c441 abbd
00000370: 2270 cebd bb8f a43d c255 2b3c 461c 51bd
00000380: bbd4 c1bd 8806 fb3d e56d 973d c33e 22bc
00000390: aa75 023d 5a92 d8bd f89c 373d 7138 ff3c
000003a0: d626 633d 1acd 073d 96a4 1abc f86b 8d3d
000003b0: 0874 a2bc a72b ec3d a92b b7bc a46d 53bd
000003c0: 9b27 913d 651f 43bc 0adb b93d 8710 8ebd
000003d0: 7279 7abb 76d5 e9bc 5772 85bd f984 7d3c
000003e0: abb7 133e 725f 0dbd dbb1 263d 35c0 7b3c
000003f0: 80b4 aabd 818a ab3d 58d3 4ebd 34b0 a53d

fc2.bias f4 [128]
-0.028168188 0.019227546 -0.0527476 -0.04167125 0.008702798 0.092197046 -0.08784382 0.13325241
0.07076784 -0.0014938503 -0.05782766 -0.05865559 0.0011850779 0.07443777 -0.054959506 -0.0005899387
0.071824536 -0.047109652 0.08236546 0.08268955 0.017706724 0.11192148 -0.030906139 0.100008845
0.0052085514 0.094638914 0.08022909 0.050486393 -0.08373175 0.084702104 0.023039816 0.08916765
0.057611804 0.071628615 0.096672066 -0.021662014 0.015314814 -0.021201909 -0.041193284 0.05907741
-0.065348044 0.1506739 -0.03236456 0.10759012 0.09159162 0.08191155 -0.07691392 -0.053589825
-0.047708653 -0.026007554 0.053253543 -0.024296898 -0.065462366 -0.028015507 -0.0102574425 0.07839677
0.04853736 0.0070125 -0.06114773 0.035145767 -0.0040099313 -0.022830762 -0.018450947 0.075634494
-0.01436921 0.05799048 -0.08176808 0.06417405 0.09950354 -0.014570856 0.074407555 -0.05074799
0.09447608 0.033156384 -0.051144306 0.1273039 0.14867584 -0.007306049 -0.035264365 0.05550025
0.0145207485 -0.030502005 0.0025966426 0.09586994 0.03965675 -0.07532136 -0.006425095 -0.09325648
0.037683066 0.0369085 -0.004517023 0.09411231 0.083767675 -0.0671248 0.1054262 -0.037850134
-0.022614354 0.01553937 0.06882546 -0.047149014 -0.05824201 -0.02241735 0.050768033 -0.047158733
0.091506444 -0.08839016 0.052511074 -0.055375002 -0.026350856 -0.08005277 0.12346713 0.043472353
0.046137866 -0.035299454 0.09600939 0.058233343 0.021032093 0.04389208 -0.046405565 0.10042741
-0.03810733 -0.05115953 0.030930111 0.05596277 -0.08923554 0.032475293 -0.029222982 -0.012274809
00000000: f9c0 e6bc 1683 9d3c de0d 58bd 79af 2abd
00000010: 2e96 0e3c ced1 bc3d 76e7 b3bd 5273 083e
00000020: bbee 903d 4ccd c3ba b2dc 6cbd d840 70bd
00000030: 9e54 9b3a d472 983d 381d 61bd 1ea6 1aba
00000040: be18 933d 0df6 40bd 39af a83d 2459 a93d
00000050: b10d 913c 1737 e53d df2e fdbc 70d1 cc3d
00000060: 7fac aa3b 0cd2 c13d 264f a43d d2ca 4e3d
00000070: 8d7b abbd 4c78 ad3d ffbd bc3c 879d b63d
00000080: 5bfa 6b3d 06b2 923d 01fc c53d 8974 b1bc
00000090: fcea 7a3c a0af adbc 4aba 28bd 27fb 713d
000000a0: 32d5 85bd 424a 1a3e b390 04bd 3558 dc3d
000000b0: 6394 bb3d 3ec1 a73d 0c85 9dbd 0181 5bbd
000000c0: 266a 43bd cb0d d5bc 6320 5a3d 4a0a c7bc
000000d0: 2211 86bd c780 e5bc d50e 28bc 7c8e a03d
000000e0: 1ccf 463d 1dc9 e53b 0b76 7abd 02f5 0f3d
000000f0: be65 83bb 9407 bbbc 7126 97bc 42e6 9a3d
00000100: d66c 6bbc 6d87 6d3d 0676 a7bd af6d 833d
00000110: 83c8 cb3d 99ba 6ebc fd62 983d 20dd 4fbd
00000120: ad7c c13d fdce 073d b17c 51bd f45b 023e
00000130: 7b3e 183e 9567 efbb 5e71 10bd 3b54 633d
00000140: 6fe8 6d3c 57df f9bc 6f2c 2a3b 7657 c43d
00000150: 1e6f 223d 1642 9abd 9a89 d2bb 41fd bebd
00000160: 8f59 1a3d 5e2d 173d 8903 94bb f4bd c03d
00000170: 638e ab3d ba78 89bd b1e9 d73d be08 1bbd
00000180: bd41 b9bc d798 7e3c 5df4 8c3d 531f 41bd
00000190: 2d8f 6ebd 97a4 b7bc 24f2 4f3d 8429 41bd
000001a0: bb67 bb3d e605 b5bd da15 573d e6d0 62bd
000001b0: c0dd d7bc b5f2 a3bd 56dc fc3d 1110 323d
000001c0: 0ffb 3c3d 2996 10bd 92a0 c43d 1686 6e3d
000001d0: 7f4b ac3c 2fc8 333d c313 3ebd e3ac cd3d
000001e0: 6f16 1cbd a88c 51bd 2561 fd3c 3839 653d
000001f0: 1fc1 b6bd d004 053d 0965 efbc 481c 49bc

fc3.weight f4 [256, 128]
-0.034043234 -0.046724178 0.009127509 -0.025268339 0.010120383 0.045264747 -0.01851517 -0.04920333
-0.05361078 0.021780226 0.051779803 -0.03547316 0.004339707 0.03494645 -0.006466823 -0.012845781
0.04923182 -0.03643178 0.02697723 -0.016168948 0.00038977934 -0.025716396 -0.0037183892 -0.030612562
0.004903653 0.036150366 -0.04549148 0.03494976 0.025995344 -0.028555999 0.050073292 -0.01758815
-0.022361733 0.014535969 0.06212243 -0.021603968 0.0012344717 -0.015919387 0.035500534 0.059506543
-0.062485494 -0.06557227 0.012782787 -0.03909806 -0.051722992 0.05253266 -0.055794574 0.012949899
-0.023794143 -0.024443382 -0.06521752 0.05799411 -0.0067789718 0.037572157 0.04232735 0.025198705
0.041519854 -0.015888387 0.01138393 -0.057129223 -0.0018339895 -0.0485733 0.008598134 -0.062097587
-0.032671236 -0.05120427 0.021861238 -0.0032768669 -0.0099121565 0.043593347 -0.026314594 -0.061137103
0.044431657 0.028071698 -0.049594086 0.03708459 -0.023218663 0.012808259 0.0100048585 0.028203752
-0.02785449 0.011957836 0.05768007 0.035203125 0.04192763 0.04596812 -0.015087163 0.061249383
-0.032808427 -0.050278854 0.034272555 -0.065595776 -0.008963515 0.008605352 -0.042800937 0.040121917
-0.00067164534 0.02450893 -0.011508502 0.033266656 0.00025892415 0.02178921 0.016334102 -0.055334687
-0.014941875 0.011699912 -0.0068343133 0.008450673 0.04879351 0.024834309 -0.02949959 -0.04486378
0.0393146 0.02459745 -0.064084746 0.021919312 -0.048568312 0.020015828 -0.04871808 0.020582208
-0.017060187 -0.0033955313 0.022911448 0.028305385 0.061899986 -0.045451794 -0.014191727 0.06474999
-0.058290582 -0.06269283 -0.022000745 0.2939537 0.048362225 -0.053242285 -0.050439958 0.05183705
0.07830569 0.02237535 -0.022293907 0.032403603 -0.020185871 0.027804283 0.044640888 0.0307711
0.02959045 0.03383346 0.10042516 0.18624623 0.023989221 -0.018865125 0.069921724 -0.042192608
0.032070585 0.0873257 -0.060257807 0.03645124 0.05045871 -0.010556774 -0.00030650795 0.039712142
0.01968107 0.04479903 0.22718462 0.06204192 0.25818482 0.0125132995 0.16177624 0.07751114
0.056285467 -0.008457697 0.076828115 0.08682844 -0.048604168 0.26238167 0.03160706 0.07210308
-0.04483097 0.13252912 0.006563881 -0.051892225 -0.02398582 0.11419478 -0.12561205 0.1897234
0.18376225 0.06827586 -0.022885414 0.019637486 -0.014157739 0.21902435 -0.02291895 0.058072098
-0.029554922 0.33922607 -0.09690261 -0.08272967 -0.018992854 0.0019651938 0.016905751 0.024524698
0.04155289 -0.03294222 -0.037219007 0.09695648 0.07937071 -0.013826339 -0.053770762 -0.053359017
0.028696733 -0.026471833 0.18169813 0.061727967 0.0018305519 0.14918652 0.036459398 0.018705
0.18211277 -0.034490857 -0.010284445 -0.09134694 0.039347604 -0.076623246 0.35599262 0.04785717
0.056419343 0.18505019 0.119350225 0.044791497 0.048582114 0.04398034 0.0212863 -0.012134555
0.0037955733 -0.03915306 0.22004566 0.1004168 0.10547731 0.0079014925 0.02996018 -0.026950523
0.01551789 0.054625288 0.023866812 -0.00024434508 -0.019106826 0.03693421 0.05349234 0.021080915
0.050622374 -0.15702383 -0.1878078 -0.01961448 0.06055046 0.007747532 0.05971303 0.13274354
00000000: eb70 0bbd da61 3fbd 8c8b 153c 8cff cebc
00000010: f7cf 253c 8767 393d 20ad 97bc 6e89 49bd
00000020: fa96 5bbd 726c b23c 0f17 543d 4e4c 11bd
00000030: 1a34 8e3b 0224 0f3d a5e7 d3bb 1c77 52bc
00000040: 4ea7 493d 7d39 15bd 5aff dc3c be74 84bc
00000050: 4c5b cc39 31ab d2bc 38b0 73bb 32c7 fabc
00000060: d3ae a03b 6812 143d 4655 3abd 7b27 0f3d
00000070: 30f4 d43c 45ee e9bc a719 4d3d 0615 90bc
00000080: f42f b7bc 4628 6e3c 1774 7e3d cefa b0bc
00000090: ffcd a13a 6069 82bc 0269 113d 22bd 733d
000000a0: caf0 7fbd c14a 86bd e56e 513c 4a25 20bd
000000b0: 7ddb 53bd 7d2c 573d da88 64bd d02b 543c
000000c0: efeb c2bc 7d3d c8bc c390 85bd 3b8b 6d3d
000000d0: 2322 debb 43e5 193d 715f 2d3d 846d ce3c
000000e0: b910 2a3d 5d28 82bc aa83 3a3c 5500 6abd
000000f0: 7a62 f0ba ccf4 46bd 30df 0c3c 0a5a 7ebd
00000100: 46d2 05bd 92bb 51bd 5716 b33c b4c0 56bb
00000110: 9966 22bc f08e 323d b491 d7bc e66a 7abd
00000120: f8fd 353d 9ef6 e53c 2b23 4bbd 03e6 173d
00000130: 1135 bebc bbd9 513c 6beb 233c 8e0b e73c
00000140: 192f e4bc cdea 433c f041 6c3d 2731 103d
00000150: 4ebc 2b3d 1149 3c3d 2630 77bc a2e0 7a3d
00000160: 2162 06bd 33f1 4dbd 6161 0c3d 1457 86bd
00000170: b5db 12bc 76fd 0c3c 0950 2fbd e156 243d
00000180: 5b11 30ba f4c6 c83c 288e 3cbc 9e42 083d
00000190: 36c0 8739 497f b23c 18cf 853c a0a6 62bd
000001a0: c4ce 74bc fdb0 3f3c 60f2 dfbb b174 0a3c
000001b0: b4db 473d 5271 cb3c 20a9 f1bc 15c3 37bd
000001c0: 5908 213d 9780 c93c dd3e 83bd 2190 b33c
000001d0: 91ef 46bd 3cf8 a33c 9c8c 47bd 059c a83c
000001e0: cec1 8bbc 9087 5ebb cab0 bb3c b2e0 e73c
000001f0: d78a 7d3d a92b 3abd 6b84 68bc a59b 843d
00000200: 1bc2 6ebd 1965 80bd e83a b4bc 1981 963e
00000210: 7817 463d 9514 5abd 219a 4ebd 1653 543d
00000220: bc5e a03d 834c b73c b6a1 b6bc a4b9 043d
00000230: d75c a5bc cfc5 e33c 5dd9 363d ad13 fc3c
00000240: ac67 f23c f494 0a3d b5ab cd3d 55b7 3e3e
00000250: 0b85 c43c 098b 9abc 1f33 8f3d 28d2 2cbd
00000260: 725c 033d d1d7 b23d e4d0 76bd e54d 153d
00000270: cbad 4e3d 52f6 2cbc cdb2 a0b9 33a9 223d
00000280: 323a a13c 307f 373d 16a3 683e ab1f 7e3d
00000290: cd30 843e 9504 4d3c aca8 253e 29be 9e3d
000002a0: 978b 663d 2792 0abc 0f58 9d3d 1cd3 b13d
000002b0: 2a15 47bd e456 863e 6876 013d c8aa 933d
000002c0: aea0 37bd b7b5 073e d315 d73b f18c 54bd
000002d0: e97d c4bc f4de e93d 72a0 00be da46 423e
000002e0: 2c2c 3c3e 37d4 8b3d 317a bbbc cbde a03c
000002f0: dcf5 67bc eb47 603e 86c0 bbbc 02dd 6d3d
00000300: 2a1d f2bc 0aaf ad3e e074 c6bd 2c6e a9bd
00000310: e796 9bbc 7bca 003b ee7d 8a3c 05e8 c83c
00000320: 5d33 2a3d 6cee 06bd f572 18bd 1e91 c63d
00000330: 1c8d a23d de87 62bc bb3e 5cbd fc8e 5abd
00000340: 6915 eb3c 75db d8bc 130f 3a3e 77d6 7c3d
00000350: 21ef ef3a 5ac4 183e 7356 153d 3a3b 993c
00000360: c57b 3a3e 4946 0dbd 1780 28bc 1b14 bbbd
00000370: f42a 213d a6ec 9cbd aa44 b63e e105 443d
00000380: f817 673d cc7d 3d3e e46d f43d 4a77 373d
00000390: 0afe 463d bb24 343d 9b60 ae3c 03d0 46bc
000003a0: 27bf 783b f65e 20bd a653 613e 53a7 cd3d
000003b0: 7d04 d83d 4375 013c 0d6f f53c 58c7 dcbc
000003c0: c03e 7e3c c4be 5f3d 5584 c33c 711b 80b9
000003d0: eb85 9cbc 5448 173d c91a 5b3d e2b1 ac3c
000003e0: 6859 4f3d dbca 20be b050 40be 8cae a0bc
000003f0: c203 783d 02df fd3b a695 743d eced 073e

fc3.bias f4 [256]
-0.043584865 0.013311487 0.03641729 0.08873336 0.029819828 0.025932387 -0.03034387 -0.045014307
-0.034793146 0.020883406 -0.059856277 -0.061896212 0.043352727 -0.03381307 -0.027704503 0.0017216846
0.0067464933 -0.0011251457 0.0029740701 -0.07278425 0.051763598 -0.0021211687 -0.053593833 0.1632673
-0.025382433 0.10284802 0.037748203 0.05059686 -0.017367257 0.15838502 -0.060853835 0.010960724
0.10168623 0.05898454 0.25416604 0.056428418 0.05222175 -0.000780723 0.08732298 -0.0153777115
0.010758429 -0.003965613 0.016029086 -0.06367078 0.02494271 -0.061205406 -0.019819818 0.05185967
-0.10136957 0.095153116 0.04259399 -0.060372796 -0.005156843 -0.056955136 0.064101204 -0.027120084
-0.03947586 0.0129078785 0.05307335 0.024273435 0.04984208 -0.041202206 -0.016265461 -0.046360806
-0.036027182 0.123964824 -0.006612217 -0.006320115 -0.034589067 0.0035361277 -0.016946618 -0.012060084
0.05027859 0.029416217 -0.05953522 0.0177673 -0.027736524 0.080314256 -0.046504226 0.04409176
0.045901366 0.024565306 0.024258204 0.047892604 -0.018215718 0.036520444 0.103722766 0.08797026
0.09443945 0.0033730674 0.01898265 0.021928368 0.13662757 -0.08924983 -0.061521493 0.032388195
0.005646773 0.03635864 -0.06373477 0.050419033 0.06660454 0.039684173 -0.022521192 0.05039306
0.0028208317 0.025808318 0.14063697 -0.0875093 -0.057095543 0.054114886 0.02408547 0.008931673
-0.037015002 0.050301526 0.045006867 0.039630055 0.011436337 0.03288824 0.114479296 -0.060264196
-0.017027691 -0.0037843748 0.0655675 0.038317703 -0.06590218 0.024630325 -0.03969642 0.0074415295
-0.06024322 -0.07854137 -0.024630288 0.051333368 0.023123277 0.050369885 -0.04640876 0.047541622
-0.026257567 0.0057593794 0.052301604 -0.017462604 0.04486732 0.026262634 0.044405736 0.043409616
0.1432761 0.08629817 -0.026525987 0.12075273 -0.03320237 0.0664132 -0.10885319 -0.071172826
-0.055714197 -0.022150833 0.010259596 -0.027675891 -0.0123580145 0.06900707 -0.008817311 -0.04982293
0.054293454 0.04877962 0.20724839 -0.06257014 0.034977138 0.19395137 0.03733228 0.1239596
0.021031814 0.021568174 0.003569883 -0.0018256605 0.04707158 -0.026864566 -0.020781212 0.16079518
0.06254383 -0.0008713577 0.115333706 -0.04615582 0.07323754 0.07377036 -0.04423975 -0.014001526
-0.012484624 -0.046632655 0.037566066 0.016684163 0.019249737 0.043764014 -0.0220111 -0.078383766
0.071838364 -0.049544234 -0.004551278 0.02861069 -0.036892306 0.036143407 0.007621121 0.16187249
-0.0067927088 -0.00391533 0.053094577 0.012582337 -0.026431734 -0.017750988 0.05170484 0.20908776
0.062137105 0.038915563 0.041376706 -0.05246208 -0.021857278 0.0034682187 -0.0437642 -0.02851417
-0.03386594 -0.06073335 0.09662212 0.073466636 0.020307641 0.014446725 0.04955281 0.023517247
-0.025845274 -0.0053147543 0.0068370583 0.066939466 0.05861611 0.062480234 0.030808004 0.086109996
0.04473455 -0.022643777 0.044750884 -0.0138567565 -0.11705991 -0.033178117 0.01952178 -0.020351317
0.06275191 -0.0265895 0.025722262 -0.019518754 0.06088642 -0.09062912 -0.0020328225 0.07574662
0.011040687 -0.0577311 -0.06305051 0.028432695 -0.05833139 -0.046434566 -0.011670726 -0.005637845
00000000: 0b86 32bd 6c18 5a3c 4c2a 153d d6b9 b53d
00000010: b648 f43c 2870 d43c b593 f8bc ec60 38bd
00000020: 4283 0ebd ad13 ab3c db2b 75bd e286 7dbd
00000030: a192 313d 937f 0abd 8ef4 e2bc 26aa e13a
00000040: b011 dd3b a079 93ba 9ee8 423b e90f 95bd
00000050: 1106 543d 4e03 0bbb 3585 5bbd 8b2f 273e
00000060: d2ee cfbc fca1 d23d dc9d 1a3d a73e 4f3d
00000070: c745 8ebc af2f 223e df41 79bd 9c94 333c
00000080: df40 d03d c699 713d 0d22 823e 7c21 673d
00000090: 79e6 553d 6fa9 4cba 64d6 b23d ccf2 7bbc
000000a0: 1f44 303c f9f1 81bb 6e4f 833c d365 82bd
000000b0: a754 cc3c 85b2 7abd 2c5d a2bc ce6a 543d
000000c0: d99a cfbd a3df c23d 0977 2e3d 7749 77bd
000000d0: bcfa a8bb ca49 69bd 7e47 833d f02a debc
000000e0: 70b1 21bd 917b 533c 7163 593d 15d9 c63c
000000f0: 3527 4c3d a5c3 28bd 253f 85bc d4e4 3dbd
00000100: 3d91 13bd 45e1 fd3d 4cab d8bb f818 cfbb
00000110: 44ad 0dbd 61be 673b a2d3 8abc a997 45bc
00000120: ecf0 4d3d 47fa f03c 34db 73bd bb8c 913c
00000130: b537 e3bc cd7b a43d 377b 3ebd 9099 343d
00000140: 1203 3c3d 2e3d c93c 24b9 c63c 092b 443d
00000150: 2139 95bc 7696 153d 9a6c d43d c029 b43d
00000160: 7869 c13d ae0e 5d3b 8181 9b3c 1fa3 b33c
00000170: 19e8 0b3e 9dc8 b6bd f6fd 7bbd 7ca9 043d
00000180: 9108 b93b ccec 143d 6087 82bd 3084 4e3d
00000190: f667 883d df8b 223d 5d7e b8bc f468 4e3d
000001a0: b4dd 383b f76b d33c 2303 103e 1338 b3bd
000001b0: 04dd 69bd 92a7 5d3d e44e c53c 2756 123c
000001c0: 0b9d 17bd f908 4e3d 1f59 383d 2053 223d
000001d0: 795f 3b3c d2b5 063d 1f74 ea3d 97d7 76bd
000001e0: a87d 8bbc 4603 78bb 4148 863d 06f3 1c3d
000001f0: b9f7 86bd 89c5 c93c b798 22bd 13d8 f33b
00000200: 98c1 76bd 4cda a0bd 75c5 c9bc f042 523d
00000210: 076d bd3c a750 4e3d 1d17 3ebd 01bb 423d
00000220: 1c1a d7bc 2db9 bc3b 353a 563d bc0d 8fbc
00000230: ccc6 373d bc24 d73c cae2 353d 48ce 313d
00000240: f8b6 123e 18bd b03d 074d d9bc 354d f73d
00000250: 35ff 07bd a503 883d 6cee debd 0fc3 91bd
00000260: 9234 64bd aa75 b5bc dd17 283c 8db8 e2bc
00000270: 4579 4abc 9453 8d3d 7c76 10bc 2113 4cbd
00000280: d062 5e3d 24cd 473d ec38 543e c624 80bd
00000290: 3044 0f3d 309b 463e bce9 183d 88de fd3d
000002a0: e94a ac3c bdaf b03c b3f4 693b 004b efba
000002b0: 21ce 403d 1413 dcbc 5c3d aabc 7ea7 243e
000002c0: fb16 803d d36b 64ba 1434 ec3d e30d 3dbd
000002d0: 90fd 953d ea14 973d bd34 35bd a866 65bc
000002e0: 4f8c 4cbc e201 3fbd e0de 193d 3aad 883c
000002f0: a0b1 9d3c e541 333d 9f50 b4bc ab87 a0bd
00000300: fe1f 933d e5ee 4abd e322 95bb f760 ea3c
00000310: 631c 17bd 1c0b 143d 99ba f93b e7c1 253e
00000320: 5f95 debb 2b4c 80bb b379 593d 2526 4e3c
00000330: 5d87 d8bc 856a 91bc 74c8 533d 1a1b 563e
00000340: 7a83 7e3d ed65 1f3d 9f7a 293d 7ae2 56bd
00000350: 090e b3bc 0e4b 633b 1742 33bd 8c96 e9bc
00000360: 03b7 0abd 89c3 78bd d1e1 c53d ad75 963d
00000370: 365c a63c f5b1 6c3c e3f7 4a3d 3ea7 c03c
00000380: 78b9 d3bc 6427 aebb 6709 e03b 8f17 893d
00000390: 7217 703d 46eb 7f3d 1161 fc3c 705a b03d
000003a0: 933b 373d 717f b9bc b44c 373d 7307 63bc
000003b0: 1bbd efbd c7e5 07bd 24ec 9f3c ceb7 a6bc
000003c0: 1384 803d 39d2 d9bc 7eb7 d23c cbe5 9fbc
000003d0: 0a64 793d c39b b9bd 1a39 05bb 0b21 9b3d
000003e0: ffe3 343c 7277 6cbd a020 81bd afeb e83c
000003f0: e5ec 6ebd 2c32 3ebd 9336 3fbc acbd b8bb

fc4.weight f4 [12, 256]
0.011693432 -0.06527854 0.011235629 0.11900229 -0.057525955 0.01090818 0.08649771 -0.05327271
-0.102842644 0.0369867 -0.045234837 0.1164366 -0.04740903 0.0006348955 -0.11487849 -0.060599785
0.009782883 0.14282095 -0.07033008 -0.105626434 0.0069760457 0.034292795 0.011950915 -0.056520995
0.0129593685 -0.17581536 -0.027277593 -0.032141224 -0.026806457 -0.053753074 0.09201014 -0.016121078
-0.08835214 0.11049924 -0.45471492 -0.007110341 -0.045906443 0.012465594 -0.04486199 -0.09084244
0.04452767 -0.033937514 0.0121114645 0.05552792 -0.061151512 -0.14515357 -0.080974236 -0.02670071
-0.07898442 0.08929814 0.011233324 -0.026906129 -0.17483646 0.032252938 -0.07984641 0.021334672
-0.011334776 0.041351784 -0.017082859 0.025957402 -0.023076931 -0.044954263 0.0127326595 -0.07520297
0.07046309 -0.09477448 0.044409905 -0.045436293 -0.069182485 -0.054560542 -0.052555706 -0.12350009
-0.0980876 -0.018171597 -0.022593658 -0.042509675 -0.061915226 -0.015938977 0.08395808 -0.13677509
-0.001119781 0.18372567 -0.028190102 -0.013921322 0.13872983 -0.036189415 -0.06565607 -0.06900016
-0.012596472 -0.12467412 0.046164844 -0.018175222 -0.106533915 -0.040599674 0.003332631 0.070205614
-0.011728515 -0.030274296 -0.020736648 0.03746831 0.02197263 -0.06835068 -0.06058583 -0.09571771
-0.09956258 0.026100643 0.068326466 0.20947942 0.12883343 -0.074318215 -0.084131524 -0.035591416
-0.0023390446 0.097209774 0.0238895 -0.07891916 -0.03123079 -0.10284658 -0.034432236 -0.012684951
-0.03773033 -0.045103922 -0.015436673 0.03485831 -0.07609487 -0.070418134 -0.038707867 -0.025840826
-0.062690474 -0.09561728 -0.05629711 -0.03765989 -0.015947673 -0.02901606 0.030256633 -0.021686891
-0.01081926 -0.046998374 -0.0013752299 -0.037942387 0.029543126 -0.032259807 -0.0076784776 0.113950185
0.00070379797 0.0056374297 0.021439044 0.06311579 -0.053665116 0.04392854 -0.026462523 -0.055879552
-0.015358352 -0.019265108 0.013282646 0.061512213 0.04052685 -0.029160231 -0.090267204 0.04815012
-0.020132128 -0.024822041 -0.3885881 -0.03705185 -0.1496741 -0.017801004 0.0013976115 -0.08996619
0.0061737983 0.030642388 0.10995583 -0.013602166 0.03928925 -0.09550911 -0.033882122 -0.05356627
0.04606431 0.041950274 -0.061733924 0.0027486568 -0.036785595 -0.051427163 0.10296576 -0.07558818
-0.010531639 -0.04514574 0.07238411 0.023938019 0.00592316 -0.011710872 -0.0032684312 0.1254613
0.10633129 0.034862496 -0.042267643 -0.02457358 -0.02933469 -0.058917005 1.5129958e-05 -0.08313987
0.03322947 -0.042557787 -0.066189095 -0.014443339 -0.008343142 0.101633176 -0.08791281 -0.14893226
-0.016275901 0.013183291 -0.10274786 -0.08931683 0.044405807 0.013594794 0.018793408 -0.021649707
-0.04549301 -0.025294706 -0.07180359 0.0018082462 -0.044765413 -0.12726547 -0.017856438 -0.096871085
-0.09781582 -0.026322844 0.12262239 -0.09872107 -0.010380198 0.00063109177 0.035794247 -0.111800805
-0.08932962 0.00019484213 -0.013357083 0.124752 -0.06050013 -0.0030877464 0.01310172 0.021470768
-0.101698175 -0.0053268345 -0.0025623348 -0.012976514 0.123682655 -0.041775882 -0.051026262 -0.042457666
0.014998143 -0.022655321 -0.02223069 -0.01236845 -0.04038383 -0.037974127 -0.06680139 -0.045779433
00000000: cf95 3f3c c1b0 85bd a515 383c 79b7 f33d
00000010: 56a0 6bbd 39b8 323c b625 b13d 7c34 5abd
00000020: 2a9f d2bd 5e7f 173d 2a48 39bd 5076 ee3d
00000030: f92f 42bd 1e6f 263a 6a45 ebbd 7b37 78bd
00000040: 6348 203c a83f 123e 3809 90bd ac52 d8bd
00000050: 5097 e43b 9a76 0c3d c5cd 433c 8f82 67bd
00000060: 8853 543c f108 34be 4275 dfbc 84a6 03bd
00000070: 3799 dbbc 2f2c 5cbd d06f bc3d 5a10 84bc
00000080: f7f1 b4bd 6d4d e23d 65d0 e8be ddfd e8bb
00000090: 6508 3cbd 7e3c 4c3c 35c1 37bd 9a0b babd
000000a0: a562 363d 1002 0bbd 2a6f 463c 3f71 633d
000000b0: 027a 7abd 23a3 14be d2d5 a5bd 73bb dabc
000000c0: 95c2 a1bd f1e1 b63d fa0b 383c 3e6a dcbc
000000d0: 5408 33be a81b 043d 8486 a3bd 0dc6 ae3c
000000e0: 7fb5 39bc 7d60 293d 5af1 8bbc 9ea4 d43c
000000f0: d50b bdbc f621 38bd a59c 503c 0404 9abd
00000100: f44e 903d 1f19 c2bd 29e7 353d 681b 3abd
00000110: 8caf 8dbd e07a 5fbd a744 57bd 9ded fcbd
00000120: 27e2 c8bd 9adc 94bc 5616 b9bc a01e 2ebd
00000130: d29a 7dbd 7592 82bc 37f2 ab3d c50e 0cbe
00000140: 9ec5 92ba 9522 3c3e eeee e6bc 4216 64bc
00000150: 310f 0e3e 5a3b 14bd b176 86bd f54f 8dbd
00000160: 6f61 4ebc 2555 ffbd 5917 3d3d 34e4 94bc
00000170: 742e dabd d84b 26bd 4568 5a3b f6c7 8f3d
00000180: f528 40bc cd01 f8bc e7df a9bc 5f78 193d
00000190: f2ff b33c 71fb 8bbd d928 78bd a607 c4bd
000001a0: 77e7 cbbd 04d1 d53c bfee 8b3d c681 563e
000001b0: e9ec 033e 2634 98bd 264d acbd 4ec8 11bd
000001c0: a84a 19bb eb15 c73d eab3 c33c 5ea0 a1bd
000001d0: b7d7 ffbc 3aa1 d2bd d108 0dbd 8ad4 4fbc
000001e0: 1e8b 1abd e4be 38bd 19ea 7cbc 96c7 0e3d
000001f0: a1d7 9bbd 6237 90bd 248c 1ebd 24b0 d3bc
00000200: dd63 80bd fed2 c3bd cc97 66bd 4241 1abd
00000210: b2a4 82bc 17b3 edbc c2dc f73c b5a8 b1bc
00000220: 4443 31bc 5e81 40bd 0f41 b4ba 7a69 1bbd
00000230: 6d04 f23c dc22 04bd bd9b fbbb b75e e93d
00000240: 157f 383a 30ba b83b efa0 af3c da42 813d
00000250: f4cf 5bbd 6aee 333d efc7 d8bc f5e1 64bd
00000260: 99a1 7bbc dcd1 9dbc 759f 593c 3bf4 7b3d
00000270: 7bff 253d 70e1 eebc 03de b8bd 0f39 453d
00000280: 22ec a4bc 9857 cbbc 05f5 c6be aec3 17bd
00000290: 2b44 19be 69d3 91bc 0f30 b73a 3240 b8bd
000002a0: 934d ca3b bf05 fb3c 8630 e13d 9fdb 5ebc
000002b0: c4ed 203d 489a c3bd fbc7 0abd 4e68 5bbd
000002c0: eead 3c3d 0dd4 2b3d b6dc 7cbd cf22 343b
000002d0: 7eac 16bd 4aa5 52bd b6df d23d facd 9abd
000002e0: e58c 2cbc bdea 38bd 1f3e 943d aa19 c43c
000002f0: 1117 c23b f5de 3fbc 2d33 56bb ed78 003e
00000300: 38c4 d93d facb 0e3d d620 2dbd 884e c9bc
00000310: 4e4f f0bc f552 71bd add6 7d37 3c45 aabd
00000320: a01b 083d 1351 2ebd 268e 87bd c1a3 6cbc
00000330: adb1 08bc 0e25 d03d a20b b4bd b381 18be
00000340: 0a55 85bc bbfe 573c 786d d2bd beeb b6bd
00000350: dde2 353d b3bc 5e3c a2f4 993c ba5a b1bc
00000360: e156 3abd d836 cfbc c30d 93bd ad02 ed3a
00000370: f05b 37bd e151 02be aa47 92bc 5964 c6bd
00000380: a953 c8bd 01a3 d7bc 7321 fb3d 462e cabd
00000390: b511 2abc da6f 253a fd9c 123d d2f7 e4bd
000003a0: 73f2 b6bd 894e 4c39 abd7 5abc fa7d ff3d
000003b0: fcce 77bd ca5b 4abb 99a8 563c 77e3 af3c
000003c0: 2247 d0bd ba8c aebb d8ec 27bb 729b 54bc
000003d0: 554d fd3d 301d 2bbd ea00 51bd 17e8 2dbd
000003e0: c5ba 753c a797 b9bc 231d b6bc 0aa5 4abc
000003f0: 8469 25bd c28a 1bbd 2bcf 88bd 3783 3bbd

fc4.bias f4 [12]
-0.04674766 -0.037241437 -0.016967315 -0.058294576 -0.017507365 -0.04227266 -0.0054061287 -0.037250545
-0.09054217 -0.021151302 -0.015553836 0.07175425
00000000: 797a 3fbd 7a8a 18bd 0aff 8abc 4bc6 6ebd
00000010: 9b6b 8fbc 1926 2dbd e525 b1bb 0794 18bd
00000020: 2c6e b9bd 7f45 adbc 84d5 7ebc e4f3 923d
