new.pt_episode_1000.pt (torch, 182480 bytes, 8 tensors)

fc1.weight f4 [64, 5]
-0.013522351 0.10667221 -0.16538411 0.12361057 0.010335427 -0.031828716 0.108163 -0.10306952
0.054841097 0.087342 -0.039412357 -0.104081675 -0.021179564 0.04220432 0.070643924 0.114973076
0.012577481 0.17334172 -0.039368764 0.13770346 0.029561574 0.02982783 -0.087336764 0.19806038
-0.12908097 0.10873817 -0.106700785 -0.110439226 0.11874117 0.054938897 0.026105616 0.084953114
0.019993756 0.14433147 -0.049684003 0.12414815 0.11333639 -0.07903923 0.011261591 0.19316885
-0.13023067 -0.06611986 0.053988457 0.15144795 -0.01790928 -0.027158579 0.04172811 0.10212773
-0.117265925 0.14341246 0.059758715 0.09901417 0.14041874 -0.16546099 -0.034766357 0.17540033
-0.13353898 -0.06075318 0.07449142 0.015375471 0.06320735 -0.16861682 0.06700722 0.11714251
-0.037991475 -0.0064358627 0.03492197 -0.027413322 -0.043638278 -0.099385016 -0.07334744 0.08948474
-0.14367974 0.18031992 0.09064103 -0.1245046 0.10898674 -0.023000747 0.06920842 0.09885118
-0.01620156 -0.13739185 0.027906802 0.12879378 -0.011682652 0.019587947 0.22014286 -0.024630282
0.15714 -0.052742038 -0.08303668 -0.102720246 0.102859795 -0.033403102 -0.023862783 -0.07450173
0.15287247 -0.0048724166 -0.05494198 -0.023705672 0.050353307 -0.023280103 0.23341157 0.05355217
-0.20105621 -0.07801917 -0.08879267 -0.04419062 0.053256154 0.05920061 -0.035986856 -0.09742024
-0.06088936 -0.019523762 0.06520711 0.12545387 -0.0011845606 0.15053676 0.016940553 0.0754736
0.13291994 -0.039418414 0.11427214 0.0453924 -0.02032771 0.10047229 -0.087820925 -0.10147685
0.037082247 -0.07608718 -0.13119501 0.22698034 0.059165213 0.13753681 -0.18498912 0.015077683
0.0035046558 -0.088447444 0.04421435 -0.047991876 0.018578976 0.1276785 -0.10359133 0.12815818
-0.12461685 0.13798206 -0.0961943 -0.049737185 0.08170028 -0.050007332 -0.062410362 -0.047293853
-0.070256434 -0.09311118 -0.10254063 0.09960971 0.08371953 -0.091446154 -0.040984616 -0.051375363
7.3008145e-05 0.040591393 -0.04260191 0.1000561 0.15008783 -0.10967187 0.07016501 -0.10540136
0.15010607 -0.0154568255 -0.09119541 -0.049448118 -0.059591588 -1.1978862e-05 0.0699102 0.1261503
-0.117559485 -0.08204875 0.12049078 -0.042481303 -0.029002305 -0.012822922 -0.10159631 0.16181646
0.08414954 -0.047771506 0.10122734 0.16307953 -0.12405137 0.030731626 -0.051100954 -0.086684115
0.089512214 -0.097100094 -0.079454295 0.22586799 -0.04554766 0.25197116 -0.15241583 -0.0870125
0.016892016 0.0069315177 -0.09702501 -0.037548013 0.01360985 -0.040043246 0.08700024 0.110814914
-0.07038692 0.06913584 0.25295117 -0.13871334 0.27472848 0.02616529 0.05503642 0.069851846
-0.09704711 0.011671118 -0.08474866 0.014990878 0.045756016 -0.03249031 -0.09836203 -0.009431691
0.09317057 -0.01608934 0.15944971 0.107709706 -0.023408545 0.12705271 -0.04672769 0.0039674602
-0.054723673 -0.014175325 0.03078918 0.053657837 -0.0106058875 -0.044482276 -0.07245592 -0.050053872
0.025402421 0.05462645 -0.019677738 0.12475664 -0.114911996 0.06845061 0.05363941 0.10660998
0.013788284 0.11542854 -0.114621125 0.15256777 -0.05014028 0.19674161 -0.08971492 -0.16354516
00000000: da8c 5dbc f676 da3d 745a 29be 8a27 fd3d
00000010: ec55 293c d45e 02bd 9084 dd3d 1d16 d3bd
00000020: 0fa1 603d 5de0 b23d da6e 21bd c628 d5bd
00000030: c480 adbc 70de 2c3d c3ad 903d 0177 eb3d
00000040: c711 4e3c 7e80 313e 2441 21bd 2302 0d3e
00000050: 1d2b f23c 7e59 f43c 9edd b2bd 57d0 4a3e
00000060: cd2d 04be 1eb2 de3d f185 dabd f62d e2bd
00000070: 922e f33d 9c07 613d 72db d53c e6fb ad3d
00000080: f2c9 a33c a1cb 133e 7481 4bbd 6341 fe3d
00000090: e91c e83d 52df a1bd 8982 383c 0ece 453e
000000a0: 305b 05be d969 87bd 0023 5d3d 2c15 1b3e
000000b0: 7bb6 92bc ab7b debc 18eb 2a3d 5828 d13d
000000c0: 1e29 f0bd b7da 123e 8ec5 743d f1c7 ca3d
000000d0: eec9 0f3e 9b6e 29be 2b67 0ebd 259c 333e
000000e0: 71be 08be 54d8 78bd f58e 983d 66e9 7b3c
000000f0: db72 813d e3a9 2cbe 153b 893d 6ae8 ef3d
00000100: f39c 1bbd eee3 d2bb 570a 0f3d e791 e0bc
00000110: 0dbe 32bd 5f8a cbbd 2f37 96bd c643 b73d
00000120: c820 13be c9a5 383e 01a2 b93d 45fc febd
00000130: 7134 df3d 106c bcbc 25bd 8d3d 7d72 ca3d
00000140: 22b9 84bc 73b0 0cbe ce9c e43c 84e2 033e
00000150: 9868 3fbc e776 a03c 216d 613e 72c5 c9bc
00000160: 4fe9 203e 0908 58bd 230f aabd fe5e d2bd
00000170: 28a8 d23d b1d1 08bd e27b c3bc 5d94 98bd
00000180: 9a8a 1c3e cba8 9fbb d70a 61bd 6632 c2bc
00000190: 453f 4e3d eab5 bebc 7103 6f3e 8559 5b3d
000001a0: aee1 4dbe 84c8 9fbd eed8 b5bd 3901 35bd
000001b0: 2023 5a3d 577c 723d f466 13bd 4384 c7bd
000001c0: 1f67 79bd 4cf0 9fbc 4e8b 853d fb76 003e
000001d0: 4243 9bba 4f26 1a3e eac6 8a3c e791 9a3d
000001e0: 2a1c 083e 3475 21bd 8307 ea3d 62ed 393d
000001f0: 4c86 a6bc 6ac4 cd3d 75db b3bd 18d3 cfbd
00000200: 8ee3 173d 98d3 9bbd fc57 06be 896d 683e
00000210: 3957 723d 73d6 0c3e ca6d 3dbe 6308 773c
00000220: 5eae 653b ef23 b5bd 1b1a 353d 2193 44bd
00000230: f032 983c 27be 023e b127 d4bd e63b 033e
00000240: 1e37 ffbd 2b4b 0d3e 8401 c5bd 38b9 4bbd
00000250: 7a52 a73d 7dd4 4cbd 02a2 7fbd 33b7 41bd
00000260: 9be2 8fbd 13b1 bebd d200 d2bd 2d00 cc3d
00000270: 2575 ab3d 1f48 bbbd 7cdf 27bd f96e 52bd
00000280: f31b 9938 2943 263d 577f 2ebd 36ea cc3d
00000290: a0b0 193e a59b e0bd acb2 8f3d abdc d7bd
000002a0: 68b5 193e a03e 7dbc a9c4 babd 1c8a 4abd
000002b0: 4f16 74bd d2f8 48b7 142d 8f3d 8b2d 013e
000002c0: 07c3 f0bd 2d09 a8bd dfc3 f63d e000 2ebd
000002d0: 3e96 edbc 3c17 52bc ba11 d0bd 37b3 253e
000002e0: 9856 ac3d 0eac 43bd 4850 cf3d 52fe 263e
000002f0: a50e febd e4c0 fb3c 3c4f 51bd 7187 b1bd
00000300: 2e52 b73d 6adc c6bd efb8 a2bd f049 673e
00000310: 2f90 3abd 5d02 813e e512 1cbe 9c33 b2bd
00000320: 2061 8a3c c921 e33b 0cb5 c6bd f2cb 19bd
00000330: d9fb 5e3c 6304 24bd 2f2d b23d eef2 e23d
00000340: 0427 90bd 1797 8d3d d182 813e df0a 0ebe
00000350: 36a9 8c3e 9758 d63c de6d 613d 7c0e 8f3d
00000360: a3c0 c6bd 3838 3f3c b590 adbd 4d9c 753c
00000370: a96a 3b3d 8f14 05bd 0872 c9bd 6187 1abc
00000380: 36d0 be3d cbcd 83bc c946 233e e896 dc3d
00000390: 47c3 bfbc 1b1a 023e 8965 3fbd 7801 823b
000003a0: ee25 60bd 9f3f 68bc 9739 fc3c 52c8 5b3d
000003b0: 51c4 2dbc 0c33 36bd c563 94bd 4a05 4dbd
000003c0: bd18 d03c fcbf 5f3d 3533 a1bc 6980 ff3d
000003d0: fb56 ebbd d52f 8c3d ffb4 5b3d 5556 da3d
000003e0: 41e8 613c cc65 ec3d 7bbe eabd ba3a 1c3e
000003f0: e55f 4dbd a276 493e 75bc b7bd 6278 27be

fc1.bias f4 [64]
-0.0015266042 -0.05649653 -0.045779526 0.03581685 -0.06590293 0.05495755 0.084052466 -0.01674786
-0.04221406 -0.068058744 -0.08982639 0.07173674 0.013758049 0.00386054 0.0096114455 0.118487425
0.09636139 0.07611954 0.058798034 0.09991128 0.047786895 0.07651879 0.053060986 0.09807414
0.054329608 -0.04800528 -0.027761225 -0.09492581 0.09743491 -0.04689509 -0.006834294 0.09587798
-0.03259021 -0.033945993 0.007633294 0.09215712 -0.026881732 0.08960712 -0.021420058 -0.08478446
0.054035638 -0.04975603 0.006915723 -0.071464494 0.045934588 0.15777324 0.09639875 0.09252915
0.09031071 0.03705403 -0.012806617 -0.027327916 0.13125159 -0.07903774 -0.123698674 -0.026629148
0.0736924 0.0357949 0.057312742 -0.028674643 0.05222165 -0.097325385 0.020648438 -0.012118684
00000000: 5618 c8ba e868 67bd 5083 3bbd b0b4 123d
00000010: 1ef8 86bd 2b1b 613d b323 ac3d cf32 89bc
00000020: a6e8 2cbd 6262 8bbd e6f6 b7bd b6ea 923d
00000030: 7169 613c 1d01 7d3b 5379 1d3c 89a9 f23d
00000040: 1f59 c53d 90e4 9b3d 35d6 703d 499e cc3d
00000050: 31bc 433d e2b5 9c3d 7a56 593d 18db c83d
00000060: b988 5e3d 2fa1 44bd 826b e3bc 7768 c2bd
00000070: f48b c73d 1115 40bd 37f2 dfbb ad5b c43d
00000080: 507d 05bd f40a 0bbd b620 fa3b dfbc bc3d
00000090: 1437 dcbc f083 b73d 1e79 afbc 7aa3 adbd
000000a0: 7954 5d3d fbcc 4bbd 4a9d e23b fa5b 92bd
000000b0: e825 3c3d 4f8f 213e b56c c53d ec7f bd3d
000000c0: d2f4 b83d f7c5 173d d8d2 51bc cbde dfbc
000000d0: d166 063e 8ade a1bd bb55 fdbd 5f25 dabc
000000e0: 0aec 963d ac9d 123d c4c0 6a3d 16e7 eabc
000000f0: 5ee6 553d 8852 c7bd ea26 a93c 728d 46bc

fc2.weight f4 [128, 64]
0.032793343 -0.015846109 -0.0042278063 0.027573664 -0.0051118857 0.11001989 -0.0228313 -0.0035289554
0.19409344 0.028585877 0.028877871 0.04552679 -0.0015943517 0.018019 0.014339218 0.011057919
0.16996165 -0.01727276 -0.008393158 0.2999112 -0.025383597 0.026146168 0.003391803 0.030356787
0.031579163 0.025102774 -0.025370462 -0.0051713954 -0.008920815 0.011312528 -0.012063364 0.08934738
0.035030976 0.20105125 0.02770914 0.15331614 0.023040293 -0.00047010166 -0.0074756257 0.0073159668
-0.016887624 0.012466148 0.008875882 -0.004499779 0.15433675 0.01557477 -0.0023026108 -0.025291592
-0.0033213836 0.028107462 -0.019100456 0.014671568 0.020076092 0.007872877 0.05745355 -0.003989816
0.016359257 -0.002668608 -0.0029286868 -0.00883872 -0.0066667134 -0.0014397807 0.016251963 -0.01270684
-0.0071973223 0.100078516 0.008465807 0.0056019947 -0.038757153 0.0039531635 0.01624693 0.02803349
-0.07129695 0.058468822 -0.023311492 0.021515058 -0.027151868 0.026462499 0.028673947 0.112589516
-0.085519195 -0.020044846 0.008490067 -0.22199284 -0.069111034 -0.002497943 -0.022311423 -0.0036262863
-0.031384397 -0.018330213 -0.053793676 0.026298217 -0.056601904 -0.11233649 0.025870975 -0.118656635
0.044642024 -0.06409328 -0.005155472 -0.44381493 0.03974622 0.034671046 0.0071817883 -0.053525068
0.023858508 0.031291634 -0.0054672733 -0.025273152 -0.13898441 0.037971284 -0.0056931074 -0.010565251
-0.025976708 -0.00746801 -0.015136233 0.07527018 0.026352482 -0.02591894 0.024717046 0.009316951
0.0051246025 0.002407444 -0.022699272 0.06291019 -0.00656028 0.018838177 0.0328277 -0.0119701
-0.14322256 -0.11230427 0.012768598 0.014359805 -0.04888786 0.058165267 -0.014953019 0.011944813
0.14953327 0.08737592 0.047395736 0.014249288 0.040213447 0.024117226 -0.04577699 -0.10502186
0.12868004 -0.041072063 -0.0114833 0.09545654 -0.0012238087 0.024905674 -0.0023298124 0.01993516
0.04035729 -0.011106062 -0.066030994 0.001613888 -0.07482935 0.03541019 -0.024008218 0.009731793
-0.010088878 -0.17650071 -0.018291 0.12458585 -0.018994976 0.028966 0.012828026 0.060515065
0.025246475 0.019262869 0.035633653 0.011522069 0.15390478 0.016874164 0.003920533 0.01078117
-0.02880951 0.03281566 -0.062197 0.026504321 -0.018485457 0.09464322 0.08570998 0.025722489
0.034367383 -0.021097912 0.039457947 -0.10833911 -0.02382293 0.0079103755 -0.071199864 0.020771364
0.009865665 0.016512813 0.02198937 -0.0031796591 -0.015491865 -0.028284723 -0.004998992 -0.015812354
0.008942406 -0.023722555 0.010434819 0.0021543112 -0.023890201 -0.019763088 0.0035724484 0.02418654
-0.02361103 0.013016611 -0.006453309 -0.010580095 -0.013043286 -0.027603157 0.021650502 -0.026477158
0.00044486613 0.02288214 -0.005383436 -0.0033780776 -0.0014944188 0.028521428 -0.018493943 -0.028339425
-0.015322619 -0.015956208 -0.0028113152 0.0075997123 -0.0031445255 0.015766434 0.011140809 -0.016882256
0.028344324 0.002531884 -0.01827886 0.02760217 -0.018244231 0.014595761 0.003771839 0.027040191
-0.029840244 0.026297444 -0.010607178 0.0117366165 0.0110991 -0.01846428 -0.0054020095 0.00434563
-0.010343757 -0.010209233 0.026493514 -0.027361937 0.027688289 -0.02569963 -0.00041397588 0.01575747
00000000: 5052 063d b3cf 81bc 6989 8abb 2ae2 e13c
00000010: 9b81 a7bb 1c52 e13d b508 bbbc 0c46 67bb
00000020: 6ec0 463e ee2c ea3c 4991 ec3c 4d7a 3a3d
00000030: 91f9 d0ba 959c 933c 0aef 6a3c 462c 353c
00000040: 6d0a 2e3e 9a7f 8dbc 7583 09bc f68d 993e
00000050: 43f1 cfbc 7d30 d63c 0349 5e3b ccae f83c
00000060: 2759 013d 55a4 cd3c b7d5 cfbc cf74 a9bb
00000070: 9c28 12bc 2e58 393c 6aa5 45bc c2fb b63d
00000080: a47c 0f3d 61e0 4d3e 47fe e23c e8fe 1c3e
00000090: ffbe bc3c fa77 f6b9 18f6 f4bb c7ba ef3b
000000a0: ea57 8abc d03e 4c3c 266c 113c e272 93bb
000000b0: 740a 1e3e 522d 7f3c 66e7 16bb 5030 cfbc
000000c0: 92ab 59bb 9f41 e63c 8f78 9cbc 0461 703c
000000d0: 9e76 a43c 3dfd 003c 6a54 6b3d 01bd 82bb
000000e0: d903 863c d0e3 2ebb 36ef 3fbb 47d0 10bc
000000f0: 7274 dabb 06b7 bcba d622 853c 5a30 50bc
00000100: 84d7 ebbb f7f5 cc3d 2bb4 0a3c f090 b73b
00000110: d2bf 1ebd 8a89 813b 4818 853c 7da6 e53c
00000120: 2304 92bd 017d 6f3d bef7 bebc 5940 b03c
00000130: 986d debc e2c7 d83c a0e5 ea3c 5595 e63d
00000140: b024 afbd 1735 a4bc ec19 0b3c 1752 63be
00000150: 168a 8dbd 87b4 23bb 72c6 b6bc fda6 6dbb
00000160: ed8c 00bd 3e29 96bc c256 5cbd 5c6f d73c
00000170: 66d7 67bd ac10 e6bd 5eef d33c 4002 f3bd
00000180: 8eda 363d 5643 83bd 3cef a8bb b63b e3be
00000190: efcc 223d 3a03 0e3d 3555 eb3b 1a3d 5bbd
000001a0: eb72 c33c a82b 003d d026 b3bb a409 cfbc
000001b0: ee51 0ebe c787 1b3d 3f8d babb e019 2dbc
000001c0: 1bcd d4bc 35b6 f4bb f6fd 77bc 4127 9a3d
000001d0: 29e1 d73c f553 d4bc 677b ca3c 20a6 183c
000001e0: 48ec a73b 35c6 1d3b d3f3 b9bc 0fd7 803d
000001f0: 9ef7 d6bb 8552 9a3c 5776 063d 3d1e 44bc
00000200: efa8 12be c8ff e5bd 6233 513c 6345 6b3c
00000210: a33e 48bd b43e 6e3d 82fd 74bc 2db4 433c
00000220: 401f 193e 25f2 b23d 0822 423d d875 693c
00000230: dbb6 243d 7d91 c53c a780 3bbd b315 d7bd
00000240: b3c4 033e 2e3b 28bd 7324 3cbc b87e c33d
00000250: 3568 a0ba fc06 cc3c c4af 18bb 104f a33c
00000260: b04d 253d 33f6 35bc 423b 87bd 1889 d33a
00000270: 2140 99bd 460a 113d e2ac c4bc 1972 1f3c
00000280: d24b 25bc 9abc 34be 02d7 95bc de26 ff3d
00000290: 5a9b 9bbc 1b4a ed3c a42c 523c a5de 773d
000002a0: b2d1 ce3c 2acd 9d3c 98f4 113d 0fc7 3c3c
000002b0: 3799 1d3e b03b 8a3c d177 803b 81a3 303c
000002c0: ec01 ecbc b769 063d 48c2 7ebd 971f d93c
000002d0: d06e 97bc 4ed4 c13d b788 af3d f8b7 d23c
000002e0: d0c4 0c3d 87d5 acbc a89e 213d e5e0 ddbd
000002f0: 4e28 c3bc 859a 013c 3cd1 91bd b528 aa3c
00000300: 99a3 213c e145 873c 0d23 b43c d461 50bb
00000310: 97d1 7dbc 5db5 e7bc 96ce a3bb e988 81bc
00000320: 2b83 123c ce55 c2bc cef6 2a3c 582f 0d3b
00000330: 62b5 c3bc 33e6 a1bc bd1f 6a3b da22 c63c
00000340: eb6b c1bc a043 553c 4876 d3bb 2358 2dbc
00000350: 82b3 55bc 0420 e2bc 655c b13c a0e6 d8bc
00000360: ec3c e939 5373 bb3c 8967 b0bb bd62 5dbb
00000370: 60e0 c3ba c5a5 e93c 9c80 97bc 1528 e8bc
00000380: b90b 7bbc 98b6 82bc 0b3e 38bb 0207 f93b
00000390: 6214 4ebb 9c28 813c f187 363c a84c 8abc
000003a0: 5b32 e83c f7ed 253b 8cbd 95bc f21d e23c
000003b0: ed74 95bc 0f23 6f3c f530 773b 6483 dd3c
000003c0: 8773 f4bc bd6d d73c bbc9 2dbc f04a 403c
000003d0: 00d9 353c 6742 97bc 5703 b1bb c965 8e3b
000003e0: dd78 29bc a044 27bc ed08 d93c 2426 e0bc
000003f0: 8dd2 e23c 0888 d2bc e70a d9b9 cf15 813c

fc2.bias f4 [128]
0.077266194 0.04487662 -0.0019915164 -0.009250361 -0.00019201318 -0.031909533 0.074200906 -0.008465005
-0.025757473 0.059918124 0.030741878 0.10971853 -0.021859465 0.016210588 -0.059360582 0.019739859
0.055468682 -0.017822055 0.06912602 0.052473176 0.03911051 0.0063168984 0.021292709 0.104099825
0.15595987 0.033495463 0.053454198 0.06579208 0.014996505 0.0181591 0.015752291 0.015307579
0.11958882 0.05008535 -0.0063408194 -0.0044144657 0.074728176 0.09888614 0.011735747 0.0598148
0.08487462 0.007801334 -0.021438768 -0.024743963 -0.0220544 0.08893262 0.017377764 0.022998154
-0.018472113 0.010949495 0.026360204 0.02898465 0.021434251 0.046799146 0.058195498 -0.0136598125
0.0036301222 0.10645701 -0.020764126 0.069237694 -0.042114098 0.068649955 0.06029474 0.0059654294
-0.006066804 -0.024970707 0.002864492 -0.027526043 -0.02318659 0.014532198 -0.023395613 -0.024271566
0.065808736 -0.023351008 -0.0075731524 0.021081742 0.009323445 -0.009105597 0.031326972 0.08185117
0.06878623 -0.0041323467 0.10864745 0.038532566 0.041826125 0.064145856 0.04242327 0.011442252
0.076253735 0.00043689666 0.0002362414 0.060148988 0.09624809 0.02440027 0.0030452744 -0.0007274539
0.032161552 0.015145351 0.015590178 -0.041887097 0.0063909916 -0.0119240135 0.039802615 0.085753135
0.0135671 -0.0042597787 0.05898564 -0.018494796 0.017386174 -0.007704126 0.07782509 -0.008176999
0.010053783 -0.02697966 0.02763871 0.09964088 0.11453964 0.020281512 0.095973834 -0.008192985
0.084720425 0.110983476 -0.02037365 -0.0016181422 0.061439086 -0.021145003 -0.011000482 0.09430244
00000000: bd3d 9e3d 8cd0 373d 1a84 02bb d38e 17bc
00000010: 2557 49b9 92b3 02bd a5f6 973d ceb0 0abc
00000020: 5601 d3bc b56c 753d 64d6 fb3c 1cb4 e03d
00000030: 9f12 b3bc 11cc 843c 1524 73bd 7cb5 a13c
00000040: 2133 633d 8fff 91bc f191 8d3d 1dee 563d
00000050: 5832 203d fcfd ce3b 0c6e ae3c 4a32 d53d
00000060: f2b3 1f3e 8a32 093d caf2 5a3d ffbd 863d
00000070: e7b3 753c 65c2 943c f30a 813c a4cc 7a3c
00000080: fcea f43d 4c26 4d3d a6c6 cfbb 39a7 90bb
00000090: 160b 993d d184 ca3d 4a47 403c 5d00 753d
000000a0: bfd2 ad3d 55a2 ff3b 5ba0 afbc dab3 cabc
000000b0: 6eab b4bc 4e22 b63d d05b 8e3c a066 bc3c
000000c0: d452 97bc 8365 333c 5bf1 d73c 3771 ed3c
000000d0: e296 af3c 76b0 3f3d 675e 6e3d 68cd 5fbc
000000e0: 58e7 6d3b 2206 da3d 8719 aabc 7ecc 8d3d
000000f0: d57f 2cbd 5998 8c3d 9ef7 763d a679 c33b
00000100: 0acc c6bb 5e8f ccbc 33ba 3b3b 4c7e e1bc
00000110: cef1 bdbc 7518 6e3c 28a8 bfbc 2ad5 c6bc
00000120: bbc6 863d 9d4a bfbc 3528 f8bb 9eb3 ac3c
00000130: 5dc1 183c a42f 15bc b650 003d 96a1 a73d
00000140: ccdf 8c3d a368 87bb 8e82 de3d 53d4 1d3d
00000150: df51 2b3d e75e 833d 06c4 2d3d 4978 3b3c
00000160: eb2a 9c3d 470f e539 91b7 7739 c95e 763d
00000170: b81d c53d 13e3 c73c 3a93 473b 9bb2 3eba
00000180: d5bb 033d 3524 783c f26d 7f3c ce91 2bbd
00000190: 866b d13b f05c 43bc 1108 233d 579f af3d
000001a0: 8b48 5e3c 9d95 8bbb ed9a 713d 6682 97bc
000001b0: 736d 8e3c e572 fcbb c362 9f3d d2f8 05bc
000001c0: 9fb8 243c 7304 ddbc 936a e23c 8510 cc3d
000001d0: c293 ea3d 6a25 a63c ee8d c43d df3b 06bc
000001e0: e781 ad3d 4e4b e33d a4e6 a6bc d817 d4ba
000001f0: 8da7 7b3d 4938 adbc 5e3b 34bc a321 c13d

fc3.weight f4 [256, 128]
-0.00782567 -0.014395586 0.0023912396 0.0019788651 0.0066799805 -0.0081969015 0.012428703 0.0045615216
0.015827129 0.011192639 -0.01001423 0.005321828 -0.0050769583 0.0026065751 -0.018651836 -0.0045262263
-0.019007286 -0.004605158 0.0136646535 0.005324718 0.018996835 0.012989569 0.007829713 -0.008542686
-0.020247554 -0.008239911 0.012783283 -0.004649958 0.012677417 0.014172897 0.013895413 0.0022039907
0.00457141 0.014499453 0.020025922 -0.012696488 0.0137840435 -0.0071755736 0.01634837 -0.0052029486
-0.009505084 0.0030411652 0.010021207 0.008251675 0.009764921 -0.012162957 -0.00041019393 0.0021402992
-0.005787083 -0.010513702 -0.013860942 -0.020002997 0.0048211203 -0.00646912 -0.012616361 -0.01424772
-0.01495596 -0.0050019133 -0.0035689385 -0.020083325 -0.005032159 0.017298985 0.009230231 0.0029198327
-0.0068783513 0.0009767701 0.013498783 -0.012795312 -0.019159019 0.014522686 0.0037376788 0.019415503
-0.0007432418 -0.013637844 0.009814613 0.015671967 0.011518274 -0.00044578264 -0.009450886 -0.017708372
-0.013480958 0.017487528 0.005349742 -0.013403751 -0.0027076553 0.012215613 0.012120895 -0.009871776
-0.018242719 0.015922638 0.016848726 -0.01433419 -0.014235795 0.017027633 0.0026292875 0.0028717117
-0.0023978322 0.019330911 -0.012059073 -0.0038300483 -0.012919929 -0.009205211 0.016312975 -0.014120625
0.011459933 -0.014279966 0.0030338613 0.006761866 -0.0124646695 0.013377665 0.015405423 0.005981258
0.019500276 0.0016400751 -0.017073963 0.018759882 -0.01488704 0.009661661 -0.00038887572 0.0011519607
-0.009344334 -0.008589529 -0.013704527 -0.012197809 -0.00561195 0.008978226 -0.009472202 0.005828411
0.0001681873 0.0045216833 0.016846754 -0.011734778 -0.015769115 -0.01840996 0.0035212776 -0.017142607
0.015080516 0.01157941 -0.013414082 -0.019090703 0.0022931236 0.013423057 0.008936639 -0.018061358
0.016146732 0.0040708855 -0.017895488 0.00044255948 -0.011213721 0.011308449 -0.020021548 -0.007472887
-0.017835433 -0.011924074 -0.014942015 -0.016653834 0.01441699 0.017344097 0.00014708335 0.009307551
0.016100053 0.017432293 0.020372063 0.019996334 -0.013579216 0.006388827 -0.013544033 0.0072425874
-0.01557225 -0.015979547 -0.019143257 -0.013536783 0.016021272 -0.011621041 -0.011048634 0.0009438126
0.007219749 0.011803414 -0.0014789354 0.010072335 0.010548254 0.017895034 -0.003502906 0.014386635
-0.009464121 -0.008579262 -0.017891308 -0.0022267106 0.010432888 0.011293136 -0.0026391344 -0.015037498
0.020223709 -0.013214972 -0.013766401 0.01586782 0.014674074 -0.0062134946 -0.009634447 0.01805457
0.0046031303 -0.009825264 -0.0063174674 -0.007639729 0.0016486014 -0.0024802715 0.0074958764 -0.01272977
-0.010245708 0.0053649456 -0.012413148 -0.018800445 0.0012776692 -0.013137085 -0.017967291 -0.012723675
0.0064972155 -0.00211382 0.014474225 -0.017791541 0.017163346 -0.020309156 0.0049100206 -0.013623365
-0.0089621665 0.004083607 0.0089016585 -0.011021498 0.019768646 0.010286229 0.018478194 0.005539961
-0.01542118 0.0011932766 0.0061075045 -0.016087256 -0.009006209 -0.003858362 -0.014112911 0.005903369
-0.011920241 -0.00028440348 0.011554583 0.0071701817 -0.0068443757 0.017237104 -0.01375905 0.0006035425
0.013809617 0.005686022 0.015423638 0.014936887 0.011206697 -0.0025768797 -0.0038515457 -0.011474475
00000000: 3d37 00bc 77db 6bbc 58b6 1c3b d9af 013b
00000010: bde3 da3b 4c4c 06bc c2a1 4b3c d178 953b
00000020: e5a7 813c 5561 373c ba12 24bc bb62 ae3b
00000030: 9d5c a6bb 13d3 2a3b bccb 98bc bd50 94bb
00000040: 2bb5 9bbc dee6 96bb b6e1 5f3c f97a ae3b
00000050: 409f 9b3c 34d2 543c 3248 003c 9ff6 0bbc
00000060: 33de a5bc b100 07bc fa70 513c ad5e 98bb
00000070: f1b4 4f3c 7035 683c 96a9 633c d470 103b
00000080: c4cb 953b 1d8f 6d3c 670d a43c ee04 50bc
00000090: 78d6 613c 1321 ebbb 04ed 853c 7f7d aabb
000000a0: 36bb 1bbc 494e 473b fd2f 243c 0932 073c
000000b0: 0cfd 1f3c 2447 47bc 4c0f d7b9 4344 0c3b
000000c0: 92a1 bdbb aa41 2cbc 0119 63bc 53dd a3bc
000000d0: 7dfa 9d3b e9fa d3bb dab4 4ebc 456f 69bc
000000e0: d809 75bc 17e7 a3bb dae4 69bb c985 a4bc
000000f0: cfe4 a4bb 9ab6 8d3c 653a 173c aa5a 3f3b
00000100: cb63 e1bb f706 803a 002a 5d3c 6ea3 51bc
00000110: 60f3 9cbc 8ff0 6d3c d8f3 743b 430d 9f3c
00000120: 1dd6 42ba 4371 5fbc 78cd 203c 7f62 803c
00000130: 25b7 3c3c efb7 e9b9 e4d7 1abc 2611 91bc
00000140: 3cdf 5cbc 0142 8f3c e34c af3b 689b 5bbc
00000150: eb72 31bb ff23 483c b896 463c 3bbd 21bc
00000160: c171 95bc 3170 823c 5706 8a3c f3d9 6abc
00000170: 403d 69bc 897d 8b3c 2050 2c3b 5433 3c3b
00000180: f324 1dbb dc5b 9e3c 6b93 45bc 8c01 7bbb
00000190: 1cae 53bc 74d1 16bc caa2 853c 325a 67bc
000001a0: 71c2 3b3c 85f6 69bc bfd3 463b a592 dd3b
000001b0: 9d38 4cbc fe2d 5b3c 0767 7c3c 6efe c33b
000001c0: 0bbf 9f3c caf7 d63a b2de 8bbc 53ae 993c
000001d0: c5e8 73bc f24b 1e3c 04e2 cbb9 63fd 963a
000001e0: fa18 19bc 19bb 0cbc f488 60bc 52d9 47bc
000001f0: 73e4 b7bb 6919 133c 4b31 1bbc 41fc be3b
00000200: 6f5b 3039 a12a 943b 3402 8a3c 3a43 40bc
00000210: 3b2e 81bc 7cd0 96bc 3cc5 663b a76e 8cbc
00000220: 4514 773c 91b7 3d3c bdc6 5bbc 1b64 9cbc
00000230: 3b48 163b 62ec 5b3c fb6a 123c 6af5 93bc
00000240: 2746 843c 1065 853b 8f99 92bc 5407 e839
00000250: c1b9 37bc 1347 393c 3b04 a4bc 1fdf f4bb
00000260: 9d1b 92bc 315d 43bc 5acf 74bc 9f6d 88bc
00000270: 3d35 6c3c 3515 8e3c 633a 1a39 b37e 183c
00000280: 42e4 833c 2bce 8e3c 50e3 a63c 5acf a33c
00000290: 5c7b 5ebc 5e59 d13b cbe7 5dbc 3a53 ed3b
000002a0: c022 7fbc 8ae7 82bc 52d2 9cbc 62c9 5dbc
000002b0: 0b3f 833c 2e66 3ebc 5405 35bc 316a 773a
000002c0: a593 ec3b 1b63 413c d6d8 c1ba 6f06 253c
000002d0: 95d2 2c3c 9b98 923c 0391 65bb ecb5 6b3c
000002e0: 670f 1bbc 0890 0cbc cb90 92bc 01ee 11bb
000002f0: b4ee 2a3c d806 393c 54f5 2cbb d75f 76bc
00000300: 31ac a53c 9c83 58bc 798c 61bc 3bfd 813c
00000310: 876b 703c 929a cbbb cdd9 1dbc 2de7 933c
00000320: dbd5 963b 25fa 20bc c202 cfbb b156 fabb
00000330: e215 d83a 0d8c 22bb f89f f53b 8690 50bc
00000340: 9ddd 27bc 6dcc af3b 8460 4bbc 6403 9abc
00000350: 7777 a73a ee3c 57bc 2430 93bc f676 50bc
00000360: 98e6 d43b 0488 0abb 4d25 6d3c 91bf 91bc
00000370: 259a 8c3c 635f a6bc 3de4 a03b 8934 5fbc
00000380: 0dd6 12bc c7cf 853b 43d8 113c 8393 34bc
00000390: dbf1 a13c 9287 283c 955f 973c 9088 b53b
000003a0: 1ea9 7cbc b867 9c3a 7621 c83b 6cc9 83bc
000003b0: c78e 13bc 93dc 7cbb d739 67bc 0c71 c13b
000003c0: 1d4d 43bc fd1b 95b9 6f4f 3d3c d8f3 ea3b
000003d0: c946 e0bb d434 8d3c a36d 61bc 0d37 1e3a
000003e0: bb41 623c cf51 ba3b 6db3 7c3c d8b9 743c
000003f0: 4b9c 373c dee0 28bb 376a 7cbb 70ff 3bbc

fc3.bias f4 [256]
-0.004732171 -0.0027032956 0.054392517 0.017441552 -0.03445815 0.028526675 -0.010927212 -0.012325635
0.06815656 0.011191164 -0.026713688 -0.020244742 0.003101088 -0.0060941046 0.05048529 0.06443368
0.018793205 0.045555636 0.01892471 0.037088517 0.04702382 -0.0023401338 0.09699564 0.020698
-0.019343976 0.056244396 -0.018776389 0.047524948 0.010586725 0.08057227 0.07147346 0.013485969
0.06832936 -0.029165125 0.038972598 0.053187385 0.04584318 -0.018980905 0.0091465 0.042631395
0.012179306 0.054969475 0.05019773 0.06352534 0.06724309 0.072183706 0.048105642 0.025466392
0.018266324 0.0105756605 -0.0010299755 0.039510157 -0.027022418 0.074928544 0.034448143 0.055947196
0.011907307 0.073948674 0.066752635 -0.013154453 0.030225132 0.0751636 0.01357306 0.091903344
0.050735116 0.10009817 -0.018031996 -0.00802326 0.11728025 0.04351555 -0.010516778 -0.056321643
-0.007909708 -0.03215719 0.059780315 -0.013564262 0.06901655 0.040655665 -0.026715614 0.033478964
0.05600318 0.056745656 0.06694629 0.0068732593 0.0362043 0.014034305 0.089145385 -0.06913149
-0.016012093 0.057125267 -0.027458 -0.016555566 -0.03763797 0.084458485 0.034680054 -0.0029307657
0.0052105766 0.0008291807 0.053400036 0.036266524 0.020393115 -0.017356232 0.00773497 0.03175712
-0.01661646 0.00961233 -0.017031096 -0.0027721368 0.081511214 -0.01709921 -0.030014353 0.032374527
0.0345696 0.08692537 0.011585797 -0.01680161 0.0124945 -0.012909494 -0.021332955 0.0040089423
0.05395468 0.057390396 0.010518625 0.05717916 0.0141593255 0.06619134 0.002150001 0.028356818
0.0076164017 -0.011291803 -0.014483943 -0.0033127116 -0.022991735 0.0064862873 0.019114675 0.017167052
0.05744683 0.070104875 -0.045540843 0.039253257 0.075983286 0.06862249 0.050687443 0.052588485
-0.14054456 0.07880963 0.021025721 -0.0089913225 0.09261171 0.01658789 0.049744837 0.0010665567
0.010585139 0.10973657 0.012505732 0.0018195087 0.0066446345 0.110778876 0.0120872 -0.011390294
-0.018625703 0.035362475 0.03664102 0.052161537 -0.015244757 -0.0005263498 0.0021969648 0.07251991
-0.020870762 0.018264554 -0.0011341865 0.013441206 0.012070085 0.059395332 0.04507112 0.043009926
0.014378026 0.0045981486 0.0047802874 0.073382065 -0.005598649 0.0058961287 -0.0072426856 0.014325169
0.01783037 -0.010437381 0.07778647 0.0763752 -0.0041784863 0.0754585 0.062182505 -0.00041870918
-0.005323233 -0.0013110568 0.06567626 0.07374155 0.056194857 -0.0026226002 -0.0034130674 0.06351415
0.16095412 0.0396035 -0.01616836 -0.0022217932 0.014545544 0.07273908 -0.023069007 0.0059000566
0.076843366 0.07952438 0.10687924 -0.0012634973 0.034464404 0.06586565 -0.007153271 0.01222436
0.052706026 0.007647327 -0.018788982 0.016240865 -0.13667135 0.054021902 -0.02094276 0.07733385
0.050636232 0.09256982 0.009326975 0.04451618 -0.006894954 0.079349004 0.056417786 0.02818234
0.020730022 0.06549981 0.045500956 0.09536284 0.17473708 0.005751716 0.05134957 0.052513182
0.032265417 0.014536365 0.015731875 0.018113786 -0.0036331264 0.066444606 -0.0034124155 0.097204156
-0.0053366027 0.004546222 -0.0076358165 0.054790802 0.01743214 0.038925502 -0.0036738028 0.0024789558
00000000: 5410 9bbb c629 31bb b0ca 5e3d 96e1 8e3c
00000010: fd23 0dbd c6b0 e93c 0d08 33bc 76f1 49bc
00000020: ab95 8b3d 255b 373c aad6 dabc 4dd8 a5bc
00000030: a03b 4b3b 0eb1 c7bb aac9 4e3d cef5 833d
00000040: 35f4 993c 8c98 3a3d fe07 9b3c 21ea 173d
00000050: 0d9c 403d ee5c 19bb a6a5 c63d da8e a93c
00000060: 4277 9ebc 8660 663d f1d0 99bc 85a9 423d
00000070: f173 2d3c 1303 a53d ad60 923d 41f4 5c3c
00000080: 43f0 8b3d b3eb eebc bba1 1f3d 04db 593d
00000090: 0fc6 3b3d d87d 9bbc 34db 153c 429e 2e3d
000000a0: b68b 473c ac27 613d 239c 4d3d 9319 823d
000000b0: bfb6 893d 0dd5 933d 6c0a 453d e59e d03c
000000c0: 42a3 953c 8945 2d3c 3e00 87ba 67d5 213d
000000d0: 1e5e ddbc 2374 993d 7f19 0d3d e328 653d
000000e0: de16 433c 6772 973d 9bb5 883d c685 57bc
000000f0: b29a f73c 60ef 993d 8a61 5e3c d237 bc3d
00000100: a0cf 4f3d 4500 cd3d d6b7 93bc fe73 03bc
00000110: a130 f03d 5d3d 323d 904e 2cbc 86b1 66bd
00000120: b897 01bc 42b7 03bd 34dc 743d a33c 5ebc
00000130: 8d58 8d3d 8e86 263d b4da dabc 3d21 093d
00000140: 9763 653d 226e 683d 231b 893d 1439 e13b
00000150: f64a 143d 24f0 653c db91 b63d d094 8dbd
00000160: cb2b 83bc 2ffc 693d 9aef e0bc 8a9f 87bc
00000170: 462a 1abd 92f8 ac3d ac0c 0e3d 1712 40bb
00000180: 7cbd aa3b 605d 593a ffb9 5a3d 358c 143d
00000190: 760f a73c a82e 8ebc a275 fd3b c113 023d
000001a0: 3e1f 88bc 097d 1d3c cc84 8bbc bdac 35bb
000001b0: 5aef a63d a413 8cbc a9e0 f5bc 279b 043d
000001c0: da98 0d3d ee05 b23d 5bd2 3d3c 88a3 89bc
000001d0: bbb5 4c3c 5882 53bc 73c2 aebc 725d 833b
000001e0: 95ff 5c3d 3112 6b3d 5056 2c3c b234 6a3d
000001f0: 84fc 673c 538f 873d 08e7 0c3b 8f4c e83c
00000200: 0293 f93b 4101 39bc 0f4e 6dbc 141a 59bb
00000210: 2a59 bcbc ec8a d43b 6196 9c3c eba1 8c3c
00000220: 5e4d 6b3d 2593 8f3d 0989 3abd 06c8 203d
00000230: 209d 9b3d f389 8c3d a39d 4f3d 0667 573d
00000240: eaea 0fbe f166 a13d 223e ac3c 5750 13bc
00000250: 35ab bd3d 54e3 873c 3ec1 4b3d b4cb 8b3a
00000260: 4a6d 2d3c 91bd e03d d7e4 4c3c 957c ee3a
00000270: 3cbb d93b 09e0 e23d 6409 463c 5b9e 3abc
00000280: ee94 98bc 3ed8 103d e514 163d 56a7 553d
00000290: 25c5 79bc bdfa 09ba f4fa 0f3b 5285 943d
000002a0: 29f9 aabc 8c9f 953c fca8 94ba 8138 5c3c
000002b0: 9bc1 453c 8548 733d 7f9c 383d 2d2b 303d
000002c0: d091 6b3c 11ac 963b f5a3 9c3b 5649 963d
000002d0: df74 b7bb 5034 c13b 0d54 edbb 1db4 6a3c
000002e0: ff10 923c 8d01 2bbc 834e 9f3d 9a6a 9c3d
000002f0: afeb 88bb fc89 9a3d 15b3 7e3d 3286 dbb9
00000300: 846e aebb c4d7 abba 4681 863d cf05 973d
00000310: 942c 663d eedf 2bbb c5ad 5fbb b513 823d
00000320: 28d1 243e 4837 223d 8273 84bc 819b 11bb
00000330: 6f50 6e3c 3af8 943d 37fb bcbc 4355 c13b
00000340: 0e60 9d3d aedd a23d 81e3 da3d ef9b a5ba
00000350: 8c2a 0d3d 92e4 863d fd65 eabb af48 483c
00000360: 46e2 573d 6e96 fa3b 5aeb 99bc 900b 853c
00000370: 93f3 0bbe 1246 5d3d 2790 abbc 3661 9e3d
00000380: f067 4f3d 3f95 bd3d 2bd0 183c 9956 363d
00000390: 11ef e1bb bb81 a23d 5616 673d a7de e63c
000003a0: 02d2 a93c c424 863d 365f 3a3d 984d c33d
000003b0: 47ee 323e e478 bc3b ed53 523d 1018 573d
000003c0: be28 043d ef29 6e3c 22e0 803c 5d63 943c
000003d0: bf19 6ebb 1c14 883d d5a2 5fbb f912 c73d
000003e0: abde aebb 79f8 943b df35 fabb 526c 603d
000003f0: d9cd 8e3c 5970 1f3d 2fc4 70bb fa75 223b

fc4.weight f4 [12, 256]
-0.013440873 -0.006705066 -0.0905201 0.1348846 -0.5262928 0.13662331 0.014003139 -0.0031782049
-0.3543224 0.0015199096 -0.13645643 0.0047875512 -0.0035049063 0.0030301318 -0.056669906 -0.009203151
0.007886951 -0.08352004 -0.0043616155 -0.11838337 -0.10868738 -0.45805028 0.21494958 -0.11543775
-0.0013967599 -0.08169239 0.0017191403 -0.0849012 -0.004064953 -0.07791735 -0.09483437 -0.007882868
-0.10760051 0.108383834 0.1274009 -0.10320023 -0.08611103 0.109468244 0.13723294 -0.05658511
0.0052014976 -0.066395804 -0.10514041 -0.15595238 -0.08458307 -0.11388021 -0.08815245 0.120554015
0.094673604 0.009310196 0.12034809 -0.105886854 0.04971496 -0.07002634 -0.10929353 -0.09457285
-0.0017315141 -0.0867231 -0.065145016 -0.006070586 -0.066637106 -0.09474288 0.17153285 -0.07187933
-0.08619535 -0.11772246 0.10277555 -0.0017182777 -0.04346317 -0.08970004 0.0051774755 0.12740701
-0.014856559 0.029240206 -0.09515047 0.0063873185 -0.071095146 0.22996628 0.12887038 0.11842839
-0.058884453 -0.111145735 -0.06797123 0.008834721 -0.08799714 0.00959944 -0.11672981 -0.24251814
0.009152312 -0.073290214 0.27428663 -0.011523253 -0.39548126 -0.37308455 -0.112966396 -0.013359912
-0.009264406 -0.011065853 -0.07848396 -0.30038562 -0.2523066 0.0022551913 -0.009712893 -0.11408199
0.121591546 0.0050784247 -0.005895462 0.0974215 -0.08937136 -0.008508183 0.13778578 -0.107145295
-0.06055429 -0.18069346 -0.0017016546 -0.007262849 0.12382291 0.013330191 -0.009281722 -0.007005489
-0.061646532 -0.094404496 -0.007128931 -0.07249868 0.16957714 -0.095549986 -0.012439438 0.10581679
-0.119460076 0.12904185 0.012448465 0.16035905 0.13271429 -0.011094074 -0.010350008 -0.00489921
-0.12005579 -0.06277256 0.0306802 0.08574071 -0.08502286 -0.09432951 -0.05505439 -0.06933737
0.052770812 -0.111260146 0.11898223 0.0037837864 -0.09234626 -0.0004981128 -0.055260304 -0.00025395502
0.09635863 -0.07422889 -0.35292476 0.009746864 0.009392825 -0.13719395 0.1436794 0.16247053
-0.0052448423 -0.18260832 -0.22269323 -0.10096178 -0.010691461 0.12709345 0.11558241 -0.12196736
0.00736752 -0.0076730326 0.009473014 0.114231795 -0.0022568018 -0.10707787 -0.090164684 -0.07482305
-0.21056801 -0.0031035622 0.0058426056 -0.13161285 -0.008477126 -0.23563203 0.09298319 -0.0026446644
-0.0135235125 0.00414645 -0.064485334 -0.08391823 -0.06988465 -0.06636966 -0.07756113 0.0104467925
0.006894186 0.09295428 -0.075490996 -0.064084575 -0.16262022 -0.01233763 0.1301135 -0.16537836
-0.10929219 0.094608605 -0.6368856 0.105906665 0.008245452 -0.12396503 0.109352864 -0.001571132
-0.20965523 -0.09871406 0.012003248 0.0100233555 -0.21241206 -0.07789707 -0.013365751 0.009338668
-0.08217692 -0.005646096 -0.006110576 -0.0015276894 -0.33554783 -0.3445231 -0.008177104 -0.08914489
-0.08424933 -0.073345624 0.012698039 -0.108106725 0.12839504 -0.103108846 -0.1024308 -0.06455835
-0.082118586 -0.076978564 -0.071899205 -0.12545772 -0.08458373 -0.011391294 -0.06510882 -0.052176684
0.08500327 0.0026724956 0.00030729434 0.112887405 -0.012033677 -0.08740743 -0.6122064 0.075853646
0.009730253 0.0057275915 0.11950385 -0.48651463 0.009717996 -0.0777123 -0.0017133062 0.007991774
00000000: 1b37 5cbc 2cb6 dbbb 9a62 b9bd 301f 0a3e
00000010: 20bb 06bf fbe6 0b3e 6c6d 653c 6e49 50bb
00000020: bf69 b5be b437 c73a 3cbb 0bbe e4e0 9c3b
00000030: 92b2 65bb 2d95 463b b41e 68bd d0c8 16bc
00000040: 4538 013c 8e0c abbd e2eb 8ebb fb72 f2bd
00000050: 7d97 debd 9185 eabe be1b 5c3e a16a ecbd
00000060: 7c13 b7ba 574e a7bd c754 e13a aee0 adbd
00000070: 4c33 85bb 2293 9fbd 8638 c2bd 2527 01bc
00000080: a85d dcbd 58f8 dd3d 6275 023e a45a d3bd
00000090: fb5a b0bd e330 e03d cb86 0c3e cac5 67bd
000000a0: 5371 aa3b 86fa 87bd db53 d7bd fbb1 1fbe
000000b0: e339 adbd 073a e9bd 4689 b4bd 06e5 f63d
000000c0: 3ce4 c13d cb89 183c 0f79 f63d 35db d8bd
000000d0: eaa1 4b3d f869 8fbd 49d5 dfbd 69af c1bd
000000e0: f9f3 e2ba e19b b1bd c06a 85bd c4eb c6bb
000000f0: 0979 88bd 8e08 c2bd 4fa6 2f3e 7835 93bd
00000100: 3087 b0bd 7918 f1bd fd7b d23d d537 e1ba
00000110: 7006 32bd a8b4 b7bd d0a7 a93b fc76 023e
00000120: ed68 73bc 2889 ef3c 40de c2bd b64c d13b
00000130: 559a 91bd 487c 6b3e 99f6 033e 958a f23d
00000140: d330 71bd 60a0 e3bd 8034 8bbd 81bf 103c
00000150: d837 b4bd f846 1d3c 0a10 efbd ad56 78be
00000160: 94f3 153c 2e19 96bd 4c6f 8c3e 07cc 3cbc
00000170: 857c cabe f004 bfbe ed5a e7bd 88e3 5abc
00000180: bcc9 17bc 8d4d 35bc 33bc a0bd 25cc 99be
00000190: 552e 81be d5cb 133b d322 1fbc d2a3 e9bd
000001a0: fd04 f93d ea68 a63b b82e c1bb ec84 c73d
000001b0: 5508 b7bd e865 0bbc b717 0d3e fe6e dbbd
000001c0: c607 78bd b507 39be 0e0a dfba 31fd edbb
000001d0: de96 fd3d e066 5a3c 5d12 18bc 4d8e e5bb
000001e0: 1381 7cbd 2557 c1bd cf99 e9bb 307a 94bd
000001f0: a1a5 2d3e b6af c3bd c9ce 4bbc 79b6 d83d
00000200: 7ca7 f4bd 8c23 043e a6f4 4b3c 2a35 243e
00000210: 41e6 073e ebc3 35bc 1493 29bc 8d89 a0bb
00000220: cfdf f5bd e68e 80bd 0b55 fb3c d398 af3d
00000230: 7720 aebd d52f c1bd b680 61bd c000 8ebd
00000240: 3526 583d 5cdc e3bd f5ac f33d 67f9 773b
00000250: 0920 bdbd c993 02ba a158 62bd 4425 85b9
00000260: ac57 c53d 5105 98bd 8eb2 b4be 50b1 1f3c
00000270: 5de4 193c 927c 0cbe b120 133e ad5e 263e
00000280: eddc abbb adfd 3abe b209 64be 0dc5 cebd
00000290: 3d2b 2fbc c924 023e 78b6 ec3d 06ca f9bd
000002a0: 3d6b f13b 106e fbbb b334 1b3c 5cf2 e93d
000002b0: dae6 13bb a44b dbbd 43a8 b8bd d43c 99bd
000002c0: 249f 57be 2265 4bbb 5473 bf3b 85c5 06be
000002d0: a5e3 0abc 8649 71be f96d be3d 1b52 2dbb
000002e0: b991 5dbc f2de 873b e310 84bd 52dd abbd
000002f0: af1f 8fbd d1ec 87bd 5fd8 9ebd 0629 2b3c
00000300: a0e8 e13b d05e be3d 069b 9abd c63e 83bd
00000310: ea85 26be c523 4abc 793c 053e f258 29be
00000320: 95d4 dfbd 28c2 c13d ef0a 23bf 98e5 d83d
00000330: ef17 073c 61e1 fdbd 65f4 df3d 71ee cdba
00000340: dcaf 56be 992a cabd 45a9 443c 0039 243c
00000350: 8c82 59be 8088 9fbd 06fc 5abc 3601 193c
00000360: 5f4c a8bd e302 b9bb 3a3b c8bb c03c c8ba
00000370: edcc abbe 5565 b0be 43f9 05bc 9991 b6bd
00000380: ea8a acbd 3b36 96bd 700b 503c 0f67 ddbd
00000390: fd79 033e bb2a d3bd 3dc7 d1bd 2b37 84bd
000003a0: ca2d a8bd f0a6 9dbd e43f 93bd fd77 00be
000003b0: 3c3a adbd 8da2 3abc c657 85bd 38b7 55bd
000003c0: 3216 ae3d 0925 2f3b 591c a139 8331 e73d
000003d0: e628 45bc ab02 b3bd 8fb9 1cbf 2859 9b3d
000003e0: a46b 1f3c 85ae bb3b 6fbe f43d 7218 f9be
000003f0: 3b38 1f3c a027 9fbd 0491 e0ba eeef 023c

fc4.bias f4 [12]
-0.08905285 0.0092856055 -0.06251255 -0.015144276 0.11309175 -0.000793478 -0.03629523 -0.012837527
-0.11473606 -0.057194863 -0.08519809 -0.04231749
00000000: 5761 b6bd a722 183c 9406 80bd b31f 78bc
00000010: a69c e73d 6801 50ba 4faa 14bd 7e54 52bc
00000020: bdfa eabd 2945 6abd 567c aebd 1b55 2dbd
