new.pt_episode_2084.pt (torch, 182480 bytes, 8 tensors)

fc1.weight f4 [64, 5]
0	0xbd581689	-0.052755866
1	0x3de18356	0.110113785
2	0xbe2d0e5f	-0.16900013
3	0x3e306bde	0.17228648
4	0xbc39ea5d	-0.0113473805
5	0xbcf772b7	-0.030206067
6	0x3d6103ee	0.05493539
7	0xbd541eb7	-0.051787104
8	0x3d0dd6ef	0.034628805
9	0x3d23848e	0.039921336
10	0xbc044e12	-0.008075254
11	0xbcae90d5	-0.021309296
12	0xbb8e287b	-0.0043383217
13	0x3c0da95e	0.008646337
14	0x3c6ce2c3	0.014458361
15	0x3d81e04c	0.06341609
16	0xba6ca19f	-0.0009026769
17	0x3e04c74b	0.12966649
18	0xbd804a98	-0.06264228
19	0x3da73402	0.081642166
20	0x3c22f211	0.009945408
21	0x3c498f2b	0.0123022
22	0xbda7d19b	-0.08194276
23	0x3e1bd2dc	0.15217155
24	0xbd6b392d	-0.057427574
25	0x3d9a2a55	0.075276054
26	0xbd7d0c1a	-0.06177912
27	0xbd967dd8	-0.073482215
28	0x3d747e1f	0.05969059
29	0x3d15db09	0.03658584
30	0x3af6dd02	0.0018834176
31	0x3d6f7266	0.05845871
32	0x38f205a3	0.00011540509
33	0x3d8a9f60	0.067686796
34	0xbcf87d16	-0.030333083
35	0x3da030ae	0.07821785
36	0x3d749a8e	0.059717707
37	0xbd444b5e	-0.04792344
38	0x3bcfd360	0.0063423365
39	0x3e2e49ff	0.17020415
40	0xbd6a970e	-0.057272963
41	0xbd6c10c3	-0.057633173
42	0x3c1d10dd	0.00958654
43	0x3dd3e420	0.10346246
44	0xbb40c8ea	-0.002941663
45	0xbc64ccf2	-0.013964878
46	0x3cbc7cfe	0.02300882
47	0x3dc4c2bc	0.09607455
48	0xbdd437f3	-0.10362234
49	0x3e0949d8	0.13407075
50	0x3cd69837	0.026195629
51	0x3d6995c5	0.057027597
52	0x3e1af7c1	0.15133573
53	0xbe0ffe16	-0.1406177
54	0xbc01919c	-0.007908251
55	0x3e294c11	0.16532923
56	0xbdf931a5	-0.12167672
57	0xbd3e5400	-0.046466827
58	0x3d8d7f91	0.06909097
59	0x3bcb92b0	0.006212555
60	0x3dd5666b	0.10419925
61	0xbe1510a9	-0.14557137
62	0x3cda816a	0.026673038
63	0x3db83775	0.089949526
64	0xbc1e81fa	-0.0096745435
65	0xbaacaad1	-0.0013173466
66	0x3bea42da	0.0071490826
67	0xbbb7fdb7	-0.005614962
68	0xbc126c9a	-0.008937025
69	0xbca6e473	-0.020372605
70	0xbd34d4e5	-0.044148345
71	0x3d588da9	0.052869473
72	0xbdd80683	-0.10548117
73	0x3dffe1ef	0.12494265
74	0x3d162ddf	0.03666484
75	0xbdfd8704	-0.12379268
76	0x3df41300	0.119176865
77	0xbcf2d9ea	-0.029644925
78	0x3d361d08	0.04446128
79	0x3d91eb48	0.071249545
80	0xbc254536	-0.010087302
81	0xbdd6838a	-0.10474308
82	0x3c9308c6	0.01794852
83	0x3dbc812e	0.092043266
84	0x3bc9557f	0.006144225
85	0xbd445dfd	-0.047941197
86	0x3e2da7d0	0.16958547
87	0xbbbfd3da	-0.005854112
88	0x3dd6f5c4	0.10496095
89	0xbd901938	-0.0703606
90	0xbc8b5cd9	-0.017012047
91	0xbcac425d	-0.021027738
92	0x3cac7bda	0.02105515
93	0xbbdfd6d8	-0.0068310313
94	0xbba01715	-0.004885564
95	0x3cae9c35	0.02131472
96	0x3e0941b8	0.13403976
97	0x3ce1e09a	0.027572919
98	0xbc32cc9d	-0.010913041
99	0x3bd2395c	0.006415529
100	0x3d86ab00	0.065755844
101	0x3bc35d5f	0.0059620584
102	0x3e702ecb	0.2345535
103	0xbcafccf8	-0.021460041
104	0xbe42eee3	-0.1903644
105	0xbc82f486	-0.015985738
106	0xbc950300	-0.018189907
107	0xbc144f3f	-0.009052097
108	0x3c32d523	0.010915074
109	0x3c46ac42	0.01212603
110	0xbbf13e45	-0.0073621594
111	0xbca380a2	-0.019958798
112	0xbc4c5268	-0.012470819
113	0xbb831512	-0.0040003145
114	0x3c5a6189	0.013328918
115	0x3d69fc88	0.0571256
116	0xbbf20985	-0.0073863887
117	0x3d8c8b9a	0.068625644
118	0xbc2030a1	-0.009777219
119	0x3d03cd6c	0.032178327
120	0x3daab7c9	0.083358355
121	0xbc9ca0f0	-0.01911971
122	0x3d8a533c	0.06754157
123	0xbaa43ea0	-0.0012530871
124	0xbc4e0e5a	-0.012576664
125	0x3ca8a457	0.020586176
126	0xbc935a71	-0.017987462
127	0xbcaa422a	-0.020783503
128	0x3bf86c08	0.0075812377
129	0xbc7f1cec	-0.01557086
130	0xbe3af063	-0.18255763
131	0x3e5eef84	0.21771055
132	0x3d33ec5e	0.04392659
133	0x3dc4297f	0.09578227
134	0xbe007ff4	-0.1254881
135	0x3b4a5e0b	0.0030878808
136	0x3a3c147c	0.0007174683
137	0xbc946c2b	-0.018117985
138	0x3c1463fb	0.00905704
139	0xbc21035e	-0.009827463
140	0xbbe433be	-0.006964176
141	0x3d8155cf	0.06315195
142	0xbd71c590	-0.0590263
143	0x3dbd6e90	0.09249604
144	0xbd63a114	-0.055573538
145	0x3e073f67	0.1320778
146	0xbdba427c	-0.09094712
147	0xbd1b3258	-0.03788981
148	0x3db16cc2	0.08663322
149	0xbd148e83	-0.036268722
150	0xbc5173d8	-0.012783967
151	0xbc1e980b	-0.009679805
152	0xbc6b9db7	-0.014380864
153	0xbc9c3979	-0.019070374
154	0xbcabf85f	-0.020992456
155	0x3d538aff	0.05164623
156	0x3d388954	0.04505284
157	0xbd4555b9	-0.048177455
158	0xbd106c9d	-0.03525983
159	0xbd0818e7	-0.033226874
160	0x3c4b9e8f	0.01242794
161	0x3cea771c	0.028621249
162	0xbd368826	-0.044563435
163	0x3d65ac34	0.05607243
164	0x3daf6fe8	0.08566266
165	0xbd28e6bb	-0.041235667
166	0x3d116d21	0.035504464
167	0xbd0d8e06	-0.034559272
168	0x3d257f53	0.04040463
169	0xbc6100e5	-0.013733123
170	0xbc991cc7	-0.01869048
171	0xbc260f6e	-0.010135515
172	0xbc47f95b	-0.012205447
173	0xb624bbe0	-2.4547262e-06
174	0x3c6a7b45	0.014311616
175	0x3d9af15a	0.075655654
176	0xbd520531	-0.051274482
177	0xbd1959d5	-0.037439186
178	0x3d704ef1	0.058669034
179	0xbcc8966a	-0.024485786
180	0xbbbcbabe	-0.005759566
181	0xbb8fd80e	-0.0043897694
182	0xbe21f64d	-0.15816613
183	0x3e45f387	0.1933118
184	0x3d7b0e03	0.06129266
185	0xbcef5735	-0.029216388
186	0x3d5d0e6e	0.05396884
187	0x3dd1769c	0.10227701
188	0xbda3c907	-0.07997327
189	0x3cc08fc2	0.023506049
190	0xbc2b6cd8	-0.010462962
191	0xbc9169c3	-0.017750626
192	0x3c963d60	0.018339813
193	0xbca2f29c	-0.019891076
194	0xbc855c23	-0.016279286
195	0x3e38d2c8	0.18049157
196	0xbd4a283c	-0.049354777
197	0x3e7b1137	0.24518286
198	0xbe29e768	-0.1659218
199	0xbd205b26	-0.039149426
200	0x3b627092	0.003455196
201	0x3aba0a6b	0.0014193779
202	0xbca2d14c	-0.019875191
203	0xbbfba985	-0.0076801204
204	0x3b36b8df	0.0027881188
205	0xbcb27bf9	-0.02178763
206	0x3d2ce3a7	0.042209294
207	0x3d8af0b7	0.06784194
208	0xbd46a0ec	-0.04849331
209	0x3d148ed5	0.036269028
210	0x3e61e58b	0.2206022
211	0xbddec852	-0.10878052
212	0x3e5da2b0	0.21644092
213	0xbd38c75a	-0.04511199
214	0x3d4f0581	0.05054236
215	0x3c6a4a38	0.014299922
216	0xbca2db1b	-0.019879868
217	0x3b1ca16f	0.0023899933
218	0xbc8e3470	-0.017358989
219	0x3b493639	0.0030702485
220	0x3bb919a1	0.005648807
221	0xbc5f88ee	-0.013643486
222	0xbd49e9ae	-0.04929512
223	0xbd69b4be	-0.057057135
224	0x3dd3d17f	0.103426926
225	0xbcb58657	-0.022158785
226	0x3dab9b2b	0.08379205
227	0x3d92ca89	0.07167537
228	0xbcd6bb93	-0.02621249
229	0x3d96e956	0.07368724
230	0xbc1cc44b	-0.009568284
231	0x3a54dffa	0.00081205333
232	0xbc37a755	-0.011209329
233	0xbb3e4acb	-0.002903628
234	0x3bcea560	0.0063063353
235	0x3c34293f	0.010996162
236	0xbb0e5b25	-0.0021721807
237	0xbc154e19	-0.009112858
238	0xbc72d2c7	-0.014820761
239	0xbc280e2b	-0.010257284
240	0x3b82dc1f	0.0039935256
241	0x3cdccc69	0.02695294
242	0xbcdb0971	-0.0267379
243	0x3dad261f	0.08454537
244	0xbd7ec1ad	-0.062196422
245	0x3cf45a05	0.02982808
246	0x3caed39c	0.021341138
247	0x3d40d64b	0.047079366
248	0xbc19eeeb	-0.009395341
249	0x3d3c1cb8	0.045925826
250	0xbe10c971	-0.14139344
251	0x3e215103	0.1575356
252	0xbdc85ee8	-0.09783727
253	0x3e5dd642	0.21663764
254	0xbd83b665	-0.06431273
255	0xbdabb2e9	-0.08383734

fc1.bias f4 [64]
0	0x3dc11b0b	0.09428986
1	0x3cf98b34	0.030461885
2	0xbc19bba7	-0.009383119
3	0x3d82c21a	0.06384678
4	0xbce8add9	-0.02840321
5	0x3d704300	0.058657646
6	0x3d89351b	0.06699582
7	0x3df50440	0.11963701
8	0x3c012f37	0.007884792
9	0x3d23519d	0.039872754
10	0xbd234a92	-0.039866038
11	0xbb640fe5	-0.0034799513
12	0xbd523c90	-0.05132729
13	0x3a4f49b2	0.0007907405
14	0x3d55037f	0.052005287
15	0x3e016e58	0.12639749
16	0x3d087c64	0.033321753
17	0x3dc3c14c	0.09558353
18	0x3c455546	0.012044257
19	0x3d51baf4	0.051203683
20	0xbc3b2bd6	-0.0114240255
21	0x3c805371	0.015664788
22	0x3c3225b9	0.010873252
23	0x3d17ca4d	0.037058163
24	0x3ca050e7	0.019569827
25	0xbc210f43	-0.009830299
26	0x3d74f76e	0.05980628
27	0xbc9f2e09	-0.019431131
28	0x3c8db495	0.017298022
29	0xbd60f738	-0.054923266
30	0xbab77df6	-0.0013999331
31	0x3d9c404f	0.076294534
32	0x3d70afbd	0.058761347
33	0xbb229e02	-0.0024813418
34	0x3acceb3e	0.0015634072
35	0x3d50b03c	0.05094932
36	0x3d4e7332	0.050402828
37	0x3d3a7b70	0.045527875
38	0xbb8fb328	-0.0043853708
39	0xbdade5bb	-0.08491083
40	0x3c35662b	0.011071722
41	0x3cc3e845	0.023914466
42	0xbc8a9db3	-0.0169209
43	0xbc6f931c	-0.014622476
44	0xbc363f16	-0.011123439
45	0x3de5dd3f	0.1122384
46	0x3ca1bb79	0.019742714
47	0x3c9b4ebe	0.018958446
48	0xbc00b42b	-0.007855455
49	0x3d16403c	0.036682352
50	0x3da31c5f	0.07964396
51	0x3cacd0a7	0.021095587
52	0x3df11676	0.11771862
53	0xbd7d1e1a	-0.061796285
54	0xbd51f605	-0.051260013
55	0x3cd701de	0.026246008
56	0x3cad9cb6	0.02119289
57	0x3beffc38	0.007323768
58	0xbd71f6eb	-0.05907337
59	0x3d059545	0.032613058
60	0x3c2f3358	0.010693394
61	0xbca3568e	-0.019938733
62	0x3d78bc4a	0.06072644
63	0xbb22afca	-0.0024824017

fc2.weight f4 [128, 64]
0	0x3b1c9a4c	0.002389568
1	0xbb868e38	-0.0041063093
2	0xba62b3b6	-0.0008647995
3	0x3c0cbdbe	0.00859016
4	0xba598af5	-0.0008298599
5	0x3d617be6	0.0550498
6	0xbb49f366	-0.0030815243
7	0x3b1d35ac	0.002398829
8	0x3e052af3	0.13004665
9	0x3c6cd521	0.014455111
10	0x3c65fc9e	0.014037279
11	0x3c9b9f83	0.01899696
12	0x3be85fbb	0.00709149
13	0x3b719413	0.003686194
14	0x3b0b2e51	0.0021237324
15	0x38475d7b	4.7532358e-05
16	0x3e125b6c	0.14292687
17	0xbb13ca3d	-0.0022550963
18	0xbae0ff1f	-0.0017165876
19	0x3e22c110	0.1589396
20	0x3c137c58	0.009001814
21	0x3baf72e0	0.0053542703
22	0x3a3629cd	0.0006948978
23	0x3c102a35	0.008799125
24	0x3c244d36	0.010028174
25	0x3ba88b22	0.005143539
26	0xbbc7da1b	-0.0060989982
27	0xba8ade95	-0.0010594899
28	0xba770515	-0.00094230595
29	0x3cb6aa98	0.022298142
30	0xbb21eb74	-0.0024706991
31	0x3d53f5d1	0.0517481
32	0x3c133326	0.008984363
33	0x3db6ef96	0.08932416
34	0x3bb9ee03	0.005674125
35	0x3d7ac6f6	0.0612249
36	0x3b76da21	0.0037666636
37	0x3b789708	0.0037931819
38	0xbac8af2f	-0.0015310998
39	0x3c4fac34	0.012675334
40	0xbb626138	-0.003454281
41	0x3b9e1245	0.0048239552
42	0x3c06e777	0.008233896
43	0xba71515c	-0.0009205544
44	0x3e925224	0.28578293
45	0x3bbf402e	0.0058365082
46	0xb9f6d895	-0.00047082143
47	0xbba9c242	-0.005180628
48	0xba034674	-0.0005007752
49	0x3c03c92e	0.00804357
50	0xbbc5659f	-0.006024077
51	0x3ca18eee	0.019721474
52	0x3bd73842	0.0065679858
53	0x3c00e9de	0.007868258
54	0x3cde7381	0.027154686
55	0x3b3c4d07	0.0028732435
56	0x3bd51ba7	0.0065035406
57	0xba0f36bc	-0.0005463173
58	0xbb54b140	-0.0032454282
59	0xbb72dcb7	-0.0037057826
60	0xbab31959	-0.001366417
61	0xb99ab435	-0.00029507434
62	0x390dfd3e	0.00013541148
63	0xbb2a8b6f	-0.002602305
64	0x3d7635c8	0.060109884
65	0x3d65f21e	0.056139104
66	0x3ae2fafa	0.0017317228
67	0x3c12ff85	0.008972053
68	0xbca8d07e	-0.02060723
69	0x3d49fecd	0.049315263
70	0x3b805318	0.0039161555
71	0x3cdcd074	0.026954867
72	0xbdd65801	-0.10466004
73	0x3d934dd2	0.071925774
74	0xbc21b97c	-0.009870883
75	0x3a6aefb4	0.000896211
76	0xbd07675e	-0.033057563
77	0x3bb1ab80	0.0054220557
78	0x3cd14076	0.025543433
79	0x3da9c7c9	0.08290059
80	0xbe30c837	-0.17263876
81	0xbb39adf5	-0.0028332446
82	0x3ae3a490	0.0017367769
83	0xbd92ee55	-0.071743645
84	0xbdd6e1c1	-0.10492278
85	0xba0629fd	-0.0005117951
86	0xbb95c8ee	-0.004571072
87	0x3b4dfc7b	0.0031431008
88	0xbbf7c700	-0.0075615644
89	0xbb75a855	-0.0037484367
90	0xbcb5acac	-0.022177063
91	0x3bb08431	0.005386852
92	0xbcd147c3	-0.025546914
93	0xbdc54fb5	-0.096343435
94	0x3bad8433	0.0052953004
95	0xbe0931b6	-0.1339787
96	0x3cd3e3be	0.025865432
97	0xbce88023	-0.028381413
98	0xba8a714b	-0.0010562328
99	0xbe6f3d74	-0.23363286
100	0x3d2f0631	0.042730514
101	0x3c917c70	0.017759532
102	0x3ac0dc76	0.001471414
103	0xbd00ef9c	-0.03147851
104	0x3ba00f7f	0.00488466
105	0x3c98ac05	0.018636713
106	0x3a88888a	0.0010416668
107	0xbba9a3e0	-0.005177006
108	0xbebac12a	-0.36475497
109	0x3cad28a9	0.021137552
110	0xba98ee99	-0.0011667787
111	0xbb0dda00	-0.002164483
112	0xbc8a4bfc	-0.016881935
113	0x3baeea1b	0.005337966
114	0xbb769876	-0.0037627495
115	0x3d252ae5	0.04032411
116	0x3c834c3f	0.016027568
117	0xbc82b775	-0.01595662
118	0x3cd891ef	0.026436774
119	0x3c013e61	0.007888407
120	0x3be40c73	0.006959492
121	0x3a014889	0.0004931768
122	0xbc316590	-0.010827437
123	0x3d275277	0.04085013
124	0xbab01d8f	-0.0013436544
125	0x3b7c8e4c	0.0038536964
126	0x3cdc406b	0.026886186
127	0xbb20a075	-0.0024509702
128	0xbe50527b	-0.20343964
129	0xbdbd5ce4	-0.09246233
130	0x3b2b56f6	0.0026144362
131	0x3ba0ee14	0.0049111936
132	0xbd4bfdec	-0.049802706
133	0x3dbc63f6	0.091987535
134	0xbcaf5651	-0.021403464
135	0xbc002a26	-0.007822549
136	0x3e8683f7	0.26272556
137	0x3d1969a3	0.03745426
138	0x3ca55580	0.020182371
139	0x3d3e23e6	0.046420954
140	0x3d78d8d7	0.06075367
141	0x3ba1da98	0.0049393885
142	0xbd71c7f7	-0.059028592
143	0xbe07f73c	-0.13277906
144	0x3ea9103a	0.33020192
145	0xbd1b5e6e	-0.037931852
146	0xbb1a41ef	-0.0023537835
147	0x3c72b604	0.014813904
148	0x3b3ca8ac	0.002878706
149	0x3ba7465c	0.005104823
150	0xb9f9c66a	-0.0004764081
151	0x3b99df27	0.0046957913
152	0x3c1947ff	0.009355544
153	0xbb151b64	-0.0022751922
154	0xbdad713a	-0.08468862
155	0x39ad2c96	0.0003303035
156	0xbda7ef36	-0.08199923
157	0x3d401706	0.046896957
158	0xbba11928	-0.004916329
159	0x3b1d93c0	0.0024044365
160	0xbc88864e	-0.016665604
161	0xbd46b751	-0.048514668
162	0xbb7524c1	-0.003740594
163	0x3d97b578	0.07407659
164	0xbd9cfd9b	-0.07665559
165	0x3a90e32e	0.0011054033
166	0x3b2c1ace	0.0026261094
167	0x3d5d90ad	0.05409305
168	0x3ba977eb	0.005171766
169	0xbb4eb80f	-0.0031542813
170	0x3ca1f233	0.01976881
171	0x3b1ac08b	0.00236133
172	0x3f061651	0.523778
173	0xbc1d2356	-0.009590944
174	0x3a527ba0	0.0008029286
175	0x3b10abd0	0.0022075064
176	0xbcfddd9a	-0.030989457
177	0x3b575cb0	0.0032861643
178	0xbde3129f	-0.11087536
179	0x3d49fe76	0.04931494
180	0xbc734c83	-0.014849785
181	0x3dc576df	0.096418135
182	0x3dca8275	0.09888164
183	0x3bcdc2be	0.0062793186
184	0x3ce055e5	0.027384708
185	0xbb8da214	-0.0043222997
186	0x3d2971e9	0.0413684
187	0xbdd061ff	-0.10174941
188	0xbb9fd05c	-0.0048771333
189	0x3ad43fd4	0.0016193339
190	0xbdf614c2	-0.12015678
191	0x3b8b71c5	0.0042555057
192	0x3b04793a	0.0020213858
193	0x3b5d4328	0.0033761952
194	0x3b93961a	0.0045039775
195	0xba2ab250	-0.0006511556
196	0xbb4ff560	-0.0031731948
197	0xbbbdd2f8	-0.0057929717
198	0xba863f4f	-0.0010242256
199	0xbb542470	-0.0032370351
200	0x3aefd1cf	0.0018296781
201	0xbb9f1e3f	-0.0048559005
202	0x3b0c1a65	0.0021378037
203	0x39e71d99	0.00044081805
204	0xbba047bc	-0.004891364
205	0xbb84afb8	-0.0040492676
206	0x3a3fe104	0.0007319602
207	0x3ba25598	0.004954051
208	0xbb9e5857	-0.0048323083
209	0x3b2ea7d9	0.0026650338
210	0xbaad1dce	-0.0013207735
211	0xbb0e0a02	-0.0021673446
212	0xbb2f07c0	-0.00267075
213	0xbbb93c34	-0.0056529287
214	0x3b9145e3	0.00443338
215	0xbbb1c5d9	-0.0054251966
216	0x38bf2652	9.1147274e-05
217	0x3b99ae54	0.004689971
218	0xba9079d7	-0.0011022639
219	0xba357195	-0.0006921527
220	0xb9a06c1d	-0.0003059813
221	0x3bbf7deb	0.005843868
222	0xbb77cdb8	-0.0037811827
223	0xbbbe3665	-0.005804824
224	0xbb4dacc8	-0.0031383503
225	0xbb55f9ba	-0.003265007
226	0xba1701ed	-0.000576048
227	0x3acc0340	0.0015564933
228	0xba28e32c	-0.00064425427
229	0x3b538ea3	0.0032281063
230	0x3b1594d8	0.0022824313
231	0xbb624e74	-0.0034531625
232	0x3bbe3f4c	0.0058058854
233	0x3a07fbe4	0.0005187376
234	0xbb74fc05	-0.003738166
235	0x3bb93a8c	0.0056527313
236	0xbb7487d3	-0.0037312403
237	0x3b43f3b7	0.0029899904
238	0x3a4a7f02	0.0007724614
239	0x3bb58bb4	0.0055403356
240	0xbbc84519	-0.0061117527
241	0x3bb082ce	0.005386687
242	0xbb0e5f35	-0.0021724228
243	0x3b1d74c1	0.002402589
244	0x3b15030f	0.0022737419
245	0xbb776a2f	-0.00377525
246	0xba90fbad	-0.0011061333
247	0x3a692300	0.000889346
248	0xbb0ae1e6	-0.0021191775
249	0xbb091440	-0.002091661
250	0x3bb1e340	0.0054287016
251	0xbbb7a781	-0.005604685
252	0x3bb9cb08	0.005669955
253	0xbbac629d	-0.005260779
254	0xb8b1e4f2	-8.482662e-05
255	0x3b537164	0.003226363

fc2.bias f4 [128]
0	0x3da96bc4	0.08272508
1	0x3da3a67f	0.07990741
2	0x3d267d0a	0.04064659
3	0xbaf7e477	-0.0018912692
4	0xbba95b92	-0.0051683867
5	0x3c8024be	0.01564252
6	0x3dccf5ae	0.10007797
7	0xbae2f55e	-0.0017315557
8	0xbbacc1ed	-0.005272141
9	0x3dca2904	0.09871104
10	0x3dc72e61	0.09725643
11	0x3e1aadc1	0.15105344
12	0x3d19f3dd	0.03758608
13	0x3b593793	0.0033144697
14	0xbe2d1067	-0.16900788
15	0xbc5eb11e	-0.013592033
16	0x3e01fe34	0.12694627
17	0xbb6eff3d	-0.0036468052
18	0x3dadaa29	0.08479721
19	0x3dbe47cb	0.09291037
20	0x3dba4175	0.09094516
21	0x3aa99ab8	0.0012939787
22	0x3d78bb90	0.06072575
23	0x3de19287	0.11014276
24	0x3e288f06	0.16460809
25	0x3b395822	0.002828129
26	0x3e31d3d6	0.17365965
27	0x3d90fc5b	0.07079383
28	0x3b5314a5	0.003220835
29	0x3b736a2d	0.0037142143
30	0x3b536080	0.0032253563
31	0xbcdea20f	-0.027176885
32	0x3e8e5035	0.27795568
33	0x3db3e64c	0.0878416
34	0xbaaa3861	-0.0012986773
35	0xba7e691e	-0.0009704995
36	0x3df5543c	0.11978957
37	0x3e3df8c9	0.18551935
38	0x3b1d71f3	0.0024024218
39	0x3d80f0fc	0.06295964
40	0x3def70d3	0.116914414
41	0x3dbc6543	0.09199002
42	0xbbb2ac29	-0.005452652
43	0xbcca46aa	-0.024691898
44	0xbd0ac8f7	-0.03388306
45	0x3e020a8c	0.12699336
46	0x3b691262	0.0035563936
47	0x3b9a765d	0.004713817
48	0xbd58bdf6	-0.052915536
49	0x3b12f827	0.0022425742
50	0x3d86fee7	0.065915875
51	0xbcea6bb0	-0.028615803
52	0x3b8fcbf6	0.0043883277
53	0x3db36307	0.08759122
54	0x3dba63b8	0.09101051
55	0xbb376084	-0.0027981112
56	0x3a42f333	0.0007436752
57	0x3e5a1e29	0.21300568
58	0xbb8b655a	-0.0042540254
59	0x3df27008	0.118377745
60	0xbe1078cb	-0.14108579
61	0x3df5f5a2	0.12009741
62	0x3db37639	0.087627836
63	0xbaddfee5	-0.0016936926
64	0xbab2d8a1	-0.0013644883
65	0xbcbb9c59	-0.0229017
66	0x3a19e964	0.0005871265
67	0x3da636b8	0.081159055
68	0xbbb141ad	-0.0054094405
69	0xbc9811bf	-0.01856315
70	0xbd2f4e0d	-0.042799044
71	0xbd696d9d	-0.0569893
72	0x3da5d387	0.08096986
73	0xbd08bed0	-0.033385098
74	0xbacb47e6	-0.0015509098
75	0x3da45d08	0.08025557
76	0x3af9e455	0.0019065241
77	0xbb26c7c7	-0.0025448666
78	0x3d405d44	0.046963945
79	0x3de8682b	0.113479935
80	0x3d211f12	0.03933627
81	0xba5d7d16	-0.000844912
82	0x3e0803e6	0.13282737
83	0x3d4a0f3d	0.04933094
84	0x3d58a56f	0.052892145
85	0x3d2dbbcb	0.04241542
86	0x3d78d82d	0.060753036
87	0x3b19b277	0.002345232
88	0x3e252ce2	0.16130403
89	0x38bb9537	8.944648e-05
90	0x384aec61	4.8380698e-05
91	0x3dea034a	0.114264086
92	0x3dcb19b8	0.09917015
93	0x3d955ab6	0.07292692
94	0x3a238d4c	0.00062390114
95	0xb91c3aa7	-0.00014899169
96	0x3db88725	0.09010152
97	0x3b4b44a6	0.003101626
98	0x3caef2e6	0.021356057
99	0xbd80f8bc	-0.06297442
100	0x3aab8311	0.0013085325
101	0xbb1ffce6	-0.0024412214
102	0x3bc3858b	0.0059668473
103	0x3e1c8069	0.1528336
104	0x3b36296d	0.0027795688
105	0xbae6524c	-0.0017572134
106	0x3de0456b	0.109507404
107	0xbb77d095	-0.0037813534
108	0xbca907c5	-0.020633588
109	0xbcb0dbce	-0.021589186
110	0x3d9cb61a	0.076519206
111	0xbadb1810	-0.0016715545
112	0x3d90ed44	0.07076505
113	0xbbb52626	-0.0055282293
114	0x3d868e1a	0.065700725
115	0x3e0736b1	0.13204457
116	0x3e0b5357	0.1360601
117	0xbc609ee5	-0.013709758
118	0x3e0db4b5	0.13838466
119	0xbadb87d0	-0.0016748849
120	0x3df9c814	0.12196365
121	0x3e06371c	0.1310696
122	0xbb88c75a	-0.004174155
123	0xbcd5e91f	-0.026112137
124	0x3dc6d1fc	0.0970802
125	0xbb8df21f	-0.0043318416
126	0xbd2d01bc	-0.042237982
127	0x3e01bee2	0.12670472

fc3.weight f4 [256, 128]
0	0xbad2172c	-0.0016028634
1	0xbb41498c	-0.00294933
2	0x3a0053db	0.0004895308
3	0x39d46103	0.0004050807
4	0x3ab37261	0.0013690704
5	0xbadba330	-0.0016757008
6	0x3b26f6d3	0.0025476709
7	0x3a748e0d	0.00093290285
8	0x3b5454a4	0.0032399083
9	0x3b164a01	0.0022932293
10	0xbb06770f	-0.0020517742
11	0x3a8ed1f5	0.0010896312
12	0xba88566c	-0.0010401732
13	0x3a0bfd29	0.0005340153
14	0xbb79f5f6	-0.003814099
15	0xba72b453	-0.0009258438
16	0xbb7ee933	-0.0038896322
17	0xba76d7bc	-0.0009416302
18	0x3b3770c3	0.0027990795
19	0x3a8ee423	0.001090173
20	0x3b7ec3f0	0.0038874112
21	0x3b2e46a1	0.002659239
22	0x3ad2318e	0.0016036497
23	0xbae51466	-0.0017477393
24	0xbb87eefe	-0.004148363
25	0xbadccfd8	-0.001684661
26	0x3b2b875b	0.0026173207
27	0xba793c90	-0.00095076207
28	0x3b2a2a78	0.0025965255
29	0x3b3e41f8	0.002903102
30	0x3b3a770f	0.0028452312
31	0x39ec8145	0.0004510974
32	0x3a7512c5	0.0009348805
33	0x3b42ab82	0.0029704277
34	0x3b8672b4	0.004103029
35	0xbb2a6951	-0.0026002715
36	0x3b39015d	0.0028229572
37	0xbac0b21a	-0.0014701516
38	0x3b5b0463	0.0033419363
39	0xba8bb725	-0.001065944
40	0xbafef378	-0.0019451221
41	0x3a2352f6	0.00062303187
42	0x3b068f00	0.0020532012
43	0x3add2216	0.001687112
44	0x3b031f81	0.0020007791
45	0xbb234cea	-0.002491767
46	0xb8b031db	-8.40162e-05
47	0x39e595cb	0.00043789888
48	0xba9b68a1	-0.0011856743
49	0xbb0d2919	-0.0021539389
50	0xbb3a0365	-0.002838337
51	0xbb864b5e	-0.00409834
52	0x3a817796	0.0009877558
53	0xbaad8e18	-0.00132412
54	0xbb296142	-0.0025845324
55	0xbb3f51a3	-0.0029192946
56	0xbb48bf3b	-0.003063156
57	0xba86535b	-0.001024823
58	0xba3fb12c	-0.00073124724
59	0xbb86d533	-0.004114771
60	0xba8722f2	-0.0010310097
61	0x3b67ff07	0.003539981
62	0x3af75d5f	0.0018872431
63	0x3a1cbbee	0.00059789314
64	0xbab8a5a0	-0.0014087446
65	0x3951cc14	0.00020007818
66	0x3b354431	0.0027659053
67	0xbb2baeff	-0.0026196835
68	0xbb808ac9	-0.0039227945
69	0x3b42faaf	0.002975147
70	0x3a48ad5b	0.00076552265
71	0x3b825b51	0.003978171
72	0xb91f8ad1	-0.00015215135
73	0xbb3716cd	-0.0027937174
74	0x3b03ca08	0.0020109434
75	0x3b525a77	0.0032097378
76	0x3b1ab44c	0.0023606
77	0xb8bf8cad	-9.1337926e-05
78	0xbafd7108	-0.0019336054
79	0xbb6d81c8	-0.0036240686
80	0xbb350861	-0.0027623402
81	0x3b6a9cbf	0.0035798994
82	0x3a8f8e4c	0.0010952442
83	0xbb340551	-0.002746899
84	0xba1158a8	-0.0005544522
85	0x3b2407cb	0.002502906
86	0x3b22b7a2	0.0024828692
87	0xbb048e33	-0.002022636
88	0xbb7482bf	-0.0037309376
89	0x3b558c36	0.0032584793
90	0x3b61d942	0.003446177
91	0xbb407850	-0.0029368587
92	0xbb3f269b	-0.0029167298
93	0x3b644a96	0.0034834496
94	0x3a0d34ee	0.000538661
95	0x3a1a4e55	0.0005886306
96	0xba00b767	-0.00049101416
97	0x3b81ca2b	0.003960868
98	0xbb21dc3a	-0.0024697916
99	0xba4da466	-0.00078446267
100	0xbb2d4c44	-0.0026443163
101	0xbaf6b578	-0.0018822392
102	0x3b5a88ad	0.0033345625
103	0xbb3d83f5	-0.0028917764
104	0x3b19f043	0.0023489154
105	0xbb3fbf87	-0.0029258446
106	0x3a22eb46	0.0006214868
107	0x3ab597e8	0.0013854476
108	0xbb276d5b	-0.0025547359
109	0x3b33adc9	0.0027416816
110	0x3b4ecacc	0.0031553982
111	0x3aa0858c	0.0012246831
112	0x3b82ecc6	0.0039955107
113	0x39b01db5	0.0003359147
114	0xbb64ec84	-0.0034931013
115	0x3b7b7729	0.0038370586
116	0xbb47d45b	-0.0030491564
117	0x3b01bd26	0.001979658
118	0xb8a72950	-7.9708756e-05
119	0x3976fbc3	0.00023554177
120	0xbafa7947	-0.001910963
121	0xbae65bdb	-0.0017574982
122	0xbb37f68d	-0.002807054
123	0xbb23c89b	-0.0024991396
124	0xba96b744	-0.0011498709
125	0x3af0c233	0.0018368423
126	0xbafe0903	-0.0019381348
127	0x3a9c734f	0.001193622
128	0x38106fc1	3.4436354e-05
129	0x3a72775a	0.0009249352
130	0x3b61d25e	0.0034457664
131	0xbb1d6ed3	-0.0024022355
132	0xbb539762	-0.0032286276
133	0xbb76b3ec	-0.0037643863
134	0x3a3d02dc	0.0007210204
135	0xbb65dc72	-0.0035074023
136	0x3b4a67b3	0.0030884563
137	0x3b1b798c	0.002372357
138	0xbb3427fb	-0.002748965
139	0xbb8009d8	-0.0039074235
140	0x39f5d9ea	0.000468924
141	0x3b344619	0.0027507602
142	0x3aefab1d	0.0018285249
143	0xbb722235	-0.0036946659
144	0x3b586744	0.0033020535
145	0x3a5a2592	0.00083216385
146	0xbb6ff5a3	-0.0036614917
147	0x38be1a02	9.06475e-05
148	0xbb1693b0	-0.0022976212
149	0x3b17dec9	0.0023173562
150	0xbb866b33	-0.0041021346
151	0xbac89c84	-0.0015305434
152	0xbb6f2c1f	-0.0036494804
153	0xbb1ffd1d	-0.0024412342
154	0xbb488fb4	-0.0030603232
155	0xbb5f3010	-0.0034055747
156	0x3b41927c	0.0029536774
157	0x3b689cb4	0.0035493793
158	0x37fc6546	3.00879e-05
159	0x3af97300	0.0019031465
160	0x3b57cefa	0.0032929764
161	0x3b69d7e1	0.0035681652
162	0x3b88c4a1	0.0041738306
163	0x3b863fef	0.004096977
164	0xbb365214	-0.0027819918
165	0x3aab74cd	0.0013081074
166	0xbb35dc06	-0.0027749552
167	0x3ac27ada	0.0014837638
168	0xbb510b0a	-0.003189745
169	0xbb5645de	-0.0032695453
170	0xbb806d09	-0.003919248
171	0xbb35c3b2	-0.0027735052
172	0x3b56cdfc	0.0032776585
173	0xbb1bffdd	-0.002380363
174	0xbb1452aa	-0.002263228
175	0x394aad83	0.0001932886
176	0x3ac1df31	0.0014791248
177	0x3b1e50e3	0.00241571
178	0xb99eb481	-0.00030270594
179	0x3b073e75	0.0020636593
180	0x3b0d9fab	0.0021610062
181	0x3b6ff41d	0.0036614009
182	0xba3bfd00	-0.0007171184
183	0x3b412b0a	0.0029475116
184	0xbafdcf66	-0.0019364178
185	0xbae61414	-0.0017553591
186	0xbb6fe79d	-0.0036606558
187	0xb9eee327	-0.0004556414
188	0x3b0c13c4	0.0021374086
189	0x3b17a943	0.002314166
190	0xba0dbc19	-0.0005406752
191	0xbb49d51a	-0.0030797184
192	0x3b87c613	0.0041434853
193	0xbb3170fb	-0.0027075398
194	0xbb38c62b	-0.002819429
195	0x3b54d962	0.0032478203
196	0x3b44fe99	0.0030058979
197	0xbaa6f12e	-0.0012736672
198	0xbb015a2b	-0.0019737582
199	0x3b720b6d	0.003693308
200	0x3a76bc83	0.00094122457
201	0xbb03ee95	-0.002013122
202	0xbaa99e77	-0.0012940903
203	0xbacd17b2	-0.001564732
204	0x39b112ed	0.00033774172
205	0xba05376a	-0.00050818047
206	0x3ac93935	0.0015352132
207	0xbb2ad700	-0.0026068091
208	0xbb09916c	-0.002099122
209	0x3a8ff895	0.0010984117
210	0xbb26c390	-0.0025446154
211	0xbb7c07c8	-0.0038456786
212	0x39893dd8	0.00026176753
213	0xbb3058f8	-0.0026908498
214	0xbb70e691	-0.0036758522
215	0xbb2ac2e9	-0.0026056117
216	0x3aae581c	0.0013301405
217	0xb9e2b163	-0.00043238243
218	0x3b425589	0.0029653034
219	0xbb6e98da	-0.0036407025
220	0x3b6624ef	0.003511723
221	0xbb8858b1	-0.0041609635
222	0x3a83dca9	0.0010060269
223	0xbb36e638	-0.0027908217
224	0xbaf0566d	-0.0018336304
225	0x3a5ad3a7	0.00083475787
226	0x3aeec05d	0.0018215288
227	0xbb13f3d1	-0.0022575746
228	0x3b84b941	0.0040504043
229	0x3b0a1c7a	0.0021074102
230	0x3b7798df	0.0037780327
231	0x3a94c007	0.0011348733
232	0xbb4f013a	-0.0031586424
233	0x39800d18	0.00024423818
234	0x3aa405a6	0.001251389
235	0xbb57a53d	-0.0032904886
236	0xbaf17dfd	-0.0018424388
237	0xba4f2b9a	-0.00079029205
238	0xbb3d67eb	-0.0028901051
239	0x3a9e5cae	0.0012082064
240	0xbb1fef82	-0.0024404232
241	0xb873f987	-5.8168105e-05
242	0x3b1b2971	0.0023675824
243	0x3ac08d5b	0.0014690565
244	0xbab7c19f	-0.0014019496
245	0x3b6726bd	0.0035270893
246	0xbb38ad80	-0.0028179586
247	0x3901ac0d	0.00012366493
248	0x3b39572d	0.002828072
249	0x3a98bd11	0.0011653026
250	0x3b4f09b7	0.0031591484
251	0x3b487e3b	0.0030592817
252	0x3b167b23	0.0022961579
253	0xba0a658a	-0.0005279413
254	0xba4ecd6c	-0.00078888866
255	0xbb1a2317	-0.002351945

fc3.bias f4 [256]
0	0xba7dd0f9	-0.00096823234
1	0xba111bb4	-0.0005535439
2	0x3d65560f	0.055990275
3	0xb9455ab8	-0.0001882118
4	0x3d9c0eba	0.07619996
5	0x3d7c7bd3	0.061641525
6	0xbb12aa45	-0.002237932
7	0xbb258e44	-0.00252618
8	0x3dffe449	0.12494714
9	0x3b1644d9	0.002292922
10	0x3da522f1	0.08063305
11	0xbb87ea2a	-0.0041477876
12	0x3a26a5a2	0.00063570787
13	0xbaa3a689	-0.0012485544
14	0x3d8219af	0.06352555
15	0x3db51d83	0.088435195
16	0x3b7bedf6	0.0038441396
17	0x3d84dcaf	0.064874046
18	0x3b7dc2cc	0.0038720844
19	0x3d14823c	0.036257014
20	0x3d6dce7f	0.05805826
21	0x3d906dde	0.070522055
22	0x3d8fdb7f	0.070242874
23	0x3cfbc17e	0.030731913
24	0xbb81e096	-0.0039635403
25	0x3d951b06	0.07280545
26	0xbb7bb203	-0.0038405664
27	0x3d55692b	0.05210225
28	0x3b0e1edd	0.0021685876
29	0x3d913d26	0.07091741
30	0x3d805490	0.06266129
31	0x3b351931	0.0027633423
32	0x3dd4b976	0.10386936
33	0xbc20af0f	-0.009807362
34	0x3cb1d3c3	0.021707421
35	0x3d6fd4a4	0.0585524
36	0x3dc914e7	0.0981844
37	0xbd0a80b2	-0.03381414
38	0x3b8b3fe4	0.0042495597
39	0x3d7f21c5	0.062288065
40	0x3b2386f0	0.0024952255
41	0x3d86d5dd	0.0658376
42	0x3d6de049	0.058075223
43	0x3d8a630a	0.067571715
44	0x3d861c35	0.06548349
45	0x3da7a372	0.081854716
46	0x3d58d7d1	0.052940194
47	0x3c68c19b	0.014206315
48	0x3c300938	0.010744385
49	0x3b0dfc0f	0.0021665131
50	0x3c150114	0.009094495
51	0x3da605aa	0.08106549
52	0xbcbd76cd	-0.023127938
53	0x3d8f700e	0.070037946
54	0x3d2e623c	0.042574152
55	0x3d816816	0.06318681
56	0x3b1fc19c	0.0024376875
57	0x3dd2f840	0.10301256
58	0x3d9380b4	0.072022825
59	0xbd36a1d2	-0.044587918
60	0x3d59c3a6	0.0531651
61	0x3da093ae	0.07840668
62	0x3c66003a	0.01403814
63	0x3e06913d	0.13141342
64	0x3da8ab79	0.08235831
65	0x3dca7c17	0.098869495
66	0xbdf6301e	-0.120208964
67	0xbad72059	-0.0016412839
68	0x3e30c84e	0.1726391
69	0x3d6c0195	0.057618696
70	0xbd9d4b8b	-0.07680424
71	0xbc989e9d	-0.01863032
72	0xbad43b7a	-0.0016192042
73	0xbbd788fa	-0.006577608
74	0x3d97ffd8	0.07421845
75	0xbb361fe6	-0.002779001
76	0x3d8f44de	0.06995557
77	0x3e086ba6	0.13322315
78	0xbcfaddc6	-0.030623328
79	0x3cac17ec	0.0210075
80	0x3da79688	0.081830084
81	0x3dd5329f	0.10410046
82	0x3dbff69f	0.09373211
83	0x3ab88374	0.0014077262
84	0x3d51716b	0.051133554
85	0x3b3c4a2d	0.0028730736
86	0x3dd43f0d	0.103635885
87	0xbc70b254	-0.014690954
88	0xbb56b008	-0.0032758731
89	0x3d741ac2	0.05959583
90	0xbbffc6e8	-0.007805694
91	0xbb901aef	-0.004397742
92	0x3d2cb03c	0.042160258
93	0x3e0cdf28	0.13757002
94	0x3d3304d3	0.043705773
95	0xba694650	-0.0008898722
96	0x3a8beb7f	0.0010675042
97	0x39322ba3	0.00016991659
98	0x3d9b9d3e	0.07598351
99	0x3dc65b54	0.09685388
100	0x3dc5ba44	0.09654668
101	0xbb68c71e	-0.0035519074
102	0x3acfa9a6	0.0015843406
103	0x3d61e87b	0.05515335
104	0xbbde8788	-0.006791059
105	0x3b0106ae	0.001968782
106	0xbb8cdf60	-0.0042990893
107	0x3ae47fb1	0.0017433075
108	0x3daff6fa	0.08592029
109	0xbb6544c2	-0.003498361
110	0xbc8a7d64	-0.016905494
111	0x3d8e967e	0.06962298
112	0x3d77dce4	0.060513392
113	0x3e0636c8	0.13106835
114	0x3b1b8e27	0.0023735852
115	0xbb613495	-0.0034363617
116	0x3be6bd03	0.007041575
117	0xbb2d274a	-0.0026421123
118	0xbb8f1aef	-0.0043672244
119	0x3a56fd46	0.0008201193
120	0x3df9f27d	0.12204454
121	0x3d83f310	0.06442845
122	0x3b0d39fe	0.0021549459
123	0x3d87277d	0.06599329
124	0xbc700fbe	-0.014652191
125	0x3da0e24d	0.078556634
126	0x39e6a514	0.0004399201
127	0x3d1fe25a	0.039034225
128	0x3d981aa7	0.074269585
129	0xbc8545e5	-0.01626868
130	0xbb4276a7	-0.0029672773
131	0x390b9cd0	0.0001331449
132	0xbc9ced65	-0.019156167
133	0x3aae0989	0.0013277988
134	0x3b803717	0.003912817
135	0x3b6631e3	0.003512495
136	0x3d95e143	0.07318356
137	0x3d8d30fb	0.06894108
138	0xbc18eb17	-0.009333394
139	0x3cc95a2d	0.024579132
140	0x3d853e26	0.065059945
141	0x3d834026	0.0640872
142	0x3d8eab79	0.069662996
143	0x3d928c8b	0.07155713
144	0xbd840c26	-0.0644763
145	0x3da67edd	0.08129666
146	0xbb7c3262	-0.003848218
147	0xbaf11a17	-0.0018394616
148	0x3dffcf16	0.124906704
149	0x3b5e4993	0.0033918365
150	0x3d582a72	0.052774854
151	0x3964ccdd	0.00021820092
152	0x3c2db96f	0.010603293
153	0x3e0a7b78	0.13523662
154	0x3dbe732c	0.09299311
155	0x39c36c74	0.00037274102
156	0x3ab27c17	0.0013617304
157	0x3e3d5fb2	0.18493536
158	0x3c0a8690	0.008454934
159	0xbb6e9615	-0.0036405374
160	0xbb7998cb	-0.0038085456
161	0x3d3fa1da	0.046785213
162	0x3d9016e9	0.0703562
163	0x3d86fc0c	0.06591043
164	0xbb4c9fd6	-0.00312232
165	0x3c0e90f2	0.00870155
166	0xbc248821	-0.010042221
167	0x3d85c931	0.06532515
168	0xbb8c1c53	-0.0042758374
169	0x3b74cc05	0.003735305
170	0xb9734185	-0.00023198694
171	0x3c9ec1d7	0.01937954
172	0x3b22034f	0.002472121
173	0x3d953db6	0.07287161
174	0x3d444d98	0.04792556
175	0x3da0bd60	0.078486204
176	0x3d9271e5	0.0715063
177	0x3a7679a7	0.0009402283
178	0x3a80434f	0.0009785685
179	0x3d8c6bc7	0.068564944
180	0xba965a49	-0.0011470999
181	0x3dcaff9b	0.09912034
182	0x3bf20016	0.007385264
183	0x3b405992	0.0029350263
184	0x3b6f1b23	0.003648468
185	0xbb0c2330	-0.0021383278
186	0x3e0bb42f	0.13642953
187	0x3d9723ae	0.07379852
188	0x3d836989	0.064166136
189	0x3d7b94aa	0.061421074
190	0x3d6b6ce9	0.05747691
191	0xb8b3f459	-8.5808984e-05
192	0xba8edacb	-0.0010898946
193	0x3c391919	0.011297488
194	0x3de83cfb	0.11339756
195	0x3d9ac84e	0.07557736
196	0x3d84cbf7	0.06484216
197	0xba0cd922	-0.00053729315
198	0xbc2a7295	-0.010403295
199	0x3d948c13	0.072532795
200	0x3e2c5f48	0.16833222
201	0x3d17587c	0.03694962
202	0x3d86b0a5	0.06576661
203	0xbbc470ae	-0.005994878
204	0x3b434895	0.00297979
205	0x3da0940e	0.07840739
206	0xbb21ef57	-0.0024709308
207	0x3d5cf8d6	0.053948246
208	0x3a277d8d	0.0006389253
209	0x3d929391	0.07157052
210	0x3bff6ea7	0.007795173
211	0xb987b8c6	-0.00025886873
212	0x3dfc12b3	0.12308254
213	0x3d87ef58	0.06637448
214	0xbac01a18	-0.0014656214
215	0xbd37f2eb	-0.0449094
216	0x3d9ef274	0.07761088
217	0x3acd4c2f	0.0015662963
218	0xbb7bdee9	-0.0038432425
219	0x3b599a58	0.0033203568
220	0xbacedc1f	-0.0015782154
221	0x3e11cf92	0.14239338
222	0xbb8c97dd	-0.0042905645
223	0x3d8b52f6	0.06802933
224	0x3d52a02d	0.051422287
225	0x3db8abc3	0.09017136
226	0x3af9fd80	0.0019072741
227	0x3d127fd5	0.03576644
228	0xbc6c131e	-0.014408855
229	0x3d88aeb9	0.06673951
230	0x3d92d853	0.07170167
231	0x3d982b89	0.07430179
232	0x3dc354ea	0.095376804
233	0x3dbaed2c	0.09127268
234	0x3d8902aa	0.06689961
235	0x3dde7779	0.10862631
236	0x3e472be2	0.19450334
237	0x3a9a8469	0.0011788729
238	0x3d840a84	0.06447318
239	0x3da70545	0.08155302
240	0x3cc91332	0.024545286
241	0x3b43294d	0.0029779256
242	0x3b531de6	0.0032213866
243	0xbd6f64a0	-0.058445573
244	0xba431c26	-0.0007442854
245	0x3dec3777	0.115340166
246	0x3d5454a5	0.051838536
247	0x3e2b2b1a	0.1671566
248	0xba8f3273	-0.0010925069
249	0x3a73c0b3	0.0009298429
250	0xbc1576ee	-0.009122593
251	0x3de014e7	0.10941487
252	0x3b41102d	0.0029459104
253	0x3db0c30d	0.08630953
254	0xba4546a1	-0.0007525478
255	0x3a05255b	0.0005079114

fc4.weight f4 [12, 256]
0	0xbb3481e0	-0.0027543232
1	0xbab41aba	-0.0013740875
2	0xbd88abf4	-0.066734225
3	0x3da7be9b	0.08190652
4	0xbf0191b3	-0.50612944
5	0x3dcb6058	0.099304855
6	0x3b3be087	0.0028667764
7	0xba2a9f24	-0.0006508699
8	0xbeaea675	-0.34111372
9	0x39a33fda	0.00031137356
10	0xbe974252	-0.29542786
11	0x3a807a26	0.0009802028
12	0xba3c17d9	-0.00071751844
13	0x3a22b655	0.0006206979
14	0xbd5e6e8c	-0.054304644
15	0xbd7ad92a	-0.06124226
16	0x3ad3a700	0.0016147792
17	0xbd8cefad	-0.06881652
18	0xba6a0cb5	-0.0008928285
19	0xbd8ea1c0	-0.06964445
20	0xbd9d2176	-0.07672398
21	0xbf5382a5	-0.8262122
22	0x3ebcf9ed	0.36909428
23	0xbd8b00a7	-0.06787234
24	0xb9960921	-0.0002861703
25	0xbd8ed29f	-0.069737665
26	0x39b8999d	0.00035209666
27	0xbd7f7bc6	-0.0623739
28	0xba59d826	-0.00083101017
29	0xbd883f9d	-0.06652758
30	0xbd9a0ce7	-0.07521992
31	0xbad38c5c	-0.0016139853
32	0xbdb8e0ad	-0.090272285
33	0x3e0e1e63	0.13878779
34	0x3e2ea625	0.17055567
35	0xbda1f4a3	-0.07907989
36	0xbda7670d	-0.08173952
37	0x3e175598	0.14778745
38	0x3d8c97c2	0.06864883
39	0xbd92a43d	-0.07160232
40	0x3a8bad2f	0.0010656471
41	0xbd82c985	-0.06386093
42	0xbd944c2f	-0.07241093
43	0xbdb48ccf	-0.088159196
44	0xbd8b8332	-0.06812133
45	0xbda4b36c	-0.080420345
46	0xbd888b82	-0.06667234
47	0x3ded90a3	0.11599853
48	0x3dca7f5f	0.09887575
49	0x3af985dc	0.0019037086
50	0x3e07e694	0.13271552
51	0xbdcddf7c	-0.10052392
52	0x3e155fef	0.14587377
53	0xbd894d65	-0.06704215
54	0xbd9b5f05	-0.07586483
55	0xbd9407d5	-0.07228056
56	0xb9b9e5c5	-0.0003545714
57	0xbdb15add	-0.08659909
58	0xbd8226a1	-0.06355024
59	0xbe8e91e2	-0.27845675
60	0xbd80723b	-0.06271788
61	0xbd9d4937	-0.0767998
62	0x3e1826f0	0.14858603
63	0xbdbc9bfb	-0.092094384
64	0xbd9fbf57	-0.07800167
65	0xbdb8baeb	-0.09020027
66	0x3e39426c	0.18091744
67	0xb9b88275	-0.00035192413
68	0xbe1464bb	-0.1449155
69	0xbd88964f	-0.06669294
70	0xbd7dcdc7	-0.061963823
71	0x3e462d3c	0.19353193
72	0xbb476c7b	-0.003042965
73	0x3bc446ac	0.00598987
74	0xbd9922a5	-0.07477311
75	0x3aab6add	0.0013078112
76	0xbd82ac27	-0.06380492
77	0x3ee4764f	0.44621512
78	0x3df1bec8	0.11803967
79	0x3dddfb89	0.10838992
80	0xbd868f98	-0.06570357
81	0xbdcf5cf1	-0.10125149
82	0xbdb60ebc	-0.08889529
83	0x3aecff27	0.0018081412
84	0xbd91c8bc	-0.07118365
85	0x3b00d605	0.0019658816
86	0xbdc3caa2	-0.095601335
87	0xbe5225c0	-0.20522213
88	0x3af55278	0.0018716594
89	0xbd80b8fa	-0.062852815
90	0x3e5408b1	0.2070644
91	0xbb1ac45d	-0.0023615577
92	0xbeef155d	-0.46695986
93	0xbe8d040e	-0.27542156
94	0xbd964aae	-0.07338463
95	0xbb337237	-0.002738131
96	0xbaf842b8	-0.0018940782
97	0xbb148eda	-0.0022668154
98	0xbd7e12ef	-0.062029775
99	0xbe7fea22	-0.24991658
100	0xbe74260b	-0.23842637
101	0x39f1dfad	0.00046133753
102	0xbb026cf5	-0.001990137
103	0xbdaea7fe	-0.08528136
104	0x3dfd3358	0.12363309
105	0x3a88607c	0.0010404731
106	0xba9e248f	-0.0012065339
107	0x3dc1ddc1	0.09466124
108	0xbdb5b63b	-0.08872648
109	0xbae42334	-0.0017405511
110	0x3e1652a9	0.1467997
111	0xbda091aa	-0.07840283
112	0xbd80b626	-0.06284742
113	0xbe3e005e	-0.18554828
114	0xb9b6c43c	-0.0003485995
115	0xbac304f3	-0.0014878794
116	0x3dc6e27f	0.097111695
117	0x3b330e7d	0.0027321868
118	0xbaf8bad5	-0.0018976579
119	0xbabbfad5	-0.0014341722
120	0xbde1d6fc	-0.11027333
121	0xbda33a06	-0.079700515
122	0xbabf7433	-0.0014606774
123	0xbd8c44f9	-0.06849093
124	0x3dce3f08	0.10070616
125	0xbd988f4e	-0.07449208
126	0xbb271a34	-0.0025497796
127	0x3de880eb	0.11352714
128	0xbe52ec08	-0.20597851
129	0x3e01b04e	0.12664911
130	0x3b2737f5	0.002551553
131	0x3e1d98d1	0.15390326
132	0x3e1bc73a	0.15212718
133	0xbb14f17d	-0.0022726946
134	0xbb0af759	-0.002120456
135	0xba839276	-0.0010038156
136	0xbdb57e3e	-0.088619694
137	0xbd878125	-0.06616429
138	0x3bcde92a	0.006283899
139	0x3dbc9081	0.092072494
140	0xbd8a117a	-0.06741615
141	0xbd8795bb	-0.06620356
142	0xbd681438	-0.056659907
143	0xbd87520d	-0.06607447
144	0x3eae7a08	0.34077477
145	0xbda3b2a3	-0.079930566
146	0x3decfd6b	0.11571773
147	0x3a4b21df	0.00077488826
148	0xbde11b8e	-0.10991584
149	0xb8d5c394	-0.00010193061
150	0xbd6c8ebd	-0.057753313
151	0xb859c253	-5.191781e-05
152	0x3e0cbf2c	0.13744801
153	0xbda2cdc2	-0.079494014
154	0xbea6455b	-0.3247479
155	0x3b02e18a	0.0019970858
156	0x3afbd308	0.0019212672
157	0xbe1d9a00	-0.15390778
158	0x3dd54670	0.104138255
159	0x3db660f5	0.08905212
160	0xba8cd6ad	-0.0010745131
161	0xbdbd8fba	-0.09255929
162	0xbe21f583	-0.15816312
163	0xbda06438	-0.07831615
164	0xbb0f7242	-0.0021888171
165	0x3e18e0c9	0.14929499
166	0x3dd337c5	0.103133716
167	0xbdac755f	-0.08420824
168	0x3ac5ce5c	0.0015091407
169	0xbacdfdc4	-0.0015715887
170	0x3afe0ece	0.0019383074
171	0x3e129a3e	0.14316651
172	0xb9f20ae8	-0.00046165963
173	0xbda8ac9b	-0.08236047
174	0xbd93cc70	-0.07216728
175	0xbd9ec1d3	-0.07751813
176	0xbe3d96c0	-0.18514538
177	0xba26c731	-0.00063620793
178	0x3a9ccee7	0.0011963517
179	0xbdaf0580	-0.08545971
180	0xbae34a19	-0.0017340808
181	0xbe8b06a5	-0.27153507
182	0x3dcfaf7c	0.10140893
183	0xba0e057d	-0.0005417688
184	0xbb35972b	-0.0027708511
185	0x3a5e4244	0.0008478502
186	0xbdd448c6	-0.10365443
187	0xbd896f4d	-0.06710682
188	0xbdb477ed	-0.088119365
189	0xbd76bb0c	-0.060236976
190	0xbd8b0f91	-0.067900784
191	0x3b0c437c	0.0021402529
192	0x3ab90fe4	0.0014119116
193	0x3e0056cc	0.1253311
194	0xbd950b04	-0.07277492
195	0xbd6e2e79	-0.05814979
196	0xbdbf1244	-0.09329656
197	0xbb25b8d5	-0.002528717
198	0x3de71b33	0.11284485
199	0xbdc39353	-0.09549584
200	0xbe255de2	-0.16149095
201	0x3df98865	0.12184218
202	0xbea3eb2a	-0.32015353
203	0x3dd6047b	0.10450073
204	0x3adcf695	0.0016858155
205	0xbdb0cfb8	-0.08633369
206	0x3de8eda5	0.11373452
207	0xbf15ade8	-0.58468485
208	0xbe9520c0	-0.2912655
209	0xbd945e48	-0.07244545
210	0x3e6e5cd5	0.232776
211	0x3b069660	0.0020536408
212	0xbe964520	-0.29349613
213	0xbd7e2b17	-0.062052812
214	0xbb3385cf	-0.0027392989
215	0x3eaf272d	0.34209576
216	0xbda05c34	-0.07830086
217	0xba97a5f7	-0.0011569847
218	0xbaa41b73	-0.0012520388
219	0xb9a41cbd	-0.0003130193
220	0xbf04be69	-0.5185304
221	0xbe9c7473	-0.30557594
222	0xbadb18cb	-0.0016715763
223	0xbd88fb13	-0.066885136
224	0xbd7fbd0c	-0.06243615
225	0xbd976e9e	-0.073941454
226	0x3b2a6e6e	0.0026005763
227	0xbd84ea69	-0.06490023
228	0x3dde045f	0.108406775
229	0xbd96fc48	-0.073723376
230	0xbd98104b	-0.07424983
231	0xbd8e5878	-0.06950468
232	0xbe013f47	-0.12621795
233	0xbda671d7	-0.08127182
234	0xbd8b49c6	-0.068011805
235	0xbdd71c65	-0.10503463
236	0xbe0a4000	-0.13500977
237	0xbb19005a	-0.0023346157
238	0xbd6bd853	-0.05757935
239	0xbd846483	-0.064644836
240	0x3df3bb20	0.11900926
241	0x3a0f6d17	0.0005471273
242	0x38840a91	6.2962186e-05
243	0x3e0be5ae	0.13661835
244	0xbb218218	-0.0024644192
245	0xbdbecdc9	-0.09316594
246	0xbe8efb83	-0.27926263
247	0xbdddb67f	-0.10825824
248	0x3b02a889	0.001993688
249	0x3a99dfa9	0.001173963
250	0x3dda1c71	0.10649956
251	0xbe82954e	-0.25504535
252	0x3a87b732	0.0010354279
253	0xbd90c3ff	-0.07068633
254	0xb9b7fd01	-0.00035092983
255	0x3ad652ea	0.0016351615

fc4.bias f4 [12]
0	0xbd30c3b1	-0.043155376
1	0xbcf717b2	-0.030162666
2	0xbd05a579	-0.03262851
3	0xbd119efd	-0.035552014
4	0x3dcf2b85	0.101157226
5	0x3d305c29	0.04305664
6	0xbd160a33	-0.03663082
7	0xbc987007	-0.018608106
8	0xbe3d4e5a	-0.1848692
9	0xbc0c62a8	-0.008568443
10	0xbe03f570	-0.12886596
11	0xbd14ba82	-0.03631068
