new.pt_episode_2000.pt (torch, 182480 bytes, 8 tensors)

fc1.weight f4 [64, 5]
0	0xbd47b8de	-0.048760287
1	0x3deb9291	0.11502565
2	0xbe2c580e	-0.16830465
3	0x3e2e4145	0.17017086
4	0xbb4e3bff	-0.0031468866
5	0xbcf6fd0c	-0.030149959
6	0x3d6de314	0.058077887
7	0xbd5b7256	-0.053575836
8	0x3d18b4c6	0.037281774
9	0x3d3862e4	0.045016184
10	0xbc15996d	-0.009130818
11	0xbcc5766f	-0.024104325
12	0xbba0ca4e	-0.004906929
13	0x3c202ef2	0.009776818
14	0x3c862340	0.01637423
15	0x3d8efaa9	0.069814034
16	0xba890054	-0.0010452368
17	0x3e0b9173	0.13629703
18	0xbd727a79	-0.05919883
19	0x3da95878	0.08268827
20	0x3c2d84f0	0.010590777
21	0x3c9f22e8	0.019425824
22	0xbdad673a	-0.084669545
23	0x3e1e2735	0.15444644
24	0xbd75ae37	-0.059980597
25	0x3d9d4a81	0.07680226
26	0xbd87316e	-0.06601225
27	0xbd9904f8	-0.07471651
28	0x3d79c2ba	0.06097672
29	0x3d0d5c5a	0.0345119
30	0x3b521ae8	0.0032059494
31	0x3d7d4eb2	0.061842628
32	0x38059426	3.1847645e-05
33	0x3d8cb888	0.06871134
34	0xbcfb45c0	-0.030672908
35	0x3daa780b	0.08323678
36	0x3d7c892a	0.061654247
37	0xbd2d6fe1	-0.042343024
38	0x3c7ae554	0.015313465
39	0x3e305afd	0.1722221
40	0xbd80cc70	-0.06288993
41	0xbd71997c	-0.058984265
42	0x3c6db478	0.014508359
43	0x3dd72e24	0.105068475
44	0x3b43cf44	0.0029878179
45	0xbc4c44e6	-0.012467599
46	0x3cc469ac	0.02397617
47	0x3dcf6723	0.10127094
48	0xbdc61004	-0.096710235
49	0x3e0a0ab3	0.13480644
50	0x3ce27a77	0.027646286
51	0x3d5e4c00	0.054271698
52	0x3e1af358	0.15131891
53	0xbe114105	-0.14184959
54	0xbbe18246	-0.006881985
55	0x3e29b64a	0.16573444
56	0xbdf34acf	-0.11879503
57	0xbd34bbd3	-0.044124436
58	0x3d89809b	0.06713983
59	0x3b24fa0e	0.0025173458
60	0x3ddd41b2	0.10803546
61	0xbe17255a	-0.14760342
62	0x3cefde66	0.029280853
63	0x3db7d5bd	0.08976314
64	0xbc94a61a	-0.01814561
65	0xbac35b14	-0.0014904463
66	0x3c04a94d	0.008097005
67	0xbbd002a0	-0.006347969
68	0xbc2597d1	-0.010106997
69	0xbcbc87eb	-0.02301403
70	0xbd39908d	-0.04530387
71	0x3d703830	0.058647335
72	0xbdda430c	-0.106573194
73	0x3e047f39	0.12939157
74	0x3d2637f1	0.040580694
75	0xbdfc6158	-0.12323254
76	0x3df6ddd2	0.120540276
77	0xbcfca4a4	-0.030840226
78	0x3d461e9e	0.048369043
79	0x3d9ec0fb	0.07751652
80	0xbc69da11	-0.0142731825
81	0xbddc99c3	-0.10771515
82	0x3cb9e1d5	0.022690693
83	0x3dc062e1	0.0939386
84	0x3b55941d	0.0032589503
85	0xbd3d818a	-0.046266116
86	0x3e32418e	0.1740782
87	0xbc39d3ce	-0.011342002
88	0x3dcedb8d	0.1010047
89	0xbd840b04	-0.064474136
90	0xbc9d70f5	-0.019218901
91	0xbcc2dfa3	-0.023788279
92	0x3cc32393	0.023820674
93	0xbbfd0dae	-0.007722578
94	0xbbb5166c	-0.0055263545
95	0x3c62a10b	0.013832341
96	0x3e0441b2	0.12915686
97	0x3cbb4b86	0.02286316
98	0xbc98e947	-0.018665923
99	0x3b507a77	0.0031811276
100	0x3d805e1e	0.062679514
101	0x3a0c7c36	0.0005359085
102	0x3e7002b0	0.23438525
103	0xbd069ee0	-0.03286636
104	0xbe4e5ef9	-0.20153417
105	0xbc94197c	-0.018078558
106	0xbca87075	-0.020561436
107	0xbc27aaba	-0.0102335755
108	0x3c4a15c3	0.01233429
109	0x3c609ec2	0.013709726
110	0xbc0896b9	-0.008336716
111	0xbcb8cf63	-0.022559827
112	0xbc670db4	-0.014102388
113	0xbb943da6	-0.0045239506
114	0x3c76f633	0.015073347
115	0x3d7acf74	0.061233
116	0xbc093fc4	-0.008377019
117	0x3d9625e1	0.073314436
118	0xbc200a11	-0.009768025
119	0x3d0126ff	0.03153133
120	0x3db16c03	0.0866318
121	0xbcacba66	-0.021084975
122	0x3d8d2967	0.068926625
123	0xbb2cde09	-0.002637746
124	0xbc737f12	-0.014861839
125	0x3cbe993e	0.023266431
126	0xbca69d71	-0.020338746
127	0xbcc0824e	-0.023499634
128	0x3c0ca077	0.00858318
129	0xbc904b54	-0.017614044
130	0xbe39857f	-0.18117331
131	0x3e686649	0.22695269
132	0x3d22f1df	0.039781447
133	0x3dc5d5d6	0.096599266
134	0xbdf321da	-0.11871691
135	0x3b64e20d	0.0034924776
136	0x3a54c7dc	0.00081169396
137	0xbca7ca8b	-0.020482322
138	0x3c27c189	0.0102390135
139	0xbc361830	-0.011114165
140	0xbbf3a7ea	-0.0074357884
141	0x3d8bd8cd	0.06828461
142	0xbd818503	-0.06324198
143	0x3dbb5906	0.09147839
144	0xbd67c376	-0.05658289
145	0x3e0a4e55	0.13506444
146	0xbdb71116	-0.08938806
147	0xbd1b5d39	-0.0379307
148	0x3dabc68e	0.08387481
149	0xbd2a6fd5	-0.041610558
150	0xbc6cc287	-0.014450676
151	0xbc33748f	-0.010953083
152	0xbc856c69	-0.016287046
153	0xbcb0a9fb	-0.021565428
154	0xbcc28831	-0.023746582
155	0x3d683d14	0.056698874
156	0x3d308276	0.043093167
157	0xbd2406c9	-0.040045533
158	0xbcc43ca1	-0.023954691
159	0xbd67627f	-0.056490418
160	0x3c6beb91	0.014399425
161	0x3d0220da	0.03176961
162	0xbd30fe47	-0.043211248
163	0x3d767998	0.060174555
164	0x3db6e504	0.089304
165	0xbd3d3bff	-0.046199795
166	0x3d0bd513	0.03413875
167	0xbd214023	-0.039367806
168	0x3d1ca597	0.038243856
169	0xbc2dcb25	-0.010607515
170	0xbcacf336	-0.021112066
171	0xbc3b99b5	-0.011450221
172	0xbc621f1a	-0.0138013605
173	0xb63a2749	-2.7739027e-06
174	0x3c84c909	0.016209142
175	0x3d9fe9c4	0.07808259
176	0xbd63ffc0	-0.055663824
177	0xbd1ca920	-0.038247228
178	0x3d76257e	0.06009435
179	0xbcf255a0	-0.029581845
180	0xbbd7e2bf	-0.0065883095
181	0x3b3114fa	0.002702056
182	0xbe216cb3	-0.15764122
183	0x3e49a42a	0.1969153
184	0x3d828f5f	0.06375002
185	0xbceaef7b	-0.028678646
186	0x3d5fd0a3	0.05464233
187	0x3dd9cafb	0.106344186
188	0xbda4f9e8	-0.08055478
189	0x3ccb7e03	0.02484036
190	0xbc41e34b	-0.011833976
191	0xbca47b18	-0.020078227
192	0x3ca9ca45	0.020726332
193	0xbcb83473	-0.022485947
194	0xbc96c580	-0.018404722
195	0x3e3c2e38	0.18377006
196	0xbd5d93c0	-0.054095984
197	0x3e7c1265	0.24616392
198	0xbe2bf24e	-0.1679165
199	0xbd3656df	-0.04451644
200	0x3b800016	0.0039062602
201	0x3ad266c8	0.001605236
202	0xbcb8101c	-0.022468619
203	0xbc0e5804	-0.008687977
204	0x3b4e87a4	0.0031513954
205	0xbcaf08c9	-0.021366494
206	0x3d3173d4	0.043323353
207	0x3d90e6ba	0.070752576
208	0xbd464e7e	-0.0484147
209	0x3d1ace1a	0.03779421
210	0x3e68bebe	0.22729012
211	0xbde0da70	-0.10979164
212	0x3e659a0c	0.22422045
213	0xbd3a57cb	-0.045493882
214	0x3d271213	0.04078872
215	0x3c84ad72	0.016195986
216	0xbcb81acf	-0.02247372
217	0x3b3126bb	0.0027031142
218	0xbca0d8eb	-0.019634685
219	0x3b638cb8	0.0034721326
220	0x3c0c0ab5	0.008547475
221	0xbc39acb6	-0.011332681
222	0xbd48e67b	-0.04904793
223	0xbd29cd21	-0.04145539
224	0x3db4437e	0.088019356
225	0xbca68c7f	-0.020330666
226	0x3db343e3	0.08753183
227	0x3d977a0f	0.07396328
228	0xbccf3590	-0.025294095
229	0x3d9de282	0.077092186
230	0xbc315090	-0.01082243
231	0x3a70abd3	0.0009180877
232	0xbc4f9dda	-0.012671912
233	0xbb572d4c	-0.0032833396
234	0x3be98d6d	0.007127455
235	0x3c4b8ac0	0.012423217
236	0xbb21083a	-0.0024571554
237	0xbc28c310	-0.010300413
238	0xbc897a42	-0.01678193
239	0xbc3de7c5	-0.011590903
240	0x3b8b85ef	0.0042579095
241	0x3d02dd75	0.03194948
242	0xbce0554e	-0.027384426
243	0x3daa4d59	0.08315534
244	0xbd817202	-0.063205734
245	0x3d05a1d9	0.032625053
246	0x3cb470e5	0.022026489
247	0x3d50134e	0.05079966
248	0xbc098390	-0.008393183
249	0x3d419ccd	0.047268678
250	0xbe109540	-0.14119434
251	0x3e2d58c5	0.16928394
252	0xbdcb78b2	-0.0993513
253	0x3e5d7c87	0.21629535
254	0xbd7c9b9a	-0.06167183
255	0xbdaed938	-0.08537525

fc1.bias f4 [64]
0	0x3dc2e15a	0.09515639
1	0x3cee086f	0.029056756
2	0xbc2dac98	-0.010600232
3	0x3d967b56	0.07347743
4	0xbd0ee316	-0.034884535
5	0x3d81e581	0.063426025
6	0x3d982f48	0.07430893
7	0x3df1b905	0.11802868
8	0x3c4bc404	0.0124368705
9	0x3d32a9d1	0.04361898
10	0xbd345c4d	-0.044033337
11	0xbbd73bbc	-0.0065684
12	0xbd5321dc	-0.051545963
13	0x3a6a4937	0.00089373015
14	0x3d59dd9e	0.053189866
15	0x3e0a66ab	0.13515727
16	0x3d2461a7	0.04013219
17	0x3dd2f722	0.10301043
18	0x3c5f1302	0.013615372
19	0x3d693fd2	0.05694563
20	0xbbf005ad	-0.0073248954
21	0x3c912d9e	0.017721947
22	0x3c4957bb	0.012288983
23	0x3d2ca4c1	0.04214931
24	0x3cb26727	0.021777702
25	0xbc362529	-0.011117258
26	0x3d91b72c	0.071150154
27	0xbcb41830	-0.02198419
28	0x3c855a93	0.01627854
29	0xbd76364b	-0.06011037
30	0xbacf6d95	-0.0015825505
31	0x3d812baf	0.0630716
32	0x3d714504	0.05890371
33	0xbb8d7601	-0.0043170457
34	0x3ae7b175	0.0017676788
35	0x3d6cf4d2	0.057850666
36	0x3d54db5e	0.051967017
37	0x3d5a411a	0.053284742
38	0xbba298a1	-0.0049620424
39	0xbdb5994c	-0.0886713
40	0x3c4cfc7e	0.012511371
41	0x3ce2ec2b	0.027700504
42	0xbc3e4eb1	-0.011615441
43	0xbc87a672	-0.01655886
44	0xbbb6737f	-0.0055679674
45	0x3dfe912f	0.12430035
46	0x3cb6e107	0.022324098
47	0x3caf904d	0.021431113
48	0xbc19dbfa	-0.009390825
49	0x3d26c53d	0.040715445
50	0x3db0affd	0.08627317
51	0x3d0943a1	0.03351176
52	0x3e009861	0.12558128
53	0xbd68c3f0	-0.056827486
54	0xbd6a4b5f	-0.057200786
55	0x3cf0a99c	0.029377751
56	0x3cd7ddc6	0.026350867
57	0x3c07e192	0.008293526
58	0xbd775c9b	-0.06039105
59	0x3d0ae15c	0.033906326
60	0x3c46267c	0.012094136
61	0xbcb8a17b	-0.022537937
62	0x3d889009	0.066680975
63	0xbb37eb8e	-0.0028063986

fc2.weight f4 [128, 64]
0	0xbb4df308	-0.0031425375
1	0xbbd49965	-0.0064880126
2	0xba80285f	-0.0009777657
3	0x3c1a6d95	0.00942554
4	0xba9f9cfd	-0.0012177523
5	0x3d811cdc	0.063043326
6	0xbb789d29	-0.0037935472
7	0x3ae6b7f1	0.0017602426
8	0x3e0d0709	0.13772215
9	0x3c659247	0.014011926
10	0x3c74d95f	0.014944403
11	0x3cb48765	0.022037217
12	0x3c223af9	0.0099017555
13	0x3b88c6fd	0.004174112
14	0x3abbb632	0.0014321266
15	0xbb733c48	-0.0037114788
16	0x3e1b27a7	0.15151845
17	0xbb4acc70	-0.0030944608
18	0xbafe5d75	-0.0019406514
19	0x3e313736	0.17306218
20	0x3c401d8f	0.011725797
21	0x3bc66b50	0.006055273
22	0x3a4de0ba	0.0007853616
23	0x3c209d5c	0.009803142
24	0x3c382542	0.011239352
25	0x3bbe7b74	0.0058130566
26	0xbbfc793c	-0.007704882
27	0xba9ce4a9	-0.0011970002
28	0xbaf93d4e	-0.0019015463
29	0x3cdfdde3	0.027327484
30	0xbb37155f	-0.0027936322
31	0x3d56b711	0.05242068
32	0x3c1b6080	0.009483457
33	0x3dc1a01f	0.09454369
34	0x3bd245a4	0.006416993
35	0x3d938940	0.07203913
36	0x3b2a3c74	0.0025975974
37	0x3b70cd17	0.0036743337
38	0xbae2f0e7	-0.0017314226
39	0x3c6baaa8	0.014383949
40	0xbb7feec4	-0.0039052228
41	0x3ba280f6	0.004959221
42	0x3c15ac0b	0.0091352565
43	0xba88a176	-0.0010424096
44	0x3e78d22b	0.24298923
45	0x3bc50dea	0.0060136216
46	0xba0bbd86	-0.00053306704
47	0xbbbfeb26	-0.0058568893
48	0xba419473	-0.00073844864
49	0x3c10b24c	0.008831572
50	0xbc052d7a	-0.008128518
51	0x3c81aee1	0.01583046
52	0x3be199e0	0.0068847984
53	0x3c318af6	0.0108363535
54	0x3cfab6b5	0.0306047
55	0x3b3e26c2	0.00290148
56	0x3bfb2f2c	0.0076655354
57	0xba220fc4	-0.0006182159
58	0xbaac42b7	-0.0013142441
59	0xbbbd6bef	-0.005780689
60	0xbaca5fa8	-0.0015439885
61	0xb9aed6dc	-0.0003334795
62	0xbabe4b3f	-0.0014518275
63	0xbb40d8e6	-0.0029426157
64	0x3d8bba41	0.068226345
65	0x3d7b7240	0.061388254
66	0x3b005321	0.0019580799
67	0x3c204aec	0.009783488
68	0xbcad59b8	-0.021160945
69	0x3d54a002	0.051910408
70	0x3ba26c86	0.0049567847
71	0x3ceee939	0.029163944
72	0xbdd990f7	-0.10623353
73	0x3d9a009c	0.075196475
74	0xbc18d32a	-0.009327689
75	0x3b4dfd1a	0.0031431378
76	0xbd0dc43c	-0.03461097
77	0x3bc8d352	0.006128707
78	0x3ce3eb31	0.027822109
79	0x3db459d1	0.088061936
80	0xbe345d9b	-0.17613833
81	0xbb204d79	-0.002446024
82	0x3b00b8e2	0.0019641449
83	0xbda3adf8	-0.07992166
84	0xbddce1bb	-0.10785242
85	0xba17aa39	-0.0005785558
86	0xbba94a2e	-0.0051663136
87	0x3b670483	0.0035250492
88	0xbc006f4d	-0.007839036
89	0xbb8b1262	-0.0042441348
90	0xbcbd4e1d	-0.023108536
91	0x3bc79368	0.0060905702
92	0xbcd35c8c	-0.025800966
93	0xbdc780e0	-0.09741378
94	0x3bc4536a	0.005991389
95	0xbe00e15e	-0.12585971
96	0x3ce73ff7	0.028228743
97	0xbcfc1a67	-0.030774308
98	0xba9c6b3b	-0.0011933813
99	0xbe8087b3	-0.2510353
100	0x3d3afdfd	0.04565238
101	0x3c9df348	0.019281045
102	0x3ad9f18e	0.0016627775
103	0xbd033cc3	-0.03204037
104	0x3bb50e25	0.005525368
105	0x3ca5a74f	0.02022138
106	0x3ae304cf	0.0017320159
107	0xbbbfc73d	-0.0058526085
108	0xbe98235b	-0.29714474
109	0x3cbdd4b9	0.023172723
110	0xbaacc06a	-0.0013179902
111	0xbb206a62	-0.0024477472
112	0xbc8de7c5	-0.01732243
113	0x3bbdf2e2	0.005796776
114	0xbb4ae518	-0.0030959304
115	0x3d203f5b	0.03912292
116	0x3c9189ad	0.017765844
117	0xbc9bc984	-0.019016989
118	0x3cf193d1	0.02948943
119	0x3c12497d	0.008928654
120	0x3bf50590	0.0074774697
121	0x3a123df1	0.0005578688
122	0xbc669d8c	-0.014075648
123	0x3d35b59a	0.044362642
124	0xbac72438	-0.0015193289
125	0x3b8ed122	0.0043584267
126	0x3cec8273	0.028870797
127	0xbb35ac49	-0.0027721098
128	0xbe4a299d	-0.19742437
129	0xbdc1bcba	-0.09459825
130	0x3b41c96e	0.0029569524
131	0x3be8561f	0.0070903446
132	0xbd395cb2	-0.045254417
133	0x3dcac240	0.099003315
134	0xbc978b11	-0.01849893
135	0xbbb2dbe2	-0.005458341
136	0x3e8271fb	0.25477585
137	0x3d1dbc0d	0.038509417
138	0x3cea1b9f	0.028577624
139	0x3d59540c	0.05305867
140	0x3d8aa8e5	0.06770495
141	0x3bb702fb	0.005585072
142	0xbd6f14db	-0.0583695
143	0xbe0bdb68	-0.13657916
144	0x3ea619c6	0.3244154
145	0xbd0ca77b	-0.03433941
146	0xbb2e4dbb	-0.0026596624
147	0x3d11d36c	0.03560202
148	0x3cb1a60e	0.021685626
149	0x3bbcfba1	0.005767301
150	0xba0d5841	-0.0005391874
151	0x3be60308	0.0070194043
152	0x3c660d9a	0.014041329
153	0xbb288b49	-0.0025717786
154	0xbd9fe7bf	-0.07807874
155	0x39c3f472	0.00037375424
156	0xbd99933f	-0.07498788
157	0x3d828fb2	0.06375064
158	0xbbb62ff5	-0.005559916
159	0x3c15f038	0.009151511
160	0xbc7ce19c	-0.015434649
161	0xbd616f2d	-0.055037666
162	0xbb8ac85f	-0.004235312
163	0x3dc67e37	0.09692042
164	0xbd937dac	-0.072017044
165	0x3b8fe23f	0.0043909843
166	0x3b42b0e2	0.002970748
167	0x3d849da6	0.064753816
168	0x3bbf934a	0.0058464156
169	0xbaac64b7	-0.0013152574
170	0x3cd0ebf5	0.025503138
171	0x3b2ee5a9	0.002668718
172	0x3ee9bcb5	0.45651785
173	0xbbe4d2e5	-0.0069831484
174	0x3a6defff	0.0009076595
175	0x3b23aa26	0.0024973243
176	0xbcdef47b	-0.027216187
177	0x3bb9c6e8	0.0056694634
178	0xbdd0d499	-0.101968
179	0x3d3df747	0.0463784
180	0xbc4bf100	-0.012447596
181	0x3dcc8f80	0.09988308
182	0x3ddb3217	0.10702913
183	0x3c2192d4	0.009861667
184	0x3cecf2fe	0.028924461
185	0xbba02609	-0.0048873466
186	0x3d291e4f	0.04128867
187	0xbdd28e0c	-0.102809995
188	0xbbb4c945	-0.0055171573
189	0x3aeff4cd	0.0018307209
190	0xbdedd0e4	-0.11612108
191	0x3b9d8834	0.0048074964
192	0x3b15c961	0.0022855627
193	0x3b7a2208	0.0038167257
194	0x3ba6df11	0.0050925096
195	0xba4106d8	-0.00073633855
196	0xbb6b0d6d	-0.0035866157
197	0xbbd6ac41	-0.006551296
198	0xba97c1ea	-0.0011578177
199	0xbb6fd57f	-0.003659576
200	0x3b07c9b7	0.0020719597
201	0xbbb406f7	-0.0054939943
202	0x3b1e4750	0.0024151392
203	0x3a02ce4e	0.0004989848
204	0xbbb54b7f	-0.0055326815
205	0xbb9605ed	-0.004578343
206	0x3a58e2c4	0.0008273537
207	0x3bb78929	0.0056010676
208	0xbbb32f11	-0.0054682572
209	0x3b458f5e	0.0030145268
210	0xbac3e2fa	-0.0014944964
211	0xbb20a510	-0.0024512447
212	0xbb45f742	-0.0030207192
213	0xbbd17633	-0.0063922643
214	0x3ba453a2	0.0050148526
215	0xbbc8efde	-0.00613211
216	0x38d819b6	0.00010304472
217	0x3bad9c9b	0.00529821
218	0xbaa3732e	-0.0012470239
219	0xba4d09ce	-0.00078215904
220	0xb9b5732f	-0.0003460883
221	0x3bd8780c	0.0066061076
222	0xbb8c476a	-0.004280974
223	0xbbd71754	-0.00656406
224	0xbb6880d2	-0.0035477174
225	0xbb71edd3	-0.0036915436
226	0xba2aa27a	-0.0006509196
227	0x3ae6b8e5	0.001760271
228	0xba3ee380	-0.0007281825
229	0x3b6f2a4c	0.0036493717
230	0x3b2910e2	0.0025797416
231	0xbb7fd980	-0.0039039552
232	0x3bd720ea	0.006565203
233	0x3a19afe5	0.0005862697
234	0xbb8ab175	-0.0042325803
235	0x3bd17444	0.006392034
236	0xbb8a7019	-0.004224789
237	0x3b5d7b0e	0.003379527
238	0x3a650816	0.00087368616
239	0x3bcd2848	0.0062609054
240	0xbbe2767f	-0.0069110985
241	0x3bc791e7	0.006090391
242	0xbb210d31	-0.0024574513
243	0x3b322451	0.002718229
244	0x3b287085	0.0025701832
245	0xbb8c0f6d	-0.0042743
246	0xbaa40200	-0.0012512803
247	0x3a8404bf	0.0010072215
248	0xbb1ce859	-0.00239422
249	0xbb1ae767	-0.0023636462
250	0x3bc90fb8	0.006135907
251	0xbbcf9e0c	-0.0063359793
252	0x3bd21cd5	0.0064121285
253	0xbbc305bf	-0.0059516127
254	0xb8c9118e	-9.587697e-05
255	0x3b6f08df	0.0036473793

fc2.bias f4 [128]
0	0x3dbe8880	0.09303379
1	0x3d9834a9	0.07431919
2	0x3d7de144	0.06198241
3	0xbb0c5435	-0.0021412496
4	0xbc0eacfb	-0.008708234
5	0x3c9217d8	0.017833635
6	0x3dd2b9f7	0.10289376
7	0xbb004fc4	-0.0019578794
8	0xbbc37663	-0.0059650405
9	0x3de91802	0.11381532
10	0x3dded22b	0.1087993
11	0x3e277693	0.16353826
12	0x3d3327c9	0.043739114
13	0x3b75a238	0.0037480723
14	0xbe39d5f8	-0.18148029
15	0xbc926d57	-0.017874403
16	0x3e1096c9	0.1412002
17	0xbb875345	-0.0041297995
18	0x3dc1b301	0.094579704
19	0x3dd291e0	0.1028173
20	0x3db63a57	0.08897846
21	0x3abfbc6b	0.0014628296
22	0x3d92df11	0.07171453
23	0x3df6040f	0.12012493
24	0x3e35e4ae	0.17763016
25	0x3b2badb5	0.0026196067
26	0x3e3e0a84	0.18558699
27	0x3db4d911	0.08830465
28	0x3b711bbd	0.0036790215
29	0x3b89cf6c	0.004205635
30	0x3b6ef591	0.0036462287
31	0xbd19fa7e	-0.037592404
32	0x3e8f0d09	0.27939633
33	0x3dbb0eca	0.0913368
34	0xbac076bf	-0.0014683827
35	0xba8fe18f	-0.0010977256
36	0x3e080bf5	0.13285811
37	0x3e45ddb7	0.19322859
38	0x3b3220f3	0.0027180284
39	0x3d8ba1ee	0.06817995
40	0x3e0452f9	0.12922277
41	0x3dc88fe9	0.09793074
42	0xbbc9e95f	-0.006161853
43	0xbcf7181f	-0.030162869
44	0xbd388b30	-0.045054615
45	0x3e0eb70f	0.13937019
46	0x3b83fac6	0.0040276973
47	0x3bae8ca5	0.0053268247
48	0xbd860052	-0.0654303
49	0x3b263153	0.002535899
50	0x3d964aae	0.07338463
51	0xbd24ceb3	-0.040236186
52	0x3ba2b3ea	0.004965295
53	0x3dcdcecb	0.10049208
54	0x3dcaf60a	0.099102095
55	0xbb4f4b3b	-0.0031630534
56	0x3a5c5313	0.0008404713
57	0x3e5b915c	0.21442169
58	0xbb9d7a68	-0.0048058517
59	0x3e06f0e5	0.13177831
60	0xbe09c5ef	-0.13454412
61	0x3e07d30c	0.13264102
62	0x3dbc753c	0.09202048
63	0x3ab5145c	0.0013815272
64	0xbaca198c	-0.001541899
65	0xbcf134d7	-0.029444141
66	0x3a2de37b	0.00066333235
67	0x3db88568	0.0900982
68	0xbbc860ae	-0.0061150407
69	0xbc8402b0	-0.016114563
70	0xbd568c51	-0.05237991
71	0xbd8bc5f2	-0.068248644
72	0x3dbf7c67	0.093499
73	0xbd244d7d	-0.04011296
74	0xbae5efe2	-0.0017542804
75	0x3db27870	0.08714378
76	0x3b0d6818	0.0021576937
77	0xbb3c6609	-0.002874734
78	0x3d56fa4a	0.052484788
79	0x3e01c667	0.1267334
80	0x3d165b5c	0.03670822
81	0xba7a63b0	-0.0009551598
82	0x3e156075	0.14587577
83	0x3d53b457	0.051685657
84	0x3d6b6a70	0.057474554
85	0x3d6d21f4	0.05789371
86	0x3d8907ec	0.06690964
87	0x3b2da191	0.0026494006
88	0x3e32b33f	0.1745119
89	0x38d43360	0.00010118517
90	0x38658648	5.4722914e-05
91	0x3e0186a3	0.12649016
92	0x3dced019	0.10098285
93	0x3da84f42	0.08218242
94	0x3a38dd33	0.0007052004
95	0xb930ab65	-0.00016848517
96	0x3dd6de09	0.104915686
97	0x3b65ec22	0.0035083373
98	0x3cac6325	0.02104337
99	0xbda859a0	-0.082202196
100	0x3ac1fd8f	0.0014800298
101	0xbb34f9db	-0.0027614746
102	0x3b5652d2	0.0032703173
103	0x3e291132	0.16510466
104	0x3b4de04a	0.0031414204
105	0xbb025453	-0.0019886687
106	0x3dfc5746	0.123213336
107	0xbb8c4906	-0.004281166
108	0xbce30781	-0.02771354
109	0xbce459ce	-0.027874853
110	0x3dabe564	0.08393362
111	0xbaf7b8e5	-0.0018899707
112	0x3dbcce73	0.092190646
113	0xbbccb1cd	-0.0062467814
114	0x3d977bf1	0.07396687
115	0x3e13ee61	0.14446403
116	0x3e19cb5e	0.15018985
117	0xbbb08f95	-0.00538821
118	0x3e19e8fd	0.15030284
119	0xbaf83018	-0.0018935231
120	0x3e0a8e44	0.13530833
121	0x3e15115d	0.14557405
122	0xbb9a91f6	-0.004717107
123	0xbd0933ef	-0.033496793
124	0x3de0720a	0.10959251
125	0xbba087de	-0.004899009
126	0xbd0d422f	-0.034486946
127	0x3e0fdbd2	0.14048699

fc3.weight f4 [256, 128]
0	0xbaed7d31	-0.0018118975
1	0xbb5a67f0	-0.0033326112
2	0x3a112e14	0.0005538177
3	0x39f01ab8	0.00045796274
4	0x3acac01c	0.001546863
5	0xbaf84d4c	-0.0018943935
6	0x3b3c9da2	0.002878048
7	0x3a8a739a	0.0010563016
8	0x3b700c95	0.0036628593
9	0x3b29d829	0.0025916195
10	0xbb17ffdc	-0.0023193276
11	0x3aa19971	0.0012329054
12	0xba9a147c	-0.0011755372
13	0x3a1e2395	0.0006032524
14	0xbb8d716d	-0.0043165
15	0xba896921	-0.0010483601
16	0xbb902ce7	-0.004399884
17	0xba8bbd0c	-0.0010661199
18	0x3b4f5e2e	0.0031641829
19	0x3aa1afaa	0.0012335677
20	0x3b9016fc	0.004397271
21	0x3b45260c	0.0030082492
22	0x3aed9b57	0.001812796
23	0xbb019595	-0.0019772996
24	0xbb99a190	-0.004688449
25	0xbaf99f58	-0.001904468
26	0x3b4202a0	0.0029603615
27	0xba8d0f46	-0.0010761998
28	0x3b40664e	0.0029357853
29	0x3b5723cb	0.003282773
30	0x3b52e588	0.0032180268
31	0x3a05ec69	0.0005108775
32	0x3a8abe41	0.0010585265
33	0x3b5c005b	0.0033569548
34	0x3b97fb05	0.004638078
35	0xbb40b094	-0.0029402124
36	0x3b51318e	0.0031920406
37	0xbad9c3f0	-0.001661418
38	0x3b77a3e8	0.0037786905
39	0xba9dd549	-0.0012041713
40	0xbb1032f2	-0.0022003022
41	0x3a389d90	0.00070425216
42	0x3b181a76	0.0023209131
43	0x3af9fc8d	0.0019072458
44	0x3b14493e	0.0022626664
45	0xbb3896f7	-0.0028166154
46	0xb8c73a35	-9.499901e-05
47	0x3a01e339	0.0004954818
48	0xbaafaf5d	-0.0013403703
49	0xbb1f922c	-0.00243486
50	0xbb525e96	-0.0032099835
51	0xbb97cf50	-0.004632868
52	0x3a927239	0.0011172957
53	0xbac45e22	-0.0014981667
54	0xbb3f7882	-0.0029216115
55	0xbb58485c	-0.0033002114
56	0xbb63036b	-0.0034639488
57	0xba97d830	-0.0011584815
58	0xba58af3e	-0.0008265859
59	0xbb986875	-0.004651124
60	0xba98bed8	-0.0011653556
61	0x3b835590	0.0040080026
62	0x3b0c0838	0.0021367203
63	0x3a314687	0.00067625236
64	0xbad0c686	-0.0015928305
65	0x396d275f	0.00022616748
66	0x3b4cd4da	0.00312548
67	0xbb423179	-0.0029631539
68	0xbb916b1c	-0.0044378173
69	0x3b5c5bb6	0.0033624
70	0x3a62eecb	0.0008656799
71	0x3b936f41	0.0044993465
72	0xb9347d67	-0.00017212854
73	0xbb4ef53a	-0.0031579272
74	0x3b1506b7	0.0022739598
75	0x3b6dca18	0.0036283787
76	0x3b2ed6f8	0.0026678424
77	0xb8d887f0	-0.00010325003
78	0xbb0f4fa0	-0.0021867529
79	0xbb867cb3	-0.004104221
80	0xbb4c8f12	-0.0031213206
81	0x3b84dbde	0.0040545305
82	0x3aa27015	0.0012393022
83	0xbb4b60d4	-0.0031033056
84	0xba246847	-0.0006271642
85	0x3b3962d5	0.0028287668
86	0x3b37f41d	0.0028069087
87	0xbb15e0ae	-0.0022869515
88	0xbb8a6d3e	-0.0042244485
89	0x3b7170aa	0.0036840835
90	0x3b7f54ae	0.0038960385
91	0xbb5985b4	-0.0033191266
92	0xbb581a04	-0.003297449
93	0x3b811c7f	0.0039401646
94	0x3a1fa0a2	0.0006089305
95	0x3a2e5c9c	0.0006651373
96	0xba119caf	-0.0005554659
97	0x3b92cdfb	0.004480121
98	0xbb3704c3	-0.0027926422
99	0xba6877d7	-0.0008867955
100	0xbb4416d1	-0.0029920826
101	0xbb0ba9c6	-0.002131091
102	0x3b771ff3	0.0037708252
103	0xbb56572a	-0.0032705762
104	0x3b2debb9	0.0026538207
105	0xbb58beb4	-0.0033072652
106	0x3a382c73	0.00070256664
107	0x3acd3685	0.0015656507
108	0xbb3d29b7	-0.0028863975
109	0x3b4b0077	0.003097562
110	0x3b69b831	0.0035662765
111	0x3ab58eed	0.0013851799
112	0x3b9410e0	0.004518613
113	0x39c72461	0.00037983342
114	0xbb817da8	-0.003951747
115	0x3b8e3d5b	0.0043408102
116	0xbb61f469	-0.0034477955
117	0x3b12bf83	0.0022391982
118	0xb8bcd94d	-9.005014e-05
119	0x398bd150	0.00026668096
120	0xbb0db6f2	-0.0021623936
121	0xbb025a0f	-0.0019890105
122	0xbb4ffa46	-0.0031734868
123	0xbb391de7	-0.0028246583
124	0xbaaa5059	-0.0012993916
125	0x3b0850ef	0.0020800193
126	0xbb0fa907	-0.0021920817
127	0x3ab0ef61	0.0013499075
128	0x38236816	3.8959166e-05
129	0x3a8946d5	0.001047338
130	0x3b7f4cde	0.0038955729
131	0xbb321d33	-0.0027178049
132	0xbb6f344a	-0.0036499673
133	0xbb8ba8e7	-0.004262078
134	0x3a55cc23	0.0008155724
135	0xbb820d9d	-0.003968908
136	0x3b64ed31	0.0034931416
137	0x3b2fc3ab	0.0026819508
138	0xbb4b8946	-0.0031057163
139	0xbb90dbd7	-0.004420738
140	0x3a0b2e46	0.00053093245
141	0x3b4bac68	0.0031078104
142	0x3b07b3f3	0.0020706623
143	0xbb8916f0	-0.0041836426
144	0x3b74b427	0.0037338824
145	0x3a76b237	0.00094107114
146	0xbb87ddde	-0.0041463217
147	0x38d6f8c2	0.0001025065
148	0xbb2a2936	-0.0025964505
149	0x3b2b956c	0.0026181592
150	0xbb97f2ae	-0.004637084
151	0xbae2db5d	-0.0017307807
152	0xbb876c84	-0.004132809
153	0xbb34fa17	-0.0027614885
154	0xbb62cc94	-0.0034606801
155	0xbb7c50a8	-0.0038500223
156	0x3b5abc19	0.0033376275
157	0x3b83b42b	0.0040192804
158	0x380ebb6a	3.402998e-05
159	0x3b0d2c18	0.0021541175
160	0x3b74061d	0.003723509
161	0x3b846d21	0.0040413295
162	0x3b9a8ef0	0.0047167465
163	0x3b97c29c	0.0046313535
164	0xbb4e0fb8	-0.0031442475
165	0x3ac1ecb3	0.0014795273
166	0xbb4d85fd	-0.003136038
167	0x3adbc836	0.0016768042
168	0xbb6c4ac1	-0.00360553
169	0xbb7244d7	-0.0036967301
170	0xbb914a0e	-0.004433877
171	0xbb4d699b	-0.0031343463
172	0x3b72e067	0.0037060024
173	0xbb3064d9	-0.0026915579
174	0xbb27ae7d	-0.002558618
175	0x39653dbe	0.00021862143
176	0x3adb149b	0.0016714515
177	0x3b3326ef	0.0027336439
178	0xb9b3939c	-0.00034251518
179	0x3b18dd69	0.002332533
180	0x3b202317	0.0024434978
181	0x3b87dd03	0.0041462197
182	0xba54ac76	-0.0008112857
183	0x3b5a462d	0.0033305988
184	0xbb0f8723	-0.0021900616
185	0xbb022efe	-0.0019864435
186	0xbb87d5fb	-0.0041453815
187	0xba074378	-0.0005159895
188	0x3b1e3f36	0.0024146563
189	0x3b2b5a8b	0.0026146497
190	0xba2045d6	-0.0006113922
191	0xbb64440a	-0.0034830594
192	0x3b997419	0.0046830294
193	0xbb4893ed	-0.0030605749
194	0xbb50ec7e	-0.0031879242
195	0x3b70a44a	0.0036719018
196	0x3b5eaeff	0.0033978818
197	0xbabc96f6	-0.0014388252
198	0xbb125189	-0.002232643
199	0x3b890a20	0.004182115
200	0x3a8badbc	0.0010656635
201	0xbb152f54	-0.0022763805
202	0xbabfc0d9	-0.0014629617
203	0xbae7e116	-0.0017690982
204	0x39c82e09	0.00038181272
205	0xba169cb3	-0.0005745396
206	0x3ae39029	0.0017361689
207	0xbb413234	-0.0029479386
208	0xbb1b727c	-0.002371936
209	0x3aa2e4ff	0.0012427865
210	0xbb3c610d	-0.002874437
211	0xbb8e89eb	-0.004349937
212	0x399b159f	0.00029580013
213	0xbb476494	-0.003042494
214	0xbb886564	-0.0041624773
215	0xbb411a77	-0.0029465237
216	0x3ac538fb	0.0015046889
217	0xba0026fa	-0.00048886205
218	0x3b5b9d28	0.003351042
219	0xbb8719ad	-0.004122934
220	0x3b82391b	0.0039740927
221	0xbb9a1701	-0.0047024493
222	0x3a951b6a	0.0011375968
223	0xbb4ebc8d	-0.003154549
224	0xbb081450	-0.002076406
225	0x3a776fed	0.00094389805
226	0x3b072fe7	0.0020627917
227	0xbb274628	-0.0025523994
228	0x3b961085	0.004579606
229	0x3b1c0cfd	0.0023811453
230	0x3b8c29b0	0.0042774305
231	0x3aa826c9	0.0012828942
232	0xbb69f665	-0.003569984
233	0x3990df74	0.00027632306
234	0x3ab9607e	0.0014143137
235	0xbb73d668	-0.0037206654
236	0xbb08ba91	-0.0020863155
237	0xba6a26d3	-0.0008932177
238	0xbb5638f8	-0.0032687765
239	0x3ab333cd	0.0013672054
240	0xbb34eb40	-0.002760604
241	0xb88a200e	-6.5863234e-05
242	0x3b2f638b	0.0026762213
243	0x3ad99c5d	0.0016602386
244	0xbacfbc84	-0.0015849029
245	0x3b82d3ca	0.0039925324
246	0xbb50cfb6	-0.0031862087
247	0x3912ac84	0.00013987912
248	0x3b5195aa	0.0031980076
249	0x3aac89ee	0.0013163665
250	0x3b6a0018	0.0035705622
251	0x3b62b86b	0.0034594785
252	0x3b2a0e35	0.002594841
253	0xba1c5e2b	-0.000596496
254	0xba69bb31	-0.00089161383
255	0xbb2e28b8	-0.0026574563

fc3.bias f4 [256]
0	0xba8f8810	-0.0010950584
1	0xba24253b	-0.0006261651
2	0x3d849b8f	0.06474983
3	0xbaee5682	-0.001818374
4	0x3db11b54	0.086477906
5	0x3d358339	0.044314597
6	0xbb25dba7	-0.0025307925
7	0xbb3b0ccd	-0.0028541565
8	0x3e0dcaaa	0.13846841
9	0x3b29d27d	0.0025912814
10	0x3dbe2aa6	0.09285478
11	0xbb999c33	-0.00468781
12	0x3a3c3dae	0.0007180822
13	0xbab8f8bc	-0.0014112215
14	0x3d92aab0	0.07161462
15	0x3dc29f99	0.09503097
16	0x3b8e7c40	0.004348308
17	0x3d997319	0.07492656
18	0x3b8f7fba	0.00437924
19	0x3d2cb4c2	0.04216457
20	0x3d88bc8b	0.06676587
21	0x3db5d782	0.088789955
22	0x3d8e2db9	0.06942315
23	0x3d13347e	0.035938732
24	0xbb92e6e3	-0.0044830902
25	0x3da92014	0.082580715
26	0xbb8e5c83	-0.0043445244
27	0x3d73c916	0.059517942
28	0x3b20be8d	0.002452764
29	0x3da50e58	0.080593765
30	0x3d94187f	0.07231235
31	0x3b4ca2b0	0.00312249
32	0x3deba077	0.115052156
33	0xbca2eb68	-0.019887641
34	0x3c23dd30	0.010001466
35	0x3d895246	0.067051455
36	0x3de5bb7f	0.11217403
37	0xbd37e33c	-0.044894442
38	0x3b02d96d	0.0019966022
39	0x3d90fda9	0.07079632
40	0x3b38d643	0.0028203882
41	0x3d9756bb	0.073895894
42	0x3d876e7f	0.06612872
43	0x3d9a55b8	0.07535881
44	0x3d97f0f1	0.07419003
45	0x3dbdeecf	0.09274065
46	0x3d758fce	0.059951596
47	0x3be374c8	0.0069414116
48	0x3b8c970c	0.004290467
49	0x3b209403	0.0024502284
50	0x3b3d14da	0.002885154
51	0x3dc70c13	0.097191
52	0xbd296c89	-0.041363273
53	0x3da1d35c	0.07901642
54	0x3d47efdc	0.048812732
55	0x3d921cb1	0.07134379
56	0x3b34b92d	0.0027576194
57	0x3def3b62	0.11681248
58	0x3da4768e	0.08030425
59	0xbd3606b8	-0.04444
60	0x3d7c1ebd	0.06155275
61	0x3db4758a	0.08811481
62	0x3b737abf	0.003715202
63	0x3e16ba4e	0.14719507
64	0x3dc2727e	0.09494494
65	0x3de7c136	0.11316149
66	0xbe004dd9	-0.12529697
67	0xbaf33e88	-0.0018558064
68	0x3e3f3ecd	0.186763
69	0x3d84217e	0.06451701
70	0xbdb1f2dd	-0.086889006
71	0xbd08babf	-0.03338122
72	0xbaefefd3	-0.0018305726
73	0xbbf3b61d	-0.007437481
74	0x3db14ca1	0.08657194
75	0xbb4dd52d	-0.003140758
76	0x3da31233	0.079624556
77	0x3e002978	0.12515819
78	0xbd2660f9	-0.040619824
79	0x3c6bc923	0.014391216
80	0x3dbdc242	0.09265567
81	0x3deee055	0.11663882
82	0x3de4d2ca	0.11173017
83	0x3ad09ea8	0.0015916424
84	0x3d6e7cb4	0.058224395
85	0x3b55053f	0.0032504348
86	0x3df13721	0.11778093
87	0xbaf2edaa	-0.0018533964
88	0xbb72be2d	-0.0037039623
89	0x3d8c23a1	0.06842733
90	0xbc844439	-0.016145812
91	0xbba30ac9	-0.004975651
92	0x3d49c808	0.04926303
93	0x3e1979a6	0.14987811
94	0x3d4edb9b	0.0505024
95	0xba8419ef	-0.001007853
96	0x3a9e0f75	0.001205905
97	0x39495e23	0.00019203922
98	0x3daef519	0.085428424
99	0x3ddaef6f	0.106901996
100	0x3dd8e9a4	0.105914384
101	0xbb83cd9e	-0.004022314
102	0x3aeab6e1	0.0017907285
103	0x3d896ea2	0.06710555
104	0xbc4ebc64	-0.012618158
105	0x3b11f4c5	0.0022271138
106	0xbb9f3811	-0.0048589786
107	0xbbb9f836	-0.005675341
108	0x3dd0072d	0.10157619
109	0xbb81b29a	-0.0039580585
110	0xbccba195	-0.024857322
111	0x3d9cc74f	0.076552026
112	0x3d90ae3a	0.07064481
113	0x3e0d1ac6	0.13779745
114	0x3b2fdc65	0.0026834246
115	0xbb7e9a0b	-0.003884914
116	0x3b0bca30	0.002133023
117	0xbb43ee2e	-0.0029896605
118	0xbba1f12f	-0.0049420814
119	0x3a731673	0.00092730595
120	0x3e034613	0.128197
121	0x3d9900c8	0.07470852
122	0x3b1fa6d2	0.0024360907
123	0x3d9ac24d	0.07556591
124	0xbc91915d	-0.01776951
125	0x3db693e5	0.089149274
126	0x3a0285fe	0.0004979073
127	0x3cd9f849	0.02660765
128	0x3dacaa7c	0.08430955
129	0xbcbbbfc1	-0.022918584
130	0xbb5bc35e	-0.0033533196
131	0xbc1ccdb1	-0.009570525
132	0xbcf613de	-0.03003877
133	0x3ac4e3dc	0.0015021521
134	0x3b910e1d	0.0044267313
135	0x3b8240e1	0.0039750193
136	0x3da9373a	0.08262487
137	0x3d9dbc22	0.07701899
138	0xbc2cbc8e	-0.010543002
139	0x3c9bbaad	0.019009912
140	0x3d998d06	0.07497601
141	0x3d9501e9	0.07275755
142	0x3da19005	0.07888798
143	0x3da67906	0.08128552
144	0xbd9e5f5f	-0.07733034
145	0x3dba54d1	0.09098209
146	0xbc0d1be0	-0.008612603
147	0xbb08825f	-0.002082966
148	0x3e0d7daf	0.13817476
149	0x3b7b4b70	0.0038344525
150	0x3d7cc704	0.061713234
151	0x39816aaa	0.00024684268
152	0xba07f1e4	-0.0005185886
153	0x3e1a5d33	0.15074615
154	0x3dd2c5da	0.102916434
155	0x39dcdefc	0.00042127806
156	0x3ac9b54b	0.0015389113
157	0x3e4705a4	0.19435745
158	0x3bbb05f7	0.005707498
159	0xbbbec96d	-0.0058223517
160	0xbb8d401a	-0.00431062
161	0x3d57f362	0.052722342
162	0x3da5d87d	0.080979325
163	0x3d9b460a	0.07581718
164	0xbb6760aa	-0.003530542
165	0xbc8d0d25	-0.017218182
166	0xbc60ae72	-0.013713466
167	0x3d9a28e5	0.07527331
168	0xbb9e49ab	-0.0048305592
169	0x3b8a9675	0.0042293617
170	0xb989b88d	-0.00026268177
171	0x3bb46b4e	0.005505956
172	0x3b372f65	0.0027951833
173	0x3dabe844	0.083939105
174	0x3d620311	0.055178706
175	0x3db85fc4	0.09002641
176	0x3d9eeddf	0.07760214
177	0x3a8b8820	0.0010645427
178	0x3a911bb1	0.0011070875
179	0x3da5ea24	0.081012994
180	0xbaa9ea12	-0.0012963435
181	0x3de0bdb0	0.1097368
182	0xb8d45d6f	-0.00010126351
183	0x3b596498	0.003317153
184	0x3b8762f6	0.00413167
185	0xbb1e520f	-0.0024157797
186	0x3e1b0f74	0.15142614
187	0x3dabfaed	0.0839747
188	0x3d9e8214	0.07739654
189	0x3d8dee7e	0.069302544
190	0x3d8658d4	0.06559911
191	0xb8cb4d08	-9.6941425e-05
192	0xbaa1a43e	-0.0012332273
193	0x3b526062	0.0032100906
194	0x3dff5964	0.12468222
195	0x3dafd529	0.08585579
196	0x3d928255	0.07153765
197	0xba1f3070	-0.00060725864
198	0xbca35457	-0.019937677
199	0x3da24f3d	0.0792527
200	0x3e3e5692	0.18587711
201	0x3ccc41a5	0.024933646
202	0x3d908011	0.07055677
203	0xbc67b29f	-0.014141708
204	0x3b5cb598	0.0033677574
205	0x3db72afa	0.08943744
206	0xbc46799a	-0.012113953
207	0x3d6838e8	0.056694895
208	0x3c2f5d67	0.010703421
209	0x3da7e53f	0.08198022
210	0xbc64cc61	-0.013964743
211	0xb9996552	-0.00029257924
212	0x3e0aa073	0.13537769
213	0x3d9b01d1	0.07568706
214	0xbad9203c	-0.0016565393
215	0xbd53dfe5	-0.051727194
216	0x3db33fb8	0.08752388
217	0x3ae81953	0.0017707743
218	0xbb8e7448	-0.004347358
219	0x3b76131a	0.0037548007
220	0x3c096d60	0.008387893
221	0x3e1cef57	0.15325676
222	0xbb9ee0a9	-0.004848559
223	0x3d9f7f7c	0.077879876
224	0x3d75ce27	0.060011055
225	0x3dcdb063	0.10043409
226	0x3b0d756b	0.002158488
227	0x3d29e858	0.041481346
228	0xbca651d0	-0.020302683
229	0x3d9d8f58	0.07693356
230	0x3da7222b	0.08160814
231	0x3dad0297	0.084477596
232	0x3ddccbd0	0.10781062
233	0x3ddb6037	0.10711711
234	0x3d9b5bc1	0.0758586
235	0x3e015215	0.12628968
236	0x3e554006	0.20825204
237	0x3aae9d81	0.0013322086
238	0x3d959b74	0.07305041
239	0x3dbda4b6	0.09259932
240	0x3c57c267	0.013168908
241	0x3b5c9180	0.003365606
242	0x3b6ea973	0.0036416918
243	0xbd86b15d	-0.06576798
244	0xba5c8253	-0.0008411754
245	0x3e05a18e	0.1304991
246	0x3d70efce	0.058822446
247	0x3e364b75	0.17802222
248	0xbaa20b0d	-0.0012362913
249	0x3a8a0017	0.0010528591
250	0xbc52b092	-0.01285948
251	0x3df2d4a4	0.11856964
252	0x3b5a293f	0.0033288745
253	0x3dc536e3	0.096296094
254	0xba5f021c	-0.0008507089
255	0x3a1688a2	0.0005742406

fc4.weight f4 [12, 256]
0	0xbb4bf226	-0.0031119674
1	0xbacb79cf	-0.0015523973
2	0xbd8c32bb	-0.068456136
3	0x3dab1a0d	0.08354578
4	0xbf0bd532	-0.54622185
5	0x3dbf27bd	0.09333751
6	0x3b548b3e	0.0032431628
7	0xba40f030	-0.00073600095
8	0xbeb4220c	-0.35182226
9	0x39b888b7	0.00035197075
10	0xbe8f8403	-0.28030404
11	0x3a9158a0	0.0011089034
12	0xba54cbc8	-0.0008117524
13	0x3a37f2b1	0.000701706
14	0xbd6600ac	-0.056152984
15	0xbd7df64d	-0.06200247
16	0x3aef4623	0.0018255155
17	0xbd91594b	-0.070971094
18	0xba848ad8	-0.001011218
19	0xbd9748b8	-0.07386917
20	0xbda3c5c1	-0.07996703
21	0xbf5045f9	-0.8135677
22	0x3eb31a8f	0.349812
23	0xbd932f80	-0.07186794
24	0xb9a990cc	-0.00032342074
25	0xbd91c3c4	-0.071174175
26	0x39d0b882	0.0003981032
27	0xbd851268	-0.06497651
28	0xba7659bd	-0.00093975273
29	0xbd8c3534	-0.06846085
30	0xbd9c9b80	-0.07646847
31	0xbaef27b1	-0.0018246082
32	0xbdbea5d3	-0.09308972
33	0x3e08a803	0.13345341
34	0x3e245b14	0.16050369
35	0xbda7551a	-0.08170529
36	0xbda7cb35	-0.081930555
37	0x3e17556a	0.14778677
38	0x3d934a06	0.07191853
39	0xbd961477	-0.07328122
40	0x3a9dca38	0.0012038415
41	0xbd854a6b	-0.06508335
42	0xbd99cef6	-0.07510178
43	0xbdbbb8d7	-0.09166115
44	0xbd90a9a6	-0.07063608
45	0xbdaaaa34	-0.08333245
46	0xbd8e3ea3	-0.06945541
47	0x3deb74a9	0.114968605
48	0x3dc66957	0.09688061
49	0x3b0d3614	0.0021547126
50	0x3e01e521	0.12685062
51	0xbdd1918c	-0.10232839
52	0x3e10837f	0.14112662
53	0xbd8baf01	-0.06820489
54	0xbda4a685	-0.080395736
55	0xbd971121	-0.07376314
56	0xb9d23c06	-0.00040099042
57	0xbdb55315	-0.08853737
58	0xbd83ef05	-0.06442074
59	0xbe7869c4	-0.24259096
60	0xbd83650c	-0.064157575
61	0xbda0f34d	-0.07858906
62	0x3e147301	0.14496996
63	0xbdbcd5c5	-0.09220461
64	0xbda2c29a	-0.079472736
65	0xbdbd0069	-0.09228594
66	0x3e3637b2	0.17794684
67	0xb9d09d7e	-0.00039790192
68	0xbe14d856	-0.1453565
69	0xbd8d4496	-0.06897847
70	0xbd8f862f	-0.07008015
71	0x3e3ff9aa	0.18747583
72	0xbb617c8e	-0.0034406516
73	0x3bdddac6	0.0067704646
74	0xbd9b88dc	-0.07594463
75	0x3ac1e0f3	0.0014791772
76	0xbd88461b	-0.066539966
77	0x3ef07ff2	0.46972615
78	0x3deb32fe	0.11484335
79	0x3ddab261	0.10678554
80	0xbd8aeabb	-0.067830525
81	0xbdcf9453	-0.101357125
82	0xbdb75e2a	-0.08953507
83	0x3b063338	0.0020477306
84	0xbd99d8ec	-0.07512078
85	0x3b11beb4	0.0022238912
86	0xbdc75ca4	-0.09734467
87	0xbe3e7127	-0.18597852
88	0x3b0ae216	0.0021191887
89	0xbd85ef29	-0.06539757
90	0x3e50b024	0.20379692
91	0xbb2eea3f	-0.0026689915
92	0xbede2098	-0.43384242
93	0xbe940627	-0.28910944
94	0xbd9cf39a	-0.07663651
95	0xbb4abfee	-0.0030937153
96	0xbb0c893a	-0.0021444098
97	0xbb27f0b1	-0.002562564
98	0xbd8231d3	-0.063571595
99	0xbe84cbea	-0.25936824
100	0xbe7fd20f	-0.24982475
101	0x3a08f184	0.0005223977
102	0xbb1382db	-0.0022508416
103	0xbdb5c98c	-0.08876333
104	0x3df5b37e	0.11997126
105	0x3a9a1faa	0.0011758704
106	0xbab2f694	-0.0013653808
107	0x3dbe6467	0.09296494
108	0xbdb9da48	-0.09074837
109	0xbb0104de	-0.001968674
110	0x3e0f6a6d	0.14005442
111	0xbda7072c	-0.08155665
112	0xbd83448b	-0.06409558
113	0xbe439d79	-0.1910304
114	0xb9ce94e7	-0.00039402323
115	0xbadc678e	-0.001681553
116	0x3dc8382c	0.09776339
117	0x3b4a53e5	0.003087276
118	0xbb0cca98	-0.002148306
119	0xbad4a9ee	-0.0016224959
120	0xbde577b5	-0.11204473
121	0xbda9917a	-0.082797006
122	0xbad86d94	-0.0016512149
123	0xbd8e306e	-0.06942831
124	0x3dd1a2d7	0.10236137
125	0xbd9c0ef4	-0.076200396
126	0xbb3cc772	-0.0028805402
127	0x3de3627d	0.111027695
128	0xbe336343	-0.17518334
129	0x3e002bd3	0.12516718
130	0x3b3cea9b	0.002882636
131	0x3e1b1536	0.1514481
132	0x3e18bc55	0.14915593
133	0xbb285d32	-0.0025690314
134	0xbb1d002e	-0.0023956406
135	0xba94c8f9	-0.0011351398
136	0xbdbcafc7	-0.09213214
137	0xbd88f6ac	-0.06687674
138	0x3be8c184	0.007103147
139	0x3db877ae	0.09007202
140	0xbd8ece5c	-0.06972954
141	0xbd8d88b4	-0.0691084
142	0xbd68dd76	-0.056851827
143	0xbd87dc90	-0.06633866
144	0x3eadb4a0	0.33926868
145	0xbda8decb	-0.082456194
146	0x3deb50e1	0.11490036
147	0x3a65c401	0.00087648636
148	0xbde616b6	-0.112348005
149	0xb8f1aff1	-0.00011524547
150	0xbd70d871	-0.058800165
151	0xb87640cc	-5.8711317e-05
152	0x3e04f8cf	0.12985538
153	0xbda1762e	-0.07883869
154	0xbeae668f	-0.3406262
155	0x3b140464	0.0022585625
156	0x3b0e6dfe	0.002173304
157	0xbe1b3dd0	-0.15160298
158	0x3dd2c4b1	0.10291422
159	0x3dbbd2f1	0.09171093
160	0xba9f2d6f	-0.0012144278
161	0xbdc69edb	-0.09698268
162	0xbe23616c	-0.15955132
163	0xbda360f2	-0.07977475
164	0xbb22513d	-0.002476766
165	0x3e0ab6ff	0.1354637
166	0x3dd79e52	0.10528244
167	0xbdb3e76f	-0.08784377
168	0x3adf9eb9	0.0017060853
169	0xbae8d797	-0.0017764446
170	0x3b0fac6f	0.0021922847
171	0x3e0b2978	0.13590038
172	0xba0909d5	-0.00052276003
173	0xbdadd0eb	-0.084871136
174	0xbd9829a7	-0.074298196
175	0xbd9ff08a	-0.07809551
176	0xbe461bab	-0.19346492
177	0xba3c6557	-0.00071867317
178	0x3ab15d4b	0.0013531832
179	0xbdb78efe	-0.089628205
180	0xbb00829b	-0.0019609097
181	0xbe8f0158	-0.27930713
182	0x3dcbc8dc	0.0995042
183	0xba209f89	-0.0006127288
184	0xbb4d35a8	-0.00313125
185	0x3a7b4328	0.0009584897
186	0xbdd38fb2	-0.10330142
187	0xbd8dc9b2	-0.06923236
188	0xbdb3add4	-0.087733895
189	0xbd7fb737	-0.062430587
190	0xbd8ea300	-0.069646835
191	0x3b1e7988	0.0024181325
192	0x3ad14280	0.0015965253
193	0x3df4d2ac	0.11954245
194	0xbd96008f	-0.07324325
195	0xbd72bef0	-0.059264123
196	0xbdc6cb0b	-0.09706696
197	0xbb3b3b3d	-0.0028569244
198	0x3de8fa12	0.11375822
199	0xbdcca57b	-0.099925004
200	0xbe23275b	-0.15932982
201	0x3decb4c2	0.11557914
202	0xbea6739f	-0.32510087
203	0x3dd20c08	0.10256201
204	0x3af9cb3f	0.0019057764
205	0xbdb9e9f3	-0.090778254
206	0x3ddef90e	0.10887347
207	0xbef8e5ce	-0.48612827
208	0xbe860f8f	-0.26183745
209	0xbd99da2a	-0.075123146
210	0x3e430d4b	0.1904804
211	0x3b1822a7	0.0023214014
212	0xbe99a2f6	-0.30007142
213	0xbd833f6d	-0.06408582
214	0xbb4ad528	-0.0030949805
215	0x3ea83c55	0.3285853
216	0xbda3a08c	-0.07989606
217	0xbaab56eb	-0.0013072168
218	0xbab97847	-0.0014150225
219	0xb9b979af	-0.0003537661
220	0xbeed7ea4	-0.46385682
221	0xbe9cd38f	-0.30630156
222	0xbaf7b9ad	-0.001889994
223	0xbd8f46fb	-0.0699596
224	0xbd83917c	-0.06424233
225	0xbd9b91d4	-0.07596174
226	0x3b40b69f	0.0029405726
227	0xbd8d2147	-0.06891113
228	0x3ddb73ef	0.10715472
229	0xbd9d411f	-0.076784365
230	0xbd9d4337	-0.07678836
231	0xbd9135ad	-0.07090316
232	0xbde7b9db	-0.11314746
233	0xbda88513	-0.08228507
234	0xbd8e96cb	-0.06962355
235	0xbdda2bfd	-0.10652921
236	0xbe114094	-0.14184791
237	0xbb2cd3f1	-0.0026371444
238	0xbd75368f	-0.059866484
239	0xbd8706f4	-0.06593123
240	0x3de91a1c	0.11381933
241	0x3a224b8e	0.0006191068
242	0x38954e6c	7.119481e-05
243	0x3dfc7a8f	0.12328064
244	0xbb36a26f	-0.0027867814
245	0xbdc106e6	-0.09425144
246	0xbe97ff48	-0.29686952
247	0xbdd59b62	-0.104300275
248	0x3b13c50e	0.0022547874
249	0x3aadd7cd	0.0013263166
250	0x3dda8fa3	0.10671928
251	0xbe898f2d	-0.26867047
252	0x3a996391	0.0011702647
253	0xbd946b09	-0.07246978
254	0xb9d001cc	-0.0003967419
255	0x3af253c1	0.0018488095

fc4.bias f4 [12]
0	0xbd604d15	-0.05476101
1	0xbcaf64dd	-0.0214104
2	0xbcfc212e	-0.03077754
3	0xbd070ef8	-0.03297326
4	0x3da7f074	0.0820016
5	0x3d4373b0	0.04771775
6	0xbd209e95	-0.039213736
7	0xbc999b46	-0.018750798
8	0xbe3d1f33	-0.18468933
9	0xbc9b33e1	-0.018945636
10	0xbe03172b	-0.12801807
11	0xbd172ab6	-0.036905967
