ok.pt_episode_1000.pt (torch, 182504 bytes, 8 tensors)

fc1.weight f4 [64, 5]
0	0xbe7933c3	-0.24336152
1	0xbdc740f0	-0.09729183
2	0x3eabaa59	0.33528402
3	0x3df7a6fa	0.12092395
4	0xbc30af88	-0.010784037
5	0xbdb41600	-0.08793259
6	0x3e8d47eb	0.27593932
7	0x3e7c3a8e	0.24631712
8	0x3ea4022e	0.32032913
9	0x3dcb215d	0.09918473
10	0x3e1ae025	0.15124567
11	0x3c7f15d4	0.015569169
12	0x3e54a9cc	0.20767897
13	0xbeb596b9	-0.35466555
14	0x3e6b31de	0.22968242
15	0xbd83a948	-0.06428772
16	0xbe025620	-0.12728167
17	0xbe364856	-0.17801031
18	0xbe1340d2	-0.14380196
19	0x3db11096	0.08645742
20	0x3e87864a	0.26469642
21	0xbe80a56c	-0.25126207
22	0x3dbbb03a	0.09164472
23	0x3dad340f	0.08457195
24	0x3d7f673f	0.062354323
25	0xbd39c664	-0.045355216
26	0xbe90b13d	-0.28260222
27	0xbda46d28	-0.080286324
28	0x3e86e5bc	0.26347148
29	0xbe44ddd9	-0.19225253
30	0xbe8719ad	-0.26386777
31	0x3dc986ee	0.09840189
32	0x3db3b2db	0.08774348
33	0x3e550359	0.20802058
34	0x3d76d18e	0.06025844
35	0x3e3c3319	0.18378867
36	0xb9d6cad5	-0.00040968382
37	0x3d703e29	0.05865303
38	0x3ec277ff	0.37982175
39	0xbce17306	-0.027520668
40	0xbd6197a2	-0.05507625
41	0x3b77ae1f	0.0037792993
42	0x3e0e3ca4	0.1389032
43	0x3ea43dbe	0.32078356
44	0x3e1e8562	0.15480569
45	0x3e4df94d	0.20114632
46	0xbe89acf0	-0.26889753
47	0xbe560d12	-0.20903423
48	0x3e867483	0.26260766
49	0x3a887eee	0.0010413805
50	0xbe992589	-0.2991145
51	0xbdb3af2b	-0.08773645
52	0x3e0a30eb	0.13495223
53	0x3e570d0b	0.21001069
54	0x3e09e872	0.13467577
55	0x3ea4be01	0.3217621
56	0xbea46572	-0.32108647
57	0xbe43de93	-0.19127874
58	0x3e3bce80	0.18340492
59	0x3bb560b3	0.005535209
60	0xbe95d858	-0.2926662
61	0xbe1ab4ec	-0.15108079
62	0xbb0e8de6	-0.0021752059
63	0x3ccd46a3	0.025058096
64	0xbe8d0032	-0.27539212
65	0xbbcc581a	-0.0062360885
66	0x3e5c5934	0.21518403
67	0x3e24a4d4	0.16078502
68	0xbe174839	-0.14773645
69	0xbea65258	-0.32484698
70	0xbe333d66	-0.1750389
71	0xbe879944	-0.2648412
72	0xbc6a02a8	-0.01428286
73	0xbe966e5d	-0.29381076
74	0xbd8a6af9	-0.06758685
75	0x3e332bcc	0.17497176
76	0x3d7ce9f7	0.061746564
77	0xbe9cc25d	-0.30617037
78	0xbe879f1c	-0.26488578
79	0x3ea3b385	0.319729
80	0xbe260af7	-0.1621512
81	0x3e5e7668	0.21724856
82	0x3e13a0a1	0.14416744
83	0x3db17541	0.086649425
84	0xbe95d2c5	-0.29262367
85	0xbe265f5a	-0.16247311
86	0x3e83a6c1	0.2571316
87	0xbd5130a6	-0.051071785
88	0xbdb6b9df	-0.08922171
89	0x3db5a14b	0.08868655
90	0xbdb6bc8d	-0.08922682
91	0xbdbe7c05	-0.093009986
92	0xbe818f21	-0.2530451
93	0x3dd8d33c	0.10587165
94	0xbe716156	-0.23572287
95	0xbb3a3c57	-0.0028417313
96	0x3e35dc69	0.17759861
97	0x3d8c7fb4	0.06860295
98	0xbc9467d0	-0.018115908
99	0xbe0a8eb1	-0.13530995
100	0x3cac4336	0.021028142
101	0xbd384e21	-0.044996385
102	0x3e88f4ee	0.26749367
103	0xbcb12ba5	-0.021627257
104	0x3e9d0b37	0.3067262
105	0x3e9f29d7	0.3108661
106	0x3d3e089f	0.04639494
107	0xbe83c934	-0.25739443
108	0xbe2b95fa	-0.1675643
109	0x3eadebec	0.33969057
110	0x3e73f27e	0.23822972
111	0xbe29de4b	-0.16588704
112	0xbe9211ff	-0.28529355
113	0x3e3643b2	0.17799261
114	0xbe8d540b	-0.27603182
115	0xbe8c25dd	-0.27372637
116	0xbe41cab5	-0.18924983
117	0xbdba42ba	-0.09094758
118	0xbe8e5cc8	-0.2780516
119	0x3e20ef04	0.15716177
120	0xbe2279f3	-0.15866832
121	0x3ec71863	0.38885793
122	0xbe55c761	-0.20876838
123	0x3e9ee0c1	0.3103085
124	0xbe536870	-0.20645308
125	0x3d9d2288	0.07672602
126	0x3d7e7786	0.062125705
127	0xbc80ba21	-0.015713753
128	0xbe874e7f	-0.26427075
129	0xbe0879ba	-0.13327685
130	0xbe106a08	-0.14102948
131	0xbe271d42	-0.16319755
132	0xbd883303	-0.06650355
133	0xbcab770b	-0.020930788
134	0xbd871d54	-0.06597391
135	0x3d2c2ea3	0.042036664
136	0x3a837f56	0.0010032456
137	0xbd9664ae	-0.07343422
138	0xbe8bd910	-0.27314043
139	0xbe3869c9	-0.18009104
140	0xbe8a1321	-0.2696772
141	0x3c23ed58	0.010005318
142	0xbdccebc3	-0.100059055
143	0xbe897e67	-0.2685425
144	0xbe0c0818	-0.13674963
145	0x3db0215b	0.08600112
146	0xbdfebb49	-0.124380656
147	0x3eb3b1db	0.3509663
148	0xbe860092	-0.2617231
149	0x3e7ce958	0.24698389
150	0xbe953e15	-0.29148927
151	0x3e9e9c06	0.3097841
152	0x3c452f15	0.012035151
153	0x3e7c4232	0.24634627
154	0x3e9d8778	0.30767417
155	0xbe68b9a4	-0.22727066
156	0xbe584c84	-0.21122938
157	0xbdfb9684	-0.12284568
158	0xbe85957b	-0.26090607
159	0xbe8ef31c	-0.27919853
160	0x3ce9393f	0.02846968
161	0x3e4ff2e0	0.20307493
162	0xbead695a	-0.3386944
163	0x3d554f50	0.05207759
164	0xbeb47266	-0.3524353
165	0xbe6677ca	-0.22506633
166	0xbe998362	-0.2998305
167	0xbb18cc5c	-0.0023315167
168	0xbe4cb2f9	-0.19990148
169	0x3c5dea9a	0.013544703
170	0x3e0227b6	0.12710461
171	0xbdcaf5ca	-0.09910162
172	0xbe785194	-0.2424987
173	0x3e52fa73	0.20603351
174	0xbbcc6347	-0.0062374207
175	0x3e954d4b	0.29160532
176	0x3e94aab0	0.29036474
177	0xbe9490db	-0.29016766
178	0x3e00ac3b	0.125657
179	0xbe006d4b	-0.12541692
180	0xbea0919d	-0.31361094
181	0x3eb79dd8	0.35862613
182	0xbe8f55ac	-0.2799505
183	0x3ec37ec4	0.38182652
184	0x3e679fa3	0.2261949
185	0xbd48d2bf	-0.049029108
186	0xbe681704	-0.2266503
187	0xbe3fe6d5	-0.18740399
188	0xbdfb6a48	-0.12276131
189	0x3e41c839	0.18924035
190	0x3e93248f	0.2873883
191	0xbeaec471	-0.34134248
192	0x3d8e0647	0.06934791
193	0x3e2274b5	0.15864833
194	0x3e291f26	0.16515788
195	0x3dccc4b6	0.09998457
196	0x3ddc11b9	0.10745568
197	0xbe5ff63d	-0.21871276
198	0xbe05d979	-0.1307124
199	0x3e84e861	0.2595854
200	0xbe189edd	-0.14904352
201	0x3e8c4c3c	0.27401912
202	0xbde43102	-0.1114216
203	0x3e6868ca	0.22696224
204	0x3dd2f769	0.10301096
205	0x3e8c9c77	0.27463123
206	0x3eb82067	0.3596222
207	0xbe97d5d5	-0.29655328
208	0x3ce18ab5	0.027531961
209	0xbe874d9e	-0.26426405
210	0x3ec8ab13	0.3919302
211	0xbd3061d0	-0.04306203
212	0x3e58a92c	0.21158284
213	0xbe59e262	-0.21277764
214	0x3d6e03e8	0.058109194
215	0xbe838c84	-0.25693142
216	0xbcb49930	-0.022045702
217	0x3dc7d78b	0.097579084
218	0xbcdab786	-0.026698839
219	0x3d59ae98	0.05314502
220	0x3e3abeca	0.18236843
221	0x3e655198	0.22394407
222	0x3e9012f3	0.28139457
223	0xbe88d9fa	-0.26728803
224	0xbe567562	-0.20943215
225	0xbe49477c	-0.19656175
226	0xbe8352b2	-0.2564903
227	0xbe2b4937	-0.16727148
228	0x3dfd776c	0.123762935
229	0x3ea34d09	0.3189471
230	0xbdca6ccc	-0.098840326
231	0x3e820b24	0.25399125
232	0xbe892a06	-0.26789874
233	0x3e1d0971	0.15335633
234	0x3e88b520	0.26700687
235	0xbcd16392	-0.025560174
236	0xbe89ca72	-0.26912266
237	0xbca99a01	-0.020703318
238	0x3d9fe688	0.07807642
239	0xbe49863b	-0.19680111
240	0xbd2cf33b	-0.04222415
241	0x3ccd3cd4	0.02505342
242	0x3dfc3146	0.12314086
243	0xbe7c3498	-0.24629438
244	0xbe8c398c	-0.27387655
245	0x3ebefca2	0.3730212
246	0xbdde0c5a	-0.108421996
247	0x3e83be5d	0.25731173
248	0x3d1f210c	0.038849875
249	0xbe88c77d	-0.26714697
250	0xbe88ed11	-0.26743367
251	0x3e2757f8	0.16342151
252	0x3d447ef8	0.04797265
253	0xbe87bedc	-0.26512802
254	0xbe5c118e	-0.21491072
255	0x3d5f3f7c	0.054503903

fc1.bias f4 [64]
0	0xbe343043	-0.17596535
1	0xbe4b0dbf	-0.19829462
2	0xbd02c4da	-0.031926014
3	0xbe9c0866	-0.30475157
4	0xbdadda16	-0.08488862
5	0x3e585c3d	0.21128936
6	0x3dbce63b	0.092236005
7	0xbe5cb28b	-0.21552484
8	0xbe5a1ae2	-0.21299317
9	0xbdd35326	-0.10318594
10	0xbe2bb479	-0.16768064
11	0x3e412597	0.18861996
12	0xbe6d6660	-0.23183584
13	0xbd590b2f	-0.05298918
14	0x3e9c38e5	0.30512157
15	0x3e3d29e6	0.18473014
16	0x3e9ead56	0.3099162
17	0xbe7adaf0	-0.2449758
18	0xbdb32004	-0.08746341
19	0xbe30311e	-0.17206237
20	0x3dde030a	0.108404234
21	0xbe62620e	-0.22107717
22	0x3e56209f	0.20910881
23	0x3d24df8d	0.040252257
24	0x3dde7e66	0.10863952
25	0x3e9ed828	0.3102429
26	0x3e41f7ac	0.18942136
27	0x3dfa58c0	0.12223959
28	0xbe265b54	-0.16245776
29	0xbe8bb1db	-0.2728413
30	0xbd34e742	-0.044165857
31	0x3e3c9fa0	0.18420267
32	0xbd896b68	-0.06709939
33	0x3e933b93	0.2875639
34	0x3e9e061b	0.30864033
35	0x3d0fe98f	0.03513485
36	0x3e2fa281	0.17151834
37	0xbd8b871f	-0.06812882
38	0x3e0b254d	0.13588448
39	0xbd9761f5	-0.07391731
40	0xbce32789	-0.027728813
41	0x3d148111	0.0362559
42	0x3ce62def	0.028098075
43	0x3d1ecb00	0.038767815
44	0x3d5feb8e	0.054668
45	0x3e11773c	0.1420564
46	0x3e39024f	0.18067287
47	0xbd06cd21	-0.03291047
48	0xbe807cb8	-0.25095153
49	0x3ea34087	0.31885168
50	0xbe3f7b10	-0.18699288
51	0x3e55ecc3	0.20891099
52	0x3eb026bb	0.3440455
53	0x3e938a42	0.2881642
54	0x3e100346	0.14063749
55	0xbe0110be	-0.12604043
56	0x3d75f05a	0.06004367
57	0xbd8c5656	-0.06852405
58	0xbea448c3	-0.32086763
59	0xbdb32177	-0.08746617
60	0x3b324ab6	0.0027205176
61	0xbda0d6fe	-0.078535065
62	0x3ebc235d	0.3674573
63	0xbe28523c	-0.1643762

fc2.weight f4 [128, 64]
0	0x3dc7c875	0.09755031
1	0x3cac1392	0.021005426
2	0xbdb4f638	-0.08836025
3	0x3d57b6fc	0.052664742
4	0xbe5178c4	-0.20456225
5	0x3d88f9eb	0.06688293
6	0x3c9d22d8	0.019181654
7	0xbbc8e4e2	-0.0061308006
8	0xbd9be965	-0.07612876
9	0x3d9cba8a	0.07652767
10	0x3c98036b	0.018556317
11	0x3da661f5	0.081241526
12	0xbd6f83fc	-0.05847548
13	0x3d10580e	0.035240225
14	0x3c08d208	0.008350857
15	0x3d70540a	0.058673896
16	0x3e0ad567	0.13557969
17	0x3e293b45	0.16526516
18	0x3da9c98c	0.08290395
19	0x3d8189fc	0.063251466
20	0x3cb737f6	0.022365551
21	0x3cf51a12	0.029919658
22	0x3d2af419	0.041736696
23	0x3d3ed7d0	0.046592534
24	0x3e5b07d7	0.2138971
25	0x3cc4359a	0.02395134
26	0x3c9b83ce	0.018983748
27	0x3c6a02e6	0.014282918
28	0xbd6ca26e	-0.057772093
29	0xbd8431a8	-0.06454784
30	0x3d8c37af	0.06846558
31	0x3d8de9ba	0.069293454
32	0x3d74d6cc	0.05977516
33	0xbcd355a4	-0.025797673
34	0x3e4faaf5	0.20280059
35	0x3c4431a9	0.0119747305
36	0x3df49928	0.11943275
37	0xbcf56396	-0.029954713
38	0xbdd2e256	-0.102970764
39	0xbc5b127d	-0.013371107
40	0x3e057fe5	0.13037069
41	0x3c291934	0.01032095
42	0xbd9adae4	-0.07561281
43	0xbce1a814	-0.027545966
44	0xbdb96a02	-0.090534225
45	0x3cf352de	0.0297026
46	0x3d033613	0.03203399
47	0xbd62dab0	-0.055384338
48	0x3d05e0fe	0.032685272
49	0xbe1f865a	-0.15578595
50	0x3d80ad63	0.06283071
51	0x3a95df88	0.0011434415
52	0x3d91deb9	0.07122559
53	0x3e066aab	0.13126628
54	0xbc0fed8d	-0.008784664
55	0x3d2d4010	0.042297423
56	0xbde134f1	-0.10996426
57	0x3d440240	0.04785371
58	0xbbc10df6	-0.005891557
59	0x3d4f0376	0.05054041
60	0xbd98344d	-0.074318506
61	0x3d94763c	0.07249114
62	0xbd90da07	-0.070728354
63	0x3d49ec4a	0.04929761
64	0x3e25dcb3	0.16197471
65	0x3d77cd56	0.060498558
66	0x3d88c86a	0.06678851
67	0x3d183c56	0.037166916
68	0xbe413f5c	-0.18871826
69	0xbd0edf40	-0.034880877
70	0x3cf533c0	0.029931903
71	0xbd50c6d2	-0.05097086
72	0xbd657f51	-0.05602962
73	0xbe000f64	-0.12505871
74	0xbca4309b	-0.020042708
75	0xbf4f7fa3	-0.81054133
76	0xbc74fc86	-0.014952784
77	0x3d00386f	0.03130382
78	0xbda53eb5	-0.08068601
79	0x3de01634	0.10941735
80	0x3d23635d	0.039889682
81	0x3e85c155	0.26124063
82	0xbcb694c4	-0.022287734
83	0x3d87eb6c	0.066367
84	0xbd4541eb	-0.048158567
85	0xbd292ce1	-0.041302565
86	0x3d23eff2	0.04002375
87	0xbd72d1de	-0.059282176
88	0x3d84d51c	0.0648596
89	0x3ce016c4	0.027354605
90	0xbd41851d	-0.047246087
91	0xbd91d962	-0.071215406
92	0x3d95312b	0.07284769
93	0x3d2b3886	0.04180195
94	0x3e070fe4	0.13189656
95	0x3d4b0866	0.049568556
96	0x3c1b99a2	0.009497078
97	0x3d962cec	0.07332787
98	0x3d79498d	0.06086116
99	0xbc780283	-0.015137318
100	0x3d3eb353	0.046557736
101	0x3d62e6a0	0.055395722
102	0xbe191f93	-0.14953451
103	0xbb94b288	-0.004537884
104	0x3dd15ee8	0.1022318
105	0xbc7201ea	-0.014770964
106	0xbdb2b5ec	-0.08726105
107	0x3d514d93	0.05109937
108	0x3d2cb89a	0.042168237
109	0xbd42f105	-0.047593135
110	0x3ce95ec1	0.028487565
111	0x3c800133	0.015625572
112	0x3b96c6c8	0.0046013333
113	0xbda6dc57	-0.08147495
114	0xbd1495ce	-0.036275677
115	0xb88d2e73	-6.732056e-05
116	0x3e1702c7	0.14747153
117	0x3d7dce61	0.061964396
118	0x3ccaa8d0	0.0247387
119	0x3c1189b3	0.008882928
120	0xbd2e08dd	-0.04248892
121	0xbd545787	-0.051841285
122	0xbc034ae6	-0.008013463
123	0xbc000668	-0.007814027
124	0xbe4305f6	-0.19045243
125	0xbca1b822	-0.019741122
126	0x3e626829	0.22110046
127	0xbd13bc53	-0.03606827
128	0x3cbf0146	0.023316037
129	0x3db62f9a	0.08895798
130	0xbe1a2f61	-0.15057136
131	0xbd961f82	-0.073302284
132	0xbcf87bcc	-0.030332468
133	0x3d0350d0	0.03205949
134	0x3dc64db6	0.09682791
135	0x3db39058	0.08767766
136	0x3da0e787	0.0785666
137	0xbdf5df02	-0.12005426
138	0xbd5750cb	-0.052567285
139	0x3c465786	0.012105828
140	0xbd7193be	-0.05897879
141	0xbdac354e	-0.084086046
142	0xbd98a6ae	-0.074536666
143	0xbdcc5dd8	-0.09978837
144	0x3c37f786	0.011228448
145	0x3d8e8fc5	0.069610156
146	0xbb6506fc	-0.003494679
147	0xbc4140ff	-0.011795281
148	0xbd8a35ae	-0.0674852
149	0xbd1c7754	-0.038199738
150	0xbd9c33e6	-0.07627086
151	0xbd7e0f54	-0.062026337
152	0x3e86553a	0.26236898
153	0x3d8eda9c	0.0697529
154	0xbc8d39e3	-0.017239517
155	0xbb9c9148	-0.004778061
156	0x3bfc877c	0.0077065807
157	0xbdd48c8e	-0.10378371
158	0x3c40db24	0.011770997
159	0x3d904707	0.070447974
160	0x3e2d2974	0.16910344
161	0x3aaef94c	0.0013349443
162	0xbcb149d8	-0.021641657
163	0x3dd89122	0.10574557
164	0x3df1ad3e	0.118006214
165	0xbd90ab88	-0.07063967
166	0xbd4e02b4	-0.050295547
167	0x3e446727	0.19179974
168	0x3c19b9fc	0.009382721
169	0x3d98c7eb	0.07460006
170	0x3cd677aa	0.026180107
171	0x3c8358ee	0.016033616
172	0xbd5c65b8	-0.053807944
173	0x3d9315be	0.07181881
174	0xbc0c0948	-0.008547135
175	0x3d1205be	0.035650007
176	0x3d30e738	0.043189257
177	0xbd23b562	-0.039967902
178	0x3db4bfa3	0.08825614
179	0x3d193ede	0.03741347
180	0xbd4e5080	-0.05036974
181	0xbddba74e	-0.1072527
182	0x39e9777c	0.00044530246
183	0xbc36b360	-0.011151165
184	0xbdb75832	-0.08952369
185	0xbc18a78a	-0.009317288
186	0x3d61e855	0.05515321
187	0xbcfdfbcc	-0.031003855
188	0x3cbfeb76	0.023427706
189	0x3c8e6928	0.017384127
190	0xbe21bdf6	-0.1579512
191	0xbbd48bc4	-0.006486388
192	0x3d5b3b49	0.053523336
193	0x3d13b117	0.036057558
194	0xbda42d54	-0.08016458
195	0xbd0d834b	-0.03454904
196	0xbcf0aee2	-0.029380266
197	0x3d0bee60	0.03416288
198	0xbc294e54	-0.010333616
199	0x3d385fd0	0.04501325
200	0xbcfd45da	-0.030917097
201	0x3d64f18a	0.055894412
202	0x3e14450d	0.14479466
203	0x3e4896d5	0.19588788
204	0xbd9f8c58	-0.0779044
205	0x3cefe0b1	0.029281946
206	0xbc936e43	-0.017996913
207	0x3c7ebc1c	0.015547778
208	0x3e27aa31	0.16373517
209	0x3e0e5502	0.13899615
210	0x3c02419e	0.007950215
211	0x3da3fe62	0.08007504
212	0x3d0addf4	0.033903077
213	0x3d8724c5	0.0659881
214	0xbd1a827a	-0.03772209
215	0xbb9b3e5e	-0.0047376594
216	0x3dfce126	0.12347631
217	0xbd4fd741	-0.05074239
218	0xbda9ce01	-0.08291245
219	0xbdabb0e0	-0.083833456
220	0x3d88dca6	0.0668271
221	0xbddcc540	-0.1077981
222	0x3d37d805	0.044883747
223	0x3d0425b6	0.032262526
224	0x3dba28fb	0.09089848
225	0xbda1f8a8	-0.079087555
226	0x3d3d4bfa	0.046215035
227	0x3c20b3ba	0.009808475
228	0x3d8d392d	0.06895671
229	0xbd514d3c	-0.051099047
230	0x3c107f37	0.008819393
231	0xbc639f1b	-0.013892914
232	0x3e12942b	0.14314334
233	0x3e07017e	0.13184163
234	0x3d803636	0.0626034
235	0xbc0f6e73	-0.0087543605
236	0xbcd6fff3	-0.026245093
237	0xbd14acab	-0.03629748
238	0x3de91943	0.113817714
239	0xbcd797c4	-0.026317485
240	0x3d8e8504	0.069589645
241	0x3d0b9fb2	0.034087844
242	0x3d13bbd6	0.036067806
243	0x3d94d2ed	0.072667934
244	0x3dbc494e	0.09193669
245	0xbd38bed5	-0.045103867
246	0x3d34cd70	0.044141233
247	0xbd65355c	-0.05595909
248	0xba310cb3	-0.00067539065
249	0x3d8da2e8	0.069158375
250	0xbd12d8e4	-0.035851374
251	0xbd4e26b7	-0.05032989
252	0xbd7f3aeb	-0.062312048
253	0xbd1deb78	-0.03855464
254	0xba9cd771	-0.0011966062
255	0x3d731688	0.05934766

fc2.bias f4 [128]
0	0x3c0db540	0.00864917
1	0xbc76bd31	-0.015059755
2	0x3a1252a9	0.00055817753
3	0x3d3bdb55	0.04586347
4	0x3d1e969e	0.03871786
5	0x3ce2c724	0.027682848
6	0xbbe6cc83	-0.0070434227
7	0x3b6cbb87	0.0036122517
8	0xbd937378	-0.07199758
9	0x3d9e7616	0.07737367
10	0xbd0c8a57	-0.03431162
11	0xbaaa2ffb	-0.001298427
12	0x3cb29792	0.02180079
13	0xbd3d0264	-0.046144858
14	0x3cc0a94f	0.023518233
15	0xbd0bbace	-0.034113698
16	0x3ca97974	0.020687796
17	0xbdacac01	-0.08431245
18	0xbc94bf07	-0.018157495
19	0xbccaf1b6	-0.02477346
20	0xbdaf0bbd	-0.08547161
21	0x3d8a60c6	0.06756739
22	0xbd66d1d6	-0.05635246
23	0x3c8832ae	0.016625728
24	0x3de2f522	0.110819116
25	0x3d1b502a	0.037918247
26	0x3cac232e	0.021012869
27	0x3ddbaf92	0.10726847
28	0x3bb56871	0.005536132
29	0xbc4bcf2e	-0.012439532
30	0x3dd78683	0.10523703
31	0x3d3a76c0	0.045523405
32	0x3d523fb3	0.05133028
33	0x3d827b68	0.06371194
34	0x3df446b2	0.119275466
35	0x3d678e18	0.056531996
36	0xbcb394fd	-0.02192163
37	0xbcd3391e	-0.025784072
38	0xbd0ed2b8	-0.034868926
39	0x3de8dcc4	0.11370233
40	0xbd4e7dbf	-0.05041289
41	0x3d7e6cd7	0.062115517
42	0x3d8d9765	0.06913642
43	0x3ceb7421	0.028741898
44	0x3c411dba	0.0117868725
45	0x3d83a263	0.06427457
46	0x3af5c794	0.0018751496
47	0x3d97202b	0.073791824
48	0x3cf5a45d	0.029985601
49	0x3d8747c4	0.06605485
50	0x3da4bed5	0.08044211
51	0xbd3aca38	-0.045603007
52	0x3b9e2f88	0.0048274435
53	0x3d0f25b8	0.03494808
54	0x3dbb6641	0.09150363
55	0x3d642ae4	0.055704966
56	0x3dff54bd	0.124673344
57	0x3da805b1	0.082042105
58	0xbc4b9458	-0.012425505
59	0x3d83de3b	0.064388715
60	0x3d78a377	0.060702767
61	0xbb976a33	-0.004620814
62	0xbd485778	-0.04891154
63	0x3d2bfad4	0.041987255
64	0x3dc5e14b	0.09662112
65	0x3cf4d9fd	0.029889101
66	0x3db2275a	0.08698912
67	0x3d9eaeb2	0.07748164
68	0xbd5fec96	-0.054668985
69	0x3cdf7ad1	0.027280243
70	0xbcfaa726	-0.03059728
71	0x3d71a96a	0.058999456
72	0xbcdb7853	-0.026790773
73	0xbd82368a	-0.06358059
74	0xbce14d64	-0.027502723
75	0x3d7f05c4	0.062261358
76	0xbc6ce76a	-0.01445947
77	0x3cfc3f8f	0.030792026
78	0x3cac7dd6	0.021056097
79	0x3dd90f7a	0.10598655
80	0xb8f0695c	-0.000114637165
81	0xbd846bfd	-0.0646591
82	0x3d733499	0.059376333
83	0xbd859b01	-0.06523705
84	0xbd829cc9	-0.06377561
85	0xbab69129	-0.0013928759
86	0x3d129fab	0.035796802
87	0x3d2f4485	0.042789955
88	0x3c9576d3	0.018245136
89	0xbca0e6bd	-0.019641275
90	0xbc7858b4	-0.015157867
91	0x3db550d3	0.088533066
92	0xbd800070	-0.062500834
93	0xbcc5e448	-0.024156705
94	0x3bfdc290	0.007744141
95	0x3d1c7447	0.03819683
96	0xbd705402	-0.058673866
97	0x3d9c586d	0.076340534
98	0x3d28af97	0.04118308
99	0x3d83e986	0.064410254
100	0xbd5dc69c	-0.054144487
101	0x3cd65e02	0.026167873
102	0x3ce86257	0.028367205
103	0xbd7d902a	-0.061905064
104	0xbd133a40	-0.035944223
105	0x3b9304ce	0.0044866567
106	0x3caee17c	0.021347754
107	0xbd27f75b	-0.04100738
108	0xbda2fb2b	-0.07958063
109	0x3cbadc67	0.022810174
110	0x3d3d37c8	0.046195775
111	0xbcb70322	-0.022340361
112	0xbcdf7cee	-0.02728125
113	0x3d9123cd	0.070869066
114	0xbc1f5b54	-0.009726364
115	0xbd90fd9a	-0.07079621
116	0x3ace2b6c	0.0015729493
117	0xbd393905	-0.045220394
118	0xbd254d98	-0.040357202
119	0xbd889d24	-0.06670597
120	0x3dc89baa	0.097953156
121	0x3df33221	0.11874796
122	0x3d1258f4	0.035729364
123	0x3c7e7c3b	0.015532549
124	0x3ddfcde3	0.10927942
125	0xbd44beff	-0.04803371
126	0x3bc52b88	0.006017152
127	0x3b067a39	0.0020519628

fc3.weight f4 [256, 128]
0	0x3d271db1	0.0407998
1	0x3a93d3b6	0.0011278305
2	0x3d1d58e0	0.038414836
3	0xbd08b1a1	-0.033372525
4	0x3cddb10d	0.027061963
5	0xbbc8a352	-0.006122985
6	0x3d676c7a	0.056499936
7	0x3c8d9c1a	0.01728635
8	0x3d23bb33	0.03997345
9	0x3c93d674	0.018046595
10	0x3cda063b	0.026614299
11	0xb869ad5c	-5.5712982e-05
12	0x3d7da502	0.06192494
13	0xbce35bf6	-0.027753811
14	0x3d1ffc33	0.039058875
15	0x3d57b8a9	0.05266634
16	0xbd09546d	-0.03352778
17	0xbd5db774	-0.054130033
18	0x3c7be240	0.015373766
19	0xbd712a44	-0.0588782
20	0x3d42a2df	0.047518607
21	0xbd4773ec	-0.048694536
22	0x3b939af7	0.0045045572
23	0xbccc2899	-0.024921702
24	0xbd41066f	-0.047125276
25	0x3d23a846	0.0399554
26	0x3d724916	0.05915173
27	0xbc9c6994	-0.019093312
28	0x3d49f717	0.04930791
29	0xbd108c5c	-0.035290107
30	0x3d126426	0.03574004
31	0x3c0f3aff	0.008742093
32	0xbd0a2d02	-0.03373433
33	0xbceed876	-0.029155951
34	0xbd5f9938	-0.05458948
35	0x3d796814	0.060890272
36	0xbd2d5a2f	-0.042322334
37	0xbd17802c	-0.03698747
38	0x3bfe38b4	0.0077582244
39	0x3d0c59b3	0.03426523
40	0x3c4d8c45	0.01254565
41	0x3d7be2f8	0.06149575
42	0xbb41d2ef	-0.002957519
43	0xbd296662	-0.041357405
44	0xbc124ac4	-0.008928958
45	0xbd53eee3	-0.051741492
46	0x3cef2238	0.029191121
47	0x3d4ebc33	0.05047245
48	0xbd3068b0	-0.043068588
49	0xbd16c26e	-0.036806516
50	0x3d3cc899	0.046089742
51	0xbc50901a	-0.012729669
52	0xbd19ede7	-0.037580397
53	0xbcfa9292	-0.030587468
54	0xbd53d7a9	-0.05171934
55	0xbcd01560	-0.025400817
56	0xbd689158	-0.056779236
57	0xbb8a08b9	-0.0042124656
58	0x3bbe8d9c	0.005815221
59	0xbd61057c	-0.05493687
60	0xbd49259f	-0.049108144
61	0x3d5d4eb9	0.054030154
62	0x3d6704e6	0.056401156
63	0x3c4f77d1	0.012662844
64	0xbd4243e5	-0.04742803
65	0x3cd01116	0.025398772
66	0xbd695bd0	-0.056972325
67	0x3d11e738	0.035620898
68	0x3c2efe80	0.010680795
69	0xbca33b34	-0.019925691
70	0xbc391cbb	-0.011298354
71	0x3d440909	0.04786018
72	0xbceac418	-0.028657958
73	0xbd61ad36	-0.055096827
74	0xbd802609	-0.06257255
75	0x3d5bce0d	0.053663302
76	0x3d2e5437	0.042560782
77	0xbd072c64	-0.03300132
78	0x3cf9b0fa	0.030479897
79	0x3ca57574	0.020197608
80	0xbcd4ffe6	-0.026000928
81	0x3d221a2e	0.03957575
82	0x3be4f64e	0.0069873696
83	0xbd6da086	-0.058014415
84	0xbd45a56e	-0.04825347
85	0x3bb425d4	0.0054976735
86	0x3c009498	0.0078479275
87	0xbd464315	-0.04840382
88	0xbd3c3763	-0.04595126
89	0x3d1cd253	0.03828652
90	0x3cd38b71	0.025823327
91	0x3cea6704	0.028613575
92	0x3c9823d0	0.018571764
93	0x3d0398ea	0.032128252
94	0x3c1e6b06	0.009669071
95	0xbb6953ea	-0.0035602995
96	0xbcc6605a	-0.024215866
97	0x3ca5e487	0.020250572
98	0x3c5c483e	0.013444958
99	0x3d437eb5	0.04772826
100	0xb954df73	-0.00020301137
101	0xbd2a4f57	-0.04157957
102	0x3d13a0e2	0.0360421
103	0xbcf4f79e	-0.02990323
104	0xbd11c57e	-0.035588734
105	0x3ca83baf	0.020536272
106	0x3d3b5b26	0.045741223
107	0xbd7aaa2e	-0.061197452
108	0x3d38a4f9	0.045079205
109	0x3ca1987d	0.019726032
110	0x3c0b944a	0.008519242
111	0x3c3fee3f	0.011714517
112	0x3d436979	0.04770801
113	0xbc3f36b8	-0.011670761
114	0x3cc213ea	0.023691136
115	0xbd231f3c	-0.03982471
116	0xbd127763	-0.035758387
117	0xba54b7ad	-0.0008114528
118	0xbc006cab	-0.007838408
119	0xbd7d4b3c	-0.061839327
120	0x3c178094	0.009246964
121	0x3adf3a4f	0.0017030927
122	0xbcfbcf50	-0.030738503
123	0xbd1eddfc	-0.03878592
124	0x3d415405	0.047199268
125	0xbd5cabe4	-0.053874865
126	0x3d26c25e	0.040712707
127	0x3c17b715	0.009259959
128	0x3eae638b	0.3406032
129	0x3ec166bb	0.3777369
130	0x3b9e9d24	0.00484051
131	0x3cba72c8	0.02275981
132	0x3d6c4186	0.057679676
133	0x3d00d64f	0.03145438
134	0x3d8a0dcc	0.06740913
135	0x3db1f2aa	0.086888626
136	0x3dab0eba	0.08352418
137	0xbb886f6d	-0.0041636736
138	0x3ca2631f	0.019822655
139	0x3de6b3b7	0.11264747
140	0xbcb035ab	-0.021509966
141	0x3d3e7dfb	0.046506863
142	0x3ccb1c33	0.02479372
143	0x3d26e893	0.040749144
144	0xbd3ba568	-0.04581204
145	0x3c1e08e4	0.009645674
146	0x3e5bd521	0.21468021
147	0xbd3c2ad1	-0.04593927
148	0xbcd20b01	-0.025640013
149	0x3d18c395	0.037295897
150	0x3df74b9d	0.12074969
151	0x3c7dcb38	0.015490346
152	0x3d7101b5	0.05883952
153	0x3daf6a9a	0.085652545
154	0xbd11a49a	-0.035557367
155	0x3cb21b84	0.021741636
156	0x3cdfe439	0.027330505
157	0xbd008009	-0.031372104
158	0x3bca247a	0.006168899
159	0xbd4ad5b9	-0.049520228
160	0x3de3c7e6	0.11122112
161	0xbb7184f4	-0.0036852928
162	0x3e2492ce	0.16071627
163	0x3d68af2e	0.05680769
164	0xbd28d8b3	-0.041222285
165	0x3cff8718	0.031192347
166	0xbd7a4c8b	-0.061108153
167	0xbd03cd91	-0.032178465
168	0xbc2eb2df	-0.010662763
169	0x3e96f1cd	0.29481354
170	0xbd042f11	-0.03227145
171	0x3e16ee03	0.14739232
172	0xbdb29e86	-0.08721642
173	0xbc680640	-0.014161646
174	0x3e8c786d	0.27435628
175	0xba832aea	-0.0010007296
176	0x3c42b387	0.011883623
177	0xbc5f30df	-0.013622492
178	0xbc21f8f9	-0.00988602
179	0x3dc26972	0.09492768
180	0xbc735486	-0.014851695
181	0x3eda1e60	0.426013
182	0x3dc5911a	0.096468166
183	0xbc72692c	-0.014795583
184	0x3e308812	0.17239407
185	0x3d677595	0.05650862
186	0xbcd2cab3	-0.02573142
187	0x3d4fc9cc	0.050729558
188	0x3d874c8d	0.06606398
189	0x3bf5e4d6	0.007504086
190	0x3c6c1b7a	0.014410848
191	0xbe18e8e4	-0.1493259
192	0x3df576f7	0.11985581
193	0x3e140112	0.14453533
194	0x3cd3a876	0.025837164
195	0x3b9e2d05	0.004827144
196	0x3ccaeb01	0.024770262
197	0xbda8c6fe	-0.0824108
198	0x3dc800a0	0.09765744
199	0x3e1b3630	0.1515739
200	0xbd2170f4	-0.03941436
201	0x3d3b58fb	0.045739155
202	0xbd75da54	-0.060022667
203	0xbc6d17fe	-0.014471052
204	0xbd572848	-0.05252865
205	0x3cf7a085	0.030227909
206	0x3cbcd99c	0.023052983
207	0x3d8163ff	0.06317901
208	0x3d0c2a53	0.03422005
209	0x3c90ec1d	0.017690713
210	0xbd524948	-0.051339418
211	0x3c135380	0.008992076
212	0x3e735d60	0.23766088
213	0x3ea4eaa1	0.32210258
214	0x3b1f8e6d	0.0024346367
215	0x3ccab243	0.024743205
216	0xbd678d3a	-0.05653117
217	0xbcf25428	-0.029581144
218	0x3c9883c8	0.018617526
219	0x3c39d4f7	0.011342279
220	0x3cba410a	0.022736091
221	0x3d61dfb4	0.05514498
222	0xbd1954e1	-0.037434462
223	0x3dc3895d	0.09547684
224	0xbd9e1cb5	-0.07720319
225	0x3e75be26	0.23998317
226	0x3e485be8	0.1956631
227	0x3db79bf4	0.089652926
228	0x3d8c635f	0.06854891
229	0x3d13cb84	0.03608276
230	0x3ec6393e	0.38715547
231	0x3eaa4716	0.3325736
232	0xbd171d16	-0.036892973
233	0x3daa0a92	0.083027974
234	0x3d58f48f	0.052967604
235	0xbd007b83	-0.03136779
236	0xbd757b38	-0.059931964
237	0xbe0cf357	-0.13764702
238	0x3e920aa2	0.28523737
239	0x3d06119c	0.032731637
240	0x3e063fff	0.1311035
241	0xbda6caf5	-0.0814418
242	0x3e68201d	0.226685
243	0xbcb75b5e	-0.022382434
244	0x3de18e51	0.11013473
245	0x3cdb0ffa	0.026741017
246	0x3edea62b	0.4348615
247	0xbb727504	-0.0036996016
248	0x3dc472e3	0.095922254
249	0x3ddc1f30	0.10748136
250	0x3b6ae41c	0.003584153
251	0xbd307087	-0.043076064
252	0x3e24565c	0.16048568
253	0x3d525d0a	0.05135826
254	0x3d9d126e	0.07669531
255	0x3ddf6aae	0.109090194

fc3.bias f4 [256]
0	0x3d629d2a	0.055325665
1	0xbce704a7	-0.02820046
2	0x3cafa585	0.02144123
3	0xbc29de5d	-0.010367957
4	0xbd126e62	-0.0357498
5	0x3d944592	0.07239832
6	0x3d38033c	0.04492496
7	0x3d3d2dd7	0.046186294
8	0x3d7a6db6	0.061139785
9	0x3cadb1d5	0.021202961
10	0xbd759b5a	-0.059962608
11	0xbc15872c	-0.009126466
12	0xbd347ab4	-0.04406233
13	0xbd65af82	-0.05607558
14	0x3d30d1a2	0.04316867
15	0x3d9ba7c2	0.07600357
16	0x3cdc6654	0.026904263
17	0xbd545b4c	-0.05184488
18	0x3d3c28db	0.0459374
19	0x3d0e363e	0.034719698
20	0x3d190708	0.03736022
21	0x3d41e57a	0.047337987
22	0x3d856d3a	0.06514974
23	0xbd0663a3	-0.032809865
24	0x3c977003	0.018486029
25	0x3d86b9d8	0.06578416
26	0x3c5ab30f	0.013348355
27	0xbd3f7f61	-0.046752337
28	0x3dd5f25e	0.104466185
29	0xbc5836bd	-0.013196644
30	0xbd0230c2	-0.03178478
31	0x3d5da018	0.054107755
32	0x3cf5f61e	0.030024584
33	0x3d16bd9c	0.03680192
34	0x3c4342e9	0.011917808
35	0xbd03ffe2	-0.03222645
36	0xbd0d1e64	-0.03445281
37	0xbd59d767	-0.05318394
38	0xbc21d4c2	-0.009877386
39	0x3d6a0c15	0.05714043
40	0xbc805e38	-0.015669927
41	0xbc835736	-0.016032796
42	0xbb120e57	-0.002228638
43	0x3c81460c	0.015780471
44	0x3b056e45	0.0020359915
45	0xbc66bec4	-0.014083568
46	0xbcd34ffc	-0.025794975
47	0xbcb71827	-0.022350384
48	0x3be71f5a	0.007053298
49	0x3cfd13e1	0.030893268
50	0x3d832e10	0.0640527
51	0xbd4cc264	-0.049990073
52	0x3d4528cf	0.04813462
53	0xbba1d024	-0.0049381424
54	0x3bd73fb4	0.0065688733
55	0x3db3f799	0.0878746
56	0xbc88fd91	-0.016722472
57	0xba40998e	-0.00073471
58	0xbc336e01	-0.01095152
59	0x3dc25d85	0.09490494
60	0xbd8c85d7	-0.068614654
61	0xbc5400c7	-0.012939638
62	0x3d776cbd	0.060406435
63	0x3d29c2b6	0.041445456
64	0x3d9f452e	0.07776867
65	0x3d3f4e8e	0.046705775
66	0xbd617874	-0.055046514
67	0x3cffe079	0.031234967
68	0x3b8ae5a6	0.004238802
69	0x3d95d34f	0.073156945
70	0x3d1e74c0	0.03868556
71	0xbd29d248	-0.041460305
72	0xbd374e7c	-0.044752583
73	0xbcd54605	-0.026034364
74	0x3d5c37e3	0.053764235
75	0x3d8d1fc1	0.06890822
76	0xbc0e658a	-0.008691201
77	0xbcc04be1	-0.023473682
78	0x3d7f01d6	0.06225761
79	0x3dd2515a	0.10269423
80	0x3e01783d	0.12643524
81	0xbdd35bd7	-0.103202514
82	0x3c786b5e	0.015162317
83	0x3c42f136	0.0118983295
84	0x3ca8ed47	0.020620955
85	0xbc9cd17d	-0.01914286
86	0xbc527ca3	-0.0128470985
87	0x3a91d2d3	0.0011125453
88	0x3cd120b3	0.025528288
89	0x3df76d3c	0.12081382
90	0x3d706c1e	0.05869686
91	0xbce4f2ec	-0.027947865
92	0xbc274191	-0.010208503
93	0x3d402fe7	0.046920683
94	0xbcd7823d	-0.02630722
95	0x3d77d44c	0.060505196
96	0x3d9692dc	0.0735223
97	0xbceab271	-0.02864954
98	0x3d0890d7	0.033341255
99	0x3c0f5022	0.0087471325
100	0x3d85511e	0.065096125
101	0x3d6e8e9b	0.058241468
102	0x3cca0cd3	0.024664318
103	0xbc949f27	-0.018142296
104	0xbd0d62ec	-0.034518167
105	0x3b3afacf	0.0028530841
106	0xbd3dc59a	-0.046331026
107	0x3cdd70e4	0.02703137
108	0xbbac39f7	-0.0052559334
109	0x3d95a58e	0.07306968
110	0x3d1dea04	0.038553253
111	0x3d982d5b	0.07430526
112	0xbd21db01	-0.0395155
113	0x3d16abd0	0.036784947
114	0x3dda5ea4	0.106625825
115	0x3d0bce62	0.03413237
116	0x3dd69b4e	0.10478841
117	0xbd35ca9f	-0.044382688
118	0xbc28ebbc	-0.01031011
119	0x3d42415a	0.047425605
120	0x3dbb4b6c	0.09145245
121	0x3c9d0168	0.01916571
122	0x3d3dd3cb	0.04634456
123	0xbd4c4da1	-0.04987872
124	0x3d63a22f	0.055574592
125	0x3d29a6c2	0.0414188
126	0x3d21b4d7	0.039479103
127	0x3e07eb74	0.13273412
128	0x3d8c358b	0.0684615
129	0x3d8b54c5	0.06803278
130	0x3d424160	0.047425628
131	0xbd1fc208	-0.039003402
132	0xbd221ee7	-0.039580252
133	0xbd83d8c0	-0.06437826
134	0x3c425853	0.011861878
135	0xbd373cf6	-0.04473587
136	0x3dd35889	0.10319621
137	0xbcdd6fcd	-0.02703085
138	0x3c027549	0.007962533
139	0x3c96408d	0.018341327
140	0xbd51e363	-0.051242243
141	0x3c6d9b76	0.014502397
142	0xbc2f61a3	-0.010704431
143	0xbd44db29	-0.04806057
144	0x3a46427a	0.00075630064
145	0x3d50f65f	0.051016208
146	0xbd8080f1	-0.062745936
147	0x3d877bfe	0.066154465
148	0x3c9f3776	0.019435626
149	0xbc849f2a	-0.016189177
150	0x3cb18c05	0.021673212
151	0x3d8c373f	0.06846475
152	0x3d4d3101	0.050095562
153	0x3d126fdc	0.03575121
154	0xbbc58d84	-0.006028833
155	0x3dd2a29e	0.10284923
156	0x3d3482ae	0.04406994
157	0xbd259d3f	-0.040433165
158	0x3d1a9787	0.037742164
159	0x3d8605ee	0.065441
160	0x3d2ae06d	0.041717935
161	0xbd5954f8	-0.05305955
162	0xbd616894	-0.055031374
163	0x3d2294ec	0.039692804
164	0xbcfbef5a	-0.03075378
165	0xba998d57	-0.0011715096
166	0x3c4a8038	0.012359671
167	0xbcbe8388	-0.023256078
168	0xbcb70ec1	-0.022345902
169	0xbccb53e0	-0.024820268
170	0xbbd20ab5	-0.006409968
171	0x3d878128	0.066164315
172	0x3d8d17df	0.06889319
173	0x3d0bc7a8	0.034125954
174	0x3d2738e5	0.040825743
175	0x3bfa3adb	0.0076364106
176	0x3bd60c15	0.006532202
177	0xbcedc0fd	-0.029022688
178	0x3da507fa	0.08058162
179	0x3c541dac	0.012946527
180	0xbd2e5413	-0.04256065
181	0x3cb98675	0.022647122
182	0xbc3d0949	-0.011537858
183	0xbd22e1cc	-0.039766118
184	0xbca63219	-0.02028756
185	0x3d4f7e8a	0.050657786
186	0xbc524b0f	-0.012835278
187	0xbd6da25a	-0.05801616
188	0xbca303c4	-0.019899257
189	0x3d5341e7	0.05157652
190	0x3c944633	0.01809988
191	0xbb27f212	-0.0025626463
192	0xbc18de63	-0.009330365
193	0x3d1cb9d7	0.03826317
194	0x3d615aae	0.05501812
195	0xbd0a0c26	-0.033702992
196	0xbd4482e6	-0.047976397
197	0xbcbbdab1	-0.022931429
198	0x3c0982f6	0.00839304
199	0x3bc28ab7	0.0059369463
200	0x3d7b2f53	0.06132443
201	0x3d87768a	0.066144064
202	0x3d7f62f6	0.062350236
203	0xbcbecc75	-0.023290852
204	0x3d155106	0.036454223
205	0x3c0cfd1a	0.008605266
206	0x3d25c8c4	0.04047467
207	0x3bce64a2	0.0062986175
208	0xbda4dfbd	-0.08050487
209	0xbd99e4f9	-0.07514376
210	0x3b6dc678	0.0036281627
211	0x3d3c0330	0.045901477
212	0x3db9a7cd	0.090652086
213	0xbcf161d5	-0.029465595
214	0x3d123882	0.03569842
215	0xbc782b28	-0.015147008
216	0xbbd7b995	-0.0065834024
217	0x3d8d79a4	0.06907967
218	0x3d33a440	0.043857813
219	0x3d5a5598	0.053304285
220	0xbce0957e	-0.027415033
221	0xbd5cc536	-0.053899013
222	0x3bb218ee	0.0054351008
223	0x3db595c8	0.08866459
224	0x3dd36435	0.10321847
225	0x3d95c61c	0.07313177
226	0x3cd5f1cf	0.02611628
227	0x3c17e86e	0.009271724
228	0x3b342dc8	0.0027493108
229	0x3b4beab5	0.0031115238
230	0x3d5cde65	0.05392303
231	0xbd407bcc	-0.046993062
232	0xbb92380e	-0.0044622486
233	0x3de4dfea	0.11175521
234	0xbdf5feb2	-0.1201147
235	0xbd1e2eaa	-0.03861872
236	0xbc9742b7	-0.01846443
237	0xbd398bb7	-0.045299258
238	0xbce66c5c	-0.028127842
239	0x3bd7a62a	0.0065810876
240	0x3cf88516	0.030336898
241	0xbd4e34b1	-0.05034322
242	0xbd4cf05e	-0.05003392
243	0xbd58a149	-0.05288819
244	0x3dc1234c	0.094305605
245	0xbd061b17	-0.03274068
246	0xbd30485b	-0.043037754
247	0xbce88c4a	-0.028387208
248	0x3c23ae67	0.009990311
249	0xbd1b0afe	-0.03785228
250	0xbd1f1b84	-0.0388446
251	0xbd2045b7	-0.039128985
252	0x3d4092ef	0.047015127
253	0xbd452cbb	-0.04813836
254	0x3d693273	0.056932878
255	0x3c492748	0.012277432

fc4.weight f4 [12, 256]
0	0xbc027418	-0.007962249
1	0xbdda4b5c	-0.10658905
2	0xbd807af8	-0.062734544
3	0xbcfbd0c4	-0.030739196
4	0xbe0ee31c	-0.13953823
5	0xbd9d2445	-0.076729335
6	0xbd97afd6	-0.07406585
7	0xbe48cf62	-0.1961036
8	0x3d3014f3	0.04298873
9	0xbd078713	-0.0330878
10	0x3c1a7643	0.00942761
11	0xbca2ae46	-0.01985849
12	0xbcce145d	-0.025156194
13	0x3d037952	0.032098122
14	0xbaac471c	-0.0013143751
15	0xbd0f3636	-0.03496381
16	0xbc569b9e	-0.0130986255
17	0x3d0984ba	0.033573844
18	0xbd811758	-0.063032806
19	0xbd7f5ab1	-0.06234235
20	0xbd79dea6	-0.06100335
21	0xbd86a8f4	-0.06575194
22	0xbd58af68	-0.052901655
23	0xbd1648e7	-0.03669062
24	0xbe0bf976	-0.1366938
25	0x3da75692	0.08170809
26	0xbe91e5d8	-0.2849567
27	0xb9f1ba66	-0.0004610598
28	0xbd2696a0	-0.04067099
29	0x3ccd3ab3	0.025052404
30	0xbdaa089f	-0.083024256
31	0x3d05fd7b	0.03271244
32	0xbd1eac6c	-0.038738653
33	0xbd284ce9	-0.041088972
34	0xbdb8d969	-0.09025843
35	0xbda66ae2	-0.08125855
36	0xbc407c30	-0.011748359
37	0x3cfba768	0.030719474
38	0xbdb32bdc	-0.087486
39	0xbe08fdc1	-0.1337805
40	0xbdde70a9	-0.10861332
41	0x3df570ee	0.1198443
42	0x3d303877	0.0430226
43	0xbd37ad06	-0.044842742
44	0xbd061c22	-0.032741673
45	0x3e26c488	0.16285908
46	0x3dd0ec0e	0.10201274
47	0xbd9848a2	-0.074357286
48	0x3d30ac90	0.04313332
49	0xbe0aa96b	-0.1354119
50	0xbd41c108	-0.04730323
51	0xbca434b8	-0.02004467
52	0xbd1fd57e	-0.03902196
53	0xbbf9c246	-0.007622036
54	0xbda16fbf	-0.07882642
55	0xbdbb7a11	-0.09154142
56	0xbe05b3f4	-0.13056928
57	0xbd981dd3	-0.074275635
58	0xbbccce88	-0.0062502064
59	0xbdb2c8c9	-0.08729703
60	0x3db947d1	0.09046901
61	0x3d20ff47	0.03930595
62	0xbd405670	-0.046957433
63	0xbd1f5d74	-0.038907483
64	0x3dc00dd6	0.09377639
65	0x3e18ea73	0.14933185
66	0xbcbbee11	-0.022940667
67	0xbd29261b	-0.041296106
68	0x3ded466e	0.11585699
69	0xbd8a2218	-0.06744784
70	0xbede4a2a	-0.43415958
71	0xbd2175ac	-0.03941886
72	0x3cb8c021	0.022552552
73	0xbccf5887	-0.025310768
74	0xbbcddff2	-0.0062828
75	0xbdc261e8	-0.094913304
76	0x3c830666	0.015994262
77	0xbc2979e6	-0.010344004
78	0x3deb0fe2	0.11477639
79	0xbd2593c2	-0.040424116
80	0xbdb30425	-0.08741025
81	0x3e81454f	0.2524819
82	0xbde1c49e	-0.1102383
83	0xbda1a9b1	-0.07893694
84	0xbcae6e08	-0.021292701
85	0xbda72068	-0.08160478
86	0xbe60616e	-0.21912166
87	0x3d23b294	0.039965227
88	0xbdc11e82	-0.09429647
89	0x3df476a9	0.11936695
90	0x3d63d2a7	0.055620816
91	0xbc4272c8	-0.011868186
92	0xbd9535bb	-0.07285639
93	0x3d9ac6e2	0.07557465
94	0xbccb7aeb	-0.024838885
95	0x3cf24c78	0.029577479
96	0xbd219b1e	-0.039454572
97	0xbe2827e5	-0.16421469
98	0x3db170bc	0.086640805
99	0xbde31293	-0.11087527
100	0xbcaaa677	-0.02083133
101	0xbdd655ea	-0.104656056
102	0xbda5203d	-0.080627896
103	0xbd153a07	-0.036432292
104	0xbd22fdc6	-0.0397928
105	0x3e0d3206	0.13788614
106	0xbbecee30	-0.0072305426
107	0x3d9bcd9a	0.07607575
108	0x3ddd1ad9	0.107961364
109	0xbd315df7	-0.043302502
110	0xbd8308ce	-0.06398164
111	0xbd820318	-0.06348246
112	0xbe8f3390	-0.27969027
113	0xbccdcf81	-0.02512336
114	0xbdc45abf	-0.09587621
115	0xbd80f54b	-0.06296786
116	0xbda7c382	-0.08191587
117	0xbca0777f	-0.01958823
118	0xbc618459	-0.013764464
119	0xbe017c24	-0.12645012
120	0x3aade784	0.001326785
121	0xbd95ad39	-0.0730843
122	0xbd2f2b16	-0.0427657
123	0xbcd5237a	-0.026017893
124	0xbd9b61f5	-0.07587043
125	0xbdc08913	-0.09401145
126	0xbe983b8c	-0.2973293
127	0xbde2c25f	-0.110722296
128	0xbd710a9d	-0.058848012
129	0xbdda3553	-0.10654702
130	0xbd018883	-0.03162433
131	0xbb266693	-0.002539073
132	0x3d0320f8	0.032013863
133	0xbb971396	-0.004610489
134	0x3d3bd24b	0.045854848
135	0xbc85f687	-0.016352905
136	0xbd79c82f	-0.060981926
137	0xbcd2df39	-0.025741206
138	0x3e154b3c	0.14579481
139	0x3d25df2c	0.040496036
140	0xbc85b78b	-0.016322872
141	0x3e1cf0bc	0.15326208
142	0xbc47d91a	-0.012197757
143	0xbd1c86a4	-0.03821434
144	0x3e20715b	0.15668242
145	0xbdadc4f0	-0.084848285
146	0x3c28dedc	0.01030704
147	0xbada9ab1	-0.0016678182
148	0xbd9ee158	-0.07757825
149	0x3d6f4722	0.058417447
150	0xbd4ff0ee	-0.050766878
151	0xbdba8cd6	-0.091088936
152	0xbdd7de33	-0.10540428
153	0xbe2a2584	-0.16615874
154	0x3da08875	0.07838527
155	0xbb586781	-0.0033020678
156	0x3d27ea13	0.040994715
157	0x3b85ccf0	0.0040832683
158	0xbd5b65cc	-0.053563878
159	0x3ddfe3b4	0.10932103
160	0x3ddda1df	0.1082189
161	0x3d2ba555	0.04190572
162	0x3c4b0374	0.01239096
163	0xbe4aba2f	-0.19797586
164	0x3d304ae7	0.043040182
165	0x3ddfc689	0.109265395
166	0xbcf7c0fb	-0.030243387
167	0xbd02a068	-0.031891257
168	0x3db366d0	0.08759844
169	0x3d00ce24	0.03144659
170	0xbdebf144	-0.11520627
171	0xbdb78808	-0.08961493
172	0xbe1d88a3	-0.15384154
173	0xbd7513fe	-0.05983352
174	0x3de24469	0.110482045
175	0xbcf9ad93	-0.030478274
176	0x3d0ce487	0.03439763
177	0x3e172496	0.1476005
178	0xbd749fa5	-0.05972256
179	0xbd8c1d89	-0.06841571
180	0xbc4ed9cf	-0.012625172
181	0xbd061a86	-0.03274014
182	0xbc904cb6	-0.017614704
183	0x3d139d93	0.036038946
184	0xbe343362	-0.17597726
185	0xbc12bb03	-0.00895572
186	0x3cd6a239	0.0262004
187	0xbdaa2ea6	-0.08309679
188	0xbb09aa88	-0.0021006186
189	0x3bbe7d70	0.005813293
190	0x3c3f6b36	0.011683276
191	0xbd426053	-0.047455143
192	0xbcc6826c	-0.024232112
193	0xbde83228	-0.113376915
194	0xbd3dfe45	-0.04638507
195	0xbcfc28c4	-0.030781157
196	0xbd56b795	-0.05242117
197	0xbd59fc0d	-0.05321889
198	0x3cddf4dc	0.027094297
199	0xbd8e1a58	-0.069386184
200	0xbddb847d	-0.107186295
201	0x3d91070b	0.070814215
202	0xbd1c8006	-0.03820803
203	0x3de0404f	0.10949766
204	0xbca037e5	-0.019557903
205	0xbd9cd652	-0.07658066
206	0xbdb619a8	-0.08891612
207	0xbdf74818	-0.12074298
208	0xbc753cad	-0.0149680795
209	0xbd8bcb6b	-0.06825908
210	0xbbf6f0dc	-0.007536037
211	0x3a7f3666	0.0009735584
212	0xbd50cb21	-0.05097497
213	0xbdede54a	-0.11615999
214	0xbda01c81	-0.07817937
215	0xbd2a317c	-0.0415511
216	0xbcae0eec	-0.02124735
217	0xbc33e617	-0.010980151
218	0x3dbe7f2c	0.093016
219	0xbca947e1	-0.020664157
220	0x3d144c47	0.036205556
221	0x3c710146	0.014709776
222	0xbccbf355	-0.024896303
223	0xbdd4bfca	-0.10388143
224	0xbdd0d905	-0.10197643
225	0xbe01e738	-0.12685859
226	0x3b4eec05	0.0031573784
227	0x3d01d527	0.03169742
228	0x3b8f3508	0.0043703355
229	0xbd3531ae	-0.04423683
230	0x3ca69e46	0.020339143
231	0x3e1d5451	0.15364195
232	0xbde4684b	-0.11152705
233	0xbda29133	-0.07937851
234	0x3e0bc312	0.13648632
235	0xbcd14385	-0.025544891
236	0x3c989a26	0.018628191
237	0x3cc9668e	0.024585035
238	0x3df640ee	0.12024103
239	0xbd7a4813	-0.06110389
240	0x3e10d684	0.14144331
241	0xbc57fd8f	-0.013183012
242	0x3d8ee7e6	0.06977825
243	0xbcc74065	-0.024322698
244	0xbdd554a2	-0.10416533
245	0x3ccb5691	0.024821552
246	0x3bb399ec	0.0054809954
247	0xbd537778	-0.051627606
248	0xbd55169a	-0.052023508
249	0xbd120477	-0.03564879
250	0xbc1e3bf3	-0.009657848
251	0xba58676c	-0.0008255157
252	0xbcc96fda	-0.024589468
253	0xbc89aaf4	-0.01680515
254	0xbde45009	-0.11148078
255	0x3bf7f770	0.0075673386

fc4.bias f4 [12]
0	0xbd676e80	-0.056501865
1	0xb96ee338	-0.00022782094
2	0xbd3ac512	-0.045598097
3	0xbcf13280	-0.029443026
4	0xbc8dd4de	-0.017313417
5	0x3d2bb812	0.04192359
6	0xbd3544c7	-0.044255044
7	0xbd251e52	-0.04031212
8	0xbdbfef19	-0.09371776
9	0x3c5f23c9	0.013619372
10	0xbd079dce	-0.03310948
11	0xbc9af952	-0.018917713
