simul.pt (torch, 14504 bytes, 8 tensors)

fc1.weight f4 [16, 5]
000000 d6 b4 88 3d 67 92 05 bf 5d 77 92 be 3e 5e 53 3e
       0.06675117 -0.5217652 -0.28606692 0.2064142
000010 0d e1 44 bf a9 73 95 be e5 1d 22 3e f1 17 df 3e
       -0.769059 -0.29189804 0.15831716 0.43572953
000020 ea 2f c1 be 15 24 1a 3f 17 83 d5 3d 63 66 ef be
       -0.37731868 0.60211307 0.10425394 -0.46757802
000030 ee 4c e1 be 73 50 d4 3e 2d 1f 97 bd 9b 41 37 3f
       -0.44004005 0.41467628 -0.07378993 0.7158448
000040 a1 17 ff be 59 d3 80 bd 23 34 af be 00 81 86 3e
       -0.49822715 -0.06290311 -0.34219465 0.26270294
000050 d8 63 35 3f d6 14 c7 3d 53 f3 ab 3e fa 72 99 3e
       0.70855474 0.09720771 0.3358408 0.29970533
000060 41 4a 94 3d 18 42 11 3e 4b 06 c5 be 4f 52 2a be
       0.07240725 0.14185369 -0.38481364 -0.1663296
000070 f2 73 b0 bd df 71 e6 bd 6c c6 5d 3c bd 59 b9 be
       -0.08615865 -0.11252188 0.013536077 -0.36201277
000080 8e 42 a4 be b0 55 d2 3d cd 9a ce be aa 89 1b be
       -0.32082027 0.1027025 -0.4035248 -0.15189233
000090 01 d6 76 be 0e ac 2a be 01 3b e4 3d 8c df a0 3c
       -0.24105074 -0.16667196 0.111440666 0.019637845
0000a0 28 aa 36 bf b8 66 21 3f 4e 8c 5d 3e 0d c3 db 3e
       -0.7135339 0.6304736 0.21635553 0.4292225
0000b0 5f d4 78 3e af 30 ba 3e d0 d1 48 be 69 2a 02 3f
       0.24299763 0.36365268 -0.19611287 0.5084596
0000c0 a9 d6 a2 3d 97 f9 37 bd 68 57 40 3f 87 31 10 bf
       0.079510994 -0.04491576 0.7513337 -0.5632557
0000d0 6f 17 af 3e 5b 40 a7 3e 40 e4 03 bf 4d 15 75 3d
       0.34197566 0.32666287 -0.51520157 0.059834767
0000e0 44 15 3d be 8f 86 a3 3e f4 c4 a4 be 44 34 fc 3d
       -0.18465143 0.31938598 -0.32181513 0.123146564
0000f0 72 3a 04 3f b4 bf f1 be 11 67 73 bd f9 9a 97 3e
       0.5165168 -0.4721657 -0.059424464 0.29610422
000100 49 48 40 3d 65 eb ce be f9 38 ed be 90 fe 98 bd
       0.046943936 -0.40413967 -0.4633253 -0.07470429
000110 42 ce 8c 3e 9c 8b 39 bf 23 fd b5 be 54 fc 2a be
       0.27501112 -0.7247865 -0.3554469 -0.16697818
000120 54 a8 b7 be 4f f0 c0 3e 37 67 2f bf d5 60 11 3e
       -0.35870612 0.3768334 -0.6851687 0.14197095
000130 d8 99 2d 3f eb ea ba 3e 5f ae 82 be 91 e2 40 3f
       0.6781287 0.36507353 -0.2552366 0.7534571

fc1.bias f4 [16]
000000 d7 59 10 be 32 91 e4 3e a9 03 13 be 92 bf f2 bd
       -0.14096771 0.44642025 -0.14356865 -0.118529454
000010 14 95 16 3f c1 18 93 3e c2 48 23 3e f9 fa 4a 3e
       0.58821225 0.28729823 0.15945724 0.19822301
000020 52 08 29 3f 55 d5 bb 3e 6d 91 df be 8f d6 43 be
       0.6602832 0.36686197 -0.4366564 -0.19124816
000030 20 c8 f8 bd aa 09 9d 3e fc 5b 6d be 53 ab 2b 3f
       -0.12147546 0.30671436 -0.2317962 0.67058295

fc2.weight f4 [32, 16]
000000 33 a3 74 3e 4e 3a 3d 3d c4 9e a4 bd 13 61 61 3d
       0.2389038 0.04619818 -0.08038095 0.055024218
000010 e8 9e 53 3e 96 a9 b8 3c d6 e1 43 3e f1 fb 5e 3e
       0.20666087 0.022541802 0.19129118 0.21775796
000020 75 c3 0d 3d 21 15 09 bd 6d 58 2d bd c0 47 d1 bd
       0.03461023 -0.033467416 -0.042320658 -0.10218763
000030 cc 55 05 3e 7f 9a 92 3e 92 9f 79 3e 36 5e 9d be
       0.1302101 0.28633496 0.24377277 -0.3073594
000040 1f 77 89 3e 64 c8 b4 be e7 4e 2e 3e bc 3f 54 be
       0.26848695 -0.35309136 0.17022286 -0.20727438
000050 ff 21 45 3e c8 ea 0c 3e 0f de 19 3e 5c cb 52 3e
       0.1925125 0.13761437 0.15026115 0.20585388
000060 0c a8 c2 bd b6 9f 6d 3e 43 c7 1c be 1a cd aa 3e
       -0.09504709 0.23205456 -0.15310387 0.33359605
000070 a5 e4 2b 3e bb 4e 35 bd 03 52 b8 3d ab fa 83 3b
       0.1678644 -0.044264536 0.090000175 0.0040276847
000080 d4 54 94 bd 4a a7 91 3e 9a 3a 5f be b2 66 66 bd
       -0.07242742 0.28447944 -0.21799698 -0.05625028
000090 62 6f 4c 3e be 78 cd 3d 06 4d cf 3d 5a f5 37 3e
       0.19964364 0.10032795 0.10122113 0.17964688
0000a0 6e 07 71 bf 65 04 02 3e 49 02 2f b8 72 06 73 3e
       -0.9415196 0.12696989 -4.172538e-05 0.23732927
0000b0 7d 10 0e bf 80 aa 4c 3e 55 9e 0d be 90 05 c8 3e
       -0.5549391 0.19986916 -0.1382993 0.39066744
0000c0 90 70 f9 3c be 57 d7 3d fc 9e 16 bd 23 47 e2 be
       0.030449182 0.10514782 -0.036772713 -0.44194898
0000d0 af 04 29 be 8c b4 5c be f7 59 85 be fd c5 71 3b
       -0.16505693 -0.21553248 -0.260452 0.0036891692
0000e0 d2 ad f7 3e 22 11 39 be 0f ff 9a be e2 3c d0 bd
       0.48374802 -0.18072942 -0.3027272 -0.101678625
0000f0 e5 41 74 bd 04 1a 17 be f0 95 11 3e c2 e0 ac 3e
       -0.059633154 -0.14756018 0.14217353 0.33765227
000100 d7 e3 3f be d9 9f a0 3d 3f 64 83 be f8 75 85 3d
       -0.18739258 0.078429885 -0.2566242 0.065166414
000110 6c 96 57 3e 8a f7 84 be 5a 1f 69 be b0 f2 46 be
       0.21053475 -0.25970107 -0.22765866 -0.19428515
000120 20 f7 63 3e 44 c1 17 3c 4b 9a 33 3c 7a cf 63 be
       0.2226224 0.009262387 0.010962079 -0.22247115
000130 21 b8 ae 3b 9b 4a d0 bd 53 54 d6 3d 95 11 b0 3e
       0.0053320085 -0.1017048 0.10465302 0.34388414
000140 46 07 0e be 8a b3 7c bd 4c 3f 51 3d 15 f1 6f 3e
       -0.13869962 -0.06169466 0.051085755 0.23431809
000150 03 c6 a5 3d ff 26 2c 3e ca 47 84 be ed f1 fe bd
       0.08094408 0.16811751 -0.2583602 -0.124484874
000160 2a a5 41 bd 0e 28 a8 bd f5 2a 0b 3e 1a c3 3a 3d
       -0.047276653 -0.08210765 0.13590606 0.04559622
000170 b1 46 51 3e b4 dc a8 3d 48 f9 66 be 0f 0b ab be
       0.20437123 0.08245221 -0.22556031 -0.33406875
000180 86 9e 1b be 24 c6 ad bd b8 52 4f 3c 5c 0f c6 3e
       -0.1519719 -0.08485058 0.012653999 0.38683593
000190 9b 64 e4 3b 4c b7 2b be 78 2e 32 be 62 17 18 bd
       0.006970001 -0.16769141 -0.17400539 -0.037131675
0001a0 32 ac 8c bf b9 b4 d8 3d f2 c0 5f 3e 2f c4 73 3e
       -1.099005 0.10581345 0.21850947 0.23805307
0001b0 3b 31 44 3f 7f d2 68 bb fc 36 65 bd c4 d5 a6 bd
       0.7663762 -0.0035525856 -0.05596064 -0.08146241
0001c0 33 92 31 be 3f 8e 7b 3e e6 f7 05 3e be bb 62 bf
       -0.17340927 0.24565981 0.13082847 -0.8856772
0001d0 37 5b 3e be 8c 1e 7f be 33 fe 72 3c b4 c6 3a be
       -0.18589483 -0.24913996 0.014831114 -0.18239862
0001e0 dc 8d 32 3f 0c fc 24 be 64 74 ea be bc 4f 64 be
       0.6974771 -0.16111773 -0.45791924 -0.22296041
0001f0 2f 3d 9c 3d 5e 1e c0 bd e5 7e 27 be c5 88 dc 3e
       0.07628857 -0.09380792 -0.16357 0.43073097
000200 87 4a 30 3d 10 c2 27 be d9 22 4a be 58 c3 c4 3e
       0.043039825 -0.16382623 -0.19739856 0.38430285
000210 5b 91 00 bc 71 5e 5d bd 3f 3d 97 be af 72 0f bd
       -0.007847155 -0.054045144 -0.29538915 -0.03502148
000220 04 4d ab 3d 4e 0f 80 bd f8 4b 92 3e 19 1e 81 be
       0.08364299 -0.06252919 0.28573585 -0.25218275
000230 46 6d 96 3e 42 07 45 be 95 00 22 be e2 0d 1b 3e
       0.29380244 -0.1924105 -0.15820535 0.15142015
000240 29 cc 38 bd 78 7c 36 3c 44 1d 94 be a9 a0 d1 3e
       -0.045116577 0.011138074 -0.28928578 0.40942886
000250 d5 fb d7 bc 4b 78 b5 bd 3a 1d 62 be 47 38 37 3d
       -0.0263652 -0.08860835 -0.22081462 0.044731405
000260 be ca c5 3d 96 92 a0 3e 79 8a 79 3e 80 61 60 be
       0.09657811 0.31361836 0.2436923 -0.21912193
000270 f9 41 05 be 27 65 03 be 21 e2 48 3e a3 88 bf 3d
       -0.13013448 -0.12831555 0.19617511 0.09352233
000280 ed f4 f1 3d 0e f7 49 3e 12 83 81 3d 21 16 9b 3d
       0.11814294 0.1972315 0.06323828 0.0757258
000290 60 79 28 be 8a 46 f4 3d fb a3 eb bd 66 41 46 3e
       -0.16452551 0.11927517 -0.11505886 0.19360885
0002a0 e8 90 32 3e f7 d8 c6 3d c4 4d 40 3e 79 58 01 3e
       0.1743809 0.097093515 0.18779665 0.12631406
0002b0 77 7a e9 3d fd ac ed bb e9 56 4d bd b3 64 44 be
       0.114003114 -0.007253288 -0.050131712 -0.19179039
0002c0 10 cf ed 3c 3a 50 d0 bd a8 7f 72 be 8d ab d5 3e
       0.0290294 -0.10171552 -0.2368151 0.41732445
0002d0 08 31 4e bd 07 a5 aa bd 25 c6 33 3e ec 4e 7a be
       -0.05033973 -0.08332258 0.17556055 -0.24444169
0002e0 ef 81 d7 bd d6 89 af 3e 43 86 8b 3e 97 31 2c be
       -0.1052283 0.34284848 0.2725087 -0.16815792
0002f0 fe 1d a1 3e ac 9b 37 bb 4d c6 12 be 17 fc 17 3e
       0.31468195 -0.0028016372 -0.14333458 0.14842258
000300 f5 69 00 3e 65 ad 5a bd 35 d8 99 bd 6e 69 3b 3e
       0.1254042 -0.05338802 -0.07511941 0.18301937
000310 68 a3 46 3d c8 8b 48 be 98 0d 7f be 42 dc 8c 3d
       0.04849568 -0.19584572 -0.2490753 0.06877948
000320 94 ca b2 bd 6e 68 c7 3e 04 c5 93 3e c0 cf 4e 3d
       -0.08730045 0.3894686 0.28861248 0.050491095
000330 65 a2 91 bd 18 37 6f be 53 b1 2c bc ec e8 46 bd
       -0.071110524 -0.2336086 -0.010540324 -0.048561975
000340 44 f6 38 bd 70 6b 3d be 8b c9 51 3c 13 cf a2 3e
       -0.045156732 -0.18498015 0.012804399 0.3179861
000350 96 90 4b 3e dd 87 7b be 4f 9f 30 be 01 fa d2 3d
       0.19879374 -0.24563546 -0.17248271 0.10301591
000360 c9 67 06 be a2 0d 91 3d 79 1d f3 ba f6 48 8a bd
       -0.13125528 0.070826784 -0.0018548212 -0.067521974
000370 2f b6 97 3e 1b 7d 3c 3e bf ea 16 be 62 e8 13 3e
       0.29631183 0.18407099 -0.14737986 0.14444116
000380 57 36 12 bc da cb 48 be 81 d4 38 be 12 d7 c4 3e
       -0.008924088 -0.19609013 -0.18049814 0.38445336
000390 2a 47 b2 3e 52 0d 39 be 2e 7a d0 3d 87 90 bc bd
       0.3481992 -0.18071488 0.10179554 -0.09207254
0003a0 aa 84 32 3d b5 d4 11 3e 66 b7 94 3c d2 1b 92 be
       0.04358355 0.14241298 0.018153857 -0.2853685
0003b0 9f 77 ca 3d 60 76 a3 bd 60 72 67 be 28 f8 a6 3e
       0.09886097 -0.079815626 -0.22602224 0.32611203
0003c0 b9 b8 68 bd ea af 43 be ad 8b 35 3e f5 14 a7 3e
       -0.05681679 -0.19110075 0.17729063 0.32633176
0003d0 95 b4 71 3d b9 ae 73 be 9d 5a a0 3d 49 92 ac 3d
       0.059010107 -0.2379712 0.07829783 0.08426339
0003e0 85 32 ff 3d b8 1b 82 3e 14 45 73 3e fc 4d 71 be
       0.12460808 0.25411773 0.2375682 -0.23564905
0003f0 35 29 ee bc 05 fd 2e 3e 41 6f 4d bd e3 f6 96 3e
       -0.029072383 0.17088707 -0.050154928 0.29485235

fc2.bias f4 [32]
000000 de 03 9d be af 11 5e be ad 49 aa 3e 97 7b 24 3f
       -0.30667013 -0.21686433 0.33259335 0.64251083
000010 d3 78 8a 3e 8d 09 5d 3b 3e 12 8f 3c a6 9b 3d 3f
       0.27045307 0.0033727617 0.017464753 0.74065626
000020 48 e8 ec 3e 26 9f ec 3e 1c dc 94 3d f7 70 ac 3e
       0.46270967 0.4621517 0.07268545 0.33679935
000030 8a e3 86 3e 5c 0b f2 3e 3f be bd 3e ef 1b c1 3e
       0.26345474 0.47274292 0.3705921 0.37716624
000040 e4 da f5 3e 65 7c ab 3e 7c 78 d7 3e 3a 31 29 3f
       0.48018563 0.33493343 0.4208411 0.6609074
000050 ba 18 06 3f 3b d5 27 3e 32 ae 03 3f 89 6c 9d 3e
       0.5238148 0.16389935 0.51437676 0.30746868
000060 d7 d9 d1 3e a1 de 04 3e dd e7 ae 3e d5 cd 08 be
       0.4098651 0.12975551 0.34161273 -0.13359769
000070 27 7f c0 bd 65 be 08 3f 58 cc 35 3e d7 28 2d 3e
       -0.093992524 0.5341552 0.17753732 0.1691011

fc3.weight f4 [64, 32]
000000 8b f2 cb bd 9a f0 c5 3d 59 d2 86 bd 89 71 3a 3d
       -0.09958371 0.09665032 -0.065830894 0.04551843
000010 0b 08 53 3b 84 2d fd bc 80 dc fe bd 8f 9f 09 3e
       0.003220084 -0.030905493 -0.12444401 0.13439773
000020 50 87 08 bd d8 b2 dc 3a b7 30 27 3c 7a dc 41 3d
       -0.03333217 0.0016837968 0.010204486 0.047329403
000030 b0 0a 64 3c d6 6a 42 bd cd 48 e2 3d ef 4a f9 bd
       0.013918564 -0.047465168 0.11049042 -0.121724956
000040 a8 5e 25 be 30 e8 6b 3d a6 46 52 3b 24 af 10 be
       -0.1614939 0.057594478 0.0032085567 -0.14129311
000050 45 98 0e 3e 64 17 a6 bd 19 72 13 be 12 99 0c 3e
       0.13925274 -0.0810993 -0.14398994 0.13730267
000060 74 79 b7 bd 47 7b ea 3c f2 1a 1e be ed 7a e3 bd
       -0.08958712 0.028623236 -0.15439966 -0.111074306
000070 4c 0e f6 bd e0 de e8 bd 87 42 f0 bd e1 b3 ce bd
       -0.12014446 -0.11370635 -0.11731439 -0.10092903
000080 42 b4 05 3e d9 82 24 be ca 3d a2 be b2 d0 3d 3e
       0.13057044 -0.1606554 -0.31687766 0.18536642
000090 97 f4 e9 3d 87 3b 9d bd 16 d7 20 be 2b 1a dd 3e
       0.11423605 -0.076773696 -0.15707049 0.43184027
0000a0 dc a6 c5 bd 62 3d 78 3d aa e6 08 3e 92 63 97 be
       -0.096509665 0.060605414 0.13369241 -0.29568154
0000b0 88 c0 39 be 6a 22 c6 bc 7a b9 48 bd ef 18 9a bc
       -0.18139851 -0.024186332 -0.04900501 -0.018810717
0000c0 6a 2b c5 3d 06 bd 02 be 7f 80 d6 bd 9c d1 c5 3e
       0.09627421 -0.12767419 -0.104737274 0.38636482
0000d0 05 29 b3 3d 0a 1d a4 3d 1f 3f 54 be b1 f2 91 bd
       0.08748058 0.08013351 -0.20727204 -0.07126368
0000e0 11 bb 0e 3e 57 07 1c 3f 75 d3 1f be 2c cb 04 3d
       0.13938548 0.609487 -0.15608008 0.032420322
0000f0 23 a9 1a be 88 6e e5 3d d9 c5 6d bd 4c fe b4 bd
       -0.15103583 0.11202723 -0.05805001 -0.08837566
000100 d1 e3 36 be a4 2c cd bd 3a d9 ad be dc d7 84 3f
       -0.17860343 -0.1001828 -0.33954793 1.0378375
000110 a4 fe 4c 3e 18 12 a0 3d e5 7a 8c bd 36 ad d8 3f
       0.20019013 0.07815951 -0.06859378 1.692786
000120 7a 3a bf 3e e0 85 31 3e cf bd a0 bd 27 12 89 3e
       0.37349302 0.17336226 -0.07848703 0.26771662
000130 f9 ce 29 3e 5d 9f 61 3e 6c 0d bf 3e 10 d1 7f 3d
       0.1658286 0.22033449 0.37314928 0.062455237
000140 01 a4 94 bd f2 e9 12 3d 70 15 86 3e ef 68 c2 3f
       -0.07257844 0.03586764 0.2618823 1.5188273
000150 c4 63 77 3f ee e5 65 bc 2b 78 9b 3e ff a4 7a bc
       0.96636605 -0.01403187 0.30365118 -0.015298127
000160 26 7f fd 3d 2d fb 79 be 5c 5d db 3d 7e a9 19 be
       0.12377767 -0.24412222 0.10711166 -0.15006062
000170 f8 87 e3 bd 7a 8f 13 3e 97 ca 16 3e 8d 7c 23 3e
       -0.11109918 0.144102 0.1472572 0.15965481
000180 04 5b 7b bd b5 d4 d3 3d 4d 58 d6 be 46 c2 98 3f
       -0.061366096 0.10343305 -0.41864243 1.1934288
000190 d1 93 da 3d 02 24 ab 3e a0 fa 2b 3e 52 63 af 3f
       0.10672725 0.3342591 0.16794825 1.3702185
0001a0 f2 56 77 3e 57 45 85 3d c6 2b 20 be f7 ac 3a 3e
       0.24154261 0.06507366 -0.15641698 0.18230043
0001b0 81 55 4a 3e 36 43 3b bd 37 41 0a 3e c2 32 df 3d
       0.1975918 -0.045718394 0.1350144 0.10898353
0001c0 70 df b5 3d 83 04 7b 3e ec 65 df 3e 08 76 ae 3f
       0.08880508 0.2451344 0.43632448 1.362977
0001d0 a4 20 47 3f f0 7c 3f 3e ba 81 61 3e ac c5 74 3e
       0.7778418 0.18700004 0.22022143 0.23903531
0001e0 a0 76 26 3e 77 d7 42 bd 12 62 10 3e 41 28 0d bc
       0.1625619 -0.047568765 0.14099911 -0.008615554
0001f0 d5 7a c2 bd 0b ac 7d 3d 29 7e 5d 3e 50 90 2c 3d
       -0.094960846 0.06193165 0.21630158 0.042129815
000200 a5 44 12 be 38 ca c0 bd 61 81 0c bd 39 19 70 3d
       -0.14283998 -0.0941357 -0.034303073 0.058617804
000210 fb f7 ac bd 6f 75 29 be 49 4c 74 bd da ff c2 bd
       -0.08445736 -0.16548704 -0.059643064 -0.09521456
000220 81 57 59 bd eb fe 29 be a8 4f 79 3d b0 6e ab ba
       -0.053061966 -0.1660115 0.06086698 -0.0013079252
000230 1f 78 25 3d 05 f7 ee 3d ad e0 e8 3c a8 5b bd bd
       0.04039776 0.11668209 0.028427446 -0.09245998
000240 71 e0 c5 3c 46 07 67 3d f9 a5 0a 3b 9a 4e 8a 3c
       0.024154874 0.05640342 0.0021156056 0.016883183
000250 1c 84 89 bd f5 07 a8 bd 86 df 1d be 35 27 f2 bd
       -0.06714651 -0.08204643 -0.15417299 -0.118238844
000260 a4 cc 5e 3d 91 99 2a be 77 63 1e be ac 82 1c be
       0.05439438 -0.16660143 -0.1546763 -0.15284222
000270 d2 ba ff bc 60 57 81 3c 9c dd 0d be 4b 33 a6 bd
       -0.031217013 0.015788734 -0.13854069 -0.08115252
000280 29 39 43 bd af 49 2a be 9d 9d 05 bf b6 81 62 3f
       -0.047661934 -0.1662967 -0.52193624 0.88479173
000290 a5 cf 22 3d 12 42 97 3e c3 26 6d 3e fd 51 bc 3f
       0.039748807 0.29542595 0.23159318 1.4712521
0002a0 30 5b 8f 3e 15 eb 96 3e 62 1e 32 be 43 0d b2 3e
       0.27999258 0.29476228 -0.17394403 0.34775743
0002b0 3f af 62 3e 6b 75 3d 3c 73 c2 2c 3e f2 54 28 3d
       0.22137164 0.011563639 0.16871051 0.041096635
0002c0 4a 82 e1 3b 24 cb 83 3e 36 49 05 3e 10 a2 b9 3f
       0.0068819867 0.25740921 0.13016209 1.4502583
0002d0 c8 67 36 3f 50 15 5c 3e 43 38 1b 3e 0c e7 41 3e
       0.7125211 0.21492505 0.15158181 0.18935794
0002e0 a9 7f 4f 3e 7b 67 36 be 4e c6 f1 3d 71 bc 17 be
       0.20263542 -0.17812912 0.11805402 -0.14817978
0002f0 b3 b6 82 3c 4c 28 41 3c 1f 07 52 3e 04 c1 99 bc
       0.015956258 0.011789393 0.20510529 -0.018768795
000300 88 47 e2 3d 60 9e 9b bd 92 e1 c4 bd 7d bb aa bd
       0.110488 -0.07598567 -0.096133366 -0.08336542
000310 91 b7 8a bd e1 93 11 3e f3 1d 48 bd bd 4a e6 bd
       -0.06773294 0.14216568 -0.048856687 -0.11244724
000320 75 12 62 3d 8c 4c f6 bb 6b 7a 09 be e0 2e 7b 3d
       0.055193383 -0.0075164493 -0.13425605 0.061324
000330 bd fd 27 be 95 d3 fd bd b9 7d 03 3e 0c 79 37 bc
       -0.16405387 -0.12393872 0.12840928 -0.011198293
000340 1a e4 2f be 31 d6 af 3d 3c 80 c3 3a 12 82 1d be
       -0.17176858 0.08585776 0.0014915536 -0.15381649
000350 56 fe 8f 3d fa cc c8 bc 16 90 97 3d 97 6a f9 bd
       0.070309326 -0.024511803 0.07400529 -0.121785335
000360 73 2c d5 bd 28 0d 8e bd 18 05 37 bd 12 a5 f5 bd
       -0.10408869 -0.06936103 -0.044682592 -0.11994375
000370 59 3f fa 3d fd 73 3f 3d d6 cc 0e bd 23 a9 3b be
       0.12219114 0.046741474 -0.034863316 -0.1832624
000380 3e 3a a6 3d 59 56 17 3b 1c 4b d8 bc 11 6d 0e 3e
       0.081165776 0.0023092239 -0.026403002 0.13908793
000390 87 45 ed 3d 41 72 ef bd f2 6d 32 3c 5a 83 78 bd
       0.11585527 -0.11691714 0.010890471 -0.06067214
0003a0 c5 35 e4 bd b9 5c 01 3e 95 a3 a1 bd 85 3f fd 3d
       -0.11143068 0.12633027 -0.07892529 0.12365631
0003b0 6c 6a 87 bd b4 3b 0d be 73 0a 2d be c9 72 0a be
       -0.06612095 -0.13792306 -0.16898517 -0.1352035
0003c0 78 dc 19 be c7 b1 1d 3e 9c 30 05 bd 28 ec b1 3d
       -0.15025508 0.15399848 -0.03251706 0.08687621
0003d0 d4 6b e8 3d cf b6 9b 3d f9 e3 6f bd 70 d1 53 bb
       0.113486916 0.07603227 -0.05856702 -0.003232088
0003e0 65 3e 33 be 55 6b 04 be 39 bb 68 ba bb 0d 2c 3e
       -0.1750427 -0.12931569 -0.0008877996 0.16802113
0003f0 59 8e f4 bd 65 2b a1 bd c8 c0 ee bd 10 38 5e 3d
       -0.11941213 -0.07869605 -0.11657864 0.054252684

fc3.bias f4 [64]
000000 d8 3b 03 be 1f a9 43 3e a8 d6 a9 3e a8 2f 2e 3e
       -0.12815797 0.19107483 0.33171582 0.17010367
000010 70 b3 10 be a2 43 a8 3e 57 7c f0 3d 9f bd 15 bd
       -0.1413095 0.328641 0.11742466 -0.03655779
000020 92 f3 93 3e 3f 30 3f 3e f2 82 2f 3e 83 f3 44 3e
       0.28896767 0.18670748 0.17139795 0.19233517
000030 6e 84 e5 be f1 aa 2c bd 88 b1 0d 3e ab e6 24 3e
       -0.44827598 -0.04215521 0.13837254 0.16103618
000040 18 1f f3 bd b1 b6 f5 3d 9e b9 c3 bd be 94 cc 3e
       -0.11871165 0.11997736 -0.09556888 0.3995723
000050 24 32 9d bd 94 d5 8d 3e e4 10 32 3e 43 f3 1c bc
       -0.07675579 0.2770201 0.17389256 -0.0095794825
000060 52 53 81 bd 1b 9a 94 3d 7c a5 b5 bc d1 5a a1 be
       -0.0631472 0.07255956 -0.022173636 -0.315146
000070 d2 39 39 3e 0c c5 4c 3e 31 43 73 3e 6c 80 af 3e
       0.18088463 0.19997042 0.237561 0.34277666
000080 12 47 8a 3d ca 8c 8f 3d d9 e4 a3 3e 57 e0 94 3e
       0.06751837 0.07009275 0.32010534 0.29077408
000090 1c 78 d6 3e eb aa 67 3d 9a ac d9 bd 06 9b b1 3d
       0.4188851 0.056559484 -0.10628624 0.086721465
0000a0 e2 83 84 3d 35 4e bd 3e 8f 2f a0 3e 24 4b 91 3e
       0.06470467 0.3697373 0.31286284 0.2837764
0000b0 10 fe 59 3e 8a 9b 85 3c 00 04 8c 3b 21 7b 7f 3d
       0.21288323 0.016309518 0.004272938 0.062373284
0000c0 67 c9 f3 bd 76 db 0b 3e 41 b9 c9 3d e5 9f 8e 3e
       -0.11903649 0.13657936 0.098497875 0.27856365
0000d0 17 2c b7 3e f4 6a 3f 3d ae eb 86 3e 77 b9 50 3e
       0.35775825 0.046732858 0.26351684 0.20383249
0000e0 27 e1 25 3e 29 1b 78 3e 46 c8 0c 3e 93 9a 18 3e
       0.1619917 0.24229111 0.13748273 0.14902715
0000f0 aa 96 9c 3d 43 7b 51 be 3f 38 22 be 82 7d 1d 3e
       0.076459244 -0.20457177 -0.15841769 0.15379909

fc4.weight f4 [3, 64]
000000 bc b7 b3 3d 9d f8 b2 3e 7a 01 d8 be 4b 67 34 be
       0.08775279 0.34955302 -0.42188627 -0.17617528
000010 23 83 c5 3c e3 e1 72 be 60 c0 44 bc 0e 03 32 3d
       0.024110382 -0.23718981 -0.012008756 0.043459944
000020 d7 b4 de be c3 48 06 3f 8b 84 cf be 41 f4 c9 be
       -0.43497345 0.52454776 -0.4053081 -0.39444163
000030 68 65 33 bd 6a 85 26 3e a6 65 8b 3d dd 85 bb be
       -0.04379788 0.16261831 0.06806497 -0.36625567
000040 0a 45 80 3d 48 6c c0 be 3b 58 8a 3d 5e 6d 89 be
       0.06263168 -0.37582612 0.0675511 -0.26841253
000050 a3 19 3f 3d f1 5a 5c be 3d dc 91 be e9 65 ce 3e
       0.04665531 -0.21519066 -0.2848834 0.40312126
000060 27 e7 90 bd 29 51 6b be b1 ad af 3d 18 33 38 3e
       -0.07075339 -0.22980179 0.08578051 0.1798824
000070 d7 4c f8 be 5e 73 b0 be 76 67 e6 be 8c 68 7e be
       -0.48496124 -0.34463018 -0.4500081 -0.24844569
000080 5f 8c 54 3e b4 12 4c 3d d6 03 c2 be ce 0a 78 be
       0.20756672 0.049822524 -0.37893552 -0.24222872
000090 1c d9 75 be 98 fa 6b 3e cc a3 32 bd 22 ee 84 be
       -0.24008602 0.23044813 -0.04361324 -0.2596293
0000a0 c0 e7 36 be 24 ee 45 bf 1a 9e c8 be 82 73 6a be
       -0.17861843 -0.773165 -0.39183122 -0.22895625
0000b0 4a ab a5 be 79 ae c6 bd 40 f1 13 be e3 0a a8 3d
       -0.32357246 -0.09701247 -0.14447498 0.082052015
0000c0 6d 95 09 3c 05 01 a0 3d b6 a8 f5 bc 70 3d c8 be
       0.008397442 0.078126945 -0.029987674 -0.39109373
0000d0 d9 d6 9d be 87 a4 da 3d ba 3e 80 be 0a 41 20 be
       -0.30827978 0.10675912 -0.25047857 -0.1564981
0000e0 9d 0a 92 be 8b 14 0d 3c 20 d8 ba be 4c 66 25 3d
       -0.28523722 0.008610855 -0.36493015 0.04038076
0000f0 06 ed 62 3d 0d c9 db bb e0 9b 63 3d 10 e7 82 be
       0.055401824 -0.0067073167 0.055568576 -0.25566912
000100 46 9e 9b 3d 51 a3 a7 3e 29 96 f2 be 86 79 81 be
       0.07598548 0.32741788 -0.47380188 -0.25288028
000110 97 ec 82 3b 6d 63 de be b0 9c 98 3d 8f 30 e6 3d
       0.003995489 -0.4343523 0.07451761 0.112397306
000120 1a 5f db be 92 39 38 3f 3a 32 c4 be 2b 27 c4 be
       -0.42845994 0.71962845 -0.3831957 -0.38311133
000130 a4 22 9a bf fe 18 27 3e 74 24 e3 bd b0 52 92 be
       -1.2041821 0.16318128 -0.11090937 -0.2857871
000140 10 cd e9 bd 7f 04 85 be a9 9e 61 bd a7 43 4f be
       -0.11416066 -0.25979993 -0.05508295 -0.20240651
000150 54 22 b0 bd 54 97 35 be 6f c8 aa be 0a be dc 3e
       -0.086002976 -0.17733508 -0.33356044 0.43113738
000160 84 0f 22 3f a4 78 b8 be 46 05 aa 3d 93 77 94 be
       0.63304925 -0.36029541 0.08301787 -0.28997478
000170 ba 4f 4f be b9 7a 94 be cf b5 91 be 7c 2d 3c be
       -0.20245257 -0.2899988 -0.2845902 -0.18376726
000180 2f 6d 91 be 7c 65 55 3d 7a 4c 3c be bc ef 1a be
       -0.28403613 0.052098736 -0.18388548 -0.15130514
000190 ab d0 5b be f3 89 a3 bd eb 43 36 3e 75 0a c9 be
       -0.2146632 -0.07985296 0.17799346 -0.3926579
0001a0 00 7d a4 be 40 fb ad 3f 92 e3 61 be 40 8e 97 be
       -0.32126617 1.35923 -0.22059467 -0.29600716
0001b0 f5 43 da be f8 f1 0f 3f 32 f1 80 be 53 24 7b bd
       -0.42629972 0.5622859 -0.25184017 -0.06131394
0001c0 6d a9 86 3d e3 f8 dd 3d bd cd 03 3f 9b c3 68 be
       0.06575284 0.10838487 0.51485807 -0.22730868
0001d0 8f 10 c0 be 4f 46 f0 3d 1e 9a d5 be 6d 02 26 be
       -0.37512633 0.1173216 -0.41719145 -0.16211863
0001e0 78 94 e5 be c0 f9 65 be f9 3b a2 be 2d 37 a4 3d
       -0.44839835 -0.22458553 -0.3168638 0.080183364
0001f0 b8 11 d9 3c 28 d9 dd be 6c f5 ce 3d 2c 90 b4 be
       0.026497707 -0.4332974 0.10105404 -0.35266244
000200 60 a6 51 bd 29 b9 0a be 00 66 e4 be 28 a0 9f be
       -0.05118406 -0.13547195 -0.4460907 -0.31176877
000210 1e d9 cb bd ea 09 bb be 0a 3d ab 3d e0 1c c4 bd
       -0.09953521 -0.36531 0.08361252 -0.0957582
000220 0f d5 66 be dc 58 0a 3d b2 fe c2 be d9 c2 cd be
       -0.22542213 0.03377615 -0.38084942 -0.4018772
000230 34 b4 6f 3e 95 4c 8e 3c c8 2e 2f 3d c5 01 86 be
       0.23408586 0.017370502 0.042769223 -0.26173225
000240 e5 0e ef bb 91 c6 b1 be 00 91 e3 3d e7 55 63 be
       -0.0072954767 -0.34721807 0.11111641 -0.22200738
000250 1a 60 cc 3d f8 29 8d be a2 dd a6 be 00 96 10 3e
       0.099792674 -0.27571082 -0.32590967 0.1411972
000260 1b 99 4a 3d a2 f7 c4 bd e5 c9 81 bd 7c e0 1c 3e
       0.04946242 -0.09617545 -0.063373365 0.15320009
000270 9e 79 ac be 4b 1f 8c be bd 98 98 be d1 4d 82 be
       -0.33686537 -0.27367625 -0.2980403 -0.25449994
000280 85 fc ea 3d c3 f7 b8 bc 37 01 aa be 68 b8 c1 be
       0.114739455 -0.02257908 -0.33204052 -0.37836003
000290 3b 3c 7b be 7d d9 ae 3d 1b 8e f6 bc 6d 9a 99 be
       -0.24534695 0.08537576 -0.030097058 -0.3000063
0002a0 1c b5 01 be 29 b1 f3 3e e8 3e d2 be 72 84 51 be
       -0.12666744 0.475961 -0.4106362 -0.2046068
0002b0 7a 64 c6 be 00 0b b3 3d 95 64 a8 be 8a dc 30 3e
       -0.38748533 0.087423325 -0.32889238 0.17271629
0002c0 08 af 33 3e 95 c0 dd 3d ef d8 60 3d 97 01 2c be
       0.17547238 0.10827748 0.054894384 -0.16797481
0002d0 81 8e 8e be dd 0c ab 3d e9 bc 59 be 8e 51 cb be
       -0.27843097 0.08352063 -0.2126347 -0.3971066
0002e0 94 5b 34 be 5b c4 0d 3e 74 bf 91 be 55 c0 c5 3d
       -0.1761306 0.13844435 -0.2846638 0.09655825
0002f0 b0 53 ad bd 9c 7d ad be a4 a6 72 3e df 04 51 be
       -0.08463228 -0.33884895 0.23696381 -0.20412014

fc4.bias f4 [3]
000000 9f 4f 4e be eb 09 af bc c8 bd c6 bd
       -0.2014756 -0.021367034 -0.09704167
