simul.pt (torch, 14504 bytes, 8 tensors)

fc1.weight f4 [16, 5]
0	0xbe8d0be1	-0.27548125
1	0xbe4dc27f	-0.20093726
2	0xbe86560a	-0.26237518
3	0x3b3292d0	0.0027248152
4	0x3d824e80	0.06362629
5	0x3ef0989b	0.4699143
6	0x3d4b5dd2	0.04965002
7	0x3ed09d13	0.40744838
8	0xbc5a12d3	-0.013310152
9	0xbf4d32f9	-0.80155903
10	0xbdd1ec05	-0.10250095
11	0xbdda508c	-0.10659894
12	0xbe7e1c5f	-0.2481551
13	0xbd2f643a	-0.042820193
14	0xbe3cf1bc	-0.1845159
15	0xbe8e51af	-0.27796695
16	0x3eafe512	0.34354454
17	0x3e72e0a1	0.23718502
18	0xbc828d2a	-0.015936453
19	0x3f01bec7	0.5068173
20	0xbf1a9518	-0.6038375
21	0x3f2650bf	0.6496696
22	0x3da9b115	0.08285729
23	0xb9e9f057	-0.0004462029
24	0xbe132386	-0.1436902
25	0x3ec3cc25	0.38241687
26	0x3efaaf53	0.48961887
27	0x3f16e313	0.5894024
28	0xbc13874b	-0.009004424
29	0x3e426590	0.18984056
30	0x3e0e9f5e	0.13927981
31	0x3ef8c015	0.48584047
32	0x3e89930e	0.26870006
33	0x3dd6224f	0.104557626
34	0x3edb595c	0.42841613
35	0xbe98fe1f	-0.2988138
36	0x3e756f4a	0.23968235
37	0xbe05c00d	-0.13061543
38	0xbc8b8845	-0.017032752
39	0xbcc5c90c	-0.024143718
40	0x3e901945	0.2814428
41	0xbd187a9d	-0.037226308
42	0xbdfd7627	-0.123760514
43	0xbd8cee57	-0.06881397
44	0x3e061192	0.1309264
45	0xbea45722	-0.32097727
46	0x3e6ab275	0.22919638
47	0xbd118e2c	-0.035535976
48	0x3c10fcdc	0.008849349
49	0x40205eca	2.5057855
50	0xbcb730b4	-0.02236209
51	0xbe230d43	-0.15923028
52	0x3e09af35	0.13445742
53	0xbe8ba5ec	-0.27275026
54	0xbdd5c638	-0.10438198
55	0x3eee8a2f	0.465898
56	0xbeeebb61	-0.46627334
57	0xbd4f3b65	-0.050593752
58	0x3aa430f9	0.0012526802
59	0x3f36ede2	0.7145673
60	0xbe85f5f6	-0.26164216
61	0x3e1430ec	0.14471787
62	0xbd41d3c6	-0.047321104
63	0xbbc0d81f	-0.0058851386
64	0x3d3d206a	0.04617349
65	0xbc1e8df1	-0.009677396
66	0x3e64ee44	0.22356516
67	0xbdc82625	-0.097729005
68	0xbd73abc5	-0.059489984
69	0xbcf5ecae	-0.030020084
70	0x3c8c99ff	0.017163275
71	0xbe37e038	-0.17956626
72	0xbe1ce674	-0.15322286
73	0xbb44705d	-0.00299742
74	0x3caa9089	0.020820873
75	0x3ddb70a4	0.10714844
76	0x3e00bbe2	0.12571672
77	0xbe57d144	-0.21075922
78	0xbdc5b1cb	-0.09653052
79	0xbee660d0	-0.44995737

fc1.bias f4 [16]
0	0x3e1f7804	0.15573126
1	0x3eae687f	0.340641
2	0x3d8e75ff	0.069561
3	0x3d821e44	0.06353429
4	0x3f39bb11	0.72551066
5	0x3ed2d550	0.4117837
6	0xbdb3b722	-0.08775164
7	0xbe8f54c8	-0.2799437
8	0x3d851185	0.06497482
9	0x3e6e2b54	0.23258716
10	0xbe50a116	-0.2037395
11	0xbe9575f6	-0.2919156
12	0xbdeb211c	-0.114809245
13	0xbe035b59	-0.12827815
14	0xbe22cb09	-0.15897764
15	0x3c98579d	0.018596465

fc2.weight f4 [32, 16]
0	0xbd964d42	-0.073389545
1	0xbe3b464d	-0.18288536
2	0x3a0f5235	0.0005467267
3	0x3e26950f	0.16267799
4	0x3eb43c2f	0.35202166
5	0x3e109ec0	0.14123058
6	0x3c26c048	0.010177679
7	0xbd10a9b1	-0.03531808
8	0xbe8ba2b0	-0.27272558
9	0x3d2e4f0c	0.042555854
10	0xbe06ba9b	-0.13157122
11	0xc0096e74	-2.1473665
12	0xbe55d858	-0.2088331
13	0x3eb3abce	0.35092014
14	0x3df99dac	0.12188277
15	0x3e5dfb2b	0.21677844
16	0x3d9c88ac	0.076432556
17	0xbec9415f	-0.39307687
18	0xbda78018	-0.08178729
19	0x3e9cc03d	0.30615416
20	0xbec8d6cc	-0.39226377
21	0x3e2749a6	0.16336688
22	0x3dce96a2	0.10087325
23	0x3e1fee56	0.15618262
24	0xbdda0fdf	-0.106475584
25	0x3e6c3ff6	0.23071274
26	0xbda2c7ff	-0.079483025
27	0x3eee27eb	0.4651483
28	0x3e382728	0.17983687
29	0x3d7bcb3f	0.061473127
30	0x3d1d05ba	0.03833554
31	0xbd0c4915	-0.034249384
32	0xbda29194	-0.07937923
33	0x3d3a867e	0.045538418
34	0xbd28d7ce	-0.041221432
35	0xbc8daa7b	-0.017293205
36	0x3e8dd1f5	0.27699247
37	0x3e941d89	0.28928784
38	0x3dd6f453	0.1049582
39	0xbe52abc2	-0.20573333
40	0xbd8d94fc	-0.06913182
41	0xbe55b3b1	-0.20869328
42	0x3df3a253	0.11896195
43	0xbe8d350b	-0.2757953
44	0xbed1ac6e	-0.40951866
45	0x3dd89a51	0.105763085
46	0x3e08cb43	0.13358788
47	0x3d82ad32	0.06380691
48	0x3dea7d4e	0.11449681
49	0x3d1c10c9	0.038101945
50	0xbe322494	-0.17396766
51	0x3da8dd65	0.08245353
52	0xbd0cebbe	-0.03440451
53	0xbe041720	-0.12899446
54	0xbdf03a1d	-0.11729834
55	0xbcc0d424	-0.023538657
56	0xbd7b9888	-0.061424762
57	0x3d1b0632	0.037847705
58	0xbd698713	-0.057013582
59	0x3d1cf893	0.038322996
60	0xbd997309	-0.07492644
61	0xbde32584	-0.1109114
62	0xbd5724fd	-0.05252551
63	0x3da94a42	0.08266117
64	0x3dad9fe7	0.084777646
65	0x3d1ac880	0.037788868
66	0x3be486e1	0.0069740866
67	0xbd810382	-0.06299497
68	0x3e0519a2	0.1299806
69	0x3d4dd0f7	0.050248113
70	0xbe2aaf8e	-0.16668531
71	0xbe26911d	-0.16266294
72	0xbd20bd3f	-0.03924298
73	0xbd87ed0c	-0.0663701
74	0xbbc46d67	-0.005994487
75	0xbdb683bd	-0.08911846
76	0xbd5af41f	-0.05345547
77	0xbcffa948	-0.03120865
78	0x3df5fe0e	0.12011348
79	0xbd77a1ee	-0.060457163
80	0x3df0de27	0.11761122
81	0xbd5b3ae2	-0.053522952
82	0xbe2cf7f1	-0.16891457
83	0xbe1863cf	-0.14881824
84	0xbf4958af	-0.78650945
85	0xbd30ae0b	-0.04313473
86	0x3e083461	0.13301231
87	0xbe3e04f7	-0.18556581
88	0xbe2a017e	-0.16602132
89	0xbf28b3de	-0.65899456
90	0xbe0a1167	-0.13483201
91	0x3f393593	0.7234737
92	0xbea26bc3	-0.3172284
93	0xbe5b103f	-0.21392916
94	0x3d2b9e7f	0.0418992
95	0xbd94ada7	-0.07259684
96	0x3db9db51	0.090750344
97	0xbd8fb343	-0.07016613
98	0xbc2e7f56	-0.010650476
99	0xbda3fde0	-0.08007407
100	0xbe031275	-0.1280001
101	0xbba626cc	-0.005070543
102	0xbd1f578f	-0.03890186
103	0xbd5502fb	-0.052004796
104	0xbd74eeb7	-0.05979797
105	0xbd8ab3c3	-0.06772568
106	0xbdad4a18	-0.08461398
107	0xbe07849c	-0.1323418
108	0x3d3f2275	0.04666372
109	0x3cf9b098	0.030479714
110	0xbdd46e81	-0.103726394
111	0x3d7c6504	0.061619774
112	0x3bb93bd4	0.005652884
113	0xbe995dc4	-0.2995435
114	0xbe1e63dc	-0.15467781
115	0x3e89f279	0.26942804
116	0xbe9b9a1f	-0.30391023
117	0x3e5dca9e	0.21659324
118	0xbcc37a6e	-0.02386209
119	0x3d904fac	0.07046446
120	0xbe88eb7e	-0.26742166
121	0xba615eb3	-0.000859718
122	0xbdaa137a	-0.08304496
123	0xbf164e55	-0.58713275
124	0xbd1b21b7	-0.03787395
125	0x3e38edbf	0.18059443
126	0xbd238c41	-0.03992868
127	0x3e604ec6	0.2190505
128	0xbe16c12a	-0.14722124
129	0x3e316b31	0.17326047
130	0xbe174c51	-0.14775206
131	0xbdae1aca	-0.08501203
132	0x3ea12339	0.31472185
133	0x3e809672	0.2511478
134	0x3d4d4dc6	0.050123
135	0xbe2005f9	-0.15627278
136	0xbe9429c9	-0.2893813
137	0xbe49387b	-0.19650452
138	0xbe16a421	-0.14711048
139	0xbf893d5f	-1.0721854
140	0xbe83972d	-0.25701275
141	0x3e2bdb1e	0.16782805
142	0x3d9a71df	0.075412504
143	0x3d9167d5	0.070998825
144	0xbc9e368f	-0.019313125
145	0xbdc5f574	-0.09665957
146	0xbd927255	-0.07150713
147	0xbe37a7b4	-0.17935067
148	0xbe1733e3	-0.14765887
149	0x3c329987	0.010900862
150	0xbbd6e265	-0.00655775
151	0xbe57d6d0	-0.21078038
152	0xbd53c0ae	-0.051697426
153	0xbdb9fd40	-0.09081507
154	0xbdc7a7ff	-0.097488396
155	0xbe84901f	-0.25891206
156	0xbeacc0d8	-0.33740878
157	0xbd96fc7f	-0.073723786
158	0x3e045c10	0.12925744
159	0x3e151d96	0.14562067
160	0x3c85510d	0.016274
161	0xbd54470f	-0.05182558
162	0xbe736ec1	-0.23772718
163	0x3dabfd91	0.08397973
164	0xbfb686fb	-1.4259943
165	0x3dcd9ac0	0.10039282
166	0x3d19e01c	0.037567243
167	0xbe88dc46	-0.26730555
168	0x3e2f5a1e	0.1712422
169	0xbf12825d	-0.5723017
170	0xbdaa5261	-0.08316494
171	0x3f1c25ab	0.60994977
172	0xbe96ad04	-0.29428875
173	0xbdc588af	-0.09645211
174	0xbd8daee8	-0.06918126
175	0xbe26306c	-0.16229409
176	0x3cc7fd26	0.024412703
177	0xbdfa1fc0	-0.12213087
178	0xbc659b5d	-0.014014092
179	0xbd641879	-0.0556874
180	0xbe19d5c4	-0.15022951
181	0xbcc5e355	-0.024156252
182	0xbd4a2ec3	-0.049361
183	0xbe1f9864	-0.15585476
184	0xbd89cd45	-0.06728605
185	0x3ce6bf6a	0.028167445
186	0x3ce82ca6	0.028341603
187	0xbaa7eae6	-0.0012811094
188	0x3c47fe1a	0.012206579
189	0xbdf62744	-0.12019208
190	0xbdd1b3c7	-0.10239368
191	0x3cc9bc8d	0.02462604
192	0x3cf621f4	0.030045487
193	0xbe5dc6df	-0.21657895
194	0xbe029b83	-0.12754636
195	0x3cc53afe	0.024075981
196	0x3ef1cbfe	0.47225946
197	0x3c30ef1b	0.010799195
198	0x3dc4b6a0	0.096051455
199	0xbe522b5b	-0.20524351
200	0xbe6bee64	-0.23040158
201	0xbe406416	-0.1878818
202	0xbdad794f	-0.084704034
203	0xbeb3ccb3	-0.3511711
204	0xbe049f19	-0.12951316
205	0x3e636dc2	0.22209838
206	0xbcdc8a64	-0.026921459
207	0x3dae2f08	0.08505064
208	0xbd1408c9	-0.03614119
209	0x3e51a2d9	0.20472278
210	0x3d34cf02	0.04414273
211	0xbd95f5e4	-0.073222905
212	0xbf8b5d89	-1.088792
213	0xbcc19bfe	-0.023633953
214	0xbdba0f5a	-0.09084959
215	0xbe8b620a	-0.27223235
216	0xbdc1c496	-0.09461324
217	0xbfa72621	-1.3058511
218	0x3e246ead	0.16057844
219	0xbe3b6a9a	-0.18302384
220	0xbe33e8b4	-0.17569238
221	0xbc29ea7b	-0.010370846
222	0x3d2244ad	0.039616276
223	0x3dab0527	0.08350592
224	0x3d18b0b5	0.037277896
225	0x3e261afb	0.1622123
226	0xbec18c54	-0.37802374
227	0xbd6c0416	-0.057621084
228	0x3e9f0a0d	0.31062356
229	0xbdf73b71	-0.120718844
230	0xbb4eff8f	-0.003158543
231	0xbe998ef9	-0.29991892
232	0xbe2cc915	-0.16873582
233	0xbf1a0559	-0.6016441
234	0xbe59e096	-0.21277079
235	0xbead3172	-0.33826786
236	0xbeaa8677	-0.33305714
237	0xbe32ec8a	-0.17473045
238	0x3da8124f	0.08206617
239	0x3bded652	0.0068004513
240	0xbce40a08	-0.027836815
241	0xbd3a4ca0	-0.04548323
242	0xbe1554b2	-0.1458309
243	0x3d6c5c14	0.057705
244	0xbc8baec3	-0.017051106
245	0xbd1a02cb	-0.03760032
246	0xbd5f8388	-0.054568797
247	0xbdbf28b5	-0.09333936
248	0xbe2c18ec	-0.16806382
249	0xbd9000a9	-0.07031376
250	0xbc55a46a	-0.013039688
251	0xbd2351b6	-0.039872847
252	0x3d9b7ee7	0.07592564
253	0x3d8cc4c1	0.06873465
254	0xbdf56d4d	-0.11983738
255	0x3ce55c65	0.027998159

fc2.bias f4 [32]
0	0x3eb70fe6	0.35754317
1	0xbf42ab11	-0.76042277
2	0x3f1bda9d	0.6088045
3	0x3dcb59d6	0.09929244
4	0xbd915e3a	-0.070980504
5	0x3f3bdbdb	0.7338235
6	0x3d8c1587	0.068400435
7	0xbead863f	-0.33891484
8	0x3f086e52	0.53293335
9	0x3f089164	0.5334685
10	0x3f303beb	0.6884143
11	0xbd18b481	-0.037281517
12	0x3d9be12c	0.076113075
13	0x3db6eaa7	0.08931475
14	0x3e8773c3	0.26455507
15	0xbe23608c	-0.15954798
16	0x3e74526d	0.23859568
17	0x3ef80900	0.48444366
18	0x3db0d189	0.08633716
19	0xbe3d9f64	-0.18517834
20	0x3d84eec0	0.064908504
21	0xbf5cbe5c	-0.86227965
22	0xbd7c3aef	-0.06157964
23	0xbdfaa903	-0.12239268
24	0x3e32a345	0.17445095
25	0x3f7a1653	0.97690314
26	0xbf42e498	-0.76130056
27	0xbe0fbe42	-0.14037421
28	0xbe05ac2a	-0.13053957
29	0x3dceaf52	0.100920334
30	0x3f3d5a57	0.7396597
31	0xbd99b660	-0.075054884

fc3.weight f4 [64, 32]
0	0x3ebc02e0	0.36720943
1	0xbeaf5b3c	-0.34249294
2	0x3ceeafbb	0.02913653
3	0x3cde6ffb	0.027153006
4	0xbe1eb213	-0.15497617
5	0x3f092f4c	0.53587794
6	0x3e06ae7d	0.131525
7	0xbeb442fb	-0.35207352
8	0x3d5c00a3	0.053711545
9	0x3dbe194d	0.092821695
10	0x3eabf9b0	0.33588934
11	0xbe097d1d	-0.13426633
12	0xbdd8dd5e	-0.105890974
13	0xbe837129	-0.25672272
14	0x3c44443d	0.01197916
15	0x3d85a8a4	0.06526306
16	0x3e9a676f	0.3015704
17	0xbb47a100	-0.0030460954
18	0x3d4936a0	0.04912436
19	0xbddd53a2	-0.10806967
20	0x3c68252e	0.014169021
21	0xbeebd8f6	-0.46063966
22	0xb97cf6f6	-0.00024124593
23	0x3d9795a5	0.07401589
24	0xbdbff8f4	-0.09373656
25	0x3e5bfafb	0.2148246
26	0xbed35f5f	-0.412837
27	0x3d94eb5a	0.07271452
28	0xbdaaf3c6	-0.08347277
29	0xbf021dc5	-0.50826675
30	0xbde36cad	-0.11104713
31	0xbed1ffd3	-0.4101549
32	0x3db26b20	0.08711839
33	0xbddc449f	-0.10755276
34	0xbda5844b	-0.080818735
35	0x398e06d7	0.00027089447
36	0xbd9b9c4e	-0.07598172
37	0xbd16d3c3	-0.036823045
38	0x3d3ce138	0.046113223
39	0x3cd418bd	0.025890702
40	0xbdc44b41	-0.09584666
41	0xbb548b3f	-0.003243163
42	0xbd60b2d4	-0.054858044
43	0x3aa59938	0.0012634164
44	0x3cc0898e	0.023503091
45	0xbb91856d	-0.0044409544
46	0xbdaff46b	-0.08591541
47	0xbd693a42	-0.056940325
48	0xbdc3ac4e	-0.09554349
49	0xbdee61e2	-0.116397634
50	0x3cf25e30	0.029585928
51	0xbdd900c5	-0.1059585
52	0xbdd46ffe	-0.10372923
53	0xbdf15b26	-0.11784963
54	0xbe05ba7c	-0.1305942
55	0x3d913e10	0.070919156
56	0xbd4eae1b	-0.05045901
57	0x3c9a91e5	0.018868396
58	0xbd8f949f	-0.07010769
59	0xbc37e2a3	-0.011223468
60	0x3cc38b6c	0.023870192
61	0x3c56d5d0	0.0131125
62	0x3d027aea	0.0318555
63	0x3d3f6321	0.046725396
64	0xbdf3dab3	-0.11906948
65	0xbcafae31	-0.021445366
66	0xbd5981f1	-0.053102437
67	0x3cbec128	0.023285463
68	0xbd808b46	-0.06276564
69	0xbd4de850	-0.05027038
70	0x3aea21a7	0.0017862812
71	0xbe3b3ab8	-0.18284118
72	0xbe206f4d	-0.15667458
73	0x3d78eb9f	0.06077158
74	0xbd15ac3d	-0.036541212
75	0xbbdaba80	-0.0066750646
76	0x3d3fbf48	0.04681328
77	0xbcb3c71c	-0.021945529
78	0xbdb6ddd3	-0.08929028
79	0x3dbd4c72	0.092430964
80	0xbd86a8a8	-0.065751374
81	0xbd1d5782	-0.038413532
82	0x3d93789e	0.0720074
83	0xbd8db7e4	-0.0691984
84	0xbdf78f43	-0.12087872
85	0xbc7b5dcc	-0.015342187
86	0xbdb7802d	-0.089599945
87	0xbc46729c	-0.012112286
88	0xbe326cbc	-0.17424291
89	0xbdd82c5e	-0.10555337
90	0xbd554d7e	-0.052075855
91	0xbdb88f1a	-0.090116695
92	0xbd8ed71d	-0.06974623
93	0x3d6bb5c2	0.057546385
94	0xbd8acd55	-0.06777445
95	0x3c4f3cba	0.012648756
96	0x3f0bef57	0.5466208
97	0xbee0bfb8	-0.4389627
98	0x3da15e94	0.078793675
99	0xbbfba654	-0.00767974
100	0x3c88f040	0.016716123
101	0x3da88ae8	0.08229619
102	0xbd2cbc81	-0.04217196
103	0xbeabd545	-0.3356115
104	0x3e5cfd28	0.21580946
105	0x3d6b474b	0.057441037
106	0xbd14c8d4	-0.036324337
107	0x3db1b740	0.0867753
108	0xbd5fbf99	-0.05462608
109	0xbf2ba6e4	-0.6705153
110	0xbd9996e9	-0.07499487
111	0x3d7b9c04	0.061428085
112	0x3e8ac2f0	0.2710185
113	0xbd76dd0b	-0.060269397
114	0xb729f965	-1.0131252e-05
115	0xbe994e6d	-0.29942647
116	0x3e930c85	0.2872049
117	0xbeccd2df	-0.40004632
118	0x3e0ac937	0.1355332
119	0xbcf18b14	-0.029485263
120	0x3d2b5064	0.041824713
121	0x3dd61677	0.104535036
122	0xbe845dd5	-0.25852838
123	0xbd93cb61	-0.07216526
124	0xbd276fb5	-0.040878017
125	0xbf619fa1	-0.881342
126	0xbcd97495	-0.026544848
127	0xbf043339	-0.5164066
128	0x3f175157	0.5910849
129	0xbed70d16	-0.4200217
130	0xbbff42d8	-0.007789951
131	0xbcc1a1d1	-0.02363673
132	0xbdc66a1b	-0.09688207
133	0x3e04654b	0.12929265
134	0xbd2db3fb	-0.04240797
135	0xbe55f40d	-0.20893879
136	0x3e6c8ead	0.23101301
137	0x3c268e96	0.010165831
138	0xbcb3b6a8	-0.021937683
139	0xbda1161f	-0.078655474
140	0xbdc9f843	-0.09861805
141	0xbef45bcd	-0.47726288
142	0xbd96e67a	-0.07368179
143	0xbdb5a8a6	-0.08870058
144	0x3d91522c	0.07095751
145	0xbd85ba78	-0.06529707
146	0x3d8f47e5	0.06996135
147	0xbee02a1b	-0.43782124
148	0x3e88e2d2	0.2673555
149	0xbe857928	-0.26068997
150	0x3ebe2ebf	0.3714504
151	0x3d881f87	0.06646638
152	0xbe0148fe	-0.126255
153	0x3e6e2c31	0.23259045
154	0xbdf61e23	-0.12017467
155	0x3dab43a6	0.08362512
156	0x3cce09a8	0.025151089
157	0xbf76bd74	-0.9638283
158	0x3d4a3ec4	0.049376264
159	0x3e4be122	0.199101
160	0x3ec5b278	0.38612723
161	0xbe950788	-0.29107308
162	0x3e0c38c1	0.13693525
163	0xbdc121e2	-0.09430291
164	0x3b9de0fd	0.0048180805
165	0x3e9c11df	0.30482385
166	0x3c61dbd2	0.013785319
167	0xbe91ffc2	-0.2851544
168	0x3e38b5ad	0.18038054
169	0x3e25a076	0.16174492
170	0x3dd287f9	0.10279841
171	0x3d3601a7	0.04443517
172	0xbce4d6e7	-0.027934505
173	0xbeba522b	-0.36390814
174	0xbd5ae182	-0.053437717
175	0x3dbdd885	0.092698134
176	0x3d60723d	0.054796446
177	0x3dc0f036	0.094208166
178	0x3e09be1c	0.13451427
179	0xbe7c58a4	-0.24643189
180	0x3e4ea81f	0.2018132
181	0xbe92247b	-0.28543457
182	0x3e787bd2	0.24265984
183	0x3d39e0b2	0.0453803
184	0x3d830210	0.06396878
185	0x3e985b3d	0.2975711
186	0xbda66f4a	-0.081266955
187	0xbdb2a511	-0.0872289
188	0x3d2f5ff7	0.04281613
189	0xbef68dbd	-0.48155013
190	0x3e6afdfe	0.22948453
191	0x3f9425f6	1.1574085
192	0xbe2c1984	-0.16806608
193	0x3c89adf7	0.016806586
194	0xbc3a2bf5	-0.011363019
195	0x3b98567c	0.0046489816
196	0xbd95e057	-0.0731818
197	0xbd85576b	-0.06510814
198	0xbca73037	-0.020408733
199	0xbc5cad28	-0.013469018
200	0xbd97535f	-0.07388949
201	0xbb3661d5	-0.0027829309
202	0xbd99785e	-0.07493661
203	0x3d3fbac7	0.046808984
204	0xbd67571d	-0.056479562
205	0x3eb911fc	0.36146533
206	0xbd652a0f	-0.055948313
207	0xbd90525f	-0.07046961
208	0x3d1b92fe	0.03798198
209	0x3c257c78	0.010100476
210	0xbe1ae681	-0.15126993
211	0xbb493dbf	-0.003070697
212	0xbdd18789	-0.102309294
213	0xbdcfca3d	-0.10145996
214	0xbdfc359a	-0.12314911
215	0x3c7ae0f5	0.015312423
216	0xbcd9e86e	-0.026600089
217	0x3d48f028	0.049057156
218	0x3cbe0daf	0.023199884
219	0x3d3e30f6	0.04643341
220	0xbd98fe46	-0.07470374
221	0x3d9d16af	0.07670342
222	0x3ca56787	0.020190967
223	0xbe2644b9	-0.16237153
224	0x3e0ea090	0.13928437
225	0xbedf82f2	-0.4365459
226	0x3e096ca4	0.1342035
227	0xbc4d51f6	-0.012531748
228	0x3dd01c96	0.10161702
229	0x3faf4802	1.369385
230	0x3db31cd3	0.08745732
231	0xbea46179	-0.32105616
232	0x3e84d9d0	0.25947428
233	0x3e5232be	0.20527169
234	0x3eee6fb7	0.46569607
235	0x3d7d62ce	0.061861806
236	0xbe3a430b	-0.18189637
237	0xbdadc6f0	-0.0848521
238	0x3d8ff77e	0.07029627
239	0xbc9ca56e	-0.019121852
240	0x3eaeeb0d	0.34163705
241	0x3dc9f4b2	0.09861125
242	0xbc30e457	-0.010796628
243	0x3e4ba117	0.1988567
244	0x3dc62d19	0.096765704
245	0xbeb78972	-0.3584705
246	0xbe458e05	-0.19292457
247	0x3d20c5d3	0.03925116
248	0xbc99ae29	-0.018759804
249	0x3f049062	0.5178281
250	0xbe2a677c	-0.16641039
251	0xbe19fe47	-0.15038405
252	0xbd3cfed6	-0.046141468
253	0x3daaafee	0.08334337
254	0x3cb63d4f	0.022246031
255	0xbe4ac18d	-0.19800396

fc3.bias f4 [64]
0	0x3ee73bca	0.45162803
1	0xbd8ccdeb	-0.06875213
2	0xbd113d14	-0.03545864
3	0x3e4f2434	0.20228654
4	0x3d808566	0.06275444
5	0x3ef0255e	0.4690351
6	0x3e5e125d	0.21686693
7	0x3fc45129	1.5337268
8	0xbd5e91b7	-0.054338183
9	0x3f82ef03	1.022919
10	0x3f2a36b3	0.66489714
11	0x3e6811bb	0.22663014
12	0xbf225857	-0.63416046
13	0x3ccc7e79	0.02496265
14	0x3ede25d9	0.4338825
15	0xbc2bd38e	-0.01048745
16	0x3d8b9d35	0.06817094
17	0x3e96c839	0.29449633
18	0x3f45d624	0.7727988
19	0x3e9b5ed1	0.30345777
20	0x3eeff9d5	0.46870294
21	0x3d5e69d3	0.05430014
22	0x3fb128d3	1.3840584
23	0x3dd7a681	0.10529805
24	0x3fbf4173	1.4941849
25	0x3fbf6c99	1.4955016
26	0xbde40454	-0.11133638
27	0x3ecca66d	0.39970723
28	0x3e664379	0.22486676
29	0x3f3ee756	0.7457174
30	0xbdeda394	-0.11603466
31	0x3ec81661	0.39079574
32	0x3df9e018	0.122009456
33	0x3e56df63	0.20983653
34	0x3ecfb53d	0.4056796
35	0xbe08ed27	-0.13371716
36	0x3fd4a217	1.6611966
37	0x3e4475a9	0.19185509
38	0x3ec7d228	0.39027524
39	0xbcc4bc61	-0.024015607
40	0xbef92c5e	-0.48666662
41	0x3e31cb9e	0.1736283
42	0x3ed43ba2	0.41451746
43	0x3e5613ec	0.20906037
44	0x3effd518	0.49967265
45	0x401a21d5	2.408315
46	0x3f10d546	0.5657543
47	0x3c95c437	0.01828204
48	0xbe051bae	-0.1299884
49	0x3d5c2fe4	0.05375661
50	0xbcc8f834	-0.024532415
51	0x3e4ed448	0.20198166
52	0x3f1b4350	0.60649586
53	0x3e8bfcc5	0.27341285
54	0xbd5e349c	-0.05424939
55	0x3fb175b1	1.3864042
56	0x3d25b712	0.040457793
57	0x3ecaa08b	0.3957561
58	0x3f1258a7	0.5716652
59	0x3f4b5c8c	0.7943809
60	0xbbe1af7a	-0.0068873735
61	0x3ef01750	0.46892786
62	0x3fd1082d	1.633062
63	0x3fe607d5	1.797114

fc4.weight f4 [3, 64]
0	0xbedd07ec	-0.43170106
1	0x3dc84b52	0.09779991
2	0xbd3e8f7c	-0.046523556
3	0xbeb8b6da	-0.36077005
4	0xbeca3258	-0.39491534
5	0xbece31f6	-0.40272492
6	0xbd1f3284	-0.038866535
7	0xbf14e3ef	-0.581603
8	0x3c208db7	0.009799412
9	0xbec45a93	-0.38350353
10	0xbeb42457	-0.35183975
11	0xbfaf67e1	-1.3703576
12	0xbf765e01	-0.9623719
13	0xbcdc44f3	-0.026888346
14	0xbe98f460	-0.29873943
15	0xbd5d8e1e	-0.05409061
16	0x3c5dbf20	0.013534337
17	0xbc9bd319	-0.019021558
18	0xbf265a38	-0.6498141
19	0xbf74d403	-0.95636004
20	0xbebfcf08	-0.3746264
21	0xbcf3f7e1	-0.029781284
22	0xbf13c29e	-0.5771884
23	0xbf081294	-0.5315335
24	0xbf1130b8	-0.56714964
25	0xbf106e21	-0.56418043
26	0x3c348b6c	0.011019569
27	0xbed13c50	-0.40866327
28	0xbe9abce5	-0.3022224
29	0xbe2e50b5	-0.17022975
30	0x3d6e343e	0.05815529
31	0xbef7e2ac	-0.48415124
32	0xbe2d980f	-0.16952537
33	0xbf3f3c7b	-0.7470166
34	0x3d0a35e3	0.033742797
35	0xbba6d506	-0.0050913123
36	0xbed8ad3e	-0.42319673
37	0xbf16d2b7	-0.58915275
38	0xbf023f7b	-0.50878114
39	0x3d13667e	0.035986416
40	0xbe158488	-0.14601338
41	0x3d4b7234	0.04966946
42	0xbe271a27	-0.1631857
43	0xbcb3f4ba	-0.02196728
44	0x3cbeaa43	0.023274546
45	0xbf26114b	-0.64870137
46	0xbed97ed2	-0.4247957
47	0x3cce3eab	0.025176367
48	0xbb07a62e	-0.0020698416
49	0xbd2c3400	-0.04204178
50	0x3d1f7bf8	0.038936585
51	0xbc97ab23	-0.018514222
52	0xbf9c3955	-1.2204996
53	0xbedb88e4	-0.42877877
54	0x3d3db993	0.046319555
55	0xbec0a084	-0.37622464
56	0xbac097b6	-0.0014693651
57	0x3cca4572	0.024691317
58	0xbef63d70	-0.48093748
59	0xbed4cf19	-0.41564253
60	0xbeec0787	-0.46099493
61	0xbf4c0e59	-0.7970939
62	0xbe80d954	-0.25165808
63	0xbe9d5e37	-0.30735943
64	0xbebbcd04	-0.36679852
65	0x3c84219f	0.016129313
66	0x3d17ee3f	0.037092444
67	0xbf09ee94	-0.53879666
68	0xbf0ac300	-0.54203796
69	0xbe9723e5	-0.29519573
70	0xbed686ab	-0.41899619
71	0xbe2e885b	-0.17044203
72	0x3cbbf372	0.022943232
73	0xbe4bd959	-0.1990713
74	0xbea2630d	-0.31716195
75	0xbfc3c733	-1.5295166
76	0xbf56aee5	-0.8386062
77	0xbd0b5d1b	-0.03402434
78	0xbec3fa28	-0.38276792
79	0x3bd7855b	0.0065771765
80	0xbb28c221	-0.0025750475
81	0xbf9c3451	-1.2203466
82	0xbea30fb2	-0.31847912
83	0x3f6a2098	0.91455984
84	0xbf1c7be6	-0.61126554
85	0x3d1b5d95	0.037931044
86	0xbe85407e	-0.26025766
87	0xbecfeaf2	-0.40608937
88	0xbe2d63f5	-0.16932662
89	0x3e4d90e9	0.2007481
90	0x3b8caa4f	0.0042927633
91	0xbf09a130	-0.5376158
92	0xbef77ffd	-0.48339835
93	0xbe37f01e	-0.17962691
94	0xbd01db83	-0.031703483
95	0xbf20e83f	-0.6285438
96	0xbec6d2a2	-0.38832575
97	0x3e78f6d6	0.2431291
98	0xbef27577	-0.47355244
99	0xbd02e8d7	-0.031960335
100	0xbe300fc2	-0.17193511
101	0xbf1a18a3	-0.6019384
102	0xbf21832d	-0.63090783
103	0xbca7516c	-0.020424567
104	0xbe23a2d8	-0.15980089
105	0xbe989f2d	-0.2980894
106	0xbeff2bb7	-0.4983804
107	0xbee1f788	-0.44134164
108	0xbef625f8	-0.48075843
109	0xbe2fc72e	-0.17165825
110	0xbea9830f	-0.33107802
111	0xbcc5573d	-0.02408945
112	0x3cca7e0c	0.024718307
113	0xbd0fe7b3	-0.035133075
114	0x39f89c0a	0.00047418504
115	0xbf85f240	-1.0464554
116	0xc02aca93	-2.6686141
117	0xbf14adf0	-0.5807791
118	0xbd1483b9	-0.036258433
119	0xbe0ba800	-0.13638306
120	0xbca87451	-0.020563276
121	0xbf24c651	-0.64365107
122	0xbea5c29e	-0.32375044
123	0xbe69cf60	-0.22833014
124	0xbf3422a4	-0.7036536
125	0x3f96fc67	1.1795777
126	0xbf43fac0	-0.7655449
127	0xbe0fd9a1	-0.14047863
128	0xbf1a437c	-0.60259223
129	0xbdfcb561	-0.12339283
130	0xbe07e9bd	-0.13272758
131	0x3c6d70e8	0.014492251
132	0x3e8b676e	0.27227348
133	0xbda07eaa	-0.07836659
134	0x3e573d92	0.21019581
135	0xbf1e7da2	-0.6191045
136	0xbaeb928a	-0.0017972749
137	0xbe9ab460	-0.3021574
138	0xbe3cc746	-0.18435392
139	0xbdfba1d7	-0.12286728
140	0xbed3ac66	-0.41342467
141	0x3c10c265	0.00883541
142	0xbdb961f9	-0.0905189
143	0x3d653efd	0.055968273
144	0x3cbde754	0.023181595
145	0xbff5fd0d	-1.921785
146	0xbed46735	-0.4148499
147	0xbf14e5cb	-0.58163136
148	0xbf08b7e9	-0.53405625
149	0x3cf7c78f	0.030246524
150	0xbf6951d1	-0.91140467
151	0x3e6c9506	0.23103723
152	0xbef62813	-0.4807745
153	0xc0014851	-2.0200388
154	0x3c0b3a38	0.008497767
155	0xbe8268d8	-0.25470614
156	0x3d2610a9	0.040543232
157	0xbe0b3cef	-0.13597463
158	0xbc491a12	-0.012274282
159	0xbe9e77b1	-0.30950692
160	0x3c894d4f	0.016760496
161	0xbf49a466	-0.7876648
162	0x3dc02cb8	0.093835294
163	0xbceb0aae	-0.028691616
164	0xbf0e0a92	-0.5548488
165	0xbe6957cb	-0.22787397
166	0xbdb1640c	-0.086616606
167	0x3bc09362	0.0058769444
168	0x3f035872	0.5130683
169	0x3d0ebd33	0.034848403
170	0x3eae3e4c	0.34031904
171	0x3e379c68	0.17930758
172	0xbf29e36a	-0.6636263
173	0xbfa1d092	-1.2641776
174	0xbef61d4d	-0.4806923
175	0xbd30e308	-0.043185264
176	0xbc86118d	-0.01636579
177	0x3d5d64c3	0.054051172
178	0x3c813438	0.01577197
179	0xbfb2b01b	-1.3959993
180	0xbfdc9fe7	-1.7236298
181	0xbe1203b2	-0.14259222
182	0xbd5a1efe	-0.053252213
183	0xbe9afb49	-0.3026984
184	0xbd38b8f8	-0.045098275
185	0x3e73eee9	0.23821606
186	0xbf562ff5	-0.83666927
187	0xbe381fea	-0.17980924
188	0xbca73cee	-0.020414796
189	0xbfbc59b3	-1.4714874
190	0xbfad58c2	-1.3542712
191	0xbed179a3	-0.40913114

fc4.bias f4 [3]
0	0xbf3966d3	-0.7242252
1	0xbddceb3f	-0.10787057
2	0xc034511c	-2.8174505
