simul.pt (torch, 14504 bytes, 8 tensors)

fc1.weight f4 [16, 5]
00000000: 52bf b33e 66ea df3e 168a 4ebe 7d04 a73d
00000010: d51f 72be 0d41 ff3e e6a0 923e 4409 96be
00000020: 8cf6 b33e 3220 2c3e e779 2f3e 9d36 b8be
00000030: 6af1 3bbe 5843 e83e dc76 48be 4336 e6be
00000040: cabb e93e 872a 49bd 579d 1cbe 7fd1 6cbd
00000050: 5187 d63e 4317 d33e 5549 c13d b610 63bd
00000060: d70d afbe 3a7b ba3e 4a4b 003e 26e2 e73e
00000070: e76a ba3e 049b 9d3e df7b 87bc aebd d1bc
00000080: 2f5a 063c 0023 86be 995f 2abd 78d9 c03e
00000090: 24f3 13be b891 e5bd acc5 4b3d 2ff5 6abe
000000a0: b387 63be 389d 423e c66d 0f3d 265e c63e
000000b0: dc0e 7c3e 2902 b53e 7041 afbe a02b df3e
000000c0: ae4d 4e3e a54b d43e 0270 b8be 36af e53e
000000d0: b711 d63d feeb 9c3e ba51 8ebe ca87 c43e
000000e0: ff86 c53e 53e1 fa3e c017 b0bc 118e 95be
000000f0: a754 b23e f194 923e 0ba6 9f3e c8fa b83e
00000100: 0bd0 4abe 0a00 95be 1789 94be 339e 33be
00000110: 1b24 d73e 36de 023f 0857 15bf f7d5 c43d
00000120: a7c1 c63d fc4a 003c c40a eb3d 9784 033f
00000130: c5ac 423e be7e 0f3f 67a2 933e 03c8 6abe
0.35106903 0.4373352 -0.20169863 0.08155153 -0.23644955 0.49854317 0.2863838 -0.29303944
0.35149038 0.16809157 0.17136346 -0.35979167 -0.18353811 0.4536388 -0.19576591 -0.44963273
0.45651084 -0.049112823 -0.15294395 -0.05781698 0.41900113 0.41228685 0.09437815 -0.05543586
-0.34190246 0.3642214 0.1252872 0.45289725 0.36409685 0.3078233 -0.016538559 -0.025603142
0.008200212 -0.26198578 -0.041595075 0.37665915 -0.1444822 -0.11209434 0.04974906 -0.22945093
-0.22219734 0.19005287 0.035016797 0.38743705 0.24615043 0.3535321 -0.34229612 0.4358797
0.2014682 0.41463962 -0.36022955 0.44860238 0.104525976 0.30648798 -0.27796727 0.3838485
0.38579556 0.49000034 -0.0214957 -0.2920995 0.3483021 0.28629258 0.31181368 0.3612883
-0.19805925 -0.29101592 -0.2901084 -0.17540817 0.42019734 0.51120317 -0.58335924 0.09611123
0.09704905 0.007830378 0.11476663 0.5137419 0.19011219 0.5605277 0.2883484 -0.22927861

fc1.bias f4 [16]
00000000: 8a4b ee3c 840b 4e3e 4d95 983e f6c6 be3e
00000010: 5ec4 023f 7e87 083f 1bef 7abc 919a 603e
00000020: a90f ebbd b45c 30be 28a9 5bbe a0e3 193d
00000030: f943 043f 84a0 3d3e c18e e1bc 8df2 0e3e
0.029088754 0.2012158 0.29801407 0.3726117 0.5108088 0.53331745 -0.015315796 0.21933962
-0.11477596 -0.17222863 -0.21451247 0.037570596 0.5166622 0.18518263 -0.02753389 0.13959713

fc2.weight f4 [32, 16]
00000000: 0119 96bd d28a 71bd 933a f1bd 1eae b13e
00000010: d5e5 dd3d 50c3 273e 0c85 68be 0410 bebd
00000020: 0923 453c a4c5 bbbd 7721 edbd 623c d3bd
00000030: c3e7 653e 8a40 5b3c 7412 9c3e cd14 5a3e
00000040: 9740 a73e 488f 8f3e c332 88be 393d eebb
00000050: d102 fc3d dbe2 5bbd 4ab8 f3bd bab4 9e3e
00000060: b05a 013e 99b5 b13e 8202 5ebe ab67 9c3d
00000070: 9598 68bd 0cfc 97be 5f52 d13e 22d9 303e
00000080: afff da3d 452f 7abe 0d6e 243d 2014 c33c
00000090: b266 2dbe 775d 2c3e 2157 303b f310 85be
000000a0: 2eaa 42bd e740 84bd 3bdb 643e 29c1 e33d
000000b0: 5fcd 2b3e 8186 d93d a28a 3fbd 510f 7abe
000000c0: 271a 6abe 2599 29bd b61e 62be 8b61 78be
000000d0: 3ae6 513e e653 07be 1a7c 9d3d 525e 393e
000000e0: faa9 123e f99d 573d 85eb 41be ac75 433e
000000f0: a2c4 98bd d466 573d 543e 28be 4106 e6bd
00000100: 66ed 283e 50fa 1dbe 207d 483e b8bb d53c
00000110: 2dd0 c7bd 30bb 77be 62cc 5e3e 806b 2ebd
00000120: 0008 a7bd 7ea8 72be 901b 94bd 6230 dabd
00000130: 328c 67bb 8ea8 0f3e 47d2 11bd 5aa8 55be
00000140: 22f0 483d 62d1 0c3e 7473 a83d f84b d7bc
00000150: 3b6e fdbd 16d8 c9bc c6e3 a93d c6f9 f5bc
00000160: 29a5 613e 0206 403c e146 1a3e 1c73 9b3e
00000170: 10f3 203c 17e0 7f3d b969 fb3c 76db 943b
00000180: 3e2f 3b3e c770 02be 41c4 893d e7d2 b8bd
00000190: a994 8b3e c3b2 6a3e 120f 87bd 7d65 e4bc
000001a0: ce8e 85be aba5 ad3d 1fbb 113e a58f 003e
000001b0: b4f6 b8bd 7bb9 1ebe c7d5 a3bd 0fe7 293e
000001c0: d2cb 023e 9acd 0abd 5bc1 7fbe 60de 853e
000001d0: 4f84 6c3e b565 953e e5ed 5abe 3419 b33d
000001e0: 3073 393e 4dfb 863d 35d4 993d 32c3 2ebd
000001f0: d6ab febd 6a7b d6bd f6ba ad3c abc6 7d3e
00000200: f639 1c3e c6a9 183d 1517 4ebd e241 f53d
00000210: a290 6e3e ea9a 27bb 4219 46be f176 dabd
00000220: 7a4f 87be f643 ddbd 7f6e cfbc 6a68 b1bc
00000230: e98a 893e fa6f bfbd 7d18 e63d 0f71 713e
00000240: 962a 3c3e 0cb2 ce3d e2df a6bc 6f05 65bd
00000250: f374 2dbd 92b2 f53d 32e0 e5bd 1c3d 76be
00000260: ac2a 60be 22da 383e c674 323d f534 5fbe
00000270: 938d 88bd 8035 bebd ab94 613e 626f 41be
00000280: df1a d9bd 4fc3 993e 581c 86be 9344 ce3c
00000290: a97b a13e add2 59bd 06ad d3bd d1b1 9a3e
000002a0: f7dc 493e a48f d6bd b2f1 49be cd6b 873e
000002b0: a26f 003e 25f9 1bbd e397 983e 422d 5cbd
000002c0: 010a 8ebe edf3 303e 7ee9 3e3e 864c 2b3e
000002d0: 0e9c 003e 36f7 c7bd cb65 453e 90f3 bbbd
000002e0: f3b4 acbd 4217 4dbd a89b 203e faab 193e
000002f0: 2bea 8cbe ac95 6b3d 88ae a4be ee82 303b
00000300: 0d29 503d a491 5c3c 12c5 3dbd 13dc 313e
00000310: 31e3 913e 7a8d 4c3d e29f 14bd 01b8 f03d
00000320: 6bcf 183e 2c8f 09be 300b 523d f67c efbc
00000330: 7351 83bd 5cbe 643e 8434 a73e 5356 103d
00000340: ece5 883e 9f26 c73d 3fb6 25be 11a7 8f3e
00000350: d2c9 583e e856 433e df8e 0abd 4dd7 103e
00000360: 8f7b ef3d 27e2 c63d 1ce6 863d ed99 443e
00000370: 5a22 ff3c 8a87 203e 5c33 5a3e 0e17 f1bd
00000380: 0cad 84bd 1af6 04bd 3358 86bd 0e20 873e
00000390: bef5 d93d e498 703e 8bae debd 0435 89bd
000003a0: 8429 46bd f373 013e 57ca 2d3d b81d 863e
000003b0: d6ea cbbd 6493 4a3d eeae c13e f088 19be
000003c0: 011c edbd c395 903d 64e9 803d fd05 e93c
000003d0: 83f8 a13e d099 8c3e 7fa8 153e 7b3c 1e3d
000003e0: 5f88 73bc ae9d ca3d d5ad cd3d a88f 553d
000003f0: 6e17 7f3e 9045 0cbe 695c cb3d 3248 033e
-0.07328988 -0.05897028 -0.1177875 0.34703153 0.108348526 0.163831 -0.22707003 -0.092803985
0.012032279 -0.09168556 -0.115786485 -0.103142515 0.22451691 0.0133820865 0.3048283 0.21296997
0.32666466 0.28039002 -0.26601228 -0.007270482 0.12305225 -0.053683143 -0.11900385 0.30997258
0.12632251 0.3470886 -0.21680644 0.076369606 -0.05678614 -0.29684484 0.40883157 0.1727033
0.10693299 -0.24432094 0.040144015 0.023813307 -0.16933706 0.16832529 0.0026907402 -0.25989494
-0.047525577 -0.06457692 0.22349255 0.11120827 0.16777562 0.10621358 -0.04676307 -0.24419905
-0.22861539 -0.041405816 -0.22082028 -0.2425596 0.2049798 -0.13215598 0.07689686 0.18102387
0.14322653 0.05264089 -0.189375 0.19087857 -0.0745938 0.0525883 -0.16430026 -0.112316616
0.1649681 -0.15427518 0.19578981 0.026090488 -0.09756503 -0.241925 0.21757653 -0.04258299
-0.08155823 -0.23697087 -0.0723182 -0.106537595 -0.0035331366 0.14029142 -0.035600927 -0.20865002
0.049057133 0.13751748 0.08225146 -0.026281342 -0.123745404 -0.02463917 0.082953975 -0.030026328
0.2203566 0.011720182 0.150661 0.3036126 0.009823576 0.062469568 0.03069006 0.0045427633
0.1827974 -0.12738334 0.067268856 -0.090246014 0.27261856 0.22919755 -0.06594671 -0.027880425
-0.26085514 0.08478864 0.14231537 0.12554796 -0.0903143 -0.15500443 -0.07999759 0.16592048
0.12773064 -0.033887483 -0.24976103 0.2614622 0.23097347 0.2917916 -0.21379812 0.087450415
0.18110347 0.065909006 0.075111784 -0.04266662 -0.12435119 -0.10472758 0.021207314 0.24782817
0.15256485 0.037271284 -0.05031498 0.11975457 0.2329736 -0.0025574514 -0.19345573 -0.106672175
-0.26427823 -0.10803978 -0.025321243 -0.021656234 0.26863793 -0.0934753 0.112351395 0.23578285
0.1837562 0.100925535 -0.020370428 -0.055913385 -0.04234786 0.1199695 -0.112244025 -0.24046749
-0.21891278 0.18051961 0.043568395 -0.21797545 -0.06667628 -0.09287548 0.22029369 -0.18890145
-0.106008284 0.3003182 -0.261935 0.025179183 0.31539658 -0.05317943 -0.10335736 0.30213788
0.19713198 -0.10476616 -0.19721106 0.26449433 0.12542585 -0.0380794 0.2980338 -0.0537541
-0.27742007 0.1728055 0.18643758 0.1672841 0.1255953 -0.097639486 0.19277112 -0.09177315
-0.08432951 -0.05007101 0.15684378 0.1500701 -0.27522406 0.057515785 -0.32164407 0.002693351
0.0508204 0.013462458 -0.04633052 0.17369108 0.28493646 0.04993961 -0.03628529 0.11753846
0.14922874 -0.13433522 0.0512802 -0.02923439 -0.064120196 0.22338241 0.32657254 0.035238575
0.26737916 0.09724163 -0.16182803 0.2805715 0.21170738 0.19076121 -0.03382766 0.1414463
0.11693489 0.09711104 0.06586859 0.19199343 0.03114431 0.15676704 0.21308655 -0.117719755
-0.064783186 -0.032461263 -0.065597914 0.26391643 0.10642575 0.23495823 -0.10873135 -0.06699565
-0.048379436 0.12641887 0.042429294 0.2619455 -0.09956901 0.04945697 0.37828773 -0.14993644
-0.11577607 0.07059815 0.06294516 0.028445238 0.31634912 0.274611 0.14615057 0.038631897
-0.014864056 0.09893356 0.100429215 0.052138954 0.24911281 -0.13698411 0.09929735 0.12820509

fc2.bias f4 [32]
00000000: 771f 623d 9d31 693e 86c9 923e 5fa2 16be
00000010: 2e0d f0bd e46e 7f3e ffbb 36be 561b 673e
00000020: 2bea 5d3e 2fb4 b8bd 7894 90bc ab11 d5bd
00000030: 836f 763d a85a 1abe def7 8f3e 2255 263d
00000040: 0811 9a3d c134 a039 dad2 3d3e 70c0 853e
00000050: 6f16 7a3e 973e f1bc dcdc 153e da4d 1d3e
00000060: b6c1 3d3e c677 063e 4297 05bd bf7c b33c
00000070: 8d38 16be 44a7 ce3d dee0 0ebc 7dd5 103e
0.05520579 0.22772832 0.28669375 -0.14710377 -0.11721264 0.24944645 -0.17845152 0.22569022
0.21671359 -0.09018742 -0.01764892 -0.104037605 0.06016494 -0.15073645 0.28118795 0.040608533
0.0752278 0.00030556883 0.18537465 0.2612338 0.2442262 -0.02944879 0.14635032 0.1536173
0.18530926 0.13131627 -0.032614954 0.02191007 -0.1467001 0.10090497 -0.008720605 0.1414394

fc3.weight f4 [64, 32]
00000000: 5973 17be 4428 29be 4165 ca3c fd72 003c
00000010: 0309 a8bd b6fa aabd dcce 80bc a3db b2bc
00000020: fd37 32be 674e 93bc 3ea8 17be 3158 133d
00000030: 28f1 79bc 8dd8 08be 1c87 1a3e 69c1 bd3d
00000040: 634f b73d f726 14be 6890 193e 2309 55bb
00000050: cfe6 d23c 34a9 2b3e c228 253d 8b18 d5bd
00000060: 9016 c73d 4602 3ebb 2e54 85ba 9984 0e3e
00000070: 0cc5 1abd 9796 b3bd 63e2 8dbc 1374 ff3d
00000080: 463a eabd bb83 2fbe 800c 333e e03a f93d
00000090: c825 d03c 07a9 2d3e 2d23 6ebd 6c92 c0bc
000000a0: 001e e8bd 652d 463d ace2 6bbb 5113 5fbc
000000b0: 87e7 10be 8386 b2bd 0258 dfbd 5c34 e5bc
000000c0: 4cc7 0bbe 54ee f0bc 4a88 00bd 92fd 823c
000000d0: a183 abbd 4d92 c1bd 64d0 bc3d 0569 fbbd
000000e0: f605 1dbe 710a e83d 2a66 df3d bf73 f8bb
000000f0: 1eb6 a6bc 705b d23d e8c2 eabd c903 aebc
00000100: c270 8e3d 476c 473e fd0a aebd 3a0e 0fbe
00000110: 1d5f a73d 790b e4bd 461f 363e 4607 de3d
00000120: 8a5e 3a3e 723c 0a3d 91c2 3a3d 4168 11bd
00000130: 3c92 983d ef87 393d 51b3 1d3d 1566 1f3e
00000140: efcf e4bd d0d4 00be 54a8 dd3d 28a8 d6bd
00000150: 48e3 223e d936 dfbd 9e79 243d 82f9 e43d
00000160: 40f4 3dbc 65ae 163e 446c d73d f737 9fbd
00000170: 1976 453e efce b4bd e02a bfbd 9fe6 e13d
00000180: 8da4 d43d 485c 85bd 8eb9 f73d 24aa 8d3c
00000190: d024 8a3d 8c70 81bc e045 a7bd b182 d0bd
000001a0: 7961 983d b30f c0bb e8cd dd3c 5f3b 5d3d
000001b0: f5be 3e3e d4cc 9d3c 8fe9 d73b 23e2 183e
000001c0: d46a da3d 78c6 103d 73ec 92bd 17da 86bd
000001d0: b11b cdbd a393 793d 5846 2b3e 6aa4 58bc
000001e0: f9fe 2dbe 814f 14be a607 7e3d 51be adbd
000001f0: daed b83d f263 cdbd e317 03bd 9661 c9bd
00000200: e169 b2bd 8cea af3c addb 0d3e ce18 02be
00000210: da7b a63d 3366 62bd d181 a1bd 481e 32bd
00000220: 7f20 e6bd 7134 e43d 7d67 26be 3d6a 363d
00000230: 2942 253e 1307 4ebc 2752 1ebd 3928 d33d
00000240: 10cd c93d 58dc b43d 61ba dc3c 33d9 613d
00000250: c0bb 13be 38aa c53d 2866 2dbe 7fa3 503d
00000260: 960f 94bd b325 af3d fd30 61bd 8fd6 143e
00000270: 2480 2ebe 1143 f53d c77a 8dbd 684c 4e3d
00000280: 9cc6 3a3d eca3 4fbd 7a27 b5bd 77cc 083e
00000290: b8b2 afbd a914 c4bd 4db0 d13d 33e3 7abc
000002a0: 991d 203e edbc 253e 9430 e8bd 99e4 8e3d
000002b0: 9c94 28be 5ab4 5bbd 1e0f d33c 7d3f fabd
000002c0: 323b da3d c99a 173d 4ed5 1cbe 355c 17be
000002d0: 2c3f 083d c54a bcbd 1f1e 273c 9c9d 9f3d
000002e0: 0314 bebd 0047 7cba b250 2dbe 25ca 2f3e
000002f0: 2a51 e93d ca24 1e3e 059a 5b3d 9560 213e
00000300: e686 023c a778 3d3c d216 1cbd 4892 cabd
00000310: db7c 37be 6a0c 9d3d 2390 bc3d 4d43 113e
00000320: ed48 513e ec91 eb3c 639e 30bc 0171 35bb
00000330: 355a ce3d b60b 523e 9b03 e43c 745d 213e
00000340: 26fc e8bd c546 49bc f4f9 f43d 4fea 8e3b
00000350: 7508 bfbd 2146 c63d 4994 653d 7398 10bc
00000360: 2217 9c3d db7d 4fbd b8cf 06be b646 f13c
00000370: 8915 573e c365 043d 4048 213e 6330 043e
00000380: c0fa 143e 5ccb 1bba fca6 e3bd eb4c e8bd
00000390: 0735 b03d aa3d 1dbe bc3e fd3d d4ec cf3d
000003a0: db7e a23c 42e6 5ebc a91c 2f3e 0330 06be
000003b0: c475 8fbd 4a8b e63c 1d45 543e f3f2 243e
000003c0: a555 203e 10bf 053e 5fe8 df3d 9ebe debd
000003d0: 1831 663d 5a8e 2dbd c666 02be 5b50 2dbc
000003e0: 3533 563d 0fe5 fd3d 595f 013e f3ad 0bbe
000003f0: 7ea0 33be 954f f5bd 3654 da3d 6d94 343d
-0.14790095 -0.16519266 0.024706485 0.007839915 -0.08204844 -0.083486006 -0.015723638 -0.021833247
-0.1740417 -0.017981721 -0.14810273 0.035972778 -0.01525525 -0.13363858 0.15090603 0.09265406
0.08950689 -0.14467989 0.14996493 -0.0032506667 0.025744824 0.16763765 0.040322073 -0.10405072
0.097211 -0.0028993054 -0.0010172182 0.1391777 -0.037785575 -0.08768957 -0.017319864 0.12473311
-0.11436896 -0.17140095 0.17485237 0.12169433 0.02540864 0.1695901 -0.058139015 -0.02350732
-0.11333847 0.048383135 -0.0035993261 -0.013615445 -0.1415082 -0.08717062 -0.10905458 -0.027979068
-0.13650244 -0.029410519 -0.031379975 0.015990052 -0.083747156 -0.09451733 0.09219435 -0.1227589
-0.15334305 0.113301165 0.10908158 -0.0075821574 -0.020350512 0.102713466 -0.11462957 -0.02124204
0.069551006 0.19474898 -0.084981896 -0.13970271 0.08172438 -0.11135001 0.17785367 0.10841231
0.18200126 0.03374905 0.04559571 -0.035499815 0.07449767 0.045295652 0.038501088 0.15566285
-0.11172473 -0.12581182 0.10823122 -0.10481292 0.15907013 -0.10899133 0.040155046 0.11180402
-0.011593878 0.14714964 0.10518697 -0.07774346 0.19283332 -0.08828532 -0.0933435 0.110303156
0.10382948 -0.06511742 0.120959386 0.017293043 0.06745303 -0.015800737 -0.081676245 -0.101811774
0.074404664 -0.0058612465 0.027075723 0.0540117 0.18627532 0.019262709 0.0065891217 0.14930014
0.10664907 0.035345525 -0.07174005 -0.06584566 -0.10015047 0.060931813 0.16726053 -0.013222793
-0.16991796 -0.14483453 0.062019013 -0.084835656 0.090297416 -0.10028829 -0.032005202 -0.09833066
-0.08711601 0.021474145 0.13853331 -0.12704775 0.081290916 -0.055273246 -0.07886089 -0.04348591
-0.11236667 0.11142815 -0.16250415 0.04453491 0.1613852 -0.012574929 -0.038652565 0.10310406
0.09853566 0.0883109 0.026944341 0.055138778 -0.1442709 0.09651607 -0.16933501 0.050937172
-0.07229535 0.085521124 -0.05497836 0.14534973 -0.1704107 0.119756825 -0.069081835 0.050365835
0.045599565 -0.050693437 -0.0884542 0.13359247 -0.0857901 -0.09574253 0.10238705 -0.015312958
0.1563629 0.1618535 -0.113373905 0.06977195 -0.1646294 -0.053638794 0.025764044 -0.12219141
0.10655822 0.03701285 -0.15315744 -0.14781268 0.03326337 -0.09193949 0.0102000525 0.077937335
-0.09281161 -0.0009623617 -0.16925314 0.17166956 0.11392434 0.15443721 0.05361368 0.157595
0.007966733 0.01156441 -0.0381077 -0.09891182 -0.17918722 0.076683834 0.092071794 0.1418583
0.20437975 0.028756104 -0.01077995 -0.0027685764 0.100757994 0.2051228 0.02783375 0.15758306
-0.113762185 -0.012284939 0.11961737 0.004361428 -0.09327785 0.09681345 0.05604962 -0.008825409
0.076216 -0.050657135 -0.13165176 0.029452663 0.21004309 0.03232361 0.15750217 0.12909083
0.14548779 -0.00059430837 -0.11115834 -0.11342796 0.08603864 -0.15355554 0.12365481 0.10152593
0.01983588 -0.013604702 0.17100777 -0.13104253 -0.07004884 0.02814259 0.2072949 0.16108303
0.15657671 0.13061166 0.10932993 -0.10876201 0.056199163 -0.042372085 -0.12734517 -0.01057824
0.05229493 0.12397205 0.12634028 -0.13640575 -0.17541692 -0.1197807 0.10660593 0.044086862

fc3.bias f4 [64]
00000000: b944 c1bc 0a07 66bc ab3b adbc 89e7 86bd
00000010: 4a72 253e 9a74 dbbd d4f2 88bd e70f b2bb
00000020: f27f 4cbd fb9a 20be ed27 fc3d 9671 173e
00000030: ac89 aa3d a58d ff3d c91e 21be d4d5 bebd
00000040: a112 a53c ec0f 53bd f3b9 543e c766 073c
00000050: e109 03be dd70 db39 6a82 773c bf28 8d3d
00000060: 264e 9b3c 93c4 33be a6c1 af3d 4a5c 77bc
00000070: 2bb5 e6bc 53ea 073e 68ef 13be 4427 b8bd
00000080: 7839 183e 73c7 56bd ccb3 e23c 2fbc c3bc
00000090: 4ab0 07bc f7d0 da3d dc6c 14be 5a3c f3bd
000000a0: 4fe4 bb3d 333b bc3d 52ec 2cbe 1a0d 8a3d
000000b0: cb86 08be 7dcd 173e d126 79bd 1109 b63c
000000c0: 8589 c2bc b8e9 703d 71dd 253e b08e a33d
000000d0: 3988 a53d 8839 da3d 567d 543e 5ac0 7ebd
000000e0: a4e6 823a 6bc8 2dbe 5531 ab3c f497 df3d
000000f0: b875 113e e9e0 b7bd 1f12 d7bb de1c 40bd
-0.02359234 -0.014039764 -0.021146616 -0.065871306 0.16156879 -0.10715599 -0.06686941 -0.0054340246
-0.049926706 -0.1568412 0.12312303 0.14789423 0.0832704 0.124781884 -0.157344 -0.09318128
0.020150485 -0.051528856 0.20774059 0.00826425 -0.12796737 0.00041855025 0.015106777 0.06892537
0.018958163 -0.17555456 0.085818574 -0.015097687 -0.02816256 0.13272981 -0.14446795 -0.08991864
0.14865673 -0.052436303 0.027673624 -0.023893444 -0.008281777 0.10684388 -0.14494652 -0.118767455
0.09174406 0.09190979 -0.16887024 0.0674078 -0.1333267 0.14824481 -0.060828034 0.02222112
-0.023747215 0.05881664 0.16197754 0.079862 0.08082623 0.106555045 0.20750937 -0.06219516
0.0009986949 -0.16970985 0.020897547 0.10917655 0.14205062 -0.08978445 -0.0065634395 -0.04690253

fc4.weight f4 [3, 64]
00000000: 89e3 203d d4b2 d93d 7bdd e1bc 15c7 473e
00000010: ae9b dbbb 8443 543b 964f c0bd 6b58 25be
00000020: 1fe3 70be ae10 6a3c a65a df3d 5f3b b3bd
00000030: 9c4a 263e 6570 65be 3ee4 603d f76e 37bd
00000040: 1938 ccbd 3a88 57bb 894b 5bbe 2aa6 263d
00000050: 1144 f6bd 9fe5 2bbd 6094 53be 0bce 2dbe
00000060: dbba 16bd a0b0 813e b065 103d 0547 ddbd
00000070: c84f 5cbd 1264 54be 63a9 aebd 9ced de3d
00000080: 3c8e 2dbc 0742 d43c 528e 02bd 08af 32bc
00000090: df47 d03c be33 8e3c bb33 45bd 8de0 1a3d
000000a0: 7846 ff3d ab64 b2bd d6a1 4f3e 53b4 acbd
000000b0: 44f8 763d e6ac dfbc 9ff9 a7bd 9f29 2bbe
000000c0: b755 413b ec53 c33c 924b 5cbe 3644 99bd
000000d0: ccc8 e23d 2d06 37be 989e aabd d153 0f3e
000000e0: b31e 48be 5c1c ac3d 0e67 edbd 3831 cf3d
000000f0: 0829 aa3d 3bf2 9ebd 8509 65bd 9fae d13d
00000100: 8b3a 9abd ba53 a63b 13bf 883d 4492 443d
00000110: 96d1 69bd ee30 e03d 6353 d7bd f478 9b3d
00000120: 176e 11bd 8480 4abc 244f 8c3c 75ae 5dbe
00000130: 538b fbbc fd48 fabc 4080 00bd 3000 bfbc
00000140: 47ea 1fbe bf45 ec3d bdd7 1e3d 5ac8 2cbc
00000150: 3404 193d 7a62 f4bd bfd7 063d e7bd c6bd
00000160: 6a00 15be c3a1 79bd 2df1 533d e517 f6bd
00000170: 228a ac3d a587 30be dc96 cfbc dac8 fe3d
00000180: 00be 013e b38b a93d 89a7 233d cf2d 953c
00000190: 98ce 953d e8ff ab3d 324a a63c b36d 11bd
000001a0: b462 f63d 76c4 66bd bff4 3bbd d72d ee3d
000001b0: 60ae 9c3d 7ceb 943c 1726 d3bd 7b29 383c
000001c0: d215 d9bd 6c90 093c 614d 34be 1e1c 603d
000001d0: ae13 dc3d 8aca 12be d326 0abe 277d 823d
000001e0: 9db7 9ebd e1c0 c83d e8f4 83bc a40f 743d
000001f0: ecc2 543d f66c 953d 4844 4ebe 4d73 ce3d
00000200: 044d 75bd 8e6f 273b be72 48be a694 c0bd
00000210: a5dd be3d 2bbb eb3b fa54 2dbe 5ab0 a63c
00000220: 1ed0 ccbd e2d5 0bbe fcec 56bd 9beb 1cbe
00000230: 0d9b 45bd 4282 12be 9dec 563d 27ef 653d
00000240: 72fe d13c ce86 eb3b d469 eb3c 3842 303d
00000250: 1a2d 9b3d d09d 6d3d b339 36bd 857a 87bc
00000260: c035 84bd eb37 dd3d eab3 d7bd e31a e93d
00000270: 8e35 a6bd f016 0dbd 07ef 42be 504c 8dbd
00000280: 1368 e73d 2743 9f3d 6b68 313d 863f b6bd
00000290: 03c6 3f3d a4cd b43d 1ca3 313d aee7 883c
000002a0: e2eb ab3d 66fc 4b3d 8ece d13d 47c9 99bc
000002b0: c929 a13d 0615 c03c 7ef5 ebbd bd2a 30be
000002c0: 5c19 bdbc f96c 6d3d 38bb 7ebd ae02 a6bd
000002d0: 98ba 1b3d 4e61 57bd c4fe b4bd 6207 973d
000002e0: 3b22 acbd 5095 f4bb 6b55 623b e445 cf3d
000002f0: 5214 aa3d c791 a53d 8392 cbbd 22f8 613d
0.039279494 0.10629812 -0.02757143 0.19509538 -0.006701908 0.0032388875 -0.0939018 -0.1614701
-0.2352414 0.014286203 0.10905962 -0.087515585 0.16239399 -0.22406156 0.05490517 -0.04478356
-0.09971637 -0.0032887594 -0.21415533 0.04068581 -0.120247014 -0.04196703 -0.2066207 -0.1697313
-0.036799293 0.25330067 0.035253227 -0.108045615 -0.053787023 -0.20741299 -0.08528402 0.10885164
-0.010592993 0.02591039 -0.03187401 -0.0109059885 0.025424896 0.017358657 -0.048145037 0.037811805
0.12464613 -0.08710607 0.2027658 -0.084328316 0.06029536 -0.027304124 -0.08201908 -0.16715096
0.0029500553 0.023843728 -0.21513203 -0.07483713 0.11073455 -0.1787345 -0.083310306 0.13996817
-0.19542961 0.084038466 -0.11591922 0.101168096 0.08308607 -0.077610455 -0.05591728 0.102383845
-0.075306974 0.005075899 0.066770695 0.047991052 -0.057084642 0.109468326 -0.10513952 0.07591429
-0.03550538 -0.012359742 0.017127581 -0.21648581 -0.030706083 -0.030552382 -0.03137231 -0.02331552
-0.15616713 0.115367405 0.038779963 -0.010545814 0.037357524 -0.119328454 0.032920595 -0.0970419
-0.14550939 -0.060945284 0.051743675 -0.12016276 0.08424784 -0.17239244 -0.02534049 0.12440653
0.12670135 0.08278599 0.039954696 0.01821032 0.07314795 0.083984196 0.020299051 -0.035505008
0.12030545 -0.056339704 -0.045887705 0.11629837 0.07650447 0.018178694 -0.103099994 0.011240358
-0.10599865 0.008396249 -0.17607643 0.054714315 0.10745941 -0.14335075 -0.13491373 0.06371527
-0.07749865 0.09802414 -0.016107991 0.05958523 0.051943704 0.07296173 -0.20143235 0.10080586
-0.0598879 0.002554867 -0.1957502 -0.094033524 0.09319619 0.007193943 -0.16926947 0.020347763
-0.10000633 -0.13655809 -0.0524721 -0.15324251 -0.04824357 -0.14307502 0.052471746 0.056136277
0.025634024 0.007187701 0.028736986 0.0430319 0.07576962 0.05801183 -0.04448862 -0.016537914
-0.064555645 0.10801681 -0.10532363 0.11382081 -0.081156835 -0.034445703 -0.19036494 -0.06899321
0.112991475 0.0777648 0.04331247 -0.08898835 0.046819698 0.08828285 0.043368444 0.016712036
0.083946005 0.049801253 0.10244475 -0.018772734 0.07869298 0.023447525 -0.11521433 -0.17203803
-0.023083381 0.057965253 -0.062190264 -0.0810598 0.038019747 -0.05258303 -0.08837655 0.07374455
-0.084049664 -0.0074640885 0.0034535776 0.101207525 0.08304657 0.080844454 -0.09940054 0.05516828

fc4.bias f4 [3]
00000000: 1383 1dbe a656 c73d 0435 afbd
-0.15382032 0.09733324 -0.08555034
