simul.pt (torch, 14504 bytes, 8 tensors)

fc1.weight f4 [16, 5]
000000 79 23 8a 3c 82 81 81 be 07 d2 50 be c2 f1 e1 bb
       0.016862618 -0.2529412 -0.20392619 -0.006895275
000010 13 a0 8b bd b8 ce 2f 3d 66 b9 c1 be a5 c3 b3 be
       -0.06817641 0.04292175 -0.3783676 -0.35110202
000020 c7 1f 09 bc f8 e8 6a 3e fb 17 ee 3d 98 92 63 be
       -0.008369393 0.22940433 0.11625668 -0.2222389
000030 58 b9 7f be a5 3a fe 39 ba 4a a2 3d 49 da 01 bd
       -0.24973047 0.0004849035 0.07924409 -0.031702314
000040 9a 18 3c bd 81 2d 8a bd e5 6c 1f be 8b cc af be
       -0.0459219 -0.067469604 -0.15568884 -0.3433574
000050 2d 1c 0d 40 8e 58 8d 3f 00 cd 99 3e 58 f6 e9 bd
       2.2048447 1.104265 0.30039215 -0.114239395
000060 b0 d6 1d 40 1b d5 f9 bf b8 bd c6 3f 04 73 1d 3f
       2.4662285 -1.951816 1.5526648 0.61503625
000070 6a cf c6 bd 12 47 8f 3f fe 1a 69 bf 97 8d 07 bf
       -0.0970753 1.1193564 -0.9105681 -0.52950424
000080 f0 16 dc be db d6 66 bc 29 64 91 bd 4c cc b8 3c
       -0.4298625 -0.0140893115 -0.07099182 0.022558354
000090 72 8c 3e be b6 3a d0 be 13 81 99 be 94 2d c9 be
       -0.18608263 -0.40669793 -0.29981288 -0.39292586
0000a0 6c e6 5e bc e0 35 21 be 8e 07 8f be f6 a0 76 be
       -0.013604742 -0.15743208 -0.2793545 -0.24084839
0000b0 88 62 5d 3c 4c 1d b4 3d f6 74 9b be ed b5 67 be
       0.013512261 0.087946504 -0.30362672 -0.22627993
0000c0 5d fa 16 bd a7 9f 25 bd 71 f3 6b be f4 3a d9 bd
       -0.03685986 -0.04043546 -0.23042084 -0.106069475
0000d0 90 ff 5c be e7 27 6a be ae ac 3d 3e 06 cf ed bf
       -0.21581864 -0.22866784 0.18522903 -1.8578804
0000e0 0e 1c b8 3f 08 b1 12 3f 33 de 9c 3d df 33 9f 3f
       1.4383562 0.5730138 0.07659569 1.2437705
0000f0 40 2a 13 40 64 fb 87 bf b2 84 7e bf 9a 99 c0 bd
       2.2994537 -1.0623593 -0.99421227 -0.09404297
000100 f6 3e 6a 3f b3 6d 06 c0 92 41 ce 3f 77 54 49 3f
       0.9150232 -2.1004455 1.611376 0.7864451
000110 d3 c8 9a 3d fc 6c 71 3f 12 f4 d7 bc 03 82 65 be
       0.075578354 0.9430692 -0.026361499 -0.22412877
000120 b0 9f e4 be 09 c6 1b be 4f 9d 9a bd 48 a6 36 be
       -0.44653082 -0.15212263 -0.075495355 -0.17836869
000130 aa 0c d7 be ff 5b c0 be cc 7f b0 bc 0f 12 6b be
       -0.4200185 -0.37570187 -0.021545313 -0.22956108

fc1.bias f4 [16]
000000 eb 39 0b be 78 8d 42 be 94 bf 12 be ec 53 69 be
       -0.13596313 -0.18999279 -0.14330894 -0.2278592
000010 18 8c 23 3f a3 bf 93 3f b3 b8 e0 be 6b 26 7e be
       0.6388564 1.1542858 -0.43890914 -0.24819343
000020 99 ac 8a ba 4f da b7 bc 93 eb 12 3d a6 7d 98 3f
       -0.0010580003 -0.022442965 0.035869192 1.1913345
000030 80 87 85 bf 2b ad 88 3f 09 ac cc be c4 a9 ee be
       -1.0431976 1.0677847 -0.39975002 -0.46613896

fc2.weight f4 [32, 16]
000000 e5 c2 8b be c7 38 2e 3d 67 ff 8f bc 1e 9b 8e 3d
       -0.2729713 0.042534616 -0.01757784 0.0696318
000010 e3 bc f6 bb ff 18 28 3d 4e aa 92 3d fd d0 07 be
       -0.0075298413 0.041039463 0.07161389 -0.13263316
000020 54 6d 0b be 57 7e 75 bc 81 14 73 3b 8c cd 8e be
       -0.13615924 -0.014983735 0.0037091079 -0.27891195
000030 b6 e6 0f be 5b 55 1a 3e 58 a2 19 be 43 16 e9 3c
       -0.14052853 0.15071623 -0.15003335 0.028452998
000040 e9 57 0f be 4d fd da bd ed 4b 93 bb b0 c5 00 be
       -0.13998379 -0.106928445 -0.004495135 -0.12575412
000050 c3 86 52 3f 59 c0 28 3e 3f 73 1e be 5a 8e d7 be
       0.8223688 0.16479625 -0.1547365 -0.42100793
000060 a9 bd 78 be e8 2b ed bb f3 a7 bb be 08 97 38 3e
       -0.242911 -0.0072379 -0.36651573 0.18026364
000070 ce 11 27 3f 63 8a 77 3e 53 dc 74 be de 50 15 be
       0.6526154 0.24173884 -0.23912172 -0.1458163
000080 b8 5e 2d 3b 0b c9 e7 3c 0d f2 af bd 58 e4 5e bc
       0.0026454162 0.028294107 -0.085910894 -0.013604246
000090 dc a7 30 be f8 ce 5b bc 75 08 64 3b f5 c9 23 bd
       -0.17251533 -0.013416044 0.003479508 -0.039987523
0000a0 77 e6 05 be f5 11 7d bd b4 e6 a8 3d 8c b2 30 be
       -0.13076197 -0.061784703 0.08247128 -0.1725561
0000b0 2d 7a 64 be bf db 60 be e3 ad 12 3d e6 18 87 bd
       -0.22312231 -0.21958826 0.035810363 -0.06596546
0000c0 ad b5 91 bb c3 e6 21 3c 1b 9b 7a bd 28 12 4a 3e
       -0.0044467063 0.009881678 -0.061183076 0.19733489
0000d0 3b d6 93 bd ff 39 4d 3f e8 19 97 be f5 99 0b 3e
       -0.072185956 0.8016662 -0.29511952 0.13632949
0000e0 9c d9 0b 3e ba 33 de be d9 3b 2a bc ef b3 ed 3e
       0.1365723 -0.4339884 -0.010390245 0.4642634
0000f0 f7 04 87 bf e7 e5 49 3f 94 08 3c bd 32 d5 3a be
       -1.054839 0.7886643 -0.04590662 -0.1824539
000100 cc ea 0a be 53 91 d3 3b 14 54 cb 3d fe 0a 82 be
       -0.1356613 0.006456533 0.09928146 -0.2539901
000110 9c 7f fe be 30 38 63 be 61 4a 83 be bb 55 fa bd
       -0.49706733 -0.22189403 -0.25642684 -0.12223383
000120 a4 57 99 3e ad d5 6b bd fa 2f 92 3d a1 17 64 bd
       0.29949677 -0.057576824 0.07138057 -0.055686597
000130 ab 8f 9c be 79 07 a0 bd 90 7a 77 3e 96 fd 09 be
       -0.3057836 -0.07813925 0.24167848 -0.13475642
000140 43 58 51 3d e5 47 62 3d 9f 1d 0c be 50 a8 5b be
       0.051109564 0.055244345 -0.13683175 -0.21450925
000150 2e 47 8c be e7 b8 b8 bd 2e c5 8b bd b1 a4 d6 bc
       -0.27398056 -0.09019642 -0.068247184 -0.026201578
000160 e1 97 11 bc e6 18 26 be 88 6b be bd e0 19 c8 bd
       -0.008886308 -0.16220436 -0.09297854 -0.0977056
000170 ea 35 4d bd ff f5 6e be 44 cd 4e be 1d d0 12 3d
       -0.050100245 -0.23336028 -0.2019549 0.035843004
000180 3d 6b a3 3d 59 c1 80 bd 5e a4 16 be be 81 96 3d
       0.079794385 -0.06286878 -0.14711139 0.07348965
000190 5c 0f 84 be 9c 37 8b bb 36 42 74 3d 72 e3 41 be
       -0.25792968 -0.0042485725 0.059633456 -0.1893442
0001a0 78 8e 06 39 79 0b 0b be b0 47 ae bd 21 77 20 bd
       0.0001283231 -0.13578595 -0.08509767 -0.03917611
0001b0 e9 bd e7 be 7a 0f 5a be 0e bb e5 bd 91 59 35 bd
       -0.45262077 -0.21294966 -0.112173185 -0.04427487
0001c0 a7 1f 1c be a8 ba 8e 3c da 36 50 be 9f 4a fe bd
       -0.1524645 0.017422989 -0.20333424 -0.124165766
0001d0 72 5b 29 bd 88 6e 5d be a4 fe 37 be 13 79 75 3d
       -0.041346975 -0.21624196 -0.17968231 0.05992992
0001e0 fa 0a 34 3d 93 d0 98 bd 8c b0 52 bc c3 13 df bd
       0.04395578 -0.074616574 -0.012859475 -0.10892441
0001f0 eb 87 9d bb 83 ea 18 be cc d6 0d bb 00 36 6a 3d
       -0.0048074625 -0.14933209 -0.0021642921 0.057180405
000200 d3 41 11 3d ed fb 99 bc 69 6e a3 bd 22 91 4c bd
       0.035463165 -0.018796885 -0.079800434 -0.049943097
000210 30 cb 14 bf 99 a1 a5 bd 32 ca 53 bd e0 8a 05 be
       -0.5812254 -0.08087463 -0.0517065 -0.13041258
000220 6c dd a2 bc fb ee fe bc 6e 9d b8 bd 53 d0 83 be
       -0.019880973 -0.031119814 -0.09014402 -0.25744876
000230 d8 d5 ba be 30 76 05 be 0c 03 8d bb 2f d2 0e 3c
       -0.36491275 -0.13033366 -0.0043033417 0.008717104
000240 b6 80 b8 3b ef ed 58 be fb 7b 24 be d1 8b f7 bd
       0.005630578 -0.21184514 -0.1606292 -0.12087215
000250 71 aa 6c be b8 85 0c be 45 1b 17 be c5 41 ed bc
       -0.23111893 -0.13722885 -0.14756496 -0.028962025
000260 12 32 4b be 43 4f 27 be 4a 4b 4a bd df d1 57 bd
       -0.19843319 -0.1633883 -0.049388207 -0.052690383
000270 9a 43 18 be 4c c1 2f bc c4 e7 c9 bd 91 84 be 3c
       -0.14869538 -0.010727238 -0.09858659 0.023256572
000280 ce 99 f7 bd ab 14 05 be 09 5c 97 3d 9a 4b 99 bd
       -0.12089883 -0.12996165 0.07390601 -0.07485123
000290 ce c4 e9 bd d2 d3 d3 be 9e f4 5b be 4d 2f 8b bc
       -0.11414491 -0.41372544 -0.21480033 -0.016990328
0002a0 cb 09 af bd 34 7e 01 be 23 f4 19 bd 19 96 dd be
       -0.0854679 -0.12645799 -0.037586343 -0.43278578
0002b0 a8 6b 71 be 93 9f 85 bd 51 b3 bd bd c6 31 23 bc
       -0.23576224 -0.06524577 -0.092627175 -0.009960597
0002c0 1e 19 02 be 8e fd 06 3d 44 5f 7c be 00 44 0e bd
       -0.12704894 0.032956652 -0.24645716 -0.03473282
0002d0 fb fd 73 be ef 17 30 be df 79 b6 3d 7d 5b e8 bd
       -0.23827355 -0.1719663 0.08909964 -0.11345575
0002e0 9f eb 16 be 49 13 b8 bd e6 34 ef bd 62 35 e6 bd
       -0.1473832 -0.08988053 -0.116800115 -0.11240651
0002f0 a6 45 f7 bc 45 c8 00 be aa 6a c0 bb 11 77 5b 3d
       -0.030184578 -0.12576397 -0.0058720903 0.053580347
000300 a5 97 da bd 21 45 42 be 4d 94 03 3d 78 fe 8d bd
       -0.10673455 -0.18971683 0.032123853 -0.06933302
000310 f3 34 28 be 57 65 c3 3d 56 64 1f be 40 c4 2f be
       -0.16426449 0.095408134 -0.15565619 -0.17164707
000320 51 63 48 be 61 04 b5 bd b2 35 46 be 85 41 f6 bd
       -0.19569136 -0.08838726 -0.1935642 -0.120242156
000330 20 5d 11 be 48 8d 9c bb 33 ab a1 bd 72 52 f6 3c
       -0.1419568 -0.004777584 -0.07893982 0.03006861
000340 8e e4 e0 bd b3 a8 c4 bd 3a 03 f8 bd 73 16 58 be
       -0.10981093 -0.09602489 -0.121099904 -0.21102314
000350 32 9f 9d bf b2 58 21 3e 24 ba ea 3b 71 c4 00 bd
       -1.2314208 0.15756491 0.007163303 -0.03143734
000360 7f f8 52 be b2 54 1d be 78 e3 65 bc a3 7e 92 be
       -0.20602606 -0.1536434 -0.014031284 -0.2861224
000370 e9 3a 10 bf f1 f2 d5 be c6 b3 70 be e6 a9 82 bd
       -0.5633989 -0.41786912 -0.23506078 -0.06380062
000380 96 5c fc bc 66 c5 44 bd 05 e4 19 3d 45 5f 9e bd
       -0.030805867 -0.048039816 0.037570972 -0.07733015
000390 a4 e8 91 be 6d f3 13 be 76 26 08 be 44 dc ca bd
       -0.28497803 -0.14448328 -0.13295922 -0.099052936
0003a0 77 0a 11 bc 9a 7a 39 3d ca f1 ed bd 19 5c fa be
       -0.008852593 0.045282938 -0.11618383 -0.4889839
0003b0 83 82 e7 be 6c a1 66 bd 1a 21 a5 3d 40 18 8e 3d
       -0.4521676 -0.056306288 0.08062954 0.06938219
0003c0 9e 35 31 bd e8 c6 61 bd ce 9d 04 be d5 19 68 be
       -0.043264024 -0.055121332 -0.12950823 -0.22666104
0003d0 eb cd f0 bd e3 b0 87 bd 32 99 a9 3d 64 0d 94 bc
       -0.11758026 -0.06625535 0.08281173 -0.018072791
0003e0 5c 48 f2 3d 1c ef 8f bd b7 a3 9e bc 50 dd 80 be
       0.11830208 -0.07028028 -0.019365175 -0.25168848
0003f0 05 43 0a be 9e f5 e7 bd 8e 5d 18 bb 25 c2 e6 bd
       -0.13502128 -0.11326145 -0.0023249122 -0.11267499

fc2.bias f4 [32]
000000 e7 d7 e9 3e 6f 0e 19 40 ba b1 18 be 0c 52 20 40
       0.45672533 2.391506 -0.14911547 2.5050077
000010 30 15 1c bf 31 53 9d be 8b 9f 88 be c3 e4 ef bd
       -0.6096983 -0.30727533 -0.26684222 -0.11713555
000020 6e 1a 13 bf 27 18 4e 3e aa 8a 0f bf b8 f4 14 be
       -0.57462204 0.20126401 -0.5607096 -0.14546478
000030 93 0e b2 3e 7d af fd be 0f 63 8a 3e 4d ce 50 bd
       0.34776744 -0.4954795 0.270287 -0.050977994
000040 ca f4 bc be 0a 5c 98 be cf d3 90 be 59 3f d6 be
       -0.3690551 -0.2975772 -0.28286597 -0.41845205
000050 cf 77 c3 be 8c 9b 03 be b6 58 72 be 12 d3 49 be
       -0.38177344 -0.12852305 -0.23666653 -0.19709423
000060 8d 57 ae 3e 5b 9b a4 bd 5e 10 59 bd af cf ff bd
       0.3405117 -0.08037444 -0.052994125 -0.124907844
000070 b3 8d 26 bf 06 28 77 be 46 64 7c be d4 93 f5 be
       -0.65059966 -0.24136361 -0.24647626 -0.47964346

fc3.weight f4 [64, 32]
000000 ce fc da bd 99 4b 9f bc f1 7c a1 bc 8d e0 03 be
       -0.1069275 -0.019445227 -0.019712897 -0.12878628
000010 c4 82 fb bd 60 78 c0 bc 9e 81 38 bd a9 be 91 bc
       -0.12280801 -0.0234949 -0.045045488 -0.01779111
000020 e4 6f 7c bc 0a 37 9e bd 58 78 76 bd 61 a2 d0 3c
       -0.015407536 -0.077253416 -0.060173362 0.025468053
000030 9a c4 2d bc f5 79 c4 bc d3 e8 f4 3d 90 cc d6 3d
       -0.0106059555 -0.023983935 0.1195847 0.10488236
000040 ba 71 ae bd ae 51 69 3e f5 94 f0 bd 12 92 03 be
       -0.08517785 0.22785065 -0.11747161 -0.1284869
000050 12 b9 e0 3d 1b 20 13 3e fe 71 0f be 8e 09 12 3e
       0.10972799 0.14367716 -0.14008328 0.14261457
000060 74 a2 8f 3c a6 04 92 bd 81 8a dd bd 79 a4 f5 bb
       0.017533518 -0.07129793 -0.10817433 -0.0074964133
000070 3b 0e 1a be 84 fe c9 3c eb 17 0e be 4f cb b2 3d
       -0.15044491 0.024657495 -0.13876311 0.08730184
000080 78 f9 1c bf 13 2a 19 bf 16 90 c8 bc 56 8b 39 be
       -0.6131816 -0.59829825 -0.024482768 -0.18119559
000090 a5 fd 08 be 7b 14 73 3d 3d c8 2f be ec 67 84 bd
       -0.13378008 0.059345704 -0.17166229 -0.06465134
0000a0 76 b9 1f be 37 e8 8b bd 75 24 2d 3c 21 bf bb bd
       -0.15598091 -0.06831401 0.010567774 -0.09167314
0000b0 34 8d 15 be 40 c0 02 3e af 44 12 be a2 df a0 bd
       -0.14604646 0.1276865 -0.14284013 -0.078551546
0000c0 6b e8 c2 3c b4 c2 aa 3d 0d 6a 95 bc 79 e3 47 3d
       0.023792466 0.08337918 -0.018239046 0.04880092
0000d0 4e 65 30 bb e9 ba 34 3d 05 3b 3a bd 0f 92 5f 3d
       -0.002691585 0.044123564 -0.04546644 0.05458265
0000e0 05 1b c2 be 8c 13 6d 3d d0 be 4f be f3 43 e1 bc
       -0.3791124 0.05787997 -0.20287633 -0.027498221
0000f0 d7 b0 9c 3d d6 99 a0 bd b4 c5 12 be a2 09 b5 3d
       0.07650917 -0.07841842 -0.1433323 0.08839728
000100 63 e8 63 be f5 cd bc be 7d 9c 8b bd 56 e6 c4 bd
       -0.22256617 -0.36875883 -0.06816957 -0.096142456
000110 f4 f1 97 bd 82 7c 76 bd 2e 7d 43 3d 55 36 87 bd
       -0.07419196 -0.060177334 0.047726803 -0.0660216
000120 05 22 2a 3d 87 ad 86 3d e6 e5 ad 3c 70 60 82 bc
       0.04153635 0.065760665 0.021227788 -0.015915126
000130 de 9a 62 bc 01 4a 16 3d 00 ac 5a be d0 56 f7 3c
       -0.0138308685 0.03669167 -0.21354675 0.030192763
000140 63 e7 c3 bc 85 33 60 bd fc f2 99 bd 75 f5 f1 bd
       -0.023914045 -0.054736633 -0.07517049 -0.11814395
000150 b1 4a be bd 1e 1d a9 bb 06 fe cc bd c7 62 17 3d
       -0.0929159 -0.0051609417 -0.100093886 0.036959436
000160 4d b0 7d 3d 7f 6e 8d bc 9b 4a 0f 3b 4d de 6a bc
       0.06193571 -0.017264603 0.0021864537 -0.014335227
000170 d9 8e 5b bc 7e bc 63 bc ef b5 9f be 61 d4 0b bd
       -0.013400757 -0.0138999205 -0.31193492 -0.034138087
000180 7e 97 60 be 50 ea 5e be 4e 44 2b 3d 42 ed 93 bd
       -0.2193279 -0.2176907 0.041813187 -0.07222988
000190 0f 0c b4 bc bd ed ae bd c9 8e e2 bc 3d 5e 6a bd
       -0.021978406 -0.08541439 -0.027655976 -0.05721878
0001a0 36 9c 41 bd 35 f5 8d 3d dc 5c ad bd cf 27 5e 3b
       -0.047268115 0.06931535 -0.08464977 0.003389824
0001b0 b7 26 5a be 41 42 ad 3d df 4d 9e bc 0e a5 ee bc
       -0.21303831 0.084599026 -0.019324241 -0.029131439
0001c0 a5 66 b4 3c 87 4c e8 3b 86 ec 82 3d 37 a9 83 3c
       0.022021601 0.007089201 0.063927695 0.016071899
0001d0 e9 41 59 bd 76 91 a5 3d 60 cb bb bd 33 20 dd bc
       -0.053041372 0.08084385 -0.0916965 -0.026992893
0001e0 49 56 f1 bd 75 ac 91 bd ea de 9a bd f7 43 12 3d
       -0.11784036 -0.07112972 -0.07562049 0.035709348
0001f0 32 f1 01 bd 84 84 b2 bd 33 d6 23 bc 55 01 92 bd
       -0.031724162 -0.087166816 -0.0099998 -0.0712916
000200 25 11 9b bf 4f 9f 5c be 0c 56 78 3d 8c 30 c5 bf
       -1.2114607 -0.21545146 0.060628936 -1.540544
000210 1d 95 31 be 21 2b 1d be 26 e6 45 3d 44 5c 95 bc
       -0.17342038 -0.15348484 0.04831519 -0.018232472
000220 1b d9 82 3d 61 6b 8f bc 1a 67 04 bd aa 9d 0b be
       0.06389066 -0.017507257 -0.032324888 -0.13634363
000230 54 c1 ab bc 09 0b 4a bd 5a ff a3 bd c1 df b4 bd
       -0.02096621 -0.04932693 -0.08007689 -0.0883174
000240 97 09 c9 3c 6a 30 04 3e ed 99 82 3d 84 34 8b bd
       0.024540706 0.12909093 0.06377015 -0.06797126
000250 c4 54 2c be ff 42 02 3e 19 c2 93 bc bf 36 e2 3c
       -0.1682921 0.1272087 -0.018036889 0.027613996
000260 64 d4 5f bd 05 06 2e be ab e8 e8 bd 23 6d db 3e
       -0.05464591 -0.16994484 -0.11372503 0.42856702
000270 e4 31 a0 3c 01 5b 80 bc 23 7f d9 bd 72 2a f6 be
       0.01955504 -0.015668394 -0.106199525 -0.48079258
000280 d1 b8 b3 bd 97 5a 19 bd a9 b2 b2 bd a0 2b d1 bd
       -0.08775485 -0.03743991 -0.08725483 -0.10213399
000290 98 d4 af bc 20 2d f8 bd ca bd 31 bc 26 93 e1 bc
       -0.021463677 -0.12117982 -0.010848472 -0.027535986
0002a0 2a 77 65 bd ab ab 18 be eb 11 19 be a6 b3 1f bd
       -0.056021847 -0.14909236 -0.14948241 -0.038989685
0002b0 0a 32 1f be ca 07 c7 3c b6 1f 4e 3c da dc a4 3c
       -0.15546432 0.024295706 0.012580803 0.020124841
0002c0 04 f3 d2 3c fb 7a 86 bd 9e eb 7f 3d d5 b1 9c 3b
       0.025750645 -0.065664254 0.06248056 0.0047819414
0002d0 63 f1 97 bc 88 e6 b5 bd fe ff 1b be f5 50 30 bd
       -0.01854772 -0.08881861 -0.15234372 -0.043045957
0002e0 49 de a1 bd 0c 0b 56 bd 7a e6 14 be bf ef 94 bd
       -0.07903726 -0.05225663 -0.14541045 -0.072722904
0002f0 f2 bc eb 3a 7a 7c c3 bd 59 3d eb bd 29 dc c2 bc
       0.0017985387 -0.095452264 -0.114863105 -0.023786621
000300 aa 19 1b bf 07 f9 f8 bd 07 da bc 3d 94 45 10 bf
       -0.60586035 -0.12156873 0.09221273 -0.5635617
000310 07 b3 1a 3f ca c8 44 3d 4c 85 4e 3d 61 f0 7e bd
       0.60429424 0.04804305 0.05042009 -0.062240962
000320 04 7c e7 bd 9a ed 38 bc 77 f9 98 3d 68 9e 06 bd
       -0.11302951 -0.011287117 0.07469457 -0.03286591
000330 87 ba 4f be 30 92 b2 bc 41 e6 86 bc 10 5f 36 be
       -0.20285998 -0.021798223 -0.016467215 -0.17809701
000340 70 4e bd 3d 0f 1c 91 be ce f7 b6 3d 48 a7 ce bd
       0.092434764 -0.2834172 0.08933984 -0.100905
000350 f0 e0 06 bd 54 90 7e 3b f3 19 3c 3d 35 2e 1c bc
       -0.03292936 0.003884335 0.045923185 -0.009532501
000360 35 79 8f bd 28 e4 89 bd 82 d5 07 3b 57 f6 8e 3d
       -0.0700554 -0.067329705 0.0020726626 0.06980579
000370 1f a2 bf bd 47 2b 36 bd 78 90 4c be 14 c5 00 bd
       -0.09357094 -0.044474866 -0.19976985 -0.03143795
000380 bf a4 5d be 9e 71 a7 bd 13 56 68 3d ec 38 ac bd
       -0.21644877 -0.08175968 0.05672271 -0.084092945
000390 a0 0d 20 bd 24 4f 97 bc b5 57 33 3d 54 cf 26 3d
       -0.039075494 -0.018470354 0.043784816 0.040725067
0003a0 10 71 df bc c7 93 30 bd e8 2f 30 3c b6 2b dd bd
       -0.027275592 -0.04310968 0.010753609 -0.10799353
0003b0 4d 8f cf bd c7 a0 1d bd ec f9 21 ba d6 32 38 bd
       -0.10134754 -0.038483407 -0.0006178904 -0.044970356
0003c0 c2 a5 ea 3c 3a 82 97 3b 7c 8e b6 bd fd 34 b8 bc
       0.028643493 0.0046236785 -0.089138955 -0.022486204
0003d0 29 ba a0 bd fa 52 6d 3d fc c3 14 be f2 39 26 3c
       -0.07848007 0.05794046 -0.14527887 0.010145651
0003e0 55 d9 7d bd 24 6f e5 bd dd e5 06 be f0 98 58 3d
       -0.061974842 -0.11202839 -0.13173623 0.052880228
0003f0 8e 26 24 bc ab c9 46 bd 5d b5 34 bd 19 57 f5 bd
       -0.010018958 -0.04853217 -0.044118274 -0.11979503

fc3.bias f4 [64]
000000 d3 93 d1 3d af 2b c3 be a8 c6 7e bd 94 1f 37 be
       0.10233273 -0.38119265 -0.062201172 -0.1788314
000010 82 8c 67 bf c9 95 c5 bd 53 42 55 be e6 cb bd be
       -0.9044877 -0.0964771 -0.20826082 -0.37069625
000020 ea 7c a2 be 32 72 0a be 0b 9f 49 be 66 74 59 be
       -0.31735927 -0.13520125 -0.19689576 -0.21235809
000030 e9 3d dd bd 4b f6 cf bd d4 2a 3c be 69 1e be bd
       -0.10802824 -0.101543985 -0.18375713 -0.09283144
000040 47 50 31 be 6a 95 b1 be d0 d9 0d be 56 81 1c be
       -0.1731578 -0.34684306 -0.1385262 -0.15283713
000050 e5 b8 01 be 47 45 11 bf 8a d7 1a 3d 78 f3 8a be
       -0.12668188 -0.56746334 0.03780321 -0.27138877
000060 e7 a7 67 bd 16 95 77 bd 9f bc 8b be 62 c8 a7 be
       -0.05655661 -0.060444914 -0.27292344 -0.32770067
000070 0e 4e b7 bd 8c 82 3c be 5b 2e f1 bd bd b8 b4 be
       -0.089504346 -0.18409175 -0.1177642 -0.35297194
000080 ee c1 95 be 6a d9 a4 3f 2e c8 18 be 65 4f 8a be
       -0.2924952 1.287885 -0.14920112 -0.27013698
000090 07 56 e6 3e 61 46 0b be 36 bc da bd fe 00 44 be
       0.4498751 -0.13601066 -0.1068043 -0.19141003
0000a0 1a 40 72 be 49 a7 22 be bf f9 86 40 de b5 b1 3e
       -0.23657265 -0.15884127 4.2179866 0.34709066
0000b0 f3 f8 29 3e 58 ce 95 3e f7 84 08 be 37 92 aa be
       0.16598873 0.2925899 -0.13331972 -0.33314678
0000c0 cd 25 27 bd d6 a9 50 3e 4e 73 a4 be 40 5b 0b 3e
       -0.040807534 0.20377287 -0.3211922 0.13609028
0000d0 5c a6 5f be 8d 88 28 be da 4e b9 bd 39 63 f2 3d
       -0.21840805 -0.1645834 -0.09048243 0.118353315
0000e0 41 82 23 3e 78 6f 2d 40 8b 70 84 bc a2 09 8a be
       0.15967657 2.7099285 -0.016166946 -0.26960474
0000f0 27 98 06 bf 94 28 8e 3e a4 c7 e6 be ce 5a 4c bd
       -0.52575916 0.27765334 -0.4507419 -0.049891286

fc4.weight f4 [3, 64]
000000 1f 3f d4 bc 4d 0c 00 3e d3 63 0e bd df 99 6e 3d
       -0.025909005 0.12504692 -0.03476317 0.05825221
000010 41 31 29 3e ea 87 c9 3d 64 8f b5 3b 09 17 da bc
       0.16522695 0.09840377 0.005540775 -0.026622312
000020 37 aa 22 3d 47 e4 07 bc 29 6d 85 bd db 94 70 bd
       0.03971311 -0.008294172 -0.06514961 -0.05873571
000030 67 e5 14 3d 80 c4 6f 3c a4 4a 3a 3e fc 82 88 bc
       0.036351588 0.014634252 0.18192536 -0.01666402
000040 cc 12 fc 3d a0 28 11 3d 52 2f d9 3d a6 06 cc 3c
       0.12308273 0.035439134 0.10604729 0.024905514
000050 f8 b3 87 3c c7 d5 a6 3d ed 31 8e 3d 6f fe c6 3c
       0.016565308 0.081462435 0.06943116 0.024291245
000060 13 18 0d 3d c8 e8 54 3e 28 01 6a 3d d6 08 c0 3a
       0.034446787 0.20791924 0.05713001 0.0014651071
000070 b5 14 ac bd 1b 65 92 3d 40 68 e9 3d 54 f4 25 be
       -0.08402387 0.071481906 0.11396837 -0.16206485
000080 e5 b4 12 bf 77 c8 06 be 3a ec 47 3b 1b 49 be bb
       -0.57307273 -0.13162409 0.0030505792 -0.0058070547
000090 76 e9 a5 bc 8e 51 8b 3d 94 fb a7 bd 24 29 ca 3d
       -0.020252924 0.06802665 -0.082022816 0.09871128
0000a0 1e 5a e1 bb b1 e3 2b 3c 17 28 31 bf 8e 53 cb bc
       -0.006877198 0.010491298 -0.692018 -0.024820115
0000b0 ed 3d 86 bd e1 98 40 3e 23 66 cd bc a7 0b 21 bd
       -0.0655478 0.18808319 -0.025073117 -0.039317753
0000c0 ec bf 15 bd ba ac 8a 3d fb db 11 bd 23 70 6a 3d
       -0.036559984 0.06771226 -0.03561018 0.05723585
0000d0 21 50 d7 3c f8 dc 2e 3e 7a de 22 3d 06 7f e8 3c
       0.026283326 0.1707648 0.03976295 0.028380882
0000e0 aa d4 92 3d 6b f0 09 bf a7 0a 35 b9 bd e3 95 bd
       0.07169469 -0.53882474 -0.00017265473 -0.07318828
0000f0 e0 57 4b 3d 83 e1 29 3c e3 f6 95 3d 3d 13 61 bd
       0.04964435 0.010368708 0.073224805 -0.054949988
000100 fd 6e e5 bb e9 34 a6 be e6 38 5d 3c eb 35 6a 3d
       -0.007001756 -0.32462242 0.013502335 0.057180326
000110 c3 c5 1d be d7 1b 5c 3a 78 28 6f 3d e6 2d 0c 3c
       -0.15407471 0.00083964824 0.058388203 0.008555865
000120 ef 55 43 bd aa e1 a2 3c 6c 26 a3 3d d5 c6 a9 3c
       -0.047689375 0.019882996 0.07966313 0.020724693
000130 1a 3a 10 3d 5e 4c 8f 3d 9d b7 1d 3e 3c 0a 59 3d
       0.03521166 0.06996988 0.15402074 0.052988276
000140 43 b9 a0 bc 85 ec 38 3d 07 c9 e7 3b bd 8e da bd
       -0.01961959 0.045147438 0.007073525 -0.106717564
000150 22 03 0b bc b0 f6 4b 3e f3 64 cd bc 3b a8 83 3c
       -0.008484634 0.19918323 -0.02507255 0.01607143
000160 f9 a9 40 3d 45 f4 d1 3d 22 ad 89 3d b5 1a 4e 3d
       0.0470371 0.10251669 0.067224756 0.05031844
000170 ad 6e 49 3d a1 e0 85 3c fb 0f 0e bd 6e 70 ac 3d
       0.049177814 0.016342463 -0.03468321 0.08419882
000180 71 4e 3d 3e e9 dc ef 3c e6 09 7e bc 34 99 e1 bc
       0.18486954 0.029280143 -0.01550529 -0.027538873
000190 e1 8e 4e 3b a7 63 8b 3d 19 9e 06 3c 0f d6 43 3b
       0.0031518268 0.068061166 0.008216404 0.0029882228
0001a0 40 ac 80 3d 3c 8b ac 3c 06 36 54 bf 86 ea 1d 3c
       0.06282854 0.021062486 -0.82894933 0.009638434
0001b0 15 50 f9 bd 31 75 12 bd 86 f9 c2 3b b9 d7 56 3b
       -0.121734776 -0.035756294 0.0059501557 0.003278239
0001c0 d0 70 cb 3b 74 dd 20 bd 10 c5 45 3d 5b 57 4f bc
       0.0062085167 -0.039273694 0.048283637 -0.0126551045
0001d0 9b 70 14 3d 4b 6e 15 3e 41 15 2c 3c 76 ff df 3c
       0.0362402 0.14592855 0.010503114 0.027343493
0001e0 6c 2b b9 3d 6b d2 b8 be 41 3d 0c bc 73 ba 8d bd
       0.09041485 -0.36098036 -0.008559526 -0.06920328
0001f0 98 72 19 3c 33 ac 61 bc 98 e0 18 3e 3c 16 dd bc
       0.0093657 -0.013773966 0.14929426 -0.026988141
000200 8d f4 b5 bc 7b c0 d1 3d 2c 68 0d bd cc 67 16 3d
       -0.022211337 0.10241791 -0.034523174 0.036720082
000210 53 59 86 3d 2d 1b b5 bd e3 c2 1e bd 68 00 d6 3d
       0.06560006 -0.08843074 -0.038760077 0.10449296
000220 fb c5 cb 3c 47 80 31 3d 67 6a 27 3d 8f 7e f9 bc
       0.024874678 0.043335225 0.040872958 -0.030455856
000230 9c ac fa 3d 7f 4e a3 3c 30 06 9e 3d 26 c6 3a 3b
       0.12239954 0.01993489 0.07716024 0.0028499453
000240 d5 79 f9 3c 14 30 a8 bc eb 0d f8 bc 8b 4c 8f 39
       0.030453602 -0.020530738 -0.030280074 0.00027332114
000250 b9 a3 af bd 93 b0 16 3e c3 dd 0e bd b6 e2 9d bd
       -0.085761495 0.14715795 -0.034879457 -0.07709257
000260 d5 9a 7f 3d e8 3f fc 3d 4c 30 2f 3d 2f 04 26 3c
       0.06240352 0.12316877 0.04277067 0.010132833
000270 cd 8f 9e 3c 4e 15 60 3d 5b 16 cb bc 11 46 ae be
       0.019355679 0.054707818 -0.024790933 -0.3403783
000280 0a c0 ab 3e 41 b8 f0 bd c9 71 29 3d 08 a7 03 3e
       0.33544952 -0.11753894 0.04136828 0.12856686
000290 f4 02 ab 3d d8 85 81 bd 74 da 6c ba b4 46 25 bd
       0.08350173 -0.06324357 -0.00090352376 -0.04035063
0002a0 45 1b 07 bc 5b 6b 67 bc 5e a2 6c bf af 71 72 bd
       -0.008246248 -0.014124717 -0.9243525 -0.05919045
0002b0 68 2e 0c bf 05 f5 66 bd b6 6e 15 bd 07 dd 40 3c
       -0.5475831 -0.056386013 -0.036482535 0.011771447
0002c0 46 4b 2c 3d fe 09 ba 3d 60 4d df 3c 7d 6e 91 bd
       0.042063974 0.09083937 0.027258575 -0.07101152
0002d0 d1 f3 a8 3c e2 4e 61 3e c8 b7 20 3c 84 e5 c3 bc
       0.020624073 0.22002748 0.009809442 -0.023913153
0002e0 0d 83 66 3c 12 e1 19 3d 54 8c e2 3b 9b b8 21 be
       0.014069331 0.03756816 0.006913701 -0.15793078
0002f0 7b f4 83 3d 00 91 fd 3c 44 cc 75 3e b3 69 be bd
       0.06443115 0.03095293 0.24003702 -0.09297504

fc4.bias f4 [3]
000000 9f f9 64 c0 1c b6 10 c0 e0 fd 63 c0
       -3.5777357 -2.261115 -3.5623703
