something.pt_episode_1057.pt (torch, 182680 bytes, 8 tensors)

fc1.weight f4 [64, 5]
00000000: b187 69bc 5e8b 1e3e 3264 013e 217c 1cbd
00000010: 1333 73bd 22a6 bdbd 895c babd b936 b23c
00000020: 0a9b c9bc 8402 af3d 4fbd d73d 84b9 e8bd
00000030: 592e 99bd 24e0 5b3e 986f 243d 4bd8 81bd
00000040: a16b a13c 1ad9 a3bc 974e 02bd 0750 3d3c
00000050: fe1c 1b3d 6973 96bd ac80 8fbd f596 36bd
00000060: 4185 0dbd 4c60 1d3d 685a 223c 8b48 15be
00000070: 361b 9e3d b2e5 0fbd b08e 943c d2ad bc3d
00000080: c786 acbd fdfd 90bd da43 5fbd ecf4 01bd
00000090: 2413 89bd 42e4 53bd 0ae7 c2bd 9d42 77bd
000000a0: ea43 9cbd 4498 573d 8294 b03c 7947 c53d
000000b0: 60a6 e0bc 3297 933d a425 aebd 836a bebd
000000c0: 5ef6 aabd 9272 813d 5fa6 12be 118b 223e
000000d0: 6149 ce3c 2b4b 0ebd 696e 1bbc efba bc3d
000000e0: 607c 93bd 1ade 58bc 008f abbd 8848 f63c
000000f0: ddc1 9bbc b36c 6d3c 3092 55bc 90db fa3b
00000100: 501b dabd a80e 083e f3bb cebd 2dc3 023d
00000110: fa91 e3bc cc6b 46bc 484f 133e 5231 debd
00000120: 7580 d83d 5f7c 61bd 7baf 50bd 34f0 c03d
00000130: c38f 563d ca38 3bbd 2ec3 703e 0210 1c3e
00000140: a6c1 b7bd c22e 493d e0c3 b4bd 0bb5 283e
00000150: 85f3 c43d 527f 06bd c0d0 3abd 1cc7 6ebc
00000160: cea8 023e e3d2 32bd bd5d 923d 8f9e 093e
00000170: 045d 193e 9b11 bfbc 8179 40bd 27ee ffbc
00000180: 4510 c8bc 1180 563c a409 7cbd 5d9c 853d
00000190: 47e3 8d3c c5f1 96bb e435 cf3c 65d0 09be
000001a0: 494f b33d a37f 38bc 5c22 c7bc 90d7 97bd
000001b0: c7fe 55bd 0797 fbbc a867 4bbe 01c6 163e
000001c0: c448 343e 02a1 8dbd 58c5 91bb c826 c9bc
000001d0: 56ac b9bd 6d7d 3f3b 0e42 d1bc 0b4b a13d
000001e0: c9f1 b7bc ef0f 64bd 3f3f 7dbd 0c44 58bc
000001f0: 5874 cebc 351d 8ebd b641 0abd 8442 a9bd
00000200: 42d8 a33d 67f9 ac3d fc6c 32bd 3e2c 583d
00000210: 8ca7 cfbd aaa3 cb3d a96b 10bd 4050 cb3d
00000220: 7012 d33d 62c2 153d 70c1 ff3c c88e 8bbd
00000230: fd30 193d ed29 323d 3f0f 83bd d0b8 b8bd
00000240: aa0c febc b5dc 25be 5568 af3d b0b9 b6bc
00000250: eeab 713d 7ac5 8ebb 268d 9fbd 53f8 45bd
00000260: 4167 ed3c 847c 53bd c6b8 d6bc e1d6 3bbb
00000270: 2fe0 e9bc 3cd8 58bd 1c2c 76bd 6293 20bd
00000280: 58a4 103e ea6c babc ad7d 19be b524 383e
00000290: 98e8 033e 8131 3fbd 58c4 eabd bd68 b23d
000002a0: 7007 bf3d 77bb 24bc 1eea 69bd 2efe e03d
000002b0: 2443 21be b6f8 bb3d c2ee 08bc 9016 0a3e
000002c0: 9f23 eabd d54c 183e 22ee a2bd 0087 3f3d
000002d0: e283 d93d 5c51 f5bb 4b00 f83d 17e8 35be
000002e0: 3340 cf3d 9b32 0f3e 9e41 94bd 1375 4c3e
000002f0: b20f b9bd d3b6 f33d 5d80 3dbd a11e 083e
00000300: 29c1 2abd 9501 073e 221a 4fbd fbe6 b9bd
00000310: a6e1 a23d 61b1 483e 83b3 14be b557 4f3d
00000320: 9888 82bd ba55 bebd 83f7 b43d 80b4 7bbd
00000330: f987 46bd ebdb 1d3d eb0f cc3c ca03 213e
00000340: 5959 bebd ff5c 8cbd cd39 7b3d b299 fc3d
00000350: aa1a e03b 71b3 f53c b179 d6bd 8726 f2bd
00000360: d93d 103e f0b2 16be e2b8 873e f81e 12bd
00000370: f147 97bc fee2 4cbd 0ca5 40bd 778a bdbd
00000380: 3feb e1bc 5619 b1bd c50a 353d 0406 063d
00000390: b03a 283e d159 e73d eb45 fc3c 6acf 443d
000003a0: 90b6 893d 10ea b63d 80a1 8bbb 57e6 9ebd
000003b0: 868c 15bd 5fcf 1ebd 7237 233c cc0a 9ebc
000003c0: ced2 66bc 284e 0bbd a5b0 6f3d 51b3 593d
000003d0: 5a08 e6bd 3419 babc 13b8 b43c db9e bfbc
000003e0: 2f01 bcbd d194 3c3d 0e7d 88bd ca7b e93d
000003f0: 6745 9a3c 14f8 463e ed25 c3bd b76e f33c
-0.014253543 0.15482852 0.12635878 -0.038204316 -0.05937488 -0.09260203 -0.09099681 0.02175461
-0.024610061 0.08545402 0.105341546 -0.11363509 -0.07479543 0.21472222 0.040145487 -0.06340083
0.019704642 -0.020000983 -0.03181323 0.011554725 0.037869446 -0.073462315 -0.07006964 -0.044577558
-0.03455091 0.038421914 0.00990925 -0.14578454 0.07720034 -0.035131164 0.018134445 0.09212841
-0.08424144 -0.070796944 -0.054508068 -0.031727716 -0.06693104 -0.051731355 -0.095167235 -0.06036626
-0.07630141 0.052635446 0.021555189 0.09632773 -0.027423084 0.072065726 -0.08503273 -0.09297659
-0.08347772 0.06320681 -0.14321278 0.15873362 0.025181474 -0.034739655 -0.009486773 0.09215342
-0.07201457 -0.013236547 -0.083768845 0.030063882 -0.01901334 0.014491248 -0.013035342 0.0076555684
-0.10649741 0.13286841 -0.10094442 0.031924415 -0.027779568 -0.012110662 0.14385712 -0.10849251
0.10571376 -0.05505025 -0.0509486 0.09420815 0.052383196 -0.045708455 0.23511955 0.15240481
-0.089724824 0.049116857 -0.08826423 0.16475312 0.0961676 -0.032836266 -0.045609236 -0.014573839
0.12759706 -0.04365815 0.071467854 0.13439392 0.14976889 -0.023323825 -0.046990875 -0.03124149
-0.02442182 0.013092057 -0.06153263 0.065239646 0.017320288 -0.004606458 0.025294252 -0.13458402
0.08755357 -0.0112609 -0.024308376 -0.07414162 -0.052244928 -0.030711664 -0.1986376 0.1472397
0.17605883 -0.069154754 -0.004448574 -0.024554625 -0.090660736 0.0029219047 -0.025544193 0.078756414
-0.02245416 -0.055679258 -0.061827894 -0.013199817 -0.025201961 -0.069391645 -0.033754073 -0.0826464
0.08000232 0.08446007 -0.043560967 0.052776568 -0.10139379 0.09943326 -0.035258923 0.09927416
0.10306251 0.03656233 0.031220168 -0.06814343 0.037400234 0.043497015 -0.06399392 -0.09019625
-0.031011898 -0.16197474 0.08564822 -0.02230534 0.059001856 -0.004357037 -0.07790594 -0.048332524
0.0289799 -0.05163242 -0.026211154 -0.0028662013 -0.028549282 -0.052940592 -0.06010066 -0.039203055
0.14125192 -0.022757012 -0.14989348 0.17982753 0.12881696 -0.04667807 -0.11463231 0.087113835
0.093275905 -0.010054461 -0.057108037 0.10985981 -0.15748268 0.09178297 -0.008357706 0.1348517
-0.114325754 0.14873059 -0.079555765 0.046759605 0.10620858 -0.0074865054 0.12109431 -0.17764316
0.10119667 0.13984148 -0.07239078 0.19966535 -0.09036197 0.11900105 -0.046264995 0.13292934
-0.041688118 0.13184197 -0.05056203 -0.09077259 0.07953195 0.19598915 -0.14521603 0.050620753
-0.063737094 -0.09293695 0.088362716 -0.061451435 -0.048469517 0.03853981 0.024909934 0.15724102
-0.092943855 -0.06853675 0.06133442 0.123340026 0.006839116 0.02999279 -0.104724295 -0.11823755
0.14086093 -0.14716697 0.26508242 -0.035674065 -0.018466922 -0.050021164 -0.0470324 -0.09254926
-0.027577994 -0.086474106 0.044199724 0.03272058 0.16428638 0.11296428 0.030795058 0.048049368
0.06724274 0.08931363 -0.0042611957 -0.077587776 -0.036510967 -0.038771983 0.00996195 -0.019292258
-0.014088346 -0.034010082 0.05851807 0.053149525 -0.11232062 -0.022717096 0.02206043 -0.023391178
-0.09179913 0.04604036 -0.06664477 0.11400564 0.018831922 0.19430572 -0.09528718 0.029715879

fc1.bias f4 [64]
00000000: d7aa 423c 7396 753d eca3 053e 5fb6 cabb
00000010: 426d 003d e8ff ce3d de0f 68bd 770d 98bd
00000020: ab01 b33d ede8 74bd 69b1 8c3d 6443 51bd
00000030: 0809 93bc 0604 a53c c117 ba3d b4f5 d53d
00000040: 0ad1 813c 088b 043e aaa3 0d3e 4a8d 8fbd
00000050: 1f66 a83d 0b93 a63d c73b f2bc 8d9c 12bd
00000060: 72b7 843c e645 f3ba d469 a93b ac1e 083d
00000070: 09ad a13d e43f 1a3e 5bf9 16bd 18b0 803d
00000080: c6e8 0c3e a8a0 93bc c53e e83d 091a e53d
00000090: 45f9 b03d 6a29 a3bd 93b6 1d3d f006 fa3c
000000a0: 1eca 503d b027 cfbd 8638 463d 7a9c 8a3d
000000b0: cd11 5bbd 2226 8f3d ba62 db3c 2406 b93c
000000c0: 9598 e0bc ac26 553d 668f 89bd 2d6e 783c
000000d0: 9496 073d bd59 cdbc a4e5 58bd 8b15 983d
000000e0: e085 e33d 0483 863c 9b15 073d fc28 b0bc
000000f0: 1e6b 4f3d 67d1 bdbd e271 0ebc d8b3 b53c
0.011881552 0.059957933 0.13050812 -0.006186291 0.031354196 0.10107404 -0.056655757 -0.07424443
0.087405525 -0.059792448 0.06869776 -0.05108966 -0.017948642 0.02014352 0.09086562 0.10447255
0.015846748 0.12943661 0.13831964 -0.070093706 0.08222603 0.08133515 -0.02956952 -0.03579383
0.016200755 -0.001856026 0.0051700864 0.033232376 0.07894332 0.15063435 -0.036858898 0.06283587
0.13760671 -0.018020943 0.11340097 0.111866064 0.086412944 -0.079668835 0.038504194 0.030520886
0.050974004 -0.10114992 0.04839375 0.06768127 -0.053483773 0.06989695 0.026780475 0.022585936
-0.027416507 0.052038833 -0.06716804 0.015162987 0.033102587 -0.025067205 -0.052953377 0.07425984
0.11109519 0.016419895 0.03297959 -0.021503918 0.050639264 -0.09268456 -0.008694144 0.022180483

fc2.weight f4 [128, 64]
00000000: d5d3 1cbd 5664 933b a542 723c 3ede bebb
00000010: f8fd c6bc 0ca3 5d3e 7ba0 b23b 01c0 5b3b
00000020: 2c14 a4bc 38b5 a8bc 2a75 673e ff51 98bb
00000030: 8602 02ba 266c 4b3e 4e0b 9a3d 2974 803c
00000040: cf74 343d 6d30 803e f765 d7bc 4d24 63bc
00000050: 43ac 383e 8f78 433c f0c5 ddbc 0358 8a3c
00000060: 1ee3 ca3c 7d6e c93c c0c5 ed3d 0de9 9ebc
00000070: 658f 8bbb e6a1 153e f0fd a23c 799f b8b9
00000080: 5394 103d f188 f13d 922e 383e 9d5c 213d
00000090: fbe0 153d f928 f03b 898a 9abc 5d6e cebb
000000a0: 5110 b8bc bb43 d0bc 5bf6 c93a c541 d33c
000000b0: d156 773a 4d15 993c 820d b23c 586e eb3a
000000c0: 05f2 afbd 0b3f 7abc 3552 95bb 8944 7f3d
000000d0: 41e0 853c 2812 243e 2474 ce3c a955 f53d
000000e0: 9191 7dbd 7566 b93c f016 c93c 8716 bd3c
000000f0: b1cf 3a3e 2f4e 8dbd e353 2a3e 08da 6d3d
00000100: 59f3 cfbc 2814 99bc e977 993c 851f 903c
00000110: 1c63 cdbb ca13 c4bc 3c72 ea3b 3765 91bc
00000120: 9f1d 723c da39 d5bc 3786 92bc 65c9 76bc
00000130: c015 513a 1e7c d2bb ba1e fc3b 163e 90bc
00000140: 9ff1 343c 69fa c03c f466 9fbc 0824 55bc
00000150: 338a 7ebc 21b9 db3b 632a 4a3b b799 9cbb
00000160: 8ae1 a7bc 679b 70bc 5243 acbb 21bf c13b
00000170: 58e6 783c cc6a fc3b 4f90 2f3b de5a 963c
00000180: d0e8 88bc 8b5d 073c 0139 bc3c 4716 acbc
00000190: 57e8 873b 590c bbbc 01ee 903c 253a c03c
000001a0: 6e71 5f3c 182e 283c 6dc7 abbc bf0a 5dbc
000001b0: 558e 963c 271d b33a d0e4 b8bc 3729 933b
000001c0: 9681 9eba 92ff d7bc 0973 43bc ce4a 8ebc
000001d0: 74f9 44bc 019d 61bc 08da d7bb 23ba b73c
000001e0: 2ab5 67bc 9f57 f03b 1f39 513c 6963 cebc
000001f0: 6f7e 9e3b 86dd 933c 3c17 37bc ad1a 973c
00000200: 98b8 1d3d 7b96 9bbc a901 2f3b ece1 8b3c
00000210: 09cf 8fbb 27df ccbd b3a5 60bc 1d73 463c
00000220: c675 be3c b6d5 8bbc e416 99be 3c7f af3b
00000230: b874 71bd c195 11be 4d1d 99bd 79e9 443a
00000240: 8a97 2c3d 4822 ffbd d187 073d 8d7a 703c
00000250: cf2d c4bd a761 003b 0c92 193d 391f 8d3c
00000260: 5177 8bbc 8913 07bd 9d9e a7bc bb10 1a3d
00000270: 0d44 68bc d578 76be a755 b0bc fc17 993c
00000280: aaed f83b b576 6abd 96de acbd 5941 09bd
00000290: 6522 04bd cbcc e53c f24a 5e3c 1a67 a33c
000002a0: bee6 993c 5ebd 95b8 a838 b4bb d621 433d
000002b0: c6e3 ce3c e670 8cbb f087 f53c e299 a83c
000002c0: 5549 963d 614f 12bb 079e 413d cfd1 c3bc
000002d0: 0e9e 3cbd 9ada c7bd 9230 1dbb 89f8 e1bd
000002e0: db1c 593d f7a3 463c d180 94bc 0447 5abd
000002f0: d379 68be 89c3 d43d f2c8 55bd f301 cfbb
00000300: c156 5d3c fb95 a73c 8a19 1f3c 338e 083c
00000310: 7adc 823c 172a 253e e1d7 f53c a799 aa3b
00000320: 5e85 003d 9141 f239 bbb5 c13e a1a1 1839
00000330: 2902 88bc d7e1 563e 47fb b03d a26e b1bb
00000340: 16c8 d1bb f04d 293e 52b8 143d 039c a03c
00000350: 119d 2e3e 45cc 49bc 1be5 c13c caff cfbc
00000360: baf3 9c3c a450 943d 06c5 193e f2ba df3b
00000370: 8520 f63a 6492 373e 6715 19bc 80c8 4d3a
00000380: aaa8 833b 2ec8 ed3d e02a 223e 336a 643d
00000390: c21c d23c 80d9 043d 17b9 9ebc f38a 283d
000003a0: 691a b8bc 289c c43c cc8b f33c 06cb c0bc
000003b0: c65c d8bc 6736 3d3c 9f64 53bc 6176 a0bc
000003c0: f0f8 9abd 36c9 7f3c 915a 02bb bb08 093d
000003d0: c11a a03d ffcd b73d a9f4 edbb 8b9b 153e
000003e0: 7876 033d 1bdc a7bc 9dfe 4a3c 8f68 153d
000003f0: 117a 2b3e efa9 cabd f16e cc3d 04ca 0c3d
-0.038287956 0.004498045 0.014786397 -0.005824833 -0.024291024 0.21644229 0.0054512597 0.0033531191
-0.02002915 -0.020594224 0.22603288 -0.0046484466 -0.00049594825 0.19865474 0.075216874 0.01568039
0.04405671 0.25036946 -0.026293738 -0.013863635 0.18034463 0.011930599 -0.027071923 0.01688767
0.024766501 0.024588818 0.116099834 -0.019398237 -0.0042590373 0.1461254 0.019896477 -0.0003521403
0.035297703 0.117936976 0.17986515 0.039394964 0.03659151 0.007329103 -0.018864887 -0.0062997774
-0.022468718 -0.025422921 0.0015408503 0.025788197 0.0009435239 0.018686915 0.021734957 0.0017961962
-0.085910834 -0.01527382 -0.004556919 0.06232122 0.016342284 0.16022551 0.025201865 0.11979229
-0.0619064 0.022631863 0.02454707 0.023082031 0.1824329 -0.06899678 0.16633563 0.05806926
-0.025384592 -0.018686369 0.018733935 0.017593155 -0.0062679183 -0.023935217 0.007154731 -0.017748458
0.01477757 -0.026028562 -0.017886264 -0.015062665 0.0007975958 -0.0064234873 0.0076940926 -0.01760773
0.011043935 0.023556905 -0.019458272 -0.013009079 -0.015535879 0.0067054187 0.0030848018 -0.0047790664
-0.020493288 -0.014685488 -0.0052570486 0.005912677 0.015191637 0.007703161 0.0026788895 0.018353876
-0.016712576 0.0082620485 0.0229764 -0.021006716 0.00414757 -0.022833036 0.017691614 0.023465225
0.013637884 0.010264896 -0.020969117 -0.013491332 0.018378416 0.0013665304 -0.022570044 0.004490997
-0.0012093063 -0.026366983 -0.011929282 -0.017369654 -0.012022365 -0.013770343 -0.0065872706 0.022427624
-0.014142314 0.007334664 0.012769966 -0.025193887 0.0048368494 0.018049967 -0.011174973 0.018445337
0.03850612 -0.018992653 0.002670387 0.017075501 -0.004388694 -0.100035004 -0.013711381 0.012112406
0.023249518 -0.017069679 -0.29900277 0.0053557437 -0.058949202 -0.14217283 -0.07476292 0.0007511597
0.042136706 -0.124577105 0.03308851 0.014677656 -0.0957905 0.0019589455 0.037492797 0.017226802
-0.017024668 -0.032977615 -0.020461375 0.03761361 -0.014176381 -0.24069531 -0.021525217 0.018688194
0.007596691 -0.057242114 -0.084408924 -0.033509586 -0.032259364 0.028051754 0.013567673 0.019946624
0.018786784 -7.140146e-05 -0.005499918 0.04763969 0.025255095 -0.0042859195 0.029972047 0.02058119
0.07338206 -0.0022325146 0.047269847 -0.023903755 -0.04604917 -0.09758492 -0.002398525 -0.110337324
0.053006034 0.012124053 -0.01812783 -0.053290382 -0.22702722 0.10388858 -0.05219359 -0.006317371
0.013509453 0.020457258 0.009710679 0.008334684 0.015974272 0.16129337 0.030010166 0.005206305
0.03137719 0.00046206688 0.37833962 0.00014556061 -0.016602593 0.20984589 0.08641677 -0.0054148
-0.006402026 0.16533637 0.036308594 0.019605642 0.17052104 -0.012316768 0.023668816 -0.025390524
0.019159187 0.072419435 0.15016565 0.0068277055 0.0018778002 0.17926937 -0.009343482 0.0007850006
0.004017909 0.11610447 0.15836668 0.055765342 0.025648478 0.032433987 -0.019375367 0.041148137
-0.02247353 0.024000242 0.029729746 -0.02353431 -0.026411425 0.011548615 -0.012902408 -0.019587697
-0.07567012 0.015611937 -0.0019890408 0.03345559 0.07817603 0.089748375 -0.007261832 0.14610116
0.032095402 -0.020490697 0.012389806 0.036476668 0.16745783 -0.098956935 0.09982098 0.034372345

fc2.bias f4 [128]
00000000: a63a bc3d 2692 08bc 8e4e 54bd 0f9b 9b3d
00000010: 1dd9 273b 3bb7 cf3d 54b7 80bc 5ccc 023c
00000020: f9c8 d339 06a1 14bc c93c 983c 5271 06bd
00000030: e505 d93d 4927 a63d 22f7 653d f897 743c
00000040: f10f ce3d 560d 013e f61b 213e 3144 01bd
00000050: 903a 943d 348d 633c d614 7f3d 6952 7c3b
00000060: 2016 9a3d d5b2 a9bc 12c1 433c ea8e a5bb
00000070: dac1 a2bb aae1 883d 1317 84bb 8f4d 2e3d
00000080: 637d de3c ca95 02bd 9762 7ebc c3ec b83c
00000090: df40 283e adb3 bd3c 80e2 703c 91b1 883c
000000a0: f926 b83d ea12 823c 90be 6c3d 7ff1 523d
000000b0: 66bc b93c dd52 b9bc cda0 7d3c af65 003e
000000c0: 45f4 d6bc d306 eebb f8d0 f53d b297 be3d
000000d0: 745c d63d 2ee1 823c 4cbc 263d f6c8 bb3d
000000e0: 51e1 873e b734 c93d ae5d 19bc 6519 99bc
000000f0: 5885 b4bc 0575 0b3d 2f9b 0fbb fc98 21bb
00000100: b0f8 e43b 0a8e 99bb a4e8 42bd f683 ba3d
00000110: daa7 61b8 54f1 073e a958 8e3d 3701 383c
00000120: 5bc3 e73d fa1c d7bc 699d af3d 9147 d0bc
00000130: 179b 81bc e98d f13d 1bc8 26bd 205c afba
00000140: ee89 993d 292c b1bc c797 d13b 9999 98bc
00000150: a164 c53d 7e98 143d 1fcc 773d 2cb4 a5bc
00000160: 83f4 4c3d 67d1 483e a94e e13d 3f68 e33d
00000170: bfcc 0b3e 68a9 793d 751c be3c 0a8e 303d
00000180: e986 b7bc a4d7 863d 5ab4 20bd 17f0 013d
00000190: 4b49 cc3d aa40 b23b f1af d23d 230c 9d3d
000001a0: 92dc 0d3a 9ad0 653c 8521 6f3b 356f b1bc
000001b0: 556d 853d 4e74 f63d 675f ea3d 571f 82bc
000001c0: 2681 423b 6e27 303d 877e 93bc 7f22 aebc
000001d0: 8b12 db3d ffc5 033e 91aa 933d 8080 62bb
000001e0: e8e4 bc3c 3a08 56bc badc 8f3d 22cc 953c
000001f0: 2a9a 043c e1ee 853d 1725 863c 97c7 383c
0.09190874 -0.008335626 -0.051832728 0.075979345 0.0025611587 0.1014237 -0.015712418 0.007983293
0.00040394792 -0.009071594 0.018583672 -0.032822914 0.105968274 0.08112962 0.056143887 0.01492881
0.10061634 0.12602744 0.15733323 -0.031559173 0.072377324 0.013888646 0.06227573 0.0038501269
0.07523751 -0.020715157 0.011947887 -0.005052437 -0.0049669566 0.06683667 -0.004031071 0.042554434
0.027159398 -0.03188113 -0.015526435 0.022573834 0.16430996 0.023156965 0.014702439 0.016686233
0.089918084 0.01587816 0.057798922 0.05149984 0.022672843 -0.02262252 0.015480232 0.12538789
-0.026239524 -0.007263997 0.12002748 0.09306277 0.10466853 0.015976515 0.040706918 0.0916919
0.2653909 0.09824508 -0.009360714 -0.018688867 -0.02203624 0.034047145 -0.0021912565 -0.0024657836
0.0069876537 -0.004686122 -0.047585145 0.09107201 -5.3800504e-05 0.13275653 0.06950504 0.011230758
0.11316558 -0.026258934 0.085749455 -0.02542475 -0.015821023 0.11794645 -0.04071818 -0.0013378896
0.07497011 -0.021627503 0.006396267 -0.018627929 0.09638334 0.03627824 0.0604974 -0.020227514
0.050037872 0.1961113 0.11001331 0.11103868 0.13652323 0.060952574 0.023206929 0.04310421
-0.022403197 0.06584099 -0.039234497 0.03172311 0.09974917 0.0054398375 0.102874644 0.076683305
0.00054115907 0.014026785 0.0036488485 -0.021659473 0.06514994 0.12033902 0.11443978 -0.015884085
0.002967903 0.043006353 -0.018004669 -0.021256683 0.10696896 0.12868498 0.07210267 -0.0034561455
0.02305837 -0.013063485 0.07024522 0.018285815 0.008093396 0.06539703 0.016375108 0.011278055

fc3.weight f4 [256, 128]
00000000: c491 0b3e 09ad 65bc c753 1dbd 81f3 ba3d
00000010: f6c3 66bc 9f9c 953d 8959 67bc 3f82 dc3e
00000020: 9131 433e 0763 223c d9b8 53bc 3a8a 87bd
00000030: 4b14 423d 702c 7e3d aec0 a13e 9ccf 9d3b
00000040: 371a 773d 6f70 1b3d 821c 4a3d 5dc7 9fbc
00000050: 7b6a 8f3e a6d9 66bc 29d3 8c3e 5466 6fbe
00000060: 4cd7 b13e 772b cabd 020a 56bc 5891 983c
00000070: d769 6c3c 2cf9 7c3e 52b9 5dbd c2a4 dcbc
00000080: 1897 ad3e 4d34 17bd cde7 9abc fefb 4aba
00000090: 11ce 253d 2bea 93bc ac3a 903f 05b4 963c
000000a0: 9429 643e ce58 103c 4677 c93d c50b 8a3e
000000b0: 391c 8bbe 5d36 193c de10 663e 5885 653d
000000c0: d590 99bc bebf 92bc 3bb2 bc3d e391 813d
000000d0: 6a76 0e3d b7b1 ba3e 5f0d 1f3e cefd f63d
000000e0: 079b 7f3c 9dc7 f03c b4e3 90bb bba2 ddbc
000000f0: 6553 6f3c a729 3c3e 29a4 41bd 9a36 eebb
00000100: 3d14 953c b7cf 1b3b 93c9 30bd 157c 6e3d
00000110: fd47 94bd dd79 673d 77ad 4f3d bab6 0abc
00000120: ebc6 9d3d 8af0 deb9 19bf c53c c421 3fbb
00000130: 0811 1bbc ba71 ce3d 3a79 23bd 3b7d 783c
00000140: 77b5 5b3e d2d9 9c3e 1071 92bc ef8c 43bc
00000150: 1e6f cf3c 7894 753e e426 a73d ad40 c4ba
00000160: 6eec b23e 6372 243d 0ec4 973d d5ed 103d
00000170: bde4 973d 9965 1a3e 1e39 a43e 0e68 363e
00000180: 98f8 cb3a 476b 4e3e 541b 27bd b628 283e
00000190: 3a62 be3d 33de afbc fd9f 7a3d 11d8 853d
000001a0: d0bd 953c eacc 7b3c 8d71 a6bb 0d47 83bc
000001b0: 9878 dd3d 2833 c73d a27f d33d fb34 8d3c
000001c0: 602a 03bc f691 b93e 75c6 28bd 0343 f8bb
000001d0: a039 853d 43eb 433d 4daa 063d 5df8 953c
000001e0: 62be 643e 6850 52bc 49f9 7b3d bbaa 2e3b
000001f0: e416 ce3b 7f1d 1a3e e333 d53b 67f9 2dbc
00000200: 2d1a 91bc 1589 183c b8dc 8a3c 3329 653c
00000210: fb32 843c 5348 1ebb 4c4c 503b 9cac 9ebb
00000220: 96ee 273b 2c24 1dbc 5fac ef3a f63f fcba
00000230: 5926 213c 4c07 e6bb 2e80 4b3c 7261 abba
00000240: 7c14 c539 9b10 2ebc 2899 65bc a715 c53b
00000250: cde1 7fbc dacc 413c 6fe5 0c3c 2af3 83bc
00000260: b84c c4bb e6b5 933c 501f cebb ea2b d63a
00000270: 0f16 a6bb b056 953a 10ee 60bb 02aa 4cbc
00000280: 4130 873c aba7 2a3c c74e 143c 79b0 df3b
00000290: c351 7b3c aa1b 1a3c 96f0 0c3b 14ed 37bc
000002a0: b84d 95bb 076a 89bc 84b4 a7bb 910d 04bc
000002b0: 250e 82bc 98a1 50bb 1b05 09bc 931a 283c
000002c0: 4187 193c 19ba e4bb 41aa f33b 9990 64bc
000002d0: a34f 45bc 8f62 fd3b 1154 f33b a399 7e3b
000002e0: eec7 8dbc c7aa 80ba 991d c53a de10 80bc
000002f0: ba9d 113c 73a2 48bc 40bc 17bb cdff a3b9
00000300: c9e8 01bc 0f70 363c 71b6 953a e836 2d3c
00000310: 7e56 8e3c b1bc 6bbc 847c 7fbc ea1c eb3b
00000320: cdfd 5fbc e3cf e2bb 5ea5 2b3c 9c98 4dba
00000330: 3dae 943c 3cc4 6a3c 8e94 05bc 7d99 23bc
00000340: e508 8f3a e753 32ba 9c64 5439 2dab 763c
00000350: ac39 36bc f2b5 7f3c fd39 0bbc 6c40 8b3c
00000360: 1a49 56b9 5332 78bc f8a4 7b3c 4293 a8bb
00000370: 52ec 503c 6ac1 95bc 5211 b63b 0327 70bc
00000380: b830 6cbc ea14 8bbb 5e8d 943b 5d44 8cbc
00000390: 396a 80bc 5391 fd3b 5af2 51bc c495 d4bb
000003a0: 589a fe3b b341 f1ba aaea fbbb c3cb c1bb
000003b0: 01d9 863c 6548 55bc 71a6 fb3b 8af7 0ebb
000003c0: 0392 413c dac5 e93b a5f0 46b9 9a0f 4dbc
000003d0: 3dae 823b 4f63 19bc f1db c3bb 27fe 793c
000003e0: 5252 3d3c e197 84bc bf77 06bc 0fe1 8f3c
000003f0: 408a 9c3b 7d80 853c 52b1 cf3b e754 92bc
0.13629824 -0.014018306 -0.038409974 0.09128476 -0.014084807 0.07305264 -0.014120468 0.4306812
0.19061877 0.009911305 -0.012922489 -0.066181615 0.047382634 0.062054098 0.31592315 0.0048160087
0.060327735 0.037949022 0.049343593 -0.019504244 0.28010926 -0.014089977 0.27504852 -0.23378879
0.3473457 -0.098715715 -0.0130639095 0.018623993 0.014429531 0.24704427 -0.054131813 -0.026934031
0.33904338 -0.036915112 -0.01890936 -0.0007743238 0.040479723 -0.018055996 1.1267905 0.018396387
0.22281486 0.008810235 0.09837203 0.26962104 -0.2716997 0.00935134 0.22467372 0.05603537
-0.01874582 -0.017913695 0.09213682 0.06326654 0.034780897 0.3646371 0.15532444 0.12060128
0.015600926 0.029392058 -0.0044216756 -0.027055135 0.014607285 0.18375264 -0.047275696 -0.0072696926
0.018198127 0.002377493 -0.043160986 0.058223803 -0.07240293 0.056512702 0.05070254 -0.008466417
0.07703956 -0.00042522355 0.024138974 -0.0029164413 -0.00946451 0.10080285 -0.039910533 0.015166576
0.21455942 0.30634934 -0.017876178 -0.011935457 0.02532154 0.23982418 0.08161715 -0.0014972888
0.34946007 0.04014815 0.07410441 0.035383064 0.07416675 0.15077819 0.32074827 0.17813131
0.0015561758 0.2015811 -0.040797547 0.1642178 0.09296079 -0.021468258 0.061187733 0.06535352
0.018278986 0.01536868 -0.0050794543 -0.01602509 0.10814017 0.09726554 0.103270784 0.017237177
-0.008005708 0.36244172 -0.04120489 -0.007576348 0.06505132 0.047831785 0.032877255 0.018306905
0.2233825 -0.012836553 0.061517034 0.0026652056 0.00628935 0.15050314 0.0065064295 -0.010618544
-0.017712677 0.009310027 0.01695095 0.013986873 0.01613759 -0.0024151995 0.0031783758 -0.004842354
0.0025624386 -0.009591144 0.0018285624 -0.0019245136 0.009835803 -0.007019913 0.012420697 -0.0013075306
0.0003759003 -0.010624076 -0.014013566 0.006014544 -0.0156178 0.011828626 0.008599623 -0.01610716
-0.005990591 0.018031072 -0.006290354 0.0016339992 -0.0050685476 0.0011393633 -0.0034321584 -0.012491705
0.016502501 0.010415952 0.009051985 0.006826457 0.015339318 0.00940601 0.0021505705 -0.011225957
-0.004556384 -0.01677419 -0.0051179547 -0.008059875 -0.015875885 -0.0031834599 -0.008363034 0.010260242
0.009370626 -0.0069801924 0.0074360673 -0.01395049 -0.012042913 0.0077326964 0.007425793 0.00388489
-0.017307248 -0.0009816521 0.0015038728 -0.015633043 0.008887703 -0.012245762 -0.0023152977 -0.0003128037
-0.007929035 0.011135115 0.001142217 0.010572173 0.017375227 -0.014388249 -0.015593652 0.0071750777
-0.013671351 -0.0069217547 0.010476438 -0.000784287 0.01814949 0.0143290125 -0.008153094 -0.009985325
0.0010912685 -0.00068026636 0.00020255375 0.01505546 -0.0111221485 0.015607344 -0.008497712 0.016998492
-0.00020435863 -0.015148717 0.015359156 -0.0051445076 0.012751656 -0.018280704 0.005556264 -0.014657739
-0.014415912 -0.0042444365 0.004533454 -0.017122442 -0.01567565 0.0077382713 -0.012814129 -0.00648758
0.007769864 -0.0018406421 -0.0076878862 -0.005914183 0.016460897 -0.0130177485 0.0076797535 -0.0021815025
0.011814597 0.0071341814 -0.00018972399 -0.012515927 0.003988056 -0.009362056 -0.005977147 0.015258349
0.011555271 -0.016185703 -0.008207261 0.017563371 0.004777223 0.01629662 0.006338277 -0.01786275

fc3.bias f4 [256]
00000000: 929c ad3d 5bb4 a6ba c4df 2e3b 0401 553a
00000010: 1d71 163b 3b2b 183d 6048 a4ba ab72 553c
00000020: 5a00 583d bbd6 853c de19 d13b f22c 4b3d
00000030: 13d2 443d c351 89bc c328 3e3e 4511 053c
00000040: fc5a 973d f682 7dbc b3bc b83d d587 17bc
00000050: 2ccb deba 01c2 2fbc 82a1 d23b fc1b 343d
00000060: 5a98 b13b b8bb ad3c 4a1c 29bc c5ba d23d
00000070: 6371 8e3d 1526 e13d 2205 bb3d 5684 6f3d
00000080: cda5 1ebc 2708 9abc 2d3c 653d 0d0f 633c
00000090: 17b3 633d c5d7 573d 9e98 203b ade0 74bc
000000a0: 01e3 843d 1d2e d939 8829 d639 0060 853d
000000b0: e878 4d3d 73b8 8ebc 39ee 883c 481a 873d
000000c0: ddfc 7a3b c7c1 033e 7499 883a 0a06 f43d
000000d0: 6de6 073d ca18 e93d 5b20 65bc 1126 293c
000000e0: 0fdd 84bc 4eaa 633d 2ab8 45bd 0371 073c
000000f0: abfa de3b 4818 113d 597d b03d d638 a23d
00000100: b755 1d3e 4acb c23d c9f3 44bc 2048 b03d
00000110: 3d4e 3a3e 246b 563d 14ff 343b 7da8 dd3a
00000120: 4444 3e3b 16f0 c03c ae1d d13d 1fd5 453e
00000130: f210 96bc 7260 0c3d 80ac 253d 26eb 68bc
00000140: e3a8 feba bc24 a2b9 b6b5 dc3b bd6e 453b
00000150: 7eb4 25bc 894a 47bb 49cf 593d 9cb4 f6bb
00000160: 01ef 913e 4e7a c0bc 7735 4c3c 2fba 843d
00000170: a642 7e3d b35c 003e e2ad 9c3d d13f bdbb
00000180: 96c0 e33d 8b5d 9b3d 4c82 c03d c860 bc3d
00000190: 75df 0a3c c958 a73b 36de e33b 6644 55bc
000001a0: d150 e5bb e128 7b3d 09cd ee3d b2fc c63d
000001b0: 6856 3c3c 9eff 313d 5a0c 7b3d 92b1 ff3c
000001c0: 4ce5 823b ee1a dfbb 8367 4c3d 73e2 1dbe
000001d0: bbab 2d3d cf26 9a3d 217c 243a 6ff1 183c
000001e0: 1545 673c 0e64 ba3d 298d fcbb 5052 8d3c
000001f0: d94f e63d 7a35 443d 57c5 e93c 3e26 d63d
00000200: 9c53 bd3d 1c28 46bc 72b5 ac3a 69b1 d73d
00000210: bf56 76bc cabc 633c 1e4b dcbb a426 ac3d
00000220: 846f b83d 561c 55bc 1337 683b bb35 9ebc
00000230: 0018 8c3c 80e6 1b3b 8c27 4ebc 0465 993c
00000240: e800 383d eb04 bf3c 15ab 0bbd 3c41 1a3d
00000250: 82aa 94bc 51d6 303c f142 4a3d ef2d c73d
00000260: 4621 e73b 3e82 b33c 74cc 653d f8e9 833b
00000270: 0a38 863d 1012 4c3c 584f 23bc b19a 313c
00000280: 8916 2e3d 5a5b 013d ed36 5c3d c300 f0bb
00000290: f8d6 833d 1b65 e93d 6de7 833c 1c72 b03d
000002a0: ef94 17bc 2ad3 7e3e 3018 1b3c 051b 863c
000002b0: cf9e 493c b06b 953d 73de ea3c 7633 223c
000002c0: a721 863d d64b 303d e28d 993d b688 143d
000002d0: dacf d4bb a982 27bc 7416 ad3d 3d07 543d
000002e0: 824a b83c 0ad4 d23c db29 3bbb 718a b73c
000002f0: 9311 8a3d 8437 12bc fd4d cd3b ead7 6d3c
00000300: bc3d 3d3c 02fd 703d 49d9 6f3d 0b71 d73d
00000310: c0a9 8e3c ee3e 573c 3a71 6ebd 57b2 243d
00000320: 6a20 a9bd e2d3 d03d 285c 06bc 3824 b73b
00000330: ad0f 3bbc 2378 c83d 21d2 983d 3fef a63b
00000340: 67bf 293c 4dd9 383d c61e 7bbb 95ca f1bb
00000350: 4bbf 863d ffff 07bc 8b4d 16bc 859c 683d
00000360: 68b7 4b3c d1bd 6c3a d1da 613c 735f 07bc
00000370: 551e 933c 6abb 693d dd3e 063d 634d 5cbc
00000380: 0e26 f4bc 305a 50bc 898d 163d febd 81ba
00000390: b168 3b3d a035 893d 322c 8a3b 67dd a8bc
000003a0: e79a 693d a64e 743d 26a8 8e3d c0e8 963d
000003b0: 9b35 0c3d 30bc 8abc 7bb4 a23d f291 083e
000003c0: b90a fb3c 82a7 473d 9dd5 713d 6777 893a
000003d0: e107 603c 7f1c dc3c 2c6a a63d 3554 423d
000003e0: bb27 5e3d abe3 123c 899f 98bc cd8a c83b
000003f0: 1be2 04bb 4e11 7a3d 1e28 983d adc8 283d
0.08477129 -0.0012718545 0.0026683668 0.00081254565 0.0022955604 0.037150603 -0.0012533776 0.013027827
0.05273471 0.016337743 0.0063812574 0.04960341 0.048051905 -0.01676262 0.18570237 0.008121793
0.07390401 -0.015473118 0.090203665 -0.0092486935 -0.0016997806 -0.0107274065 0.0064279446 0.043972
0.005419773 0.021207675 -0.010321686 0.1028953 0.069552206 0.10993592 0.091318384 0.058475815
-0.009683085 -0.018802715 0.05596559 0.013858569 0.055590715 0.05269601 0.002450503 -0.014946145
0.0648861 0.00041423822 0.00040848204 0.06512451 0.050164133 -0.017421937 0.016715156 0.065968096
0.003829769 0.12866889 0.0010421709 0.11915214 0.033178736 0.11381681 -0.013984765 0.010324017
-0.01621869 0.055582337 -0.048271336 0.00826669 0.0068047843 0.035423547 0.08617658 0.07920997
0.15364729 0.095114306 -0.012021014 0.08607507 0.18193908 0.05234827 0.0027617859 0.0016911175
0.0029032389 0.023551982 0.10210739 0.1931958 -0.018318627 0.034271665 0.040447712 -0.01421622
-0.0019428994 -0.00030926417 0.006735529 0.003012582 -0.0101138335 -0.0030409417 0.0531762 -0.0075288545
0.28502658 -0.02349582 0.012463919 0.06480824 0.06207528 0.12535362 0.07650353 -0.00577543
0.11120717 0.07586201 0.09399852 0.09198147 0.008476128 0.0051070196 0.00695398 -0.013016796
-0.0069981595 0.061318282 0.11660201 0.097161666 0.01149521 0.043456666 0.061291076 0.031212602
0.0039946195 -0.00680863 0.049903404 -0.15418415 0.042400103 0.075269334 0.00062746 0.009334906
0.0141155915 0.09101115 -0.0077072573 0.017251164 0.112456985 0.04790256 0.028536482 0.10456513
0.09244463 -0.012094524 0.0013176634 0.10531885 -0.01503533 0.013899991 -0.006722822 0.084058076
0.09005645 -0.013007244 0.0035433217 -0.01931273 0.017101288 0.0023788512 -0.012582671 0.018724926
0.04492274 0.023317775 -0.034098703 0.03765987 -0.01814771 0.0107932845 0.049380247 0.09725558
0.007053527 0.02191269 0.056103185 0.004025694 0.06553657 0.012455478 -0.0099676475 0.010840104
0.04250196 0.03158126 0.05376332 -0.0073243096 0.064374864 0.113962375 0.016101563 0.08615515
-0.009251817 0.2488524 0.009466216 0.016370306 0.012305929 0.072959304 0.028670525 0.009899965
0.065493874 0.043041073 0.07497765 0.03626319 -0.0064945044 -0.010224023 0.08451548 0.051764715
0.022496466 0.025735874 -0.0028558883 0.022404881 0.06741633 -0.008924369 0.0062654004 0.01451681
0.011550363 0.058835037 0.05855683 0.10519608 0.017414927 0.013137562 -0.05821345 0.04020914
-0.082581356 0.101966634 -0.008200683 0.0055890344 -0.011417312 0.09788539 0.07461954 0.0050944383
0.010360575 0.04512911 -0.0038317903 -0.007378886 0.06579455 -0.00830078 -0.009173761 0.056789894
0.012433864 0.00090309704 0.01378508 -0.008262503 0.0179588 0.057063498 0.032774795 -0.013446185
-0.029803302 -0.012716815 0.036756072 -0.0009898541 0.04575414 0.06699681 0.0042166943 -0.020613385
0.057032492 0.059645317 0.069656655 0.07368612 0.03423081 -0.016935438 0.0794458 0.13336924
0.030644761 0.048743732 0.059041608 0.0010487855 0.0136737535 0.026869057 0.081257194 0.047443587
0.05423711 0.008965413 -0.01863076 0.006120062 -0.002027637 0.06105166 0.07429527 0.041207004

fc4.weight f4 [12, 256]
00000000: 4d4c 9cbd c594 26bb f59d 2dbb e69a 63ba
00000010: 7c40 0ebc eec8 b4be 8ac7 413c 5b58 b73b
00000020: 99dd 6c3d 05b7 b5bb 0095 34bb 92a0 ac3d
00000030: 13f0 70bd 46b9 973d 9a73 dfbc d04d 05bc
00000040: f271 b5bd c903 3b3c 5c07 ad3d a728 883b
00000050: 2fca 9f3b 0ac7 3d3b 312b 3cbc 0f56 5bbd
00000060: 0482 b93d a760 04bd 80bb c13b ef41 c1bd
00000070: b783 b5bd f45d debe 428e b5bd 7a86 97bd
00000080: 100d be3b e67e bc3b a86e a3bd 5457 dd3d
00000090: bd83 95bd 7b9c 29be ec35 04bc 5f8a 0dbc
000000a0: bb4b a2bd ee85 ba3b d223 403c cadc a5bd
000000b0: a7d5 75bd ada2 eebb 04fa 463c 9f16 9bbd
000000c0: 384b b43b 4191 e4be 5758 3f3c 7856 5cbc
000000d0: 0f68 16be 6b08 9ebd 8ea2 5bbb 2de3 323c
000000e0: 9bba 1ebc 4b2c b7bd e28c 813e 1ecf 2cbc
000000f0: 3ac6 53bc 94e9 54bd 9ae3 c8bd 3b54 40be
00000100: 50ae 58be 28f3 f3bd 21ff 80bb b1b2 adbd
00000110: 335c d1be b834 65bd 6cb1 563c ea47 193c
00000120: 9d7f 043b 56ea 66bd 5d49 75bd 392a c1be
00000130: b065 5c3b c15a a53d 4ae4 9cbd cc6c 33bc
00000140: 42ba d23a 2780 3f3c 65ee 4b3b f912 13bc
00000150: c517 2f3b 084a 073b 0981 9dbd 6dfc 363b
00000160: bf37 46bf e9f7 dbbd b8e5 8d3d 99a9 473d
00000170: 1207 56bd f9f7 0f3e 5712 85bd a1f1 ee3a
00000180: 0e2a 57bd 38f3 d8bd e90b cbbd c245 c8bd
00000190: 986c 59bc 94e4 e03b 8355 07bc dde3 013c
000001a0: 2edd 05bb d9d9 0cbe 2ed2 6bbe 1756 efbd
000001b0: 6010 afb9 032f d4bd 6fa2 eebd 220c 9ebd
000001c0: 9f8d 1e3c 21a2 143c 9377 94be f04b c53e
000001d0: 9ad0 51bd 5e01 c5bd 59c4 983b fae6 fc3b
000001e0: ec9c 2c3c 0a28 f5bd ef16 c13b 5e2f 633b
000001f0: c3e8 3fbf c4dd 22bd ad1e a73d c6b1 d9bd
00000200: c711 8abe db18 30bb 4fff 8ebb a3cc fdbd
00000210: b039 27bb e99a 963b 701a 06bc ede3 94bd
00000220: f87b f4bd 3ad1 48bb 68b0 1fbc f20c 4c3c
00000230: 5fd8 36bc cc6a bc3b 7a5e 05bb fe60 b43d
00000240: 7962 87bd a6f8 6bbd 393d 8fbf 3c2f 973d
00000250: 14ba 123c 7d95 993a a3ff 4abd 5d86 47be
00000260: 0aed ab3b dede 0dbd d31b 0ebe 8ce9 cf3b
00000270: 452a 88be d430 1ebe cce4 14bc d8f6 6ebd
00000280: 902b 95bd c053 82bd 42b1 79bd f51e c43b
00000290: aa50 adbd 737b 83be a23c ca3d e46f acbd
000002a0: 5df0 263c 5b8e bfbe 8649 0a3c a86d 0e3c
000002b0: a116 3f3c e304 b5bd 64cf d5bd 3237 573c
000002c0: 2cbc 5bbd 4dba 34be b4c1 9fbd d7ea 023e
000002d0: 90d8 56bc 739e c0bb 263d b9bd 5cbd 8abd
000002e0: fde9 eb3d 3991 923d 5bc4 0f3e e248 b6bd
000002f0: 95b6 73bd 1f45 3a3c 29f4 32ba 19c8 38bb
00000300: 88f3 b2bb 5f04 dbbd 8318 97bd 07e5 00be
00000310: a3a7 063c e5b0 9c3b a956 f5bd b07f 99bd
00000320: 5a78 123d 14d7 b5bd 56bb 233a 561a d23b
00000330: f697 bebb ee82 d9bd bed4 1bbe c209 563c
00000340: df13 08bc 6416 8a3d 7068 203b 5c74 853b
00000350: 7d42 acbd 5255 d8bb a021 bcbb 24f7 91bd
00000360: cc07 62bb 0df1 14bb 332c febb a7fb 103c
00000370: d9ab 603e 3afb 7ebd 5102 23bd e7fd f8bb
00000380: 16ab 37bc 5952 e63b f03b 7bbd eb10 493c
00000390: 0630 5b3d 7675 81bd 4cfb 3a3e fff3 25bc
000003a0: 3803 eebd 5037 21be a56f 93bd 880b a7bd
000003b0: 54fb ad3d 6d57 57bc 872b abbd b34f 87be
000003c0: 40c9 b13d 8d15 37bd 9e61 aabe d8ec 053c
000003d0: e9b4 b73b 7534 c43d 893d 92bd 4560 2cbe
000003e0: b436 b83d 58df df3d 4e57 063c 59db fe3b
000003f0: fe9f 1d3b 2329 98bd c94b bebd 9790 bc3d
-0.07631741 -0.0025418263 -0.0026491855 -0.00086824445 -0.008682366 -0.35309547 0.011827359 0.0055952496
0.05782852 -0.0055454993 -0.0027554631 0.08429064 -0.058822703 0.07408385 -0.027276803 -0.008136228
-0.08859624 0.011414477 0.08448669 0.0041552368 0.004876397 0.0028957748 -0.011484907 -0.05354887
0.09058002 -0.032318737 0.0059122443 -0.09436404 -0.08863013 -0.43431056 -0.08865024 -0.07398696
0.005799897 0.005752432 -0.079800904 0.10807672 -0.07300518 -0.16563599 -0.008069497 -0.008638947
-0.07924601 0.005692235 0.01172729 -0.08098753 -0.060018208 -0.007282576 0.012144569 -0.07572674
0.005502131 -0.4464207 0.011678777 -0.01344835 -0.14688133 -0.07716449 -0.0033513638 0.010918421
-0.009688045 -0.08943995 0.25302798 -0.010547427 -0.012925679 -0.05198057 -0.098090366 -0.18782131
-0.21160245 -0.11911613 -0.0039366637 -0.08481348 -0.40890655 -0.05595848 0.013103824 0.009355525
0.0020217665 -0.056375824 -0.059884418 -0.37727526 0.0033629946 0.080739506 -0.0766073 -0.010951232
0.0016077238 0.011688269 0.0031117436 -0.008976691 0.0026717049 0.0020643491 -0.07690627 0.0027921454
-0.7742881 -0.107406445 0.06928581 0.048745725 -0.052252837 0.14059438 -0.06497639 0.001822997
-0.05253034 -0.10593265 -0.09914381 -0.0977893 -0.01327052 0.006863186 -0.008260134 0.007927862
-0.0020426023 -0.13754977 -0.23029396 -0.11686342 -0.000333908 -0.10360529 -0.116520755 -0.07717158
0.00967732 0.009071858 -0.28997478 0.38534498 -0.05122433 -0.096194014 0.0046620783 0.0077179642
0.01053546 -0.119705275 0.0058926265 0.0034665684 -0.7496454 -0.039762273 0.08160148 -0.10629611
-0.26966688 -0.0026870284 -0.0043639312 -0.12392547 -0.0025516562 0.0045961034 -0.008185014 -0.07270036
-0.11937708 -0.0030642287 -0.009746648 0.012454258 -0.011159985 0.005750036 -0.0020350502 0.08807562
-0.06610579 -0.057610177 -1.1190559 0.07382056 0.008955497 0.0011717525 -0.0495602 -0.1948485
0.005246763 -0.03463637 -0.13877802 0.0063449796 -0.2659475 -0.15448314 -0.009087753 -0.058340877
-0.072836995 -0.0636363 -0.06096006 0.0059851357 -0.08462651 -0.25680122 0.09874846 -0.08419779
0.010189143 -0.37413296 0.008440381 0.008693136 0.01166311 -0.08838823 -0.10439947 0.013135718
-0.05364625 -0.17649193 -0.07800618 0.12784897 -0.013113156 -0.0058782636 -0.09044866 -0.06774399
0.11519239 0.07156605 0.14039747 -0.0890062 -0.059500296 0.011369019 -0.0006826544 -0.002819544
-0.00546116 -0.10694193 -0.07377722 -0.12587367 0.008218679 0.0047818297 -0.1197942 -0.074950576
0.035759307 -0.088789135 0.0006245872 0.006411831 -0.005816455 -0.10620676 -0.15217873 0.01306385
-0.008305519 0.06742552 0.0024476312 0.004072709 -0.08411119 -0.006601968 -0.005741313 -0.071272165
-0.003448951 -0.0022726685 -0.007756734 0.008849061 0.21940555 -0.062251307 -0.03979713 -0.007598627
-0.011210224 0.0070288596 -0.061336458 0.0122721 0.053512596 -0.06321232 0.18259925 -0.010128974
-0.11621708 -0.15743756 -0.07199029 -0.08156496 0.08495203 -0.0131434025 -0.083579116 -0.26427993
0.086809635 -0.044698287 -0.332776 0.008174144 0.005606283 0.09580318 -0.07140643 -0.16833599
0.08994809 0.10931271 0.008199526 0.007777613 0.0024051662 -0.07429721 -0.092917986 0.09207266

fc4.bias f4 [12]
00000000: ab1d 2ebe cfca fabd 2d37 423c b62e a73b
00000010: c108 d4bb 1614 9b3c 57c5 97bb caac 2a3d
00000020: abe3 cfbd 9e3e 17bd 1244 45bc 327e 173d
-0.17003505 -0.12245714 0.011853975 0.005102004 -0.00647077 0.018930476 -0.004631679 0.04166869
-0.10150846 -0.03692495 -0.012040155 0.036985584
