tuned.pt_episode_1.pt (torch, 182468 bytes, 8 tensors)

fc1.weight f4 [64, 5]
00000000: 5560 043e 2966 08be c880 393e f0de 4cbe
00000010: 77d0 c23e 8d7b abbe 8a49 163e ebdd 9fbe
00000020: bd35 ac3d d942 703d 1891 1fbe 6cdf 1c3d
00000030: 3032 773e ea5f 9bbe 9fa0 9bbe 35d0 723d
00000040: 61fe cc3d c638 723e e6c2 92be c9a2 0abe
00000050: 3020 be3e 5855 7abe db1d 8b3d 744c c6be
00000060: 31bc aabe d666 3c3e e0e0 b63c 6891 42be
00000070: 2cef 8fbe c7ae 23be 5564 d6bc 80ca 303c
00000080: 3d2f be3d a747 6bbe 119f 8b3e 9dd9 7d3d
00000090: 6172 9dbe 2030 da3e 21eb 23be f044 843e
000000a0: e158 dabc 7ce0 8abe d3f6 4f3e 9552 babe
000000b0: dc0b 0d3e f064 e1bc 61fe 3d3e be61 a63e
000000c0: 3339 a2be 7c15 8bbd 78f3 40be 3214 d0be
000000d0: b6ac c13e 7f5b 813e 27b6 cfbe 4416 d53e
000000e0: c68f 9bbe dc15 563e c797 8c3d 84e0 1b3e
000000f0: 0c6c ef3d 688c a13e cf82 d83e 8066 efbe
00000100: 746a 033d d529 d53d 2c29 88be 82d6 693e
00000110: a160 e4be 09b5 a0be 239a 553c 2715 ca3d
00000120: 7933 e2be 07b2 dfbd d71f 0a3e 4f8a babe
00000130: ba59 5bbe 87e9 2f3d d20f ea3e de03 893d
00000140: 68ef 4dbe 77c9 923e 7890 85be c101 0dbe
00000150: 9294 e4be 1541 4dbe b6cd 8c3e 06a6 74bd
00000160: bf65 34be 779e b3be 0f98 91bd 0fc2 8dbd
00000170: 68e1 2e3d 2831 c53e 4e39 183e 2556 4a3c
00000180: 53c8 e53e 9123 a5bc 33a7 babe bbe8 9e3e
00000190: dd7c bfbe 2c56 663e 771b b43e 82cb afbe
000001a0: a874 553d 65f9 123e cc2f 3f3e 8c03 0abd
000001b0: 21a9 22be ff6d e9bd b526 5abe e5e5 4dbe
000001c0: ffc6 abbe b057 c53e c532 383e 25c6 d7bd
000001d0: 46a4 db3e c413 dbbe 02a1 883e d583 443e
000001e0: b850 783e a817 8dbd e09c c6be 6321 ef3e
000001f0: 5f7e fabb feec a03b ee84 80be 6689 573d
00000200: f4a7 263e 1acf a53e 93b3 3b3e 6bca c9be
00000210: ca10 57be e0ce 60be 3fb1 bf3e eddc 32be
00000220: 609a adbe 8f03 803c bf99 4ebe ef77 8fbe
00000230: 6f09 c73d 7335 de3e 206c e03d 574a cdbe
00000240: 1b44 b3be 6164 ecbd dea0 89be 2c50 e3be
00000250: e4a9 c1bd 184b dcbe 4835 843e 56e1 293e
00000260: c934 d1be 3063 5abd 4008 c83e 16ac 4a3d
00000270: d601 9b3e 2d4b bcbd e895 d93e 2a9b 85be
00000280: ccf4 11be ccbf 223d 7191 cbbb f55f 843e
00000290: 2b85 a13e 30d6 dc3e f4da a63d 0fbc a33e
000002a0: e70f f33c 2d07 8fbe dbb0 b4be f403 ae3e
000002b0: 00b2 3dbe 0735 0bbc 5aa7 223e e3a9 b53e
000002c0: f300 4d3d 1ef2 50be 0a2b 4bbd 1bd5 91be
000002d0: 1b03 c0be d832 783e 4d36 063e af26 d7be
000002e0: ed42 613e cb0c df3e b1df 9d3e 0f0f 663e
000002f0: ebfc b23e fe26 5b3e b7b3 a03e fb38 8c3d
00000300: aaf0 fd3d 2dc4 afbe 2d45 eabc 2eea c33e
00000310: ecb8 39be aa25 70bd d971 81be a77a a6be
00000320: dd12 783e 5964 55be 2862 8c3e 7020 bebe
00000330: e9dc 9d3e 5072 c7be 8526 8bbd 4612 583d
00000340: 3419 93bd 861e a1be 50d8 443d 51d7 ae3d
00000350: 9641 9a3d c83f 79bb 1bf4 d5bd 3cca 1bbe
00000360: 517c dcbe 7e81 a2bd 285b 523e b933 c33e
00000370: d690 3d3e bc38 bd3e e864 d33e 0e80 a7be
00000380: 8448 d13e b7d5 1c3e d728 0b3e 596b edbd
00000390: d0aa 073e 3121 bd3e e7bd 263d f41d d73e
000003a0: cee6 653e d0c5 5a3c dd3f 6bbe 659c 21be
000003b0: 352b f83d 481a 31be 2d41 08bd d874 b23e
000003c0: 414d 0e3e 70ea 77be d0db 3b3e 1446 56bd
000003d0: e634 a2bc 896b b1be cedb b03e dbae 09bd
000003e0: e327 a73e e4d3 9dbe 0b4b b4be eff7 7f3e
000003f0: e304 bd3e 4244 a13e 4c97 a8be 1e62 9c3e
0.12927373 -0.13320221 0.18115532 -0.20006919 0.3804967 -0.334927 0.1467649 -0.31223997
0.08408687 0.0586575 -0.15582693 0.03829901 0.24140239 -0.30346614 -0.30395982 0.059280593
0.100094564 0.2365447 -0.2866432 -0.1353866 0.37133932 -0.24446619 0.06792804 -0.38730204
-0.33346704 0.18398604 0.022324026 -0.1900078 -0.2811216 -0.15984641 -0.026170889 0.010790467
0.09286354 -0.22976552 0.27269796 0.06197511 -0.30751327 0.4261484 -0.16007663 0.25833845
-0.026653709 -0.27124393 0.20309 -0.3639113 0.13774055 -0.027513951 0.18554069 0.32496446
-0.31684265 -0.06791207 -0.18842876 -0.40640408 0.3782708 0.25265118 -0.4056866 0.4161855
-0.30383128 0.20906776 0.06864887 0.15222365 0.1169053 0.31552434 0.422873 -0.4675789
0.032083943 0.104083695 -0.26593912 0.22835734 -0.44604972 -0.3138812 0.013037237 0.09867316
-0.44179896 -0.10922628 0.13488708 -0.36433646 -0.21420947 0.04294732 0.45715195 0.06690191
-0.20110857 0.2866933 -0.26086783 -0.137702 -0.446446 -0.20044358 0.27500695 -0.059728645
-0.17616938 -0.35081837 -0.07109081 -0.06921779 0.042695433 0.38514066 0.1486561 0.01234964
0.44879398 -0.020158561 -0.36455688 0.31036934 -0.3739995 0.2249381 0.35177204 -0.34334952
0.052113205 0.14352949 0.18670577 -0.03369479 -0.1588483 -0.11397933 -0.21303828 -0.20107229
-0.3355026 0.38543463 0.17988117 -0.1053584 0.42898768 -0.42788517 0.2668534 0.19190915
0.24249542 -0.06889278 -0.3879156 0.4670516 -0.007644459 0.004911064 -0.25101417 0.052621268
0.16275007 0.32384568 0.18330221 -0.39412245 -0.21002498 -0.21953917 0.37439916 -0.17467089
-0.3390684 0.015626697 -0.20175837 -0.2802119 0.09718596 0.43400154 0.10958123 -0.4009578
-0.35012898 -0.11542583 -0.26880544 -0.44397104 -0.09456232 -0.43026042 0.258219 0.16589865
-0.40860584 -0.05331725 0.39068794 0.04948052 0.30274838 -0.09194026 0.42497182 -0.26094943
-0.14253539 0.039733693 -0.0062124063 0.2585446 0.31546912 0.43132162 0.08147231 0.31979415
0.029670669 -0.27935162 -0.3529118 0.3398739 -0.18524933 -0.008496529 0.15884152 0.35481176
0.050049733 -0.2040486 -0.049601592 -0.284829 -0.3750237 0.24238145 0.13106652 -0.420217
0.21998186 0.43564448 0.30834725 0.22466682 0.34958586 0.21401593 0.31387112 0.06846806
0.12399419 -0.34329358 -0.028597439 0.38264602 -0.18136948 -0.05862967 -0.2528217 -0.3251545
0.24225946 -0.20839061 0.27418637 -0.37134123 0.30832604 -0.389544 -0.067944564 0.052751802
-0.071825415 -0.314686 0.048057854 0.08537162 0.07532041 -0.0038032401 -0.1044695 -0.15213865
-0.43063596 -0.07934855 0.20542586 0.381254 0.18512282 0.36957347 0.41287923 -0.32714885
0.40875638 0.153159 0.13589798 -0.115927406 0.13248754 0.36939386 0.04070845 0.4201504
0.22451326 0.013352826 -0.2297358 -0.15782316 0.12117616 -0.17295182 -0.03326528 0.3485477
0.13896658 -0.24210525 0.1834557 -0.052312925 -0.019800615 -0.34652355 0.34542698 -0.03361402
0.3264762 -0.30825722 -0.35213503 0.24996923 0.3691779 0.3149739 -0.3292793 0.30543607

fc1.bias f4 [64]
00000000: 3820 85be fb95 cb3c 31e4 103e 4fe2 153e
00000010: 6e96 dbbd c50f 5dbe 7a3b 943c 769f 8b3e
00000020: 682b 81be 6654 e7be 543e 00be 83a4 e7be
00000030: 1e4c d1bd 1659 85be ad23 d5be 3325 e83e
00000040: c715 cfbe 5e0c 623c 63f7 92be bd30 aebe
00000050: 21e2 083e 8fac 5dbe 7fa4 d83e 5b67 94bc
00000060: 3743 263e a324 073e b283 3cbd 9f21 37be
00000070: f455 b7be 32d4 abbe c097 c4be a305 ad3e
00000080: 62d5 b13e 4dd8 a93a ec6c 953e c6ef c4be
00000090: ac0d 9f3e f84e 56be 52c0 d7be c71e d63e
000000a0: 41a1 5cbe c05b e23e 4f49 a63e 20a5 563c
000000b0: ce3c bc3e 5320 dcbc 6998 da3e 3d43 e63e
000000c0: 2e72 e7be e1b4 94be ebd4 893e 4794 78be
000000d0: 143c aebd 1e99 9cbe 73ff c8be da03 7abe
000000e0: 03c0 ac3d 6a34 a0be c773 e2be 1a46 943e
000000f0: cf8e c9bc ddb2 203e 5b9e a93e 7bf5 b9be
-0.26001143 0.02485179 0.14149548 0.14637111 -0.107220516 -0.21588047 0.018094767 0.27270097
-0.2522843 -0.45181578 -0.12523776 -0.452427 -0.10219596 -0.2604453 -0.4162878 0.4534088
-0.40446302 0.013796894 -0.28704366 -0.3402156 0.13367511 -0.21647857 0.42313 -0.01811569
0.16236578 0.1319757 -0.046024032 -0.17883919 -0.35807765 -0.3356033 -0.38397026 0.33793363
0.3473311 0.0012958139 0.29184663 -0.38464183 0.31065118 -0.20928562 -0.42138916 0.41820356
-0.21545888 0.44210625 0.32477805 0.013100892 0.3676514 -0.026870882 0.42694405 0.44973174
-0.452043 -0.2904425 0.26920256 -0.24275313 -0.08507553 -0.3058557 -0.39257392 -0.24415532
0.08435061 -0.3128999 -0.44228956 0.28959733 -0.02460423 0.15693231 0.33128628 -0.363201

fc2.weight f4 [128, 64]
00000000: fab1 89bc 2479 1b3d 1495 873d ffd0 04be
00000010: 5036 8cbc 9064 abbd 0b27 0dbe 677c dabd
00000020: 2c45 943d b2c6 8fbb 8875 f8bd 6c1d b43d
00000030: d079 033c 583e d6bc b85a c7bd 5d7b 71bd
00000040: 4cde 1cbd a01c e83c c9f8 8e3d 86b4 a0bd
00000050: 818d 4cbe d05d 11be 18fb bcbb a287 c83c
00000060: a5b2 853d f58f ed3a 0a8b ba3d 98c7 f13d
00000070: a8f1 a23a 6001 b73c 3f8c 9abd 7620 a9bd
00000080: 2708 093e 473a ce3c 4496 89bd 68c2 87bc
00000090: 0827 3e3c 9ce0 883d 2b8a 7f3b 1cb7 493d
000000a0: 8a2a f8bd 7821 883c 2627 d1bd 4840 58bc
000000b0: d4c8 823d 22b6 aa3d 64ff db3d f165 123e
000000c0: bc84 30be 99e6 8fbc 007e 093e 0f99 193a
000000d0: 120f aabc 7133 00be 52f8 9ebd 18bc 55bc
000000e0: ba7c 9f3d 9b64 4fbd ca9c a8bd 1a64 21bc
000000f0: 1cfd 043e c125 b53d be85 e03d a0cb c6bd
00000100: 6610 8e3d 7466 ffbd 609c 0ebc 1b96 e73c
00000110: 0ea2 f93d 78ba bcbb 518b 15bb 32bf 853d
00000120: 244c c7bd cbcd 0d3d 5ebe dabd 0a65 c4bd
00000130: ea50 f1bc f8e1 69bd 96c1 ca3d 87f7 2b3e
00000140: 1a16 b9bd a831 8cbc bec1 f23d 4e6b 23bc
00000150: 07b2 b03d 4949 813d 50a7 49bd aaf5 593c
00000160: aece 1fbe 2407 903c 5861 f23d 3451 49bd
00000170: b039 d8bc e46a 353d 4133 e3bd b276 0f3d
00000180: 49b3 0dbc 3d44 263c 68ac 873c aa36 b03d
00000190: 3826 ef3c 35a6 87bd 1bfd afbd f288 8e3d
000001a0: 5135 703d d0bd 19bd 1400 bd3d 50a0 8c3d
000001b0: c549 013e b6e9 b53b edf3 e9bb b307 d63c
000001c0: 9ab0 52bd a7dc 163e 6c38 df3c f126 713d
000001d0: 92a2 01bd cea7 493d c8c4 043d 9ea8 e13d
000001e0: a87d 2cbd 6241 de3c dced 7b3d 327e c53b
000001f0: eaa9 7b3d 84ac 3ebd bcd4 9a3c 0326 4a3d
00000200: bcd1 f73d d0a1 5c3d 0289 983d 4a35 983d
00000210: 8053 61ba 08c1 e7bd 10cd 503d 58be 99bd
00000220: b626 c0bd 08d1 233d a8ce 743d f8b1 8bbc
00000230: ba09 d9bd e061 0dbd b08f e5bc 04da 28bd
00000240: c640 a6bd a034 79bc d0f4 c03d c02a 8ebd
00000250: 70c9 a93d 9c87 533d b834 f33b 38f5 cabd
00000260: b829 16bc a849 193b f4bc 04bd d4c9 a93d
00000270: 1468 cabd f859 873c 4ccb 8d3d f0b9 943c
00000280: a038 d83c a6c9 a4bd 9c89 ba3d 20b4 d53c
00000290: 38ca 543c e07c 73bd 7288 c7bd 1cc4 933d
000002a0: 0cb1 523d d424 933d 26ae db3d 88a7 d53b
000002b0: 8e8c c83d be1c a13d 30a9 083d 3e17 ab3d
000002c0: d428 473d 54cf 713d d8b4 febc 90c2 e8bd
000002d0: 605a 3abd fce6 01bd 8018 043d d8b8 383b
000002e0: 84a5 d33d 7656 f13d e873 00bc 1413 18bd
000002f0: 7442 103d 6ac2 fdbd b890 d1bd c095 a8bc
00000300: a98e cabd 6691 d93d 6a9e 993d d7ec 08bb
00000310: 1647 d7bd 8aa2 c63d ee45 13be e973 0bbe
00000320: 68b8 19bd 8ccd ebbd a8f5 1f3d 8906 5dbd
00000330: 4bca 6e3d 5a4d bb3d 409e f73c b4d6 3bbe
00000340: 80ab fb3d 95d8 f8bb 4df3 743c 6ca7 8cbd
00000350: 4135 fdbd 532b f1bd b837 c2bc 2e41 473c
00000360: 4ccf 003e eb3a 09be b811 51bd 0e89 893d
00000370: cc0c 32bd 6cb3 a93d 275b 4d3d 8832 323e
00000380: 569e 8fbd 1659 ef3c 2cb4 b13c f65d 81bd
00000390: a49f 9cbd ce6f 0c3e 616d f5bc f0eb febd
000003a0: 0ee9 7fbd 462a ad3d 4f49 8ebd 06a3 8bbd
000003b0: f10f 5f3d 501e 58bd 52a7 9c3d 994f 92bd
000003c0: 0ad0 d7bd fdd4 533c 2c76 b53d a67f 6c3c
000003d0: 2fb6 233e 895a a7bd 5b2b e4bd f419 77bd
000003e0: b40f a6bd 5c0b 3abe 9edd 08be 5b84 efbd
000003f0: b717 543d 3bf7 e23d 67a1 0bbd 93f2 47be
-0.016808499 0.037957326 0.06620231 -0.1297035 -0.017115742 -0.0836879 -0.13784425 -0.10668259
0.07239756 -0.0043877 -0.12131792 0.08794674 0.008024648 -0.026152775 -0.097341 -0.05895554
-0.038297936 0.028333962 0.06981046 -0.07846932 -0.19975854 -0.14195943 -0.0057672374 0.024478737
0.06528214 0.0018124568 0.09108551 0.118056476 0.0012431638 0.022339523 -0.07546281 -0.082581446
0.13382016 0.025174273 -0.06718114 -0.016572192 0.011605985 0.06683466 0.0038992267 0.049246892
-0.12117489 0.016617522 -0.10212545 -0.01319892 0.06385961 0.0833552 0.10742071 0.142967
-0.17238134 -0.017566012 0.13426971 0.00058592943 -0.02075914 -0.12519623 -0.07762207 -0.013045333
0.077874616 -0.050633054 -0.0823303 -0.009850526 0.12987179 0.088450916 0.10963009 -0.09706807
0.069367215 -0.12470713 -0.008704275 0.028269818 0.121891126 -0.0057595335 -0.0022818635 0.06530608
-0.097313195 0.034620088 -0.10680841 -0.09589584 -0.029457528 -0.057100266 0.09900205 0.16793643
-0.09037419 -0.017113522 0.1185336 -0.009974314 0.08627706 0.06312806 -0.049231827 0.0133032
-0.15606186 0.01758153 0.11834973 -0.049149707 -0.026394695 0.044291392 -0.1109376 0.035025306
-0.008648702 0.010148105 0.016561702 0.08604176 0.029193029 -0.06623498 -0.08593198 0.06959714
0.058644596 -0.037534535 0.092285305 0.06866515 0.12625797 0.005551542 -0.007139674 0.026126718
-0.05143795 0.1473261 0.027248584 0.058875028 -0.03164918 0.049232297 0.032414228 0.11018489
-0.042112023 0.027130786 0.061506137 0.0060270065 0.06144134 -0.046551242 0.018900268 0.049352657
0.121005505 0.053865254 0.07448007 0.07432039 -0.00085955113 -0.11316115 0.050976813 -0.07507008
-0.093823835 0.03999427 0.059767395 -0.017052636 -0.10597558 -0.03451717 -0.028022617 -0.04122354
-0.08117823 -0.015210301 0.09421694 -0.06941748 0.08290374 0.051643 0.007422056 -0.09910053
-0.00916522 0.002338985 -0.032406762 0.08290449 -0.098831326 0.016522393 0.069235414 0.018155068
0.026394188 -0.08046274 0.09108278 0.026086867 0.012987666 -0.059445262 -0.09742822 0.07215139
0.051438376 0.07184759 0.107265756 0.0065202154 0.09792434 0.0786681 0.033364475 0.083540425
0.04862292 0.059035614 -0.031092092 -0.11365235 -0.045496345 -0.031714424 0.032249928 0.0028186347
0.10334304 0.11784069 -0.007840134 -0.03712757 0.035219625 -0.12390597 -0.10232681 -0.020579219
-0.098904915 0.10623436 0.07500918 -0.002089312 -0.105116054 0.096989706 -0.14382145 -0.13618435
-0.03752938 -0.11513814 0.039052635 -0.05396131 0.05829839 0.09145613 0.030226827 -0.18343621
0.122885704 -0.007594178 0.014950586 -0.06867871 -0.12363673 -0.117758416 -0.02370821 0.012161536
0.12579077 -0.13401382 -0.05104229 0.06715594 -0.043469235 0.08286175 0.050135758 0.17402089
-0.07012622 0.029217284 0.021692358 -0.0631675 -0.076476365 0.13714525 -0.029959382 -0.12447345
-0.062478118 0.08455329 -0.06947576 -0.06818204 0.054458562 -0.052763283 0.07649101 -0.07144088
-0.10537727 0.012929198 0.0886043 0.014434731 0.15987466 -0.08171565 -0.11141082 -0.060327485
-0.08108464 -0.18168396 -0.1336579 -0.11695167 0.05178043 0.11082312 -0.034089472 -0.19526128

fc2.bias f4 [128]
00000000: 25c6 823d 29cd 97bc 2ceb 07bd 8ca2 713d
00000010: dc31 e73d d2d3 9c3d a431 a03d ae34 913d
00000020: d82b 6a3d 2029 bebd 7628 acbd 8c82 d23d
00000030: 0031 41bc 7a0c dfbd ac00 363d 84ae f33d
00000040: 6cb9 f03d 84bb c2bd ecb0 3c3d 3c2f e23c
00000050: fad9 99bd 0f16 eebd 1c8a 713d 935c a33d
00000060: cb30 663c 49c0 23bd 1ede e9bd 231c dcbd
00000070: 3d8b cc3d fe36 93bd 6918 f03d 0c89 8d3c
00000080: 4015 a93c 2041 aabb 6ff9 fc3c f06a 0fbb
00000090: 7d66 cf3d f0ae a4bd 92dc 663d f94f 5ebd
000000a0: fc95 09bd f3b6 043d b82a 03bd 14a8 ee3d
000000b0: 7353 f03d 9c14 8b3d 5b0f edbd d0d3 cebd
000000c0: f6f8 653a 92e6 4cbd b809 b6bc 04fd 873d
000000d0: 66eb c8bd 9c97 a3bd 2675 e2bd 6947 e53d
000000e0: 3ea5 653b 0e44 1a3d 9c7b f0bd 32ab f43d
000000f0: 803c ed3c ce7d 8f3d 5a4e 8bbc a089 c93c
00000100: 134a c03d 0eb3 bd3d 188a 6dbd b488 78bd
00000110: 0061 133c 900e f33c 5aa0 d8bd 9f03 9dbd
00000120: 2cad 0bbd c882 963d 465e 8b3d be59 2ebc
00000130: d521 df3d 344a 72bd 3ec1 52bd 00f9 da3d
00000140: f08b 993d 98af 363d 3e37 8abd b64f a1bd
00000150: 3c2b 59bd e8da 993d 7646 a43d 428b cd3d
00000160: 84f7 b2bd 48b0 12bd 497f 243d 307b debd
00000170: d851 fdbc 4444 f03d 7d0a 28bd d0b2 01be
00000180: a119 653c ec4d dc3c 40c8 b43d ac26 ab3d
00000190: 9b6b c3bd 4a33 453c 2a93 393d 13b7 23bc
000001a0: 10c7 30bd 6dfc 773d 10a8 ae3c a012 cfbc
000001b0: b6b7 b2bd 5d39 8f3d 28d0 38bc d4cc b6bd
000001c0: 4c45 033d 2245 5d3d 08a5 573b 8d52 eabd
000001d0: 93fe 463d b475 c0bd 3324 1fbd d7da 8d3c
000001e0: 3ed6 80bd bab5 903d 48fc 303d 6451 413d
000001f0: f540 8a3d 32de 823d 3654 11bd 91f9 f0bd
0.06385449 -0.018530445 -0.03318326 0.058992907 0.11288807 0.07657589 0.07821968 0.07090126
0.05717072 -0.09285188 -0.08406155 0.10278806 -0.011791468 -0.108910516 0.044434234 0.118985206
0.117541164 -0.09508422 0.046067163 0.027610414 -0.07512279 -0.11625301 0.058969602 0.079766415
0.014049719 -0.0399783 -0.114193186 -0.10747554 0.09987495 -0.07188223 0.11723406 0.017277263
0.020640016 -0.005195752 0.030880658 -0.0021883808 0.1012697 -0.08041179 0.056362696 -0.054275487
-0.033590302 0.032401036 -0.03202316 0.11653152 0.11734667 0.0679104 -0.115751944 -0.10098994
0.0008772755 -0.050024576 -0.022221431 0.06640056 -0.09810524 -0.079879016 -0.110575005 0.11195261
0.003504112 0.03766256 -0.117423266 0.119467154 0.028959513 0.07006417 -0.017005134 0.024601758
0.093891285 0.092626676 -0.057993025 -0.060677245 0.008995295 0.02967003 -0.1057746 -0.07666706
-0.034100696 0.07349163 0.068050906 -0.010641513 0.10895125 -0.059152797 -0.05145382 0.10692024
0.07497394 0.044601053 -0.06748818 -0.07876532 -0.053019747 0.07512456 0.08021252 0.10036327
-0.08738616 -0.035812646 0.04016045 -0.1086334 -0.030922815 0.11731771 -0.041025627 -0.12665868
0.013983161 0.026892625 0.08827257 0.083569854 -0.095420085 0.012036154 0.045306362 -0.009992379
-0.04315859 0.060543466 0.021320373 -0.025277436 -0.08726446 0.06993363 -0.011280097 -0.089257866
0.03204851 0.05402101 0.0032904763 -0.114415266 0.048582625 -0.0939745 -0.03885288 0.017316265
-0.062908635 0.070659116 0.043209344 0.04719676 0.06750671 0.06390037 -0.0354807 -0.11766351

fc3.weight f4 [256, 128]
00000000: c946 6cbc 6f12 bc3d 9d1b afbc f395 10be
00000010: 2dcd bf3d b69d a4bb 4b86 9cbc bae8 6ebd
00000020: 4958 893d da14 113d 1071 103d 2f77 e03c
00000030: d369 e73b d730 863c 238f 3cbd 5af5 0dbd
00000040: 23ca 643d af64 58bd ee47 ba3d d25c 74bd
00000050: ab7b 82bd 5908 893d bc3a 553d e61d 8abd
00000060: f16f 343d ec98 693d 09eb a83d f79b 3dbd
00000070: 5417 edbc 8533 bf3c a207 a23d c28c 5e3c
00000080: 357a dabc ab35 47bd 5c94 2a3e 9a97 b0bd
00000090: db96 9ebd b174 333d 3453 f7bc de68 b13c
000000a0: 6815 b43d 4c8b b83c b11c 873d b650 c43d
000000b0: a64d 173d 7291 453d 6a57 993d abda 8b3d
000000c0: 5f30 253d 0421 bd3d 7da7 3c3d bb80 1bbd
000000d0: 53d0 db3d 7184 443d 156b 463d 72d2 cb3b
000000e0: 337b 2d3d b27f 75bb 0658 5a3c 50c0 e3bd
000000f0: bb67 963d fd33 973d 0f89 463d be7e a1bd
00000100: a9b7 9d3d 33fb 1bbd 1148 6bbd 4ac9 54bd
00000110: c31a 983d c607 0ebd 3aef 0e3d 95b1 2c3b
00000120: 147a 9bbd a0fe 84bd 63ea 4b3d fb6a d9bd
00000130: 7ebe 70bd c8fe a2bb a019 39bd c3c3 b83c
00000140: 812c 20bd f1a4 98bc 2d41 f23d 2104 8b3d
00000150: 30ca 75bd 92bb 8a3d e820 0e3d d062 87bc
00000160: 151f 193d cc55 9bbd 31ed fb3c 1c61 fbbc
00000170: 3962 923d a063 1cbd 8965 a93d c249 72bd
00000180: 00b2 debc 7834 c23b 885e 86bc b437 8fbc
00000190: aed7 d6bc 2108 9a3d 9e14 f3bc 70b8 2b3e
000001a0: d55f 7abd 58a9 34be b068 0c3c 5304 793d
000001b0: c542 723d 96f8 923d 1375 a53d be30 90bd
000001c0: b329 0dbd 983d 993c edf5 6b3d 375c b93d
000001d0: 174e 9d3d 36f8 cf3d 0117 7b3d 6f3a dd3d
000001e0: b2a7 f23a 7691 863d d0ce 213c bb0f 9f3b
000001f0: 4439 8d3d c252 1b3d b0cf c5bc d98f 363d
00000200: d504 90bc 4f42 8ebd 1cbd 383d e83a aa3d
00000210: 6395 99bd 6c78 ae3d 89f5 10bd 6cff 123d
00000220: 571d 84ba ed15 43bc d6bd a3bd 238c 353d
00000230: ab8f 533d 281b 44bc 71a4 873a a39a a23d
00000240: f308 6cbd 7c06 5f3d 98ac 5bbd cfaa 73bc
00000250: 4c6b 1bbd dd87 5fbd 6ae7 4cbd 83a1 1f3d
00000260: e5c4 a13d a146 02bc 7809 e1bb 5608 a4b8
00000270: 34db bd3c fd03 053c 2676 2e3d 8598 4ebb
00000280: aa2a e83c 6890 a9bb d01c 9abd f591 dbbc
00000290: b2c5 76bd 13c6 e8bc 461a 883d a082 ddbc
000002a0: 3fdb 223c eef5 39bd 34c5 71bd 8fcf 0ebc
000002b0: c7da 98bd 4b8b 98bd 6750 083c 2c30 7ebb
000002c0: 0ef4 343d 8a7c 773d 7faf 9ebd 4091 813d
000002d0: fe60 1c3c 10a1 9a3c d3fe 42bd 0e9b 9fbd
000002e0: b746 a43d 1ed8 313d ab95 e63c 43f6 ad3d
000002f0: dfd6 653d 4e62 c13b 275d 703d 52e2 223c
00000300: 96a3 95bd 9eeb 7a3c 403a 22bc d0a5 e43c
00000310: 3023 a5bd 7c04 9cbd cefc d13c 10c3 61bd
00000320: df9f 93ba 43a6 b2bd aa45 5c3d 8009 fabc
00000330: 7987 4d3d 411a ee3c 1341 f33c c51b 993d
00000340: aea6 8abc aa7a 153d 960f 8c3d 17fd a13d
00000350: b8a5 e93c 2f8d 6d3c b690 99bd 20e9 82bd
00000360: f692 843d a7ac f8b9 1f1a ae3d 6ec1 7f3d
00000370: 5fde 75bd ddbe a1bd 8089 8539 b170 213d
00000380: e056 0a3d ce5d 6cbd 1223 033d 3ddc 91bd
00000390: c02c 993d d2b4 a7bd 12ed 203d 5319 8dbd
000003a0: f277 38bc b308 a73d 5ca2 17bb 0d41 30bd
000003b0: 4ace 27bc 8c77 ccbc dc66 0b3c 4504 fd3b
000003c0: f82b 023d 04ee ac3d 73ff 923d 5794 7d3d
000003d0: 8d96 12bd bd4e 24bc b469 19bd e7f0 6ebd
000003e0: af30 4e3d ba3f 73bd 1760 2b3c 9cbe 843d
000003f0: 7c78 40bd c326 123d 3103 403d 03ab 8abc
-0.014421173 0.091832034 -0.021375472 -0.14119701 0.09365306 -0.0050236834 -0.019107005 -0.058327414
0.06706292 0.035420276 0.035264075 0.027400581 0.007062176 0.01638071 -0.046034943 -0.034657814
0.055856835 -0.052830394 0.09095751 -0.059658833 -0.06371244 0.06691045 0.052057967 -0.06743984
0.04405207 0.057030603 0.082479544 -0.046291318 -0.028941788 0.023339996 0.07911612 0.013583364
-0.026669601 -0.048635166 0.16658157 -0.08622666 -0.07743617 0.043812457 -0.030191042 0.02165645
0.087931454 0.02252736 0.06597269 0.09585707 0.036939286 0.04823441 0.07487376 0.06828817
0.040329333 0.09234813 0.046058167 -0.037964564 0.10733094 0.04797787 0.048441965 0.0062201554
0.04235382 -0.0037460146 0.0133266505 -0.11120665 0.07344004 0.07382963 0.048470553 -0.07885502
0.07701046 -0.03808136 -0.057441775 -0.051949777 0.074269794 -0.034675382 0.034896113 0.0026350964
-0.07591644 -0.06493878 0.049784075 -0.10616108 -0.058775418 -0.00497422 -0.045190454 0.022554284
-0.039104942 -0.018633338 0.118288375 0.06787897 -0.060007274 0.067740574 0.03469935 -0.01652661
0.037383158 -0.07584724 0.03075275 -0.030685954 0.07147641 -0.038180947 0.082713194 -0.059152372
-0.027184486 0.005926665 -0.016402498 -0.017482616 -0.026225891 0.07521082 -0.029672917 0.16769576
-0.06112655 -0.17642725 0.008569881 0.06079514 0.059145708 0.0717632 0.08078971 -0.07040547
-0.034463596 0.018706128 0.05760758 0.09050792 0.0768091 0.10154764 0.061301235 0.10802161
0.0018513112 0.06570713 0.009875968 0.00485417 0.06895688 0.03792072 -0.024146885 0.044570778
-0.01758043 -0.06946241 0.045102224 0.08312017 -0.074991964 0.085190624 -0.03539041 0.03588812
-0.0010079545 -0.011907083 -0.07995193 0.044323098 0.051650684 -0.011969365 0.001034869 0.07939651
-0.057625722 0.054449543 -0.053631395 -0.014872267 -0.037944123 -0.05457293 -0.05002538 0.03897239
0.07898883 -0.00795141 -0.006867584 -7.821682e-05 0.023175813 0.008118627 0.042593144 -0.0031524014
0.028340656 -0.0051746853 -0.07525027 -0.026802996 -0.06024713 -0.028414762 0.06645636 -0.027039826
0.009939968 -0.045400552 -0.05902596 -0.008716478 -0.074636035 -0.07448443 0.008319951 -0.0038786037
0.04417806 0.060421504 -0.07748317 0.06326532 0.009544609 0.018875629 -0.0476063 -0.07793246
0.080213 0.043418996 0.02814754 0.08494236 0.05611312 0.0059016114 0.058682587 0.009941654
-0.07306592 0.015314965 -0.009901583 0.027911097 -0.08063352 -0.07618043 0.025633242 -0.055117667
-0.0011262855 -0.08723118 0.053777374 -0.030522108 0.050178025 0.029065253 0.029694116 0.07476
-0.016925182 0.036493935 0.0683891 0.07909601 0.028521404 0.014498993 -0.074983045 -0.06392121
0.06473343 -0.00047430882 0.08501076 0.06244033 -0.060026523 -0.078977324 0.00025470182 0.03941411
0.033774257 -0.057706647 0.032015868 -0.07122085 0.074792385 -0.081887856 0.039288588 -0.06889596
-0.011259066 0.08155956 -0.0023137545 -0.043030787 -0.010242054 -0.024959348 0.00850841 0.0077214562
0.031780213 0.084438354 0.07177629 0.061909046 -0.035788108 -0.010028538 -0.037454322 -0.05833521
0.050339397 -0.059386946 0.010459921 0.06481668 -0.046989903 0.035681497 0.046878044 -0.016927248

fc3.bias f4 [256]
00000000: 895c b73a 8651 823c 8b3e e0bb 0e40 7a3d
00000010: fdfc f03b dd41 98bd 7ee8 403d 61aa 32bd
00000020: eccb 9cbc 6002 1abd 798b a03d c74d 08bc
00000030: 5e6c 2dbc 959d 0a3d 380a bbbd 2ce7 77bd
00000040: 0477 a23d b9aa acbd 8e87 a63d 113c 973d
00000050: b877 5dbd 4947 983d 6f6a fbbc e678 ff3c
00000060: b486 203d 51e0 7d3d 76f6 a73c 7b53 30bd
00000070: 4533 663c 45b9 82bd 2ab4 6e3a 04c2 723d
00000080: 8aa5 61bd 8995 7ebd bf55 a93b b098 543d
00000090: 6953 b33d 3ab7 d43b 6495 68bd 49de 393d
000000a0: 9493 8c3c e786 973c b9fc b93b f6a2 853d
000000b0: 83fb b3bd d6c6 233d 7e1c 853d 0830 163d
000000c0: e95d 73bd 7304 f1bc 5354 873d a9c6 85bd
000000d0: 82c6 98bd 6a3c 22bc 4372 cd3c b60b a03d
000000e0: a32b 0a3d 0b71 a93d c4a2 4dbc 0edf 8f3d
000000f0: db5c 7c3d 8eae 95bc 7a5e 89bd 35d2 0fbd
00000100: 6f0e 1d3d d903 c73c 936b c0bc fe4b 8a3a
00000110: cd90 a5bc 3067 503d 7ffb b3bd 5d52 06bd
00000120: c9c6 cf3c 5098 2f3d 1d6b b73c 8147 a4bd
00000130: 9682 acbd 6627 23bd fbb6 b6bd dcc4 66bd
00000140: 8cdf a63c c9f1 b33d da68 dc3c 494a 1cbd
00000150: e64e 81bd 0e76 a7bc 6b6d 073c 3380 1d3d
00000160: 0413 85bd 3d28 8bbd 4afa 90bc 02d7 cfbc
00000170: e018 c9bc ddb4 a9bd 95d3 2e3d 1ed1 0b3b
00000180: e753 b9ba 734a bc3c b77f 783d 99d2 b23d
00000190: 09ad 41bc c397 f7bb 95cd 4a3d f737 80bd
000001a0: ba88 813b c68c f4bc 5963 15bd 50fb 89bd
000001b0: 5c1e 863d edc8 a53d d74a 853d a520 6dbd
000001c0: bafb 953d 08c3 ea3c 3428 ac3b 154d a1bd
000001d0: 20d5 313d cf60 d3bc 6ca3 d23c 2bf2 6dbc
000001e0: 9eb4 3b3d 0e88 b8bc 0427 afbd f8df a9bc
000001f0: 8e6e cebc 7ed8 cb3c 5170 393c caa4 f8bc
00000200: e031 c23a dffc ce3c a9ba 6f3d 6907 5cbd
00000210: 33cc 65bd aa76 8e3c 6dde 4d3d f83f 16bc
00000220: af70 2b3b 5595 a7bd 19ca 103d 4e8e 8b3d
00000230: 48c2 893d 73b8 a03d 3687 9b3d 87b6 07bd
00000240: bf8f e2bc d777 51bd 2b67 283d 3295 90bd
00000250: e9ed 3fbd eb38 973d 7099 bd3c d9dd 8fbd
00000260: ee01 3c3d 8300 623c 331a 7fbd dee4 61bd
00000270: 749a 82bd 719d 63bd 825b 963d db73 1e3d
00000280: 3411 44bd 2a54 723d 1c03 713c ed31 253d
00000290: 0121 a9bd 52de 4dbd d992 a0bd 7dbd 55bd
000002a0: 4e1f 8cbc 52ed 9bbd cffb 433d 0790 a5bd
000002b0: 2734 13bd 63f1 733b 5cbb 653c e7df fdbc
000002c0: bbdb 183d 57f5 8bbc d871 b3bd 48a9 2a3d
000002d0: 2949 f73b ba36 3ebd 4bfe fa3c a9d6 613d
000002e0: 7807 abbd f75d fdbb 9d3b 053d 295d 893c
000002f0: 80eb b33d 8304 b6bd 6452 88bc 9338 843d
00000300: 03a9 5d3d 6689 96bc 1ff5 6e3d 7ca5 a63d
00000310: a638 38bd f05c b1bd 5bec e63c ac59 b3bd
00000320: 7e0f 3d3d a593 2c3c f2d3 0f3d 27ab a73d
00000330: 6fbc a33d 3584 16bc f728 c03b 19a9 15bd
00000340: e9aa 9b3d 2c8e 34bd bceb bbbb 6be9 6f3d
00000350: 0834 303d b09e babc 2bbf edbb 038f 9a3d
00000360: 5290 5b3d e426 423d c8e7 81bd 3afc a7bd
00000370: f282 9e3b 9cb8 053d d2f3 19bc 2667 95bd
00000380: ac80 66bd 11e3 a7bd 4f70 8abd 338f 20bc
00000390: 6318 b2bd 504d 1dbd 2858 50bc 1ad3 583d
000003a0: 2abf b4bb 8ba2 943d 24bf ad3b 3bbc abbd
000003b0: 51ed 3cbd 7ff6 f83b e817 953d 2c61 ad3d
000003c0: b8b5 b6bc 7cd5 b0bd dd03 063d 923c 86bd
000003d0: 5acb 713c bdc4 9abd 0e98 933d 9fb5 883d
000003e0: 7071 293d 0321 a7bd 6373 34bd 2817 82bd
000003f0: 8329 86bd 2dd9 4bbb 442d 333c 31f9 083c
0.001398937 0.015908014 -0.006843393 0.061096244 0.0073543773 -0.074344374 0.04709672 -0.043619517
-0.019140206 -0.03759992 0.07839102 -0.008319325 -0.010584919 0.03384169 -0.091328084 -0.060523197
0.07932857 -0.08431 0.08131324 0.07384504 -0.05406925 0.074354716 -0.0306904 0.031185579
0.039190963 0.061981503 0.020503264 -0.043048363 0.01405031 -0.063829936 0.0009105826 0.05926706
-0.05508951 -0.062154327 0.0051676924 0.051903427 0.087561436 0.006491569 -0.056783095 0.045378003
0.017160214 0.018496944 0.005675879 0.06525223 -0.087882064 0.039984547 0.06499575 0.0366669
-0.05941573 -0.029421067 0.066078804 -0.06532032 -0.07459737 -0.009902099 0.025078898 0.07814734
0.03373302 0.08273514 -0.012551013 0.07024966 0.06161199 -0.01827171 -0.06707473 -0.03511258
0.038343843 0.024293827 -0.023488795 0.0010551212 -0.020210648 0.050879657 -0.087882034 -0.03279339
0.025363343 0.042869866 0.022389943 -0.08021451 -0.08423345 -0.039832495 -0.089216195 -0.056340083
0.020370267 0.08786351 0.026905466 -0.03815678 -0.06313877 -0.020442035 0.008265833 0.03845234
-0.064977676 -0.06794784 -0.017697472 -0.025371078 -0.024547994 -0.0828645 0.04268225 0.002133436
-0.0014139385 0.022984719 0.060668673 0.087315746 -0.01182104 -0.007555933 0.049512465 -0.062606744
0.0039530667 -0.029852282 -0.0364717 -0.06737387 0.06548759 0.08094964 0.06508415 -0.05789246
0.07323404 0.028657451 0.005253816 -0.0787603 0.043416142 -0.025802998 0.025712691 -0.014523069
0.045826547 -0.022525813 -0.085523635 -0.02073668 -0.025199201 0.024883505 0.011318282 -0.030352015
0.0014815889 0.025267063 0.058527622 -0.053718004 -0.056102943 0.017390568 0.05026095 -0.009170525
0.0026159694 -0.0818278 0.035348985 0.06814252 0.06726509 0.07847681 0.07594149 -0.033133056
-0.027656434 -0.05113968 0.041114014 -0.07059707 -0.04685775 0.07383903 0.023144454 -0.07024736
0.045900278 0.013794067 -0.062280845 -0.055149905 -0.06377116 -0.05557007 0.073416725 0.038684707
-0.04786797 0.059162296 0.014710214 0.040330816 -0.08258248 -0.05026085 -0.07840509 -0.052182663
-0.017104771 -0.07613625 0.047847565 -0.08084112 -0.03593841 0.0037222735 0.014021721 -0.030990554
0.037318926 -0.01708476 -0.08761948 0.041665345 0.007546563 -0.04643891 0.030638834 0.055136357
-0.08351034 -0.0077321487 0.032527555 0.016768055 0.087851524 -0.08887579 -0.01664085 0.06456103
0.05411626 -0.018376064 0.058339234 0.081370324 -0.0449759 -0.086603045 0.028188875 -0.08757338
0.046157353 0.010533248 0.035114236 0.081869416 0.07994925 -0.009186794 0.0058642584 -0.036538217
0.07600958 -0.0440809 -0.005734889 0.058572214 0.04301837 -0.022780746 -0.007255455 0.075468086
0.05360443 0.04740037 -0.06343037 -0.08202405 0.0048373872 0.03264676 -0.00939651 -0.07295065
-0.056275055 -0.08197606 -0.067597024 -0.009799766 -0.08696058 -0.03840381 -0.012716331 0.052935697
-0.0055159526 0.07257565 0.0053023268 -0.083855115 -0.04612476 0.007597744 0.072799504 0.084658
-0.022303447 -0.08634469 0.032718528 -0.065545216 0.014757955 -0.07557056 0.072067365 0.066752665
0.041367948 -0.08160593 -0.044055354 -0.06352073 -0.065508865 -0.0031104789 0.010936085 0.008360193

fc4.weight f4 [12, 256]
00000000: 31f6 92bd a2cb 4abd eeba bbbd 4e8c 803c
00000010: 6047 2c3b 143c fabc c05d 673c d1c5 91bc
00000020: 9094 7b3d 8840 be3b 847d c0bc b6b5 7fbd
00000030: 8004 703d 81e8 42bd c0be c3bc b1ba a1bd
00000040: 6163 133d a8eb c73c 90f6 1f3d c579 50bd
00000050: e8ff 74bd 471c 48bc 5404 0e3d e9b8 03bd
00000060: c277 1c3d 98b8 693c 46af 2f3d 6cc7 603d
00000070: cc0f 3abd 861e 1a3d 2f83 743d 222f 743d
00000080: ba72 f6bc a944 9d3d 1b44 97bc 5509 abbd
00000090: bb37 023d 7c61 a0bd 07b2 5fbd 8d39 073d
000000a0: 02d6 7e3d 4b87 e0bc c4a7 663d 8cb4 cb3c
000000b0: 256f 773d 4720 86bb 0ce7 97bd 0447 5d3d
000000c0: 349e 7bbd 1916 05bd 7cbe e13d a179 f73c
000000d0: a00e 74bc c41a 953c c81d 503d 683d a2bc
000000e0: fc18 52bd 8865 8f3c bc97 3a3d 608f 32bd
000000f0: 8c18 863d f5a1 cfbc 50cb c43a 20ce 0cbd
00000100: 1048 91bb 5f90 e63c 31fd be3b b2ac 3d3d
00000110: bee8 09bd 6775 65bd 5699 003d 30b7 22bc
00000120: babf 2abd fa19 b4bc 4fc0 d8bc 6f9f 863c
00000130: b0b5 0d3d ed78 77bc bbf7 c43c 1642 4dbd
00000140: 710c 0b3d 143a 27bd 0fc9 8cbd 899c d23c
00000150: 0616 2a3d a213 243d f064 debb d0e5 22bd
00000160: 4e77 8bbd 18e8 35bb aa91 d4bc 1bde 973d
00000170: 40f4 1fbc 2e0d 39bd 7880 8b3c f66d 66bc
00000180: 987c 75bb c82c 5fbc fc09 82bc 802d 4bbd
00000190: 2360 91bc b0df 94bc ed26 243d 346b d03c
000001a0: 14c4 6fbd 5cef 82bc d353 d63c a045 113d
000001b0: 237d 7abd 13b3 c93a acaf c13c 2c41 06bd
000001c0: 805c fd3c 0977 33bd 1033 063d 7c10 92bc
000001d0: acd3 7ebd 309c 123a 3152 65bd 1c09 aa3c
000001e0: 38f9 e0bc c8bf 883c 5b7d 153c 11a4 60bd
000001f0: 9ed0 c23d 0856 9a3b 1090 973c 0643 513d
00000200: 7af4 663d cbc4 ec3b 10f4 013d 618f b3bc
00000210: a626 413d 10ba 30bd 5959 01bd 5659 4abd
00000220: f753 0cbd 34b1 70bd 3f40 eaba 8a9b 8c3d
00000230: 6001 97bd 37f6 9abd a4d7 1e3d f461 e23c
00000240: 90c4 5f3d 0c04 c53d 2ae3 003d 547b b8bc
00000250: cf60 973c f23b 193d 861f 88bd 5d43 45bd
00000260: 1e4f 4c3c cc4d ca3c 08ae 223c b2af 8abd
00000270: 3c6b c1bc e3c6 4d3d 04c1 0b3e f03d 8e3c
00000280: 89cc 13bd 60d1 af3c ec8f d73b 04b8 3bbd
00000290: 0951 a2bc e80d b3bc 04a4 2d3d 3d2b 1ebd
000002a0: dc57 09bc 1869 6c3b 5221 e2bd bc5b e53c
000002b0: da89 96bd a066 103d fea1 9abd 2374 9b3d
000002c0: d72a d8ba 7620 263d dfcb 173c 6297 e03a
000002d0: 1036 fb3c 8049 0a3c e86f 9b3b c84b f43b
000002e0: b0ae 51bb f256 26bd 984b 863b fe3a adbd
000002f0: ee58 34bd 241d 5f3c d8a6 793c 1ef4 123d
00000300: aee4 843c ed59 7dbd 1efb 20bd 78f9 aa3c
00000310: 0812 153c 308e 34bd 023c 8fbc 78db 0ebc
00000320: 483e aabd ef0b 13bd a0f7 d2bc 286c 19bd
00000330: 4619 05bd 7bc0 0b3e 9094 ffbc f77c 8ebd
00000340: b249 743d 88fd 52bc 4269 9fbc 604d b7bc
00000350: 8138 613d 23ab ee3c 0ead 6ebd d4bc 5cbd
00000360: 8aa0 403d 6cb3 133d 7cc5 f2bb 3002 aabc
00000370: decb 05bd d015 6a3d 7cb4 97bc d149 833c
00000380: d03f 36bd d8db bebd d872 efbb 00e0 1dbd
00000390: 76f7 123d 008b 643d 48b6 96bc b072 0a39
000003a0: eaa7 45bd 4cd7 15bd 929f 32bd 7ef9 01bd
000003b0: 45cf b73c 7d4c ac3c fee2 4bbd 906e 99bc
000003c0: 5a23 2f3c e2fe 473d 3083 533d f188 58bd
000003d0: effe e53d 3857 1cbd f879 55bd eb82 77bd
000003e0: 9767 223c 8823 58bd b06a b73b df2f 04bd
000003f0: ad1f 30bd eaf0 583d a916 0cbd 445c 58bc
-0.071758635 -0.049510606 -0.091665134 0.015691902 0.002628766 -0.030546226 0.014121473 -0.017794522
0.061420977 0.0058060326 -0.02349735 -0.062429152 0.05859804 -0.047585014 -0.023894668 -0.07896937
0.035983447 0.024404362 0.0390535 -0.05089738 -0.059814364 -0.012213773 0.034672096 -0.032158766
0.038200147 0.014265202 0.042891763 0.054877684 -0.04542522 0.037626766 0.05969542 0.05961526
-0.030084003 0.076791115 -0.018465092 -0.08351389 0.03179143 -0.07831094 -0.05461314 0.03301387
0.062215813 -0.027408263 0.056312338 0.024866365 0.06040873 -0.004093203 -0.074171156 0.054022804
-0.06143017 -0.032491777 0.1102266 0.030209364 -0.014896065 0.01820124 0.05080965 -0.019804671
-0.05129336 0.017504469 0.04555486 -0.043593764 0.06547651 -0.025345782 0.0015014205 -0.034376264
-0.0044336393 0.028145013 0.0058285226 0.046307273 -0.033669226 -0.056020167 0.031396233 -0.009931371
-0.04168675 -0.021985043 -0.026458887 0.016433446 0.0345971 -0.015104515 0.024043908 -0.050111853
0.033947412 -0.040826872 -0.068742864 0.025709407 0.04152491 0.040057786 -0.006786935 -0.039769948
-0.06809865 -0.0027756747 -0.025948364 0.0741541 -0.009762824 -0.045178585 0.017029032 -0.014064303
-0.0037458297 -0.0136215165 -0.015873902 -0.04960394 -0.017746037 -0.018173069 0.040076185 0.025441743
-0.058536604 -0.015983276 0.026163017 0.03546679 -0.061154496 0.0015388451 0.023643337 -0.032776996
0.030927896 -0.043814693 0.03276354 -0.017830126 -0.062213585 0.0005592732 -0.055986587 0.020756297
-0.027462587 0.01669301 0.009124125 -0.054843966 0.09512447 0.0047099628 0.018501312 0.05108931
0.056385495 0.007225608 0.031726897 -0.021918954 0.047156 -0.043146193 -0.03157935 -0.049401604
-0.034259763 -0.058762744 -0.001787193 0.06865604 -0.07373309 -0.07566493 0.03877987 0.027634598
0.054630816 0.096199125 0.03146664 -0.022519745 0.01847878 0.037410684 -0.066466376 -0.048159946
0.012470035 0.0246953 0.009929188 -0.067717925 -0.023610704 0.0502385 0.13647848 0.017363518
-0.03608373 0.021462142 0.006578436 -0.045829788 -0.019814031 -0.021857217 0.042392746 -0.038615454
-0.008382764 0.0036073383 -0.110415116 0.027997844 -0.07350512 0.03525412 -0.07550429 0.07590511
-0.001649226 0.0405583 0.009264915 0.0017134959 0.030665427 0.008440375 0.004743565 0.007455323
-0.003199499 -0.04061026 0.004098367 -0.084585175 -0.044030122 0.0136177875 0.015237533 0.03587734
0.016222324 -0.061853338 -0.039301984 0.02087091 0.009098537 -0.044080913 -0.017484669 -0.008719318
-0.083126605 -0.035900053 -0.025752842 -0.03745666 -0.032494806 0.13647644 -0.03119877 -0.06957429
0.059640594 -0.012877829 -0.01945937 -0.022375762 0.054985527 0.029134339 -0.058270507 -0.053891018
0.047028102 0.036059782 -0.007408796 -0.020752996 -0.032665126 0.05714971 -0.018518679 0.01602641
-0.04449445 -0.093192756 -0.0073073916 -0.0385437 0.03588053 0.055796623 -0.018397465 0.0001320343
-0.04825584 -0.036582276 -0.04360921 -0.031732075 0.022437701 0.021032566 -0.049777023 -0.018729478
0.010689581 0.04882706 0.051638782 -0.052864973 0.11230265 -0.038169116 -0.05211827 -0.060427587
0.009912393 -0.05276826 0.005597435 -0.032272216 -0.04299896 0.05296413 -0.034201298 -0.013205592

fc4.bias f4 [12]
00000000: 0ed2 2b3c b3f7 473c 7289 04ba af08 043d
00000010: fec7 283b 0806 eb3a aa83 1ebd 5cda f03b
00000020: af3a 87bc f3d2 37bd 137d 1f3d a003 f9bc
0.010487093 0.012205052 -0.00050558813 0.032234844 0.002575397 0.0017930875 -0.038699783 0.007350249
-0.016507475 -0.04487891 0.03893764 -0.030397236
