tuned.pt_episode_62.pt (torch, 182480 bytes, 8 tensors)

fc1.weight f4 [64, 5]
00000000: 1707 2dbe 8378 083e bb7b 8cbd c7fb c23e
00000010: b7b2 bf3e 1890 99be 0451 743e 4935 c13b
00000020: 66fe 9e3e 892b 8fbe 0199 673e 2b27 13be
00000030: 78ba 1a3e 8e7d b1be c089 1abe 3c9f cfbe
00000040: 0a7a f2bb de8f 473e 9b32 ba3e 77f8 de3e
00000050: 9cc0 5bbe 0b76 7c3e 1697 193d c71c 1b3e
00000060: fec6 f9bd 4cee a1be 7250 a13d 2f1c c83e
00000070: 4f84 d7be 5638 2e3e 89cb a3be a333 d83c
00000080: 1b1c c93e c148 cf3d 4c84 c13e e539 6b3c
00000090: e997 bc3e 6afa fcbd a450 483e a003 563b
000000a0: dabc 9c3e 2d6f 133e 7b6a c13e ffdc b43d
000000b0: bcea 1abb bd17 c13e 7543 19be 5d39 1c3e
000000c0: f2fa e2bc 258a a1bd 24b9 533c ecc6 923e
000000d0: 64bb 963d ec5d 433e 45f1 a53e fd99 763d
000000e0: 7be6 c6be 0b67 be3e 54e7 b63e d912 993d
000000f0: 10ca ed3e 85e7 a4be 5145 76be 3177 04be
00000100: e751 e03d 2592 543d 1495 9f3e 07fb 383e
00000110: 1f91 463e 1b8a b7be 0da8 46be e760 acbe
00000120: 772c 55bd 033f 043f ed38 a33d 25e9 8e3e
00000130: caf8 aabe 2a12 073e 7aea 313e df13 c33e
00000140: 8d54 c0bb 22e8 dbbe 1171 abbe 0038 ac3e
00000150: 13cb 1bbd 1419 123e 046d aabd cf40 89be
00000160: 7345 b8be d984 5e3c 1062 6fbe c9ff c13e
00000170: 8f50 cd3e 6783 abbe 03dc c93e e401 92bc
00000180: 34bb fabd d838 a43e b2bb e5bd 4893 a33e
00000190: a65e 463d 7115 4a3e 5c97 90be 3489 c6bd
000001a0: 9f1f 84be b261 bcbe fb65 803e c2c5 373e
000001b0: 70c3 58bd 6560 e7bb 96c2 b73e 4894 163d
000001c0: 7f86 cabe d3a2 763e 0da9 e83e deba b63e
000001d0: 3bf7 413e 8bde ad3d 30eb 163e 29f4 b3bd
000001e0: 6877 ce3e 6958 393e 037f c1be f75c e93d
000001f0: 458d b6bd 699d bc3d 925c cebe 67e9 9a3e
00000200: 6729 84bd 780e 26be 2d65 4cbe a490 5c3c
00000210: d7ef 95be 5be5 acbe fbb4 403e 7b70 53be
00000220: 2c5b d1be f08b bc3d 4166 babe 6e82 d1be
00000230: 3ff6 3c3e 5e72 b7be 6cd2 aabe 0a98 0e3d
00000240: b12d 5bbe a5f1 c43d f9f7 e9bd 8906 d83e
00000250: c9e0 d7be 1113 953c e8e8 c7be c1c7 ab3e
00000260: 9460 9bbe 460c e43e 91bb 95be 6756 a6be
00000270: f4c0 163e b561 40be a5a3 f33d 387d 6f3e
00000280: 95f8 9d3c 0a67 76be 98b6 cb3d fa21 77be
00000290: 020a b1be 5788 6b3e 2e40 c83e 503f 83be
000002a0: 0a07 273e 0cb9 9fbe 9f65 e93e 39d4 85bb
000002b0: 90c8 723d c882 a9be 04b9 82be 251a 7ebe
000002c0: 78ee 4ebd 00dc adbd 90b3 be3e 046b 80be
000002d0: c1b6 abbe eb80 5d3e af36 e83e 6609 8fbe
000002e0: 0a4c 93be 7333 cc3d e455 3a3e 3b6f 3fbe
000002f0: fec5 93be f4b4 df3c 0c4a d33c 54a6 5abd
00000300: 554c 86be c562 0abe 4ce4 ddbe a249 b7be
00000310: 126d 193e 15a6 0c3e dc6b d3be 47c0 37bd
00000320: 39fe e5bd 160b 11be 272b 323d 3456 51be
00000330: 4e22 4cbe 9bb7 2abe 7245 42be 97fd bbbe
00000340: 06a1 153d b6dd 793e d51c a8bd b730 973e
00000350: c60d 9a3e cfc2 87be 84e6 be3e 48e0 00bd
00000360: a74e d23e 815a 9d3e ce58 8b3e 4264 fbbd
00000370: 6fbe b73e 5974 893e c780 0abd 2354 bdbd
00000380: 951c cbbe 1469 81be 1b3e cf3d cc42 c43e
00000390: 6114 cebe 32b1 9dbe 8249 ba3e bb3b ac3d
000003a0: 7cc1 9abe b3e2 383e f174 62be 1e45 8c3b
000003b0: efa6 95be b945 493e 18c3 053e 04e4 883e
000003c0: 31c3 cdbe 0001 55be ccf3 aa3d c8c3 99be
000003d0: 4d55 dcbe fedf 833d cedd cc3e 27fd 94be
000003e0: f12c 86be 2cb2 043e 7019 8bbe 2729 f43c
000003f0: 98a6 02be 9051 d4be bef8 ae3e ff87 6c3e
-0.16897236 0.13327222 -0.06859537 0.38082716 0.37441036 -0.29992747 0.2385903 0.0058962447
0.31053466 -0.27962902 0.2261696 -0.1437041 0.15110195 -0.34666103 -0.1509161 -0.40551174
-0.007399802 0.19488475 0.36366734 0.4354894 -0.21460193 0.24654405 0.037497602 0.15147696
-0.12196158 -0.3162712 0.07876672 0.39084002 -0.4209313 0.17013678 -0.31991223 0.02639181
0.39279255 0.101212986 0.37796247 0.014357065 0.36834648 -0.1235245 0.19562012 0.003265597
0.30612832 0.14397879 0.3777655 0.08831214 -0.0023638448 0.37713423 -0.14967139 0.15256257
-0.02770755 -0.07887677 0.012922559 0.2866739 0.07359961 0.19078797 0.32410637 0.06020545
-0.38847718 0.3718799 0.35723364 0.07474298 0.46443224 -0.32207885 -0.2404988 -0.12936093
0.10953122 0.051897187 0.31168425 0.1806451 0.19391297 -0.35847554 -0.19400044 -0.3366768
-0.052044358 0.5165865 0.07969842 0.2791225 -0.33392936 0.13190523 0.17374602 0.38101098
-0.0058694542 -0.4295054 -0.334847 0.33636475 -0.038035464 0.14267379 -0.08321574 -0.26807258
-0.35990486 0.013581478 -0.23377252 0.3789046 0.40100524 -0.3349869 0.39425668 -0.017823167
-0.122427374 0.32074618 -0.11217441 0.31948304 0.048430108 0.19734742 -0.28240478 -0.09694138
-0.25805375 -0.36793286 0.25077805 0.17946532 -0.05292076 -0.0070610517 0.35890645 0.036762506
-0.39555737 0.2408555 0.45441476 0.35689443 0.18941967 0.08489712 0.14738154 -0.08786804
0.40325475 0.18100132 -0.37792215 0.11394685 -0.08913664 0.09209711 -0.40305 0.30256197
-0.06453209 -0.16216457 -0.1996047 0.013462219 -0.29284546 -0.33768734 0.18819039 -0.20648377
-0.4088987 0.092063785 -0.3640614 -0.40919822 0.1845331 -0.35829443 -0.33363664 0.034812964
-0.21404149 0.096164025 -0.1142425 0.42192486 -0.42163685 0.018197568 -0.3904488 0.33550838
-0.3034712 0.44540614 -0.29244664 -0.32487795 0.14722043 -0.18787272 0.11896447 0.23387611
0.019283572 -0.24062744 0.09946936 -0.24134055 -0.34577948 0.23001228 0.39111465 -0.2563424
0.16311279 -0.31195867 0.45585343 -0.004084137 0.059273303 -0.3310759 -0.2553178 -0.24814661
-0.05052039 -0.08489227 0.3724637 -0.25081646 -0.33537868 0.2163121 0.4535422 -0.27936858
-0.2876895 0.09970751 0.18196827 -0.18694775 -0.28861994 0.027307965 0.025792144 -0.05338128
-0.26230112 -0.1351424 -0.4333824 -0.35798365 0.14983013 0.1373523 -0.41293228 -0.044861104
-0.1123013 -0.14164385 0.043498185 -0.2044304 -0.19934961 -0.16671602 -0.18971804 -0.3671691
0.036530517 0.24400982 -0.08208624 0.29529354 0.30088633 -0.26515815 0.37285244 -0.03146389
0.41075632 0.30733112 0.2721619 -0.12274982 0.35887477 0.2684658 -0.033814218 -0.092445634
-0.39670244 -0.2527548 0.101192676 0.38332212 -0.40249923 -0.30799252 0.36384207 0.0840983
-0.30225742 0.18055229 -0.22114922 0.0042807003 -0.29228923 0.19655503 0.13062704 0.26736462
-0.40187982 -0.20801163 0.08347282 -0.30032182 -0.4303383 0.064392075 0.40012974 -0.2909939
-0.26206163 0.12958592 -0.27167845 0.02980478 -0.12758863 -0.41468477 0.3417415 0.23098753

fc1.bias f4 [64]
00000000: 1962 323d dfa8 7cbc 35c6 823e 6401 893e
00000010: 0c84 463e 5002 cdbe 2011 67be ff57 ff3d
00000020: 938a 4d3e 71e0 df3d e56a 89be 5add 153e
00000030: 1b69 30bc 3d54 b53d 92d4 663e 0a7f e83e
00000040: a3ba 31be c845 be3e c434 e53d 6e2f 96be
00000050: 7dd8 07bd 5a1a 35be d592 0d3e b946 ed3e
00000060: e52a 6ebe 721a 37be b6c9 e9bd 824e 9dbe
00000070: 08ea debd 449e e43d 7f09 8fbe e2be d9bd
00000080: 4ba1 d1be 1f93 3b3c 3f4b 5e3d 4c7c 9e3e
00000090: fd2c 6dbe 7bf6 bfbe 3c8c 613e d21c b6be
000000a0: 56be a83e 63f3 dabe 70d6 06be a90e 57be
000000b0: 6110 2d3e 2802 89be e5db 9dbe fd00 0abe
000000c0: d86e a73e 2161 e83e fa4a dabe 6821 12be
000000d0: 2894 883e fda0 dbbd 2e93 c9be 9e34 c43e
000000e0: a4d8 bebe 7c79 603d b0cf 8f3e 3ea4 bdbe
000000f0: b473 8fbd eba4 a5bd 95ee c63e 492c e53d
0.043550584 -0.015421121 0.25541845 0.26758873 0.1938631 -0.40040827 -0.22565126 0.12467956
0.20072393 0.10931481 -0.26839367 0.1463522 -0.010767247 0.08853958 0.22542027 0.45409423
-0.17356353 0.37162614 0.11191705 -0.2933306 -0.033165444 -0.17685834 0.13825543 0.4634302
-0.2325855 -0.17881182 -0.114154264 -0.3072396 -0.10884482 0.11162999 -0.27936932 -0.10632111
-0.4094337 0.011448651 0.05427098 0.30954206 -0.23161693 -0.37492737 0.22026151 -0.35568863
0.32957715 -0.42763814 -0.13167739 -0.21001686 0.1690078 -0.26759458 -0.3083183 -0.1347694
0.32701755 0.45386603 -0.42635328 -0.14270556 0.26675534 -0.107240655 -0.39370102 0.38321394
-0.3727466 0.054803357 0.2808814 -0.3703937 -0.070044905 -0.08088096 0.388539 0.11190087

fc2.weight f4 [128, 64]
00000000: 6407 943d 0f98 d23d f783 8dbc eb96 8cbc
00000010: 563e bcbd 9ce6 b139 d65a 6438 22b5 1d3e
00000020: 0cb0 553d d97f 98bd 1524 c43d f699 343d
00000030: 9c16 46bd bc19 913d d8e4 9f3e 48b2 713d
00000040: deb9 f53b a358 bc3d b3b5 a5bc 0d90 99bd
00000050: 942c d4bd 8c8d 6a3e 52f1 6f3d ea92 9a3c
00000060: 1b16 183e 8d2c 9f3d 76f5 dabd d4e9 eebd
00000070: d644 c73c 5ddd 2a3e c70b 823e d74b de3d
00000080: 2672 eebc b655 d03d 0e42 843d ef14 f73d
00000090: bb76 973d 8ea1 5a3c 4e3f 70bc 4bbc 0b3d
000000a0: 1a58 4c3d 7c22 ebbd 39e7 f0bc 47a3 dbbd
000000b0: fcfd 48bd df31 a0bd c7a1 083e 58de 1a3d
000000c0: 3071 d4bd bd3e a63e 7ec1 4b3d 22eb 43be
000000d0: 59ce 213b 9e23 fd3d 6227 a03e d2f3 9e3d
000000e0: 345c 143e d1bd a7bd 94f1 00bd 62ae 013d
000000f0: b45c e2bd 5993 a0bd 17a9 893e cfff 3c3c
00000100: 499c febc 7498 073e e818 dc3d 3553 f73d
00000110: ac34 d93d 435c 12bc 578f e93c 41ee 9c3d
00000120: c8c6 493d dbd1 f3ba efea de3d 9fab 683c
00000130: f480 2fbd 57cd f03d 10e1 c13d 4203 c8bd
00000140: ce4d c13c 4fe1 883b 0905 9b3b f62d 0dbe
00000150: 5547 a23d f902 113e ea71 21bd 6a0e fa3d
00000160: b7c4 aa3d d3c3 16bd 982f d23d 43df 963d
00000170: 46e5 ec3d ed51 4d3e dda0 bf3d 87a6 343e
00000180: 3ff0 913d c140 6cbb 31ef ae3d fa42 f93d
00000190: a40b 4b3e c236 4ebd f23e 743d 13d9 963d
000001a0: c5af 993d f3fb 3bbd 4beb 753c dc9f af3d
000001b0: 3efa e9bc 4276 73bd ef3b 0d3e e041 ddbb
000001c0: 890d b7bd fd8e 323e 5ee8 c2bd 8a8e d5bd
000001d0: bf36 91bd 994c 833d c867 133e cbd7 afbd
000001e0: 559e 2c3e e9b9 d53d 4aaa 943d d65d 833d
000001f0: c389 3e3d 9e28 59bd 35a8 073e 7efd 58bc
00000200: 2f02 b03d 9644 523d c765 37bd 078a 873d
00000210: 0b40 18bd b8b4 f2bd 237a a63d 524d 553d
00000220: 6238 6cbd a414 ef3d 58cf c83d 2a05 68bd
00000230: ebd1 b53d a090 cfbd e649 cbbd efb1 0a3d
00000240: 5408 3f3d 0bf6 1bbd 9880 f0bd 1bab 383d
00000250: 7a6a e13d 4516 a4bd eb80 803d ef67 24bd
00000260: cb9b 28bd 6e0a 6abd b76f 86bd 5e8c 563b
00000270: ef10 8a3a 2ee7 d03d 0d04 b7bd a9ef b83d
00000280: 9619 cc3c 3243 f13d c293 f8bd 378c 88bc
00000290: 26b9 cabd 1afe 71bd 145e f1bd 339c 0a3d
000002a0: bf1c 2b3c 3eb8 7fbd b171 8ebd f79d 9f3d
000002b0: 8204 763d 43be 87bd 006b d9bd e7ac 9ebd
000002c0: 13fb 9f3d cfa3 3abd 1952 b03d c6c1 5bbd
000002d0: c951 88bd 3f2a 8fbc 9f09 333c a777 92bc
000002e0: 65e0 8dbd 9af9 4e3d 6782 02bd 46ed 573d
000002f0: a2b7 41bd 2a5f f5bd 32a2 e9bd f9de 8b3d
00000300: 421c 96bc cb38 863c 6f61 28ba 7ef7 593c
00000310: 02a3 f2bc 7ae4 28bd 07ad 373d f293 10bd
00000320: 8c84 923d c169 fb3c 6940 343c 890e 923d
00000330: aa84 123e f02e 343d 32ab 973e 1bf6 3cba
00000340: ef20 253b 982a dd3d 864f 91bc 148c 94bd
00000350: 019d 0dbd ad06 813e ddae 533d 0cc6 833d
00000360: 2a93 3d3d 18a9 7ebd 2487 c63d 7fb9 80bd
00000370: bf4b 303c d4c9 9a3e 7d65 1a3d a188 3d3e
00000380: de87 efbc 0811 903d dec8 993e b414 023d
00000390: b695 1d3e 7e97 fabc 2fc2 81bc 2345 9f3d
000003a0: ef9c 15bc cf91 b73b ff5e 59bd 3701 40b8
000003b0: e924 bebd 6390 82bd 54cd c13d d962 98bd
000003c0: 1f6f 80bc cadf 293e 3356 acbd 5db1 3cbe
000003d0: 7506 82bc 329c e6bd b8cb 603e 3348 ad3d
000003e0: 75f8 203e c7b3 113d 492d 073e c5b6 4fbd
000003f0: a343 1fbd 0f1a 8a3d 9fbf 8f3e ff68 ad3d
0.07227972 0.10282909 -0.01727484 -0.017161807 -0.09191577 0.00033931888 5.4444034e-05 0.15401128
0.052169845 -0.0744626 0.095771946 0.04409214 -0.048361406 0.070849866 0.3122928 0.059007913
0.0074989637 0.091965936 -0.020228243 -0.07498179 -0.10360065 0.22905558 0.05857975 0.018868882
0.14852183 0.07772169 -0.10691349 -0.11665693 0.024324816 0.16686006 0.2539961 0.10854309
-0.029107165 0.10172598 0.064579114 0.1206454 0.07395693 0.013344182 -0.0146635305 0.034115117
0.049888708 -0.11481187 -0.02940713 -0.10724502 -0.049070343 -0.07822012 0.13342963 0.0378097
-0.10373151 0.3246974 0.049745075 -0.19132665 0.0024689643 0.12360309 0.31280047 0.07761349
0.14488298 -0.081905015 -0.031480387 0.031660445 -0.11052838 -0.07840604 0.26886818 0.011535599
-0.031080382 0.1324175 0.10746938 0.12076417 0.106057495 -0.00893313 0.028510733 0.07662631
0.04926184 -0.001860197 0.10884654 0.014201074 -0.04284759 0.117579155 0.094667554 -0.097662464
0.02359667 0.0041772495 0.004730825 -0.13787064 0.07923762 0.1416129 -0.039415278 0.122097805
0.08338302 -0.036807846 0.10262984 0.073668025 0.11567168 0.20050783 0.09356854 0.1764165
0.071259014 -0.0036049339 0.08541716 0.12170978 0.1982866 -0.05034519 0.05963034 0.07365622
0.075042285 -0.045894574 0.0150097115 0.08575413 -0.028561708 -0.05943895 0.13792394 -0.0067522377
-0.089381285 0.17437358 -0.09516977 -0.10427578 -0.0709052 0.06411094 0.14395058 -0.08586081
0.16857274 0.1043585 0.072590426 0.06414382 0.0465181 -0.05301725 0.1324776 -0.013244031
0.085941665 0.05133494 -0.044774797 0.066181235 -0.03717045 -0.118508756 0.081287645 0.05207569
-0.05767096 0.11673859 0.09805173 -0.05664555 0.08877929 -0.10135007 -0.099262044 0.033861097
0.0466388 -0.03807644 -0.11743277 0.045085054 0.11006637 -0.0801206 0.06274589 -0.04013818
-0.0411642 -0.057138853 -0.06564277 0.0032737474 0.0010533611 0.10200344 -0.089363195 0.090300865
0.024914544 0.117803946 -0.121375576 -0.016668422 -0.098985955 -0.05908022 -0.11785522 0.03384037
0.010443865 -0.062431566 -0.06955279 0.07793801 0.060062893 -0.066280864 -0.10616112 -0.07747822
0.078115605 -0.045566376 0.08609409 -0.053651594 -0.06656224 -0.0174762 0.010927587 -0.01787932
-0.069275655 0.050531007 -0.031862643 0.052716516 -0.047294267 -0.11981042 -0.114078894 0.06829638
-0.018324021 0.016384503 -0.000642321 0.013303636 -0.029618744 -0.041233517 0.044842746 -0.03529734
0.071541876 0.030690076 0.011001685 0.071316786 0.1430842 0.043990076 0.296228 -0.00072083034
0.0025196632 0.1079914 -0.017738115 -0.0725328 -0.03457356 0.25200406 0.051680434 0.06434259
0.046282925 -0.06217298 0.09693745 -0.062853806 0.010760247 0.30232108 0.037694443 0.18509151
-0.029239591 0.070344985 0.30036062 0.031758025 0.15389141 -0.030589815 -0.015839664 0.07776859
-0.009131654 0.0056020985 -0.05306911 -4.57775e-05 -0.09284384 -0.06375196 0.09462991 -0.07440729
-0.015677987 0.16589275 -0.08414879 -0.18427034 -0.01587222 -0.11260261 0.21952713 0.084610365
0.15719779 0.03557184 0.13200869 -0.050711412 -0.038882863 0.067432515 0.28075883 0.08467292

fc2.bias f4 [128]
00000000: 794f ce3d 08ee 383d 9ea1 71bd db4f 183e
00000010: 7f58 a7bd 88f6 e5bd 20c3 233e 8b6c 8f3d
00000020: fe1d 68bd d417 f3bd b75a ebbb 1df6 59bc
00000030: 8124 8ebd 7769 0a3e 1f9a 113c 3bd4 7dbd
00000040: 1911 9d3d 4d5b 8bbd 3cfc c03d 5282 e43c
00000050: e569 99bd 9b75 c23d 7315 0bbd a2e9 e33d
00000060: df5d b5bd ba36 d73d ad31 4b3d 9c0a 173e
00000070: f824 d93d de30 fcb9 d3b3 47bd db76 b1bd
00000080: 3f62 bb3d 1520 b43d e4f8 d93d 81bb 853d
00000090: d10b 0fbc b44a 573d f3e6 9e3d d5d5 c8bd
000000a0: b53f 783d 28f0 05bb 3ea4 aa3d 7e08 fd3b
000000b0: 8f4d 2c3c b5f3 023d 52e7 77bd a88e b1bc
000000c0: 835e b93d b457 d5bd 231b 313d d53a 043e
000000d0: ca50 f03c fd54 f8bc 9fcb 2d3e 5ba3 ae3d
000000e0: f4ba 733d 79f9 ae3d 77b8 fe3d 6922 ae3d
000000f0: 7ecd d0bd 79c8 0e3e bef6 f13d d2e3 4cbd
00000100: 6f92 85bd 2115 e33d 3e7a 653c 1e20 b0bc
00000110: b156 973d 65b9 e93c cdea e03d 70e5 1b3e
00000120: 8aaf 61bd 4f71 7fbd 97ee afbb cf5c 363d
00000130: 7808 d53d 6894 bfbb ce27 633d 628c b2bd
00000140: 8c52 c63d 148b 61bc 1749 c8bc 379e fd3d
00000150: a350 33bb 617b 1c3d 2fc7 e33d 68f6 ca3d
00000160: 09bc 933d ed30 f03d f31e 61bd 98dc 5f3c
00000170: 756e 86bd c810 c23d 5f1b 493d 705a 653d
00000180: 6d38 86bd afc3 37bc e8a9 963c fed1 cebd
00000190: c16c edbc 1840 ae3c 1b7a acbd 2bc7 06bd
000001a0: 3645 f73d ee03 6fbd 6b40 a53d 53a5 f83d
000001b0: 9ae9 dcbd 57c5 e53d bb8f 64ba 84dc f93d
000001c0: ce9f 5bbd 4f98 b93c d111 ce3d e28c 053e
000001d0: d778 9cbd 5652 f6bc b90f 8abd 30f6 be3c
000001e0: 8a80 053e 9ce5 e7b9 d4a5 563d 921d fc3d
000001f0: 1b79 c7bc 8a04 6e3d a344 913d 6f63 853c
0.10073752 0.04514888 -0.05899202 0.14874212 -0.08171176 -0.11228663 0.15992403 0.07003125
-0.056669228 -0.11869779 -0.007182445 -0.013303307 -0.06940556 0.13516794 0.008886843 -0.061969977
0.07669277 -0.068045236 0.0942311 0.027894173 -0.07490901 0.09495088 -0.033956002 0.11128546
-0.08855795 0.10508485 0.04960792 0.14750141 0.10602754 -0.00048101594 -0.048755478 -0.08665248
0.09149598 0.08795182 0.10643175 0.06529904 -0.008730845 0.052561477 0.07758894 -0.0980641
0.06060763 -0.0020437334 0.08332108 0.0077219596 0.010516538 0.0319707 -0.06052334 -0.02167447
0.0905123 -0.10417119 0.04323877 0.12913068 0.029335398 -0.030313963 0.16972207 0.08527251
0.059504464 0.08543677 0.124375276 0.08502657 -0.101954445 0.13943662 0.118146405 -0.050021954
-0.065220706 0.110880144 0.014006196 -0.02149969 0.07389582 0.028530786 0.10982285 0.15224242
-0.055099048 -0.06236392 -0.0053690183 0.044522103 0.10402006 -0.005846549 0.055457883 -0.08718182
0.09683713 -0.013766069 -0.024448914 0.12383693 -0.0027361296 0.0382036 0.11121976 0.099102795
0.07213599 0.11728082 -0.054961156 0.0136634335 -0.06564037 0.09475857 0.04909837 0.05599445
-0.06553731 -0.011216088 0.018391564 -0.100986466 -0.028982522 0.021270797 -0.08421727 -0.032904785
0.12073748 -0.058353357 0.080689274 0.12140908 -0.107867435 0.1121928 -0.0008718927 0.12200263
-0.0536192 0.022655634 0.10061992 0.13042024 -0.07640236 -0.030068558 -0.0674128 0.02331075
0.13037315 -0.00044230826 0.05240424 0.123103276 -0.02434974 0.058109798 0.070931695 0.016282765

fc3.weight f4 [256, 128]
00000000: 41c2 103d 5abd a1bd 46a3 b03c 800d 6fbd
00000010: 8bdd a23d 1c43 093c c824 89bd 6cf9 87bd
00000020: 6db4 b03d d740 32bd beb9 423d c9a0 a8bd
00000030: 99ed 923d 49a4 3dbc d5ec 963d 86a1 64bd
00000040: 3e80 5a3c 3a5b 013d 1e9e 4dbb 9bb2 a83c
00000050: 5d97 12bd 7c01 d33c 836e 91ba b0c9 88bc
00000060: ad52 0ebd 9877 2cbd e0a6 afbd ea7d 8fbd
00000070: 48b5 61bd edf5 6e3d 7e38 9abd 40b2 81bd
00000080: 3f50 d6bc 5df3 3a3d a3ee b6bc 4321 fdbc
00000090: 38a6 683c 76a5 8a3c 0e7a 9bbd 7d32 ac3c
000000a0: 06a6 a13b 4a4f acbd 5280 f13a 5cd1 c53c
000000b0: 3e6e d83c 2f9a 753d 8952 7bbd 843a 9a3c
000000c0: 5130 563c 000e 6fbb 8c5c 80bd 14ef 8cbc
000000d0: 5b46 b13d 72fc b13d c2c9 afbd 8da1 81bc
000000e0: 6c55 973b 3624 20ba 8b33 453d ff43 8dbc
000000f0: 5ce6 d4bc e35a 58bd 7722 93bc 1ae5 2bbd
00000100: ba73 11bd 4a43 a6bc 60ee b1bd f7be 07bd
00000110: 1ec1 f3bc 055b 33bc c031 52bd e526 623d
00000120: 4293 1abc 0ced 31bd 13dc 323d ad78 d73c
00000130: d9f9 063d 363d 66bd 4889 79bd a597 283c
00000140: 727b a8bd 1cd6 913d a930 ac3d 0b90 92bd
00000150: 3c65 483d 01ea 74bd 94ba dabc 1e27 84bc
00000160: d959 5abd bf2b 483c 710e 033d cca5 89bc
00000170: b518 e83c d644 8c3d 2127 3fbd 3b35 d8bc
00000180: d9e5 c83a f020 4bbd 7007 0bbb 865a 873d
00000190: 65dd 9f3d 5952 c93c b9cf 3f3d 4484 a0bd
000001a0: 3117 14bc 5458 263c 2b87 01bc 04b3 36bc
000001b0: 9ea1 a23d 7416 1c3d 0bc6 9bbd 50e6 9bbd
000001c0: 3a3c 86bd e8a4 bd3c 0b47 af3c 420d 6dbc
000001d0: b4a7 3f3d 6540 53bc f55d 31bd 86b8 1cbd
000001e0: 8fdc e7bc 9030 bd3c f630 843d e59c 703c
000001f0: f1d9 6bbd d7d3 88bd 995e dcbc 4f2f 973d
00000200: 4e1c 723d 5f7d 9ebb 6c26 8a3c 2717 3f3d
00000210: d49f 49bd 3bce a6bd 07e1 ec3c baeb 2a3d
00000220: b5c1 263d 2edf 8cbd b567 a7bc 74d6 a13d
00000230: c6a2 143c 4068 813d b478 123d 8b7f 483d
00000240: f729 ae3d b593 a4bd 9312 2d3a be6c 983d
00000250: c0b2 e2bc 6a1f 40bc 38e0 fe3b 96a5 a03c
00000260: ff9f a3bd e7d4 2cbd 01e1 cc3b 0154 03bd
00000270: 87af ba3c bdb2 6abd de37 a8bd 332f d8bc
00000280: 15f0 63bd 3fb6 babd 174a 65bd 312b 753d
00000290: 71b9 8bbd 1abf 9fbd a708 87bd b473 37bd
000002a0: 2216 8ebd d415 c73a 6f28 01bd 202d 5cbd
000002b0: cdb5 e33c 14ff 243d 1ae8 b9bb a2ac 54bd
000002c0: df4c b3bd cf29 8a3d 1d4a a23d b431 0f3c
000002d0: 2e26 6f3d a58f 993d a810 17bd 4e88 233d
000002e0: c5d7 8dbd 0693 333d 99b3 d9bc 8173 09bc
000002f0: 4e47 a33c 0759 0b3c d444 87bd 090a bbbc
00000300: 97d6 79bd 9e72 9a3d 95bf d8bb c466 c83c
00000310: 34f0 f8bc aedb 25bb 5db9 a43d 3b76 7a3d
00000320: 67a1 a83d 2603 363d f735 903d 2be2 573c
00000330: 60d1 8d3c 426f febc 0716 2cbd f8d4 08bd
00000340: 80a4 81bd f4fd 46bd 2c62 2cbd 7db1 5b3d
00000350: acda 7a3d 2d86 0b3d 6c3d b4bd 4d1e 8ebd
00000360: 8c1a 1abc 65c3 bebd 696a 703d dac9 72bd
00000370: 32f4 563d 4d51 cab9 ab06 9ebd 10fe 853d
00000380: 3e92 8ebd 06d8 73bd a21c 033c d72b 973d
00000390: b493 abbd 4155 37bd abe9 223d 306a 82bd
000003a0: c847 0bbd 9a33 193b 008f 203c 0df4 a23d
000003b0: e54c a33c 3c48 76bd 1086 6d3d 6932 c23b
000003c0: b57d 61bc 4691 a63c ecef 85bd cc09 83bb
000003d0: 4a20 843c 2b03 b2bd 8c0f 773b 2bf3 97bd
000003e0: 98e1 d7bc a355 29bd 72b4 abbc 737d a73d
000003f0: 36de c73c 6c4e aabd ded0 f6bc 0c2d 013d
0.035341505 -0.07897444 0.02156223 -0.058362484 0.07952412 0.0083778165 -0.066964686 -0.0663937
0.086281635 -0.043518867 0.04754042 -0.08233792 0.071742244 -0.011574813 0.07369391 -0.055818103
0.013336239 0.03158114 -0.0031374763 0.020592978 -0.035788883 0.025757544 -0.0011095557 -0.016697735
-0.034746815 -0.04210624 -0.08576751 -0.07006438 -0.055104524 0.05834 -0.07530306 -0.063328266
-0.026161311 0.045642246 -0.022330588 -0.03089965 0.014199786 0.016924601 -0.075916395 0.021020168
0.0049331216 -0.08413561 0.0018425083 0.024147682 0.026419755 0.059961494 -0.06135801 0.01882673
0.013073043 -0.003647685 -0.06267652 -0.017203845 0.08655997 0.08690728 -0.08583404 -0.015824104
0.0046183374 -0.00061089115 0.04814486 -0.017244337 -0.02598875 -0.05282105 -0.01796077 -0.041966535
-0.035510756 -0.020295758 -0.086880445 -0.033141103 -0.029755171 -0.010946994 -0.051316977 0.055212874
-0.009434523 -0.043438956 0.04366691 0.02630266 0.032953117 -0.05621072 -0.060921937 0.010290061
-0.0822667 0.07120916 0.08407719 -0.0715638 0.04892467 -0.059793476 -0.026700296 -0.016131934
-0.05330834 0.012217461 0.031996194 -0.01680269 0.028332094 0.06849067 -0.046668176 -0.02639257
0.0015327289 -0.04959196 -0.002121415 0.06609063 0.078058995 0.0245754 0.04682896 -0.07837728
-0.009038732 0.010152895 -0.007905762 -0.011151079 0.07940982 0.03810735 -0.07606133 -0.07612288
-0.06554456 0.023149922 0.02139618 -0.014468493 0.046790794 -0.012893771 -0.043302495 -0.038261913
-0.028303413 0.023094445 0.06454651 0.014685844 -0.057580892 -0.0668103 -0.026900576 0.0738207
0.059109025 -0.0048367227 0.016864024 0.04665294 -0.04922469 -0.08144804 0.028915895 0.041728713
0.040712077 -0.06878506 -0.020435194 0.07902232 0.009072011 0.06318712 0.035759643 0.04894976
0.08504098 -0.080359854 0.0006602194 0.07442616 -0.027673125 -0.01172624 0.007778194 0.019610208
-0.07989501 -0.042195227 0.0062524085 -0.032062534 0.022788776 -0.057299364 -0.08213781 -0.026389694
-0.055648882 -0.09116792 -0.05597886 0.059855644 -0.068224795 -0.078001216 -0.06593447 -0.044788077
-0.06937815 0.0015189 -0.0315327 -0.053753972 0.02779665 0.040282324 -0.0056734206 -0.051922448
-0.087548964 0.067462556 0.07924292 0.0087398775 0.05838602 0.07498101 -0.03688112 0.039924912
-0.069259204 0.043841384 -0.026574897 -0.008389355 0.019931462 0.0085051125 -0.06604925 -0.022831934
-0.060995664 0.07541393 -0.0066146352 0.024463065 -0.030387975 -0.0025307941 0.08043168 0.06114791
0.0823391 0.044436596 0.07041543 0.013176481 0.017311752 -0.031058911 -0.042013194 -0.033406228
-0.06330204 -0.048582032 -0.04208581 0.053636063 0.061243698 0.034063507 -0.08800778 -0.06939373
-0.009405743 -0.09314612 0.05869523 -0.059274532 0.052478977 -0.00038589016 -0.077161156 0.06542599
-0.06961487 -0.059532188 0.008002432 0.07381409 -0.083777815 -0.04475904 0.039773624 -0.0636791
-0.034004003 0.0023376704 0.009799719 0.07956705 0.019934127 -0.06012748 0.05798918 0.0059264195
-0.013762881 0.020332944 -0.06539902 -0.0039989706 0.016128678 -0.086920105 0.0037698476 -0.074194275
-0.026352689 -0.041341435 -0.020960066 0.081782244 0.02439795 -0.08315739 -0.030128893 0.0315371

fc3.bias f4 [256]
00000000: 8507 61bd d119 c53c e8ed fc39 673e bf3d
00000010: de02 af3d 0afa 013d 26a0 883d 17cd 99bd
00000020: a2f1 183d 0c60 9abd 30cd 54bd 5cac 7dbc
00000030: 56c3 be3c ad2b 623d 04ca d7bc 8302 7d3d
00000040: 8a0e 843d e6df 12bd c789 8dbd 0ecf 1c3b
00000050: ebbe 47bd 0d9a aebc 1177 dc3d 4a8e aebd
00000060: 9917 ec3d 40a4 073d 9899 aebd 19c9 3ebd
00000070: 9a1d 3cbd a2fb 6fbc 2607 6ebd 29d3 1abc
00000080: e18b 5a3d 7db7 2bbd 1d1c 1ebd 760b 09bd
00000090: a328 6dbd 06fe 61bd bcb5 63bd 9d5b 663d
000000a0: d256 a03d f8f7 ff3b e7e1 d3bc 4601 a5bc
000000b0: 0ec6 b53d 0ff1 9c3d f674 913d e1f1 d0bc
000000c0: b068 31bd a084 903d 72ed 873d 4896 d73c
000000d0: df48 a83c ed68 99ba f347 bc3b 85f4 9f3c
000000e0: 4b3b f83c b477 b33c 096c 863d 49cb a13d
000000f0: 4d0d 293d 298a c5bb 05fb bb3c f7b1 c8bc
00000100: 6fe2 9b3d 16f2 4c3d d39f f13d 6a72 8abc
00000110: ec2c 42bc f390 57bd 2199 b13d add0 64bd
00000120: 6fd1 ac3d 1613 83bd 9879 95bd e42e a4bd
00000130: fff7 62bd df9d c53d 5762 f8bc 97ba 81bd
00000140: c8eb 693b 53fe f93c a7b3 8b3d 3a59 6fbd
00000150: 1f66 bd3d 4722 d33d 7546 bf3c b5f3 01bb
00000160: e42f b83d c657 4f3d 5494 193c 4f42 0bbd
00000170: 8fe2 b43c d3c0 1f3d c6bd aa3c 0910 b7bc
00000180: 18cc 68bc 8112 cebb 5fe8 1b3d 23e4 883d
00000190: 5115 473c 2a55 4b3b 1c16 273d fecb 07bd
000001a0: 5215 7e3d 70f3 373d 9227 a83b e7f5 20bd
000001b0: e1a4 8abd 9936 833d a3a7 adbd 9bc7 4fbc
000001c0: 0da1 18bc fb96 bf3c b90b 91bd d448 55bd
000001d0: 0181 94bd 457a ec3b 7be4 4b3d 2fb8 77bd
000001e0: 9828 403d c713 74bd 29e5 673d d39c b3bc
000001f0: 9308 9f3d a741 953d 12d2 ef3b 3dd9 2b3d
00000200: 4ae7 6b3d 6588 98bb c8e3 60bd 4f62 85bd
00000210: 41cb dc3c 8486 0f3d 109d c23c e4e3 22bd
00000220: eefe 9dbd a234 8b3b aae8 17bc 2b3c b0bc
00000230: be58 443d b354 993d 2772 34bc ed56 8c3d
00000240: 4790 ec3d 8128 813d 76b4 063c 36f1 7a39
00000250: 8c23 d8bc c182 14bd e041 a9bd 9e85 9fbd
00000260: 6bc5 ee3d 4095 933d 16b1 53bb c727 db3d
00000270: 5eb6 16bc 2e57 e93c 8c0e 99bd 2aac 643d
00000280: d692 413d 9cbc 903d f467 c43c b4f0 66bd
00000290: 0a06 843d bed9 923d 6281 4f3d 6e88 003d
000002a0: b539 a63d 36d4 15bd 25f6 92bd 96f6 a33d
000002b0: ba19 79bd c534 9f3d b074 53bd 7533 dbbd
000002c0: 0b3c bbbc a5bb b43d 19f9 b53d b1b8 9fbc
000002d0: f2e8 d83c 272c 753d 9a86 b2bd 6743 6e3d
000002e0: 6eec 5ebd f9be 693d cc14 c53d 3868 803a
000002f0: 8350 e53d 019a 673c 00b5 f1bc c947 afbc
00000300: b27d 15bc c95e 68bc 179d 493c b955 ac3d
00000310: 9c68 1dbd 36d7 08bd 5215 053d 372b b13d
00000320: 034b b1bc 3f28 303d 7b6b 80bd 9971 ed3d
00000330: de17 8c3c 5b7a 283d 6b69 313d 1629 433d
00000340: b838 843a 5f29 47bd 436f 0bbd 4e2f b03c
00000350: 9761 c7bc 4973 d63d 0074 383c f6dc 54bc
00000360: 2b46 f1b9 4aba 6b3c 30aa 7ebc 5498 d03c
00000370: 4694 87bd 1080 6c3c 03e0 d63b 8c82 9a3d
00000380: 8c67 e0bc 68c6 ef38 2d00 79bc 4dcd 9fbc
00000390: 1926 4fbc 4a2c 0ebd 10a7 ae3d 6cd6 87bc
000003a0: 5934 903d f0b1 b13c ae42 1fbc b833 273d
000003b0: 867c c93d fc39 0fbc 694d 17bd 7487 8d3d
000003c0: 702a 4e3d 3549 6d3d 3965 b63a ccfa 42bd
000003d0: d592 66bc e074 c33d 1997 87bc 5cc4 4bbd
000003e0: e697 c23d 79e7 5fbd 71ee 2dbb cc7e 14bc
000003f0: 3e5a 413d 406e 9c3d bed5 a3bc 6997 71bd
-0.05493881 0.024060162 0.0004824244 0.09338074 0.08545469 0.031732596 0.06671171 -0.07509821
0.037339814 -0.07537851 -0.051953495 -0.015482988 0.023286503 0.055217434 -0.026341446 0.061769973
0.064480856 -0.035858057 -0.069110446 0.0023927125 -0.048766058 -0.021313692 0.107648976 -0.08523233
0.115279384 0.033115625 -0.085253894 -0.0465785 -0.045926668 -0.014647396 -0.058112286 -0.009449759
0.053356055 -0.041923035 -0.03860103 -0.033458196 -0.057900082 -0.055173896 -0.055593237 0.056239713
0.0782906 0.0078115426 -0.025864555 -0.020142209 0.088756666 0.07663166 0.07102387 -0.025505962
-0.04331273 0.07056546 0.06637086 0.026316777 0.02054256 -0.0011704244 0.0057458817 0.019525776
0.03030171 0.021907665 0.06563575 0.07900102 0.04127245 -0.006028433 0.022946844 -0.024498923
0.07611548 0.05003556 0.11798062 -0.01690026 -0.0118515305 -0.05262847 0.08671785 -0.05586307
0.08438384 -0.06400125 -0.07298583 -0.08016756 -0.05541229 0.09649252 -0.03032033 -0.06334417
0.0035693515 0.030516779 0.06821375 -0.058434702 0.09247994 0.10309272 0.023349026 -0.0019829099
0.089935094 0.050620817 0.009373743 -0.033998784 0.022080688 0.03900225 0.020842444 -0.022346513
-0.014208816 -0.006288827 0.038063403 0.066841386 0.012151078 0.0031026104 0.04079257 -0.033153526
0.06203205 0.044909894 0.0051316703 -0.03929701 -0.067697294 0.06406898 -0.0847924 -0.012681867
-0.009315741 0.023387423 -0.07082314 -0.052071407 -0.07251168 0.007216724 0.049778443 -0.060478386
0.046913713 -0.059589174 0.05661503 -0.021925366 0.07765307 0.07287913 0.0073187435 0.04195522
0.05759362 -0.0046549314 -0.05490473 -0.065128915 0.026952388 0.035040393 0.023756534 -0.039768115
-0.077146396 0.0042482177 -0.00927178 -0.021513065 0.047936194 0.07486858 -0.011013544 0.06852517
0.11550956 0.06306554 0.008221736 0.00023931716 -0.026384138 -0.03625751 -0.08264518 -0.07789157
0.11658748 0.072062016 -0.0032301596 0.10700946 -0.009198753 0.028483953 -0.07473478 0.05582825
0.047259174 0.070672244 0.02397535 -0.056381896 0.06446464 0.07170437 0.0506605 0.03138011
0.081164755 -0.036579333 -0.071758546 0.08006017 -0.06081555 0.07773737 -0.051624954 -0.10703174
-0.02285578 0.08824853 0.08885402 -0.019497247 0.026478264 0.05985656 -0.087170795 0.05816975
-0.054424696 0.05706689 0.09623107 0.0009796685 0.11196997 0.0141358385 -0.029505253 -0.021396535
-0.009124206 -0.014182755 0.01230552 0.08414788 -0.03842984 -0.033408366 0.032491036 0.08650821
-0.021642214 0.04300713 -0.062705 0.11593933 0.017101225 0.041132312 0.043313425 0.047646604
0.0010087704 -0.04862344 -0.034041654 0.021506932 -0.024338527 0.10471208 0.011258125 -0.012992134
-0.0004601938 0.0143876765 -0.015543506 0.02546326 -0.06620078 0.014434829 0.006557466 0.07544431
-0.027393125 0.00011433364 -0.015197796 -0.019507075 -0.0126433605 -0.034710206 0.085279584 -0.016581737
0.070412345 0.021691293 -0.0097204875 0.040820807 0.09838204 -0.008741852 -0.03693906 0.06910601
0.05033344 0.057931144 0.0013915665 -0.04760246 -0.014073093 0.095437765 -0.016551541 -0.04974781
0.095016286 -0.05466411 -0.0026539827 -0.009063434 0.047205202 0.07638216 -0.019999381 -0.058982287

fc4.weight f4 [12, 256]
00000000: 8e97 513c f7cb 4a3d 2c5d c3bc 621c bebd
00000010: 7eaa ffbc ef89 2d3c 1ce6 853d d5c9 103d
00000020: 6ff4 36ba 8aae 80bd 49b6 f43c 2d15 3cbd
00000030: 8dbf f73b 7cb6 bf3c 6f17 96bb 1158 003d
00000040: 0e82 7bbd e22d c739 1243 edbc d37b 32bd
00000050: 511a 1cbd 8f90 8cbd 80b2 32bd 72ff c6bc
00000060: cd70 24bd a060 b6bd ee3d 4ebd 0c7a 2bbd
00000070: bb70 f2bc 36c9 a5bd 3728 5ebd 69a5 16bd
00000080: 8b8a 273d 9837 cdbd 8732 91bd 2bcc de3b
00000090: 4ff6 8bbc fb68 bdbc fcb5 57bd 4257 883c
000000a0: b8e4 14bd 2f53 b2bb 5bc1 44bd 8e6e f2bb
000000b0: a01a 1abc 165d cabd b0b0 d0bd c873 483d
000000c0: 78f9 283c bca3 3f3d 455e 4abc dd67 a5bd
000000d0: 8e42 89bc 25e6 133d 7197 1cbd fa2e 95bc
000000e0: 968a 48bd f5b7 033d 6291 db3c c7e6 afba
000000f0: 8aec b83d 74a9 a9bd 403d f33c 83e0 aa3c
00000100: c07f 72bd b289 023c bc99 a2bd 6e5d 603d
00000110: 34d8 693d e4d7 0f37 ef30 ac3b efdc 9cba
00000120: d562 ffbc b15d 323d 91fb 93bb ec47 92bc
00000130: c31e 1dbd 502a b73d eea9 e9bb fc40 0e3d
00000140: 0756 bfbd 78ca 9fbd 4c6b d4bd 9f6d ba3c
00000150: 7a0d 9fbd 0ab7 ccbd a280 44bd ed13 2a3d
00000160: 4b16 f0bc 251c 30bd 3ed1 60bd 7ec3 66bd
00000170: 9f5c 3dbd f8f1 c2bd a65b 413b d5cf e8bb
00000180: 2dce 98bd 8dcf 8cbd bc3a 5f3c dea6 d1b8
00000190: 0384 263d 3a37 42bd 4e61 7abc 575a 2cbd
000001a0: 3fd0 933b 255f 3a3d aa7b 9ebb a895 53bc
000001b0: 9ff0 84bc 0256 4f3d c585 2a3d 678c a83c
000001c0: 9520 cbbd fec8 ea3c c28c 493d 1fc5 853c
000001d0: 130e 88bd 909a 723d 383e 5abc f67d cfbc
000001e0: fe95 c5bd b33a 8d3c 14e1 a2bd 91a9 103d
000001f0: 9e56 d53b 4bb7 0cbd 99a9 cfbd 17ae 0cbd
00000200: c153 12bd 4c74 6cbd 90c9 c1bc 1de0 81bd
00000210: 9181 3f3d 2b9d c5bd 7327 a7bc ee81 babc
00000220: 12f2 f23c a146 d6bd 00ac 8bbd 0036 6dbd
00000230: ac50 7dbd e070 513c a6a0 60bc b2f6 8bbd
00000240: d4dc 6b3d 7ccc 823d 562b 58bc 9894 5c3d
00000250: 5c73 93bd 3c54 093c cbe7 20bd 25ec f43c
00000260: 920f b6bd fb65 fdbb 1aaa 82bd c0b4 10bd
00000270: c4c0 4fbd df4b 3f3d ff5e 883c a30d a8bd
00000280: f94f 3d3c 0db1 3a3d e1cb 743d 5512 f2bb
00000290: 7756 1d3c ca03 4c3d 9a8a e5bc dfca b1bd
000002a0: ceb2 e53c 4cba 67bd 85b8 1c3c 4e85 d2bb
000002b0: b835 38bc 24dc 5e3d b3c9 94bd 2f3d 073d
000002c0: fc3c 593d 4577 8b3c 0d45 d0bd 1406 8ebd
000002d0: 92d2 693d 1746 3ebc afe1 293b de53 77ba
000002e0: 9b93 89bc d2f8 c6bc f772 abbd 19bc ccba
000002f0: e6b6 34bd 4fbe 9b3b 5455 a8bd 1ea1 e4bd
00000300: af4a 3fbd b43d 7cbb 5594 063d da2c 7b3d
00000310: 4dc4 11bd c01a 483d ac96 adbd 3919 303d
00000320: 0fcf 02bc 878a 16bc 1f1b 323d e121 9fbd
00000330: f19e cebd 8e00 c43c e3d6 5bbd 5667 0bbd
00000340: 8a66 e43c a0e9 18bd 4bdc b0bd 9707 b03c
00000350: e089 b3bd 6c2c 7cbd 68b7 0d3d 3011 243d
00000360: ca9c e0bc 1ead 59bc 0320 29bd e2d9 e93c
00000370: 52e6 293d 00fa fdbc 91cc afbd 061f 733c
00000380: e1ee 4f3c 29f8 95ba e5d8 ddbc 15db 343d
00000390: f940 24bd 79e7 87bd 912a 03bd 5382 9e3c
000003a0: db22 6fbc 0615 433c 22cd 05bd edb6 87bd
000003b0: b691 66bd 8827 f03b d111 a4bd c241 583d
000003c0: dddb 96bd 1e38 7ebc c96f 5abb d8c4 47bd
000003d0: 2628 fe3c 3de6 76bd 591d f93c 0f1f 3abc
000003e0: e5a9 f5bc 2f53 b63a 5ed2 603c abec e13d
000003f0: ae4e 5cbc dc8f 67bc 6fc7 b33b 8fb5 b63c
0.012792481 0.049510922 -0.023848139 -0.09282757 -0.031209227 0.010591968 0.065380305 0.035348732
-0.00069791725 -0.06283291 0.029872077 -0.045918632 0.0075606764 0.023402445 -0.00458043 0.031333987
-0.061403327 0.00037990423 -0.028962646 -0.04357512 -0.038111035 -0.0686351 -0.043627262 -0.024291728
-0.040146638 -0.089051485 -0.05035203 -0.04186444 -0.02959477 -0.080950186 -0.05423757 -0.03677884
0.04090361 -0.10020369 -0.070897155 0.006799241 -0.017085223 -0.023121348 -0.05266379 0.01664317
-0.036350936 -0.005442045 -0.04803596 -0.007398433 -0.009405762 -0.09881036 -0.101899505 0.048938543
0.010313384 0.04678701 -0.012351577 -0.08076451 -0.016755369 0.036108155 -0.038230363 -0.018210877
-0.04896029 0.032157857 0.026802722 -0.0013420217 0.09029491 -0.08284274 0.029692292 0.020859009
-0.059203863 0.007967399 -0.07939479 0.0547766 0.057090953 8.57373e-06 0.005254857 -0.0011967699
-0.031175056 0.043546382 -0.004516073 -0.01785656 -0.038359415 0.08943617 -0.007130853 0.034729943
-0.0934258 -0.0780229 -0.10372028 0.02275735 -0.07766242 -0.099958494 -0.047974236 0.04152291
-0.029307505 -0.04299559 -0.05488705 -0.05633878 -0.04623091 -0.09518808 0.002950409 -0.0071048536
-0.074612 -0.06875525 0.013624843 -9.996978e-05 0.04065324 -0.04741595 -0.015281988 -0.042078342
0.004510909 0.045500893 -0.0048365192 -0.012914099 -0.016228018 0.050619133 0.04163148 0.020574762
-0.09918324 0.028660294 0.049206503 0.016329346 -0.066433094 0.059229434 -0.013320498 -0.025328618
-0.09647749 0.017239904 -0.079530865 0.03531796 0.0065105697 -0.03435449 -0.1013977 -0.034345713
-0.035724405 -0.057728097 -0.023655683 -0.06341574 0.046754424 -0.09649118 -0.020404553 -0.022767033
0.029656444 -0.1046269 -0.06819916 -0.057912827 -0.061844513 0.012783259 -0.013710177 -0.06834163
0.057583645 0.063866585 -0.013193926 0.053852648 -0.071997374 0.008381899 -0.039283555 0.029897759
-0.088896886 -0.0077331043 -0.063801005 -0.035328627 -0.050720945 0.046703216 0.01664686 -0.08205726
0.0115547115 0.045579005 0.059764747 -0.0073874393 0.009603134 0.0498083 -0.028020192 -0.08681273
0.028039362 -0.05657415 0.009565477 -0.0064245826 -0.011243276 0.05440916 -0.072650336 0.033017334
0.053036675 0.017024646 -0.101694204 -0.06934753 0.05708558 -0.01161339 0.0025921871 -0.00094347994
-0.016794017 -0.024288569 -0.08371537 -0.0015620022 -0.044119738 0.004752911 -0.082194 -0.11163543
-0.046702083 -0.0038488926 0.032856304 0.06132207 -0.035587598 0.048853636 -0.08476004 0.042992804
-0.007983937 -0.009188301 0.043482896 -0.07770134 -0.100889094 0.023926046 -0.05367173 -0.034034096
0.027880926 -0.037332177 -0.086357675 0.021487994 -0.08766532 -0.0615658 0.034598738 0.040055454
-0.027418513 -0.013285903 -0.041290294 0.028546277 0.041479416 -0.031002998 -0.0858394 0.0148389395
0.0126912305 -0.0011441755 -0.027080962 0.044154245 -0.040101025 -0.06635947 -0.032023016 0.019349253
-0.014595713 0.011906868 -0.032666333 -0.06626687 -0.056291305 0.0073289312 -0.08011211 0.052797087
-0.07366154 -0.015516309 -0.003333079 -0.04877171 0.031025004 -0.060278166 0.030409502 -0.011359944
-0.029988239 0.0013910289 0.01372203 0.11031469 -0.013446493 -0.01413342 0.005486421 0.02230337

fc4.bias f4 [12]
00000000: a3a9 e2bb c60e 0c3d 35a5 60bd abe5 87bd
00000010: 2614 55bc 0c38 b13b ca3b 88bc e6da 993c
00000020: d08f 293c e843 95bc 5a8f 25bc d5e8 16bc
-0.006917195 0.034193777 -0.054845054 -0.066356026 -0.013005292 0.0054082926 -0.016630072 0.018781137
0.010349229 -0.018220857 -0.010104978 -0.009210785
