tuned.pt_episode_1000.pt (torch, 182504 bytes, 8 tensors)

fc1.weight f4 [64, 5]
000000 8a c0 a8 bd a0 cf 92 be 62 5f 4d 3e 83 4d 9c 3e
       -0.08239849 -0.2867403 0.20055917 0.30527887
000010 80 da 4c 3e 8e fb 95 3e 10 34 68 3e c5 17 fe bd
       0.20005226 0.29293483 0.2267611 -0.124068774
000020 f5 03 8b be 18 c0 dc 3d c8 ac 98 be bb b8 93 be
       -0.27151456 0.107788265 -0.29819322 -0.28851876
000030 94 b1 3d be 48 52 9d 3e 4d 1a b2 3d 46 cc 9d be
       -0.18524772 0.30726838 0.08696423 -0.3081991
000040 59 6a 39 3e 7f b5 ca 3d 4b 73 77 3e 35 a8 8e 3e
       0.18106975 0.09897899 0.24165075 0.27862707
000050 00 1f 69 be 50 f8 98 be 7e 73 4f be 96 90 54 3e
       -0.22765732 -0.29876947 -0.202589 0.2075828
000060 c6 a7 48 3c e9 76 ac be 22 3b 69 bd 60 c1 d7 3c
       0.012247032 -0.3368447 -0.05694116 0.026337326
000070 2a ce 55 be 52 c7 ee bc 78 84 5b 3e 0b 44 ff bd
       -0.20879427 -0.029147778 0.21437252 -0.1246415
000080 3f e4 5f be 6b ca 2f 3e e9 96 90 3e 7a 92 3b be
       -0.21864413 0.1716706 0.28240135 -0.18317595
000090 67 10 8c 3e f7 20 a6 be b6 70 92 be 50 17 16 be
       0.27356264 -0.32447025 -0.28601617 -0.1465733
0000a0 37 d8 c5 be a9 af d9 3e 20 24 71 3b d0 e0 58 3e
       -0.3864152 0.4251683 0.0036795214 0.21179509
0000b0 e3 e8 ae 3e d6 9a 39 bd 2a 66 56 3e bb 5d 0c 3e
       0.34162053 -0.04531368 0.2093741 0.1370763
0000c0 7e 88 5e 3d 17 fc 59 be b1 e9 bf bc c1 5d c2 3e
       0.054329388 -0.21287571 -0.023426862 0.37962154
0000d0 bf 5a aa 3d 61 40 36 be ac 2d 31 3e 24 a0 e3 bd
       0.0831809 -0.17797996 0.17302579 -0.11114529
0000e0 38 5c 6c be f0 df 96 be ed 79 20 3e a3 d7 a3 be
       -0.23082054 -0.29467726 0.15671511 -0.32000455
0000f0 f3 b0 e2 3e 5b da b2 be 91 a6 b3 3e d8 12 4b 3e
       0.44275627 -0.34932217 0.35088018 0.19831407
000100 19 51 af 3e 1d 0b d3 3c 50 fc 36 3e 2e 8d 58 3e
       0.3424156 0.025762135 0.17869687 0.21147606
000110 fc 38 17 be 6d 8b 84 3e 08 c5 c7 bc b9 6a cf be
       -0.14767832 0.25887623 -0.024385944 -0.4051111
000120 32 69 80 3e 91 d8 a7 be ae f7 ac 3e c3 50 83 3e
       0.25080258 -0.32782415 0.33782715 0.25647554
000130 ee 3c 6f be 6d 3e a5 be 2e a8 9a 3e 4f 91 cd bb
       -0.23363087 -0.3227419 0.30206436 -0.0062734256
000140 44 bd 31 be 8b 8a a4 3d 7d bf bc 3e b7 3a a5 3e
       -0.17357355 0.080342375 0.36864844 0.32271358
000150 66 ce 11 be a7 f1 57 3e 9a 9a dd 3e ef 78 42 bd
       -0.14238891 0.21088277 0.43282014 -0.047478613
000160 a8 ba 70 be fb ea 74 be 0b e1 1e 3e c8 a6 3e 3e
       -0.23508704 -0.23917763 0.15515535 0.1861831
000170 1c d3 be 3e c6 34 64 3e 2b 42 be 3e 7d 6f 3a bd
       0.3727044 0.22285756 0.37159857 -0.04551648
000180 ae 9c 06 bc 83 19 84 be 41 87 ad 3e 55 fe d4 bc
       -0.008216066 -0.25800714 0.33892253 -0.026000181
000190 e2 c0 4f 3e a2 f0 b8 3e 5e cb c0 be 41 3e aa 3e
       0.20288423 0.36121088 -0.37655157 0.3325062
0001a0 f8 5e 99 be be 5f 1e 3e 07 ba 71 3e 61 bf 79 be
       -0.29955268 0.1546621 0.2360612 -0.24389412
0001b0 c0 1a a8 3c 20 ea d5 3d 09 19 bc be 8f cd b5 3e
       0.020520568 0.104450464 -0.3673785 0.3550839
0001c0 9c 49 0e bd 0d 80 94 3d d6 1d 96 bb 20 ad d2 3d
       -0.034738168 0.07250986 -0.0045811934 0.10286927
0001d0 db 58 bd 3e a2 86 c6 be 0a 4e be 3c 3c 7d 8c be
       0.36981854 -0.38774592 0.023230571 -0.27439296
0001e0 0b 14 ae 3e 5c 34 94 be 05 89 b8 3d ee 4c 36 3e
       0.33999667 -0.28946197 0.090105094 0.17802784
0001f0 69 00 c5 3d 76 e8 ac be 50 37 fb bd cf d3 80 be
       0.09619219 -0.33771104 -0.122664094 -0.25161597
000200 0e e6 bd 3d 7f c6 26 3d df 6e 83 3e 0f d2 3c 3e
       0.09272395 0.040716644 0.25670525 0.18439506
000210 38 62 b4 3e 98 0c 96 be 05 ea 8b be 93 59 a9 3e
       0.35231185 -0.29306483 -0.2732698 0.33076152
000220 9b 1f 87 3e 9b 19 c0 3e f3 d5 1a be 96 f6 b1 3e
       0.263913 0.37519535 -0.15120678 0.34758443
000230 69 10 41 be dc f3 5d be 2c d4 c5 3e 5d 17 ba bd
       -0.18853916 -0.21675056 0.38638437 -0.090864874
000240 15 06 b3 3e d9 e7 13 3e d7 c9 86 be 68 86 b7 be
       0.34965578 0.14443912 -0.26325867 -0.3584473
000250 e2 e7 81 3e b9 5d 45 3e 4a fd ad bd c4 31 2b 3e
       0.25372225 0.19274034 -0.08495577 0.16718203
000260 97 5f a9 bd 79 ec 2b 3e 59 14 07 be ec ce 17 be
       -0.082701854 0.16789426 -0.13191356 -0.14825028
000270 70 26 43 be 70 9b 6e 3d 57 d9 3f bd 1d c8 3a 3d
       -0.19057631 0.058253706 -0.04683813 0.045601
000280 f8 1b 57 bc 21 7f 25 be a9 07 7b 3e 22 a3 42 bd
       -0.013129227 -0.16161777 0.24514641 -0.047518857
000290 3f c3 45 3e dd 8e b0 3e 7b e9 92 be d6 d0 da 3d
       0.19312762 0.34483996 -0.28693756 0.106843635
0002a0 50 c6 06 be e7 7e 29 bd 07 ea cd 3d 8a 7a 33 be
       -0.13161588 -0.04138079 0.10054403 -0.17527214
0002b0 3a 90 68 3e d7 5a ae bd 8c 48 a8 be c2 16 22 be
       0.22711268 -0.0851342 -0.3286785 -0.15828994
0002c0 bc bb 24 bd 1a 74 64 3e df 58 a4 be de ae 99 3e
       -0.0402181 0.22309914 -0.32099053 0.30016226
0002d0 03 9d c7 3c 44 17 56 be a3 d0 98 be 2a b4 92 be
       0.024366861 -0.20907313 -0.29846677 -0.2865308
0002e0 3d 21 bc 3e b0 de a7 3e c5 94 d3 bd 0b 0a ba 3e
       0.3674411 0.32787085 -0.1033111 0.36335787
0002f0 10 a6 00 3c 92 ab 63 be e4 db 5f 3e 5c ad ac be
       0.007852092 -0.22233418 0.21861225 -0.33726013
000300 28 73 6c 3e 88 ee 16 be 33 52 43 3e 61 56 66 3e
       0.23090804 -0.1473943 0.19074325 0.22493888
000310 b8 2b a1 3e ad 1e da be e0 33 19 3e e1 a3 26 3e
       0.31478667 -0.4260153 0.14961195 0.16273452
000320 38 33 a4 be 5e 22 b9 be e6 d3 bb be ca 33 bb 3e
       -0.32070327 -0.36159033 -0.36685103 0.3656295
000330 b1 63 81 3e 9c 8c a2 be df f3 36 be 20 7b 42 be
       0.2527137 -0.317479 -0.17866467 -0.18992281
000340 08 a4 38 3e cb d1 30 be 35 c8 41 bd 01 41 9e be
       0.18031323 -0.1726753 -0.047310073 -0.3090897
000350 7a 23 f2 3d 00 93 58 3e 8d 01 80 3e 6c ac ba be
       0.11823173 0.21149826 0.25001183 -0.36459672
000360 d0 62 aa 3e 24 2a 36 3d 6d be a2 3e 49 25 66 be
       0.33278513 0.044473782 0.31785908 -0.2247516
000370 35 1e 8b 3e 6f f4 aa 3e 06 74 2e 3e 3b 1d 29 3e
       0.27171484 0.33389613 0.17036447 0.16515057
000380 6c e4 b3 3e bd d1 4f 3e ad 0f 5f 3e 54 2d 33 3d
       0.3513521 0.20294853 0.21783324 0.0437444
000390 88 c7 87 3e be 37 ae 3e 3e df 84 be 37 fb 34 3e
       0.26519418 0.34026903 -0.2595157 0.17673956
0003a0 90 ad e1 bc 4f ca 88 3d 6e d8 d1 3d 61 cf 49 3d
       -0.027548581 0.06679212 0.10246359 0.049270038
0003b0 07 69 37 3d 71 3c be 3e 45 88 13 3c 67 86 a7 bd
       0.044777896 0.37155488 0.009004657 -0.08179932
0003c0 7b 11 d9 3d b1 23 16 3d b2 40 b9 bd bd 6d ae 3e
       0.10599037 0.03665513 -0.09045543 0.340681
0003d0 e2 c1 c4 bd 32 b0 65 3e fd dc cc 3c e0 51 b2 3d
       -0.09607293 0.22430494 0.02500772 0.08707023
0003e0 e6 b9 a9 be 29 e3 b7 3a 90 c7 a8 be 47 7f b0 be
       -0.33149642 0.0014029491 -0.32964754 -0.34472105
0003f0 f6 00 f5 bc 24 e1 b6 be 9f b1 af be 86 4a 22 3c
       -0.029907685 -0.35718644 -0.34315202 0.009905463

fc1.bias f4 [64]
000000 62 05 9b be c3 8f b6 3e f4 57 fb 3d 56 c1 f7 3d
       -0.30277544 0.35656556 0.12272635 0.12097423
000010 87 99 0b bd f8 eb 73 3e 9d f7 b8 3c 1e e3 9b be
       -0.034081962 0.23820484 0.022579009 -0.30446714
000020 e1 30 4d be 43 54 cb 3e a5 37 9c bd 44 91 f2 3d
       -0.20038177 0.39712724 -0.07627801 0.118441135
000030 f2 8c a2 3d 4b 8d 05 bd 56 34 b8 bb ef 10 84 bc
       0.079370394 -0.03260545 -0.0056214733 -0.016121356
000040 3a aa 6b 3e dd 53 a8 3e 8d 6e 29 be 14 b0 7f 3d
       0.23014155 0.32876483 -0.16546078 0.06242378
000050 f7 61 21 be 6e e6 b6 3c f1 5d 8d be 08 37 b4 3c
       -0.15760027 0.022326674 -0.27610734 0.021998897
000060 91 c4 8d be d0 77 88 3d 66 47 05 be 5f 2c 7a 3e
       -0.2768903 0.066634774 -0.13015518 0.24430989
000070 a0 d8 05 3d bf 8a 10 3e b1 87 fa 3d 15 76 ad 3d
       0.032677293 0.14115427 0.12232912 0.08469788
000080 0f ff b2 3e 6c 04 4d 3e 67 37 a2 3e 63 ae 9a be
       0.3496022 0.20021218 0.31682894 -0.30211172
000090 91 cc 8b be ce 2f ab 3e 6c 49 30 be f7 29 b6 3e
       -0.2730451 0.3343491 -0.17215508 0.35578892
0000a0 88 f5 66 bd 96 4e e7 3b 2e 93 51 3d a1 2f 89 3d
       -0.0563865 0.0070589287 0.051165752 0.066985376
0000b0 76 c1 de 3e b3 4b 63 be 67 07 e2 3e 95 e9 97 3e
       0.43506974 -0.22196846 0.44146273 0.29670396
0000c0 cd b2 4e be bc 6f 99 bd 35 f2 b5 be 9c d3 22 be
       -0.20185395 -0.07492015 -0.35536352 -0.15901035
0000d0 3f 24 53 3e a6 1a 3c be 85 cb d0 3e 1e 59 36 3e
       0.20619296 -0.1836954 0.40780273 0.17807433
0000e0 3a ae 1a be fe f6 37 3e d3 e1 98 be 9b 30 2d 3e
       -0.15105525 0.17965314 -0.2985979 0.16913073
0000f0 6f 17 68 be b6 f7 46 3d 5e 16 f1 bd c0 e1 1b bd
       -0.22665189 0.04857608 -0.11771844 -0.03805709

fc2.weight f4 [128, 64]
000000 a4 86 d2 3d 23 05 98 bd be 1d e5 bc 36 40 e9 bc
       0.10279587 -0.07422855 -0.027968284 -0.028473001
000010 22 38 66 3d 26 1c c9 3d 6e 77 c9 bd 6e 51 f3 3c
       0.056205876 0.09819822 -0.098372325 0.029701915
000020 dd bf 8b bd 6e 1a ce 3d ee 28 70 bd df a5 1c 3d
       -0.068237044 0.10063635 -0.058632784 0.038244125
000030 ae d3 62 3d 2f d7 05 bd 86 72 55 bd ba 56 7f 3d
       0.055377655 -0.03267592 -0.05211117 0.06233857
000040 67 ee a5 3d c2 59 45 bd 9a ca ba bd 97 8f b0 bd
       0.08102112 -0.048181303 -0.091206744 -0.086211376
000050 2e 61 b0 3c b7 87 11 bd 0e 5b c0 bc 96 61 3b bd
       0.021530714 -0.03552982 -0.023480918 -0.045747362
000060 0f 57 8d bb 2f 00 8b bc bb f4 28 bd a3 78 b5 bd
       -0.0043133567 -0.016967861 -0.04124902 -0.088609
000070 c7 18 04 bd 97 2a 92 3d 28 95 bc 3d ec a2 b4 3d
       -0.032250192 0.071370296 0.09208137 0.088201374
000080 07 19 1e 3d 47 4d 89 bc 9f 7d 91 3c 4f f1 05 3d
       0.038598087 -0.016760482 0.017760096 0.032700833
000090 db 7a 93 bd 37 48 1b 3d d0 30 3c 3d 0b 55 0f bd
       -0.07201167 0.037910666 0.04594499 -0.034993213
0000a0 c5 d6 93 bd 2e a0 bb 3c aa 7b 4b bd 07 8b 07 bd
       -0.072186984 0.022903528 -0.049678482 -0.03309157
0000b0 5a da c7 bd 32 f8 6d bd 0f 79 a4 bd 4b fc 82 3d
       -0.09758444 -0.058098026 -0.080309026 0.06395777
0000c0 62 0c 38 3d a2 ca b8 bd be 77 d3 bd 59 66 9b 3d
       0.044933684 -0.09023024 -0.103255734 0.07587881
0000d0 64 cf cf bd 46 83 bd bc 8e b5 71 3d de ca 7e bd
       -0.101469785 -0.023133885 0.059011035 -0.062205188
0000e0 76 f8 be bc 1e 14 43 3d 2a 5c 64 bd 86 2b cd bd
       -0.023311835 0.047626607 -0.055751957 -0.10018067
0000f0 b9 9f b1 3d 57 78 13 3d cf 5a 9e 3b 0f 29 07 3d
       0.08673043 0.036003437 0.0048326026 0.03299814
000100 77 20 40 3d f1 f0 f7 3c fb 17 a7 3d f8 2e e0 3d
       0.04690596 0.030266257 0.08158871 0.109464586
000110 b3 d7 b3 bd 22 53 35 3d 6c 59 06 be 6e a3 cc 3d
       -0.08781376 0.044268735 -0.13120049 0.09992109
000120 2b fa af 3d cd 92 01 3d 8b 43 d3 3d 63 64 a2 bd
       0.08592638 0.03163414 0.10315617 -0.079293035
000130 93 5d 09 3d 73 28 be 3d 7c 89 91 3e da 69 9d 3e
       0.033536505 0.09285059 0.28425205 0.3074482
000140 e9 a2 44 bd f2 81 81 3b 9b 6f d2 3d 2d 92 62 3e
       -0.048006926 0.0039522583 0.10275193 0.22126074
000150 6e 0f e8 bc c7 2b af bd 42 73 3c 3e bc b4 a4 3c
       -0.02832767 -0.08553272 0.18403342 0.020105712
000160 ea c6 00 bc fe 05 e1 bb 37 d2 26 3d 47 e5 b4 3d
       -0.007859925 -0.0068671694 0.04072782 0.08832794
000170 06 19 9e 3d 47 f3 c7 3d 0b ae a7 bd 23 6e a1 bd
       0.077196166 0.09763198 -0.08187493 -0.07882335
000180 40 f8 a8 3d 72 3b 5f 3e e5 46 db 3d b7 b3 cd 3d
       0.08250475 0.2180002 0.107068814 0.100440435
000190 0a b9 42 3d d5 27 c1 bd 9b f9 83 3e b5 02 05 bd
       0.04753975 -0.094314255 0.2577637 -0.032473285
0001a0 16 f0 38 3d a9 c6 98 3d 3e ee b4 3d d8 0b 42 bd
       0.04515084 0.074597664 0.088345036 -0.047374576
0001b0 af b9 af 3d 0c d1 96 3d 4d 8e 16 3e f1 23 2f 3d
       0.08580338 0.07364091 0.14702721 0.042758886
0001c0 95 01 99 bc 1d 07 b5 3e 1f 53 13 3c 3c 0c b8 bd
       -0.018677512 0.3535699 0.008991986 -0.089867085
0001d0 2e 6c 37 bc a3 ca 96 bc 25 9f 08 3c 73 16 99 3d
       -0.011195226 -0.018407172 0.008338724 0.07474985
0001e0 fe a9 d5 bb 86 01 c2 bd 09 8e da bd 25 83 a4 3c
       -0.006520509 -0.09472947 -0.10671622 0.020082066
0001f0 1f e1 9b bc 67 1e 8f 3c fb 6f 87 3d 65 2e 17 3e
       -0.019028245 0.017470552 0.066131555 0.14763792
000200 5f d9 cc 3d 58 35 af bd 9e e1 ea 3a 10 a3 a0 bd
       0.10002398 -0.085550964 0.0017920022 -0.07843602
000210 de 26 39 3c 08 55 2f bd 1c 66 3f be 8f 16 a2 bc
       0.011300771 -0.0428057 -0.18691295 -0.019786147
000220 61 b7 55 bd 1d b0 01 3c fb 11 3c bd d5 79 92 3d
       -0.052176837 0.007915524 -0.045915585 0.07152144
000230 8f fe b3 bd 26 65 4a 3d 1b 7b 69 3d 62 84 4f 3e
       -0.087887876 0.04941287 0.05700217 0.20265344
000240 ae ec d4 3c 29 fd 80 bd b8 cd 2a 3d b8 62 3c 3e
       0.025991764 -0.062982865 0.041700095 0.18397033
000250 97 09 ac bd 7f cc ba bd 99 da 73 3e 61 92 c8 bd
       -0.084002666 -0.09121036 0.23813857 -0.097935446
000260 0d eb ee bc de 43 2a bd 5d e7 b1 3d 55 9a 45 3d
       -0.029164815 -0.04156863 0.08686707 0.048242886
000270 62 5a 7e 3d 61 bd b7 bc aa c3 6e bd 28 ae b5 3d
       0.062097915 -0.02242917 -0.05829207 0.08871108
000280 c0 17 3d 3c 34 00 fb bc 22 29 a4 3c 52 a0 d1 bd
       0.011541307 -0.030639745 0.020039145 -0.10235657
000290 35 92 8e 3d bc d2 7a 3d 21 43 c5 3d ea 3a 23 be
       0.069614805 0.06123613 0.096319444 -0.15940443
0002a0 2c 84 37 3d dc 27 bb bd 21 fa d8 bd c2 d6 90 3c
       0.044803783 -0.09138462 -0.10594583 0.01768053
0002b0 1e 8e fc 3d 0c 29 69 3d 4b 7e 7b 3d b4 13 23 3d
       0.12331794 0.05692391 0.06139974 0.039813712
0002c0 de be fa bd 51 2d f0 3d bf 9e 01 bc 43 9e 51 bd
       -0.12243436 0.117273934 -0.007911383 -0.05117632
0002d0 b9 11 8f 3d 4d 53 34 3d 48 62 f9 3d f6 62 1f 3e
       0.06985802 0.044024754 0.12176949 0.15565094
0002e0 36 10 b5 bd 6b 14 c7 bc 4a 23 07 be 93 cd 66 3d
       -0.088409826 -0.024301728 -0.13197055 0.056348395
0002f0 3c 57 8a 3c de 26 bd bd fd 73 ab bd 0e 40 41 3e
       0.0168873 -0.09235929 -0.083717324 0.18872091
000300 a1 c4 ce bc 82 9a b3 3d 8f 85 82 3b 91 a9 e5 3d
       -0.025240244 0.087697044 0.0039832066 0.11213983
000310 83 06 17 3d 7e ef aa 3c 4f fb 8f 3c ea b7 b5 3d
       0.036871444 0.020866152 0.017575888 0.088729694
000320 26 d4 8a 3d e6 0b 9f bd 0f 7e b6 bd 7e 1d c5 bc
       0.06778745 -0.07765941 -0.089107625 -0.024061915
000330 78 fa 9c bd cd 0f a6 3c 12 ee b8 3d 81 b5 79 3d
       -0.076649606 0.020271206 0.09029783 0.06096411
000340 df 78 6c 3d 03 f5 a7 3d 70 ec 8f 3d bd 1e b1 3d
       0.05773246 0.08201029 0.07027519 0.08648441
000350 48 c1 fa 3c d8 d8 a6 3d 2c 29 9f 3d b5 0a 40 3d
       0.030609742 0.081468284 0.07771525 0.04688521
000360 72 b9 9b bb ab 78 17 3d a2 9e b2 bd 49 3a 54 bd
       -0.0047523314 0.036980312 -0.08721663 -0.051813398
000370 2f 53 3d be 7b 25 3e bc 9b 6c 64 bc 0b 32 ae bd
       -0.18488763 -0.011605616 -0.013941909 -0.08505639
000380 55 14 79 b9 1f 0e a9 3d 92 60 8e bd 7e eb 42 3d
       -0.00023754065 0.082546465 -0.06952013 0.047587864
000390 25 2f b3 bd e7 84 23 bd bd 70 00 3e a5 44 1e 3d
       -0.087492265 -0.039921667 0.12543006 0.038639683
0003a0 bf 32 a7 3c 5e 0a fe bb b0 88 40 3e df d5 24 3d
       0.02040994 -0.0077527007 0.18802142 0.040243026
0003b0 a9 16 b7 3d 24 7d 99 3b 3f aa b5 3d 76 90 64 3d
       0.08939869 0.0046841074 0.088703625 0.05580183
0003c0 7c 04 ac 3d 36 13 a1 3c 35 76 98 bd 13 c9 be 3c
       0.08399293 0.01966248 -0.07444421 0.023289239
0003d0 04 e6 dc 3d 66 06 83 3c 48 89 cb bc f2 8c 83 3c
       0.107860595 0.015994262 -0.024845734 0.016058419
0003e0 fe e2 7d bc 70 73 47 bc b7 c0 a1 3c 8d e2 1a bc
       -0.015496014 -0.012173519 0.019745214 -0.009453428
0003f0 c1 3b 51 bd 3e d3 37 3d 16 8a 55 3d 07 df ca 3d
       -0.051082376 0.04487919 0.052133642 0.0990582

fc2.bias f4 [128]
000000 0a 2a 74 bd 07 c4 d1 3d b5 b1 c9 3d 75 f7 9c 3d
       -0.059610404 0.102424674 0.09848348 0.07664386
000010 9b 28 a3 3d 01 40 ff 3d 21 a7 31 bd 2a 12 98 bd
       0.07966729 0.1246338 -0.043372277 -0.074253395
000020 ee ea 81 3d ca 62 54 bd 44 7f 1f 3d 16 41 7c bd
       0.063436374 -0.051852025 0.03893973 -0.06158551
000030 5e 81 6c 3c 63 51 93 bd 18 59 3d 3d 17 d1 3e 3d
       0.01443514 -0.07193258 0.046227545 0.046586122
000040 e0 de c0 3d fa 59 97 3d 80 9f d2 3d df 45 86 bc
       0.0941751 0.073902085 0.102843285 -0.016390739
000050 9e 8c d9 39 cd 6f ba bd 33 ad 0d 3d 0f 94 d7 3d
       0.00041494233 -0.091033556 0.034589004 0.10526287
000060 47 c1 97 bd 0e c7 45 3c 08 37 2e bc 9e 11 45 ba
       -0.074099116 0.012071384 -0.010633238 -0.0007517579
000070 7d 88 9c bc 36 99 20 bc 90 0c 22 3d b5 a9 9e 3d
       -0.019108051 -0.009802153 0.03956276 0.07747213
000080 01 c3 15 bc 27 e8 ba 3d 3c ec 9e bc 45 aa e4 bc
       -0.009140731 0.09126311 -0.019399755 -0.027913222
000090 7a b4 34 bd ef ff 01 3e fb c3 fa bc 2b 7b d3 3b
       -0.04411743 0.12695287 -0.030611029 0.0064538918
0000a0 66 3f b1 bd 64 7d dd bb e2 86 3f bd c0 e7 d0 3d
       -0.086546704 -0.0067593325 -0.046759494 0.10200453
0000b0 3b 29 ab 3d f1 c9 ca bc e1 2a 5d bd 53 3c 97 3d
       0.083574735 -0.024754496 -0.05399597 0.07384553
0000c0 7e 7b 63 3d d2 4e 8f 3d 4d a5 c9 3d 5c 99 b7 3d
       0.055537693 0.06997456 0.09845982 0.08964798
0000d0 c8 8d ac bd 55 95 2a 3e 37 5b 7b bc 44 ac 0b bd
       -0.0842548 0.16658528 -0.0153415715 -0.034099832
0000e0 b3 9a 90 3d f0 b0 79 bc ee ee b2 bb 85 a9 07 bd
       0.070607565 -0.015239939 -0.0054606115 -0.03312065
0000f0 77 55 d8 ba a9 d7 04 3e 05 00 25 3e 5b cb a8 bc
       -0.0016504963 0.12972893 0.16113289 -0.02060478
000100 da ed be bc fa 6c 4e bd 09 f4 8b 3a 25 57 36 bc
       -0.023306776 -0.050396897 0.0010677587 -0.011129175
000110 a6 23 dd 3c 1f 0b 1e 3e b2 81 c9 3d 3a ee 5b 3d
       0.026994538 0.1543393 0.098391905 0.053693987
000120 7c e6 cf bd de 9b 54 3d 6a 4c 10 bc 70 7b 24 3e
       -0.10151383 0.05190646 -0.008807281 0.16062713
000130 7e e9 95 3d c7 ae 4b 3d cf 04 11 3b 1c ad ff 3d
       0.07319926 0.049727228 0.002212811 0.1248419
000140 6c 63 95 3c bd 34 1b bc de 23 8a 3d 7d 75 21 3e
       0.018235885 -0.009473023 0.067451224 0.15767474
000150 db 64 96 bd 08 b8 26 3e b3 b7 91 3d 57 67 14 3e
       -0.073434554 0.1628114 0.07115116 0.14492546
000160 7a 81 9e 3d ec ce c0 bd 8b 48 9d 3d 94 3b 4e 3c
       0.077395394 -0.09414467 0.07679852 0.012587447
000170 83 51 a9 3d 17 55 b2 3d b1 04 96 3d 74 c5 1e bd
       0.082675 0.08707636 0.073251136 -0.038762525
000180 46 c5 e4 bc 36 32 3b 3c d4 81 cc bb bd 2e cc 3d
       -0.027926099 0.011425545 -0.0062410627 0.09969852
000190 0b 6f ca 3d 8c 33 bc bd de e8 d7 bb 14 23 27 3d
       0.09884461 -0.09189519 -0.006589039 0.040804937
0001a0 87 56 87 bd 01 48 a8 3d b8 d7 ae 3d 4e 15 b7 bc
       -0.06608301 0.08216859 0.08537239 -0.022349026
0001b0 a6 98 54 3d b2 30 2b 3e ce e6 fc 3d 69 91 f4 bc
       0.05190339 0.16717795 0.1234871 -0.029854493
0001c0 2d fd 8f 3b af 2b a8 3d 7e 54 58 bd fe 56 cd bd
       0.0043941946 0.08211457 -0.052814953 -0.10026358
0001d0 17 84 bd 3d b9 97 0e 3e 33 bd ae bc 57 e3 6a 3d
       0.0925371 0.13925065 -0.021330452 0.057345714
0001e0 4f e0 2c bb 96 de ba 3b 62 db 66 bd ef e5 b7 3d
       -0.0026378816 0.005702804 -0.056361564 0.08979403
0001f0 b4 ad 82 3d 79 35 aa bd b6 b7 a8 3d 1a f7 18 3e
       0.063807875 -0.0831098 0.08238165 0.14938012

fc3.weight f4 [256, 128]
000000 e6 89 1b 3d b1 c0 f4 3c 32 08 fa 3b df 56 88 3d
       0.037973307 0.029877039 0.0076303715 0.06657194
000010 8d 9c 95 3c 11 49 67 3c 32 df f0 3c 0b 71 7e bd
       0.018263126 0.0141165415 0.029403303 -0.062119525
000020 31 44 b1 3d c7 2b 2a be d7 c2 dd 3d 4c 2f 9f bc
       0.086555846 -0.16618262 0.108281784 -0.019431733
000030 1a 6f 32 bb d0 9c 93 bd 2f 09 c3 3d 84 6b dc 3d
       -0.0027226866 -0.07207644 0.09523236 0.107626945
000040 36 3a ab 3d 6a ed 36 bd 99 32 71 3d f2 74 c8 3c
       0.08360712 -0.04466001 0.058886144 0.024469826
000050 a7 eb 44 3b 37 2b 88 3d f6 cd 0a 3c 69 85 3d 3d
       0.0030047686 0.066488676 0.0084719565 0.046269808
000060 1f 20 1b bc b8 b6 67 ba c7 45 7d 3a 28 3b 67 3d
       -0.0094681075 -0.0008839178 0.0009661582 0.0564529
000070 e9 bd b5 3e 2e 7b 41 3d a5 37 7d 3d 47 48 46 bd
       0.35496452 0.047236614 0.061820645 -0.048408773
000080 59 44 9c bc 66 fd 6a 3c 84 d7 36 3e d8 d1 1c bc
       -0.01907556 0.014342641 0.1785565 -0.009571515
000090 a0 f1 47 bd 77 fb 64 3d 88 d2 ce 3c 01 d8 fc bb
       -0.048814416 0.055903878 0.025246873 -0.0077161794
0000a0 ec ba c1 3c 88 16 88 3d 58 f9 2b bc 21 4f 3e 3c
       0.023648702 0.066449225 -0.01049646 0.0116155455
0000b0 73 c3 31 3d 89 82 8f 3d c2 5a f5 bd b6 03 ca bc
       0.043399286 0.070073195 -0.11980201 -0.024659973
0000c0 09 f9 10 3e f6 04 9a 3d 95 4f 22 3e 90 24 af bc
       0.141575 0.075204775 0.1585067 -0.021379739
0000d0 20 e8 64 bb 72 d1 f2 3d 51 c2 3f 3e 5f 4a 6c 3e
       -0.0034928396 0.11856355 0.1872647 0.23075245
0000e0 b5 ca 03 3d cc 21 b1 3c a9 fa 2c 3d 55 fa 1c 3d
       0.03217574 0.02162256 0.042231236 0.038324673
0000f0 70 a3 81 3c 5f 21 3e 3e 33 da 25 bd a6 15 39 3c
       0.015825003 0.18567418 -0.040491294 0.011296665
000100 5e 3c 59 3d 08 a7 c9 3e 0f 0b 78 3d c0 0c 09 3d
       0.053036086 0.39385247 0.06055742 0.033459425
000110 58 9c aa 3c 32 3c 69 3c b5 d2 6f 3d 14 bd 79 3c
       0.020826504 0.014235543 0.058550555 0.015242834
000120 72 aa fa bb c5 6a 75 3e c9 4b c0 3d f9 2f f1 3c
       -0.007649713 0.2396651 0.09389455 0.02944182
000130 6c 77 0c 3e ff 76 27 3d 77 35 8d bd dd 55 a9 3c
       0.13717431 0.040884968 -0.06894963 0.020670826
000140 b4 5c 5a 3c 3a d0 9b 3d 12 63 6e 3c 35 eb c0 bc
       0.013327766 0.076080754 0.014549987 -0.023549655
000150 78 c6 fe 3c 0b d0 93 3d f8 bd 2b 3d 4e 98 4a 3c
       0.031100497 0.072174154 0.041929215 0.012365414
000160 b7 cd 38 3d fb fb 2d bd a2 83 c2 3d 35 c4 ba bd
       0.04511806 -0.042476635 0.09497763 -0.09119455
000170 5e d0 ed ba e5 22 10 3e 52 91 63 3d 74 0d aa 3c
       -0.0018143763 0.14075811 0.05555851 0.020758368
000180 0f b3 12 be 0b 83 a5 3c 2f 95 ae 3c dc 3a a0 3d
       -0.14326118 0.020204088 0.02131137 0.078237265
000190 20 a4 03 3e 7a c2 8e 3d 17 02 47 3c 47 e7 37 3e
       0.12855577 0.06970687 0.012146494 0.17959319
0001a0 66 b1 97 bd a6 4a 51 bc fa ce 51 3d 78 19 d7 bd
       -0.07406883 -0.012774145 0.05122278 -0.10502905
0001b0 cb 36 ef 3d 70 fb 41 3e 07 61 9f 3e 26 1b d9 bc
       0.11680373 0.18943572 0.31128713 -0.026502203
0001c0 eb 3f 45 bd 4d 74 0c 3d b3 7b 90 bd 0d d7 95 3d
       -0.04815666 0.0342906 -0.07054844 0.07316408
0001d0 53 e8 a8 bc c6 43 8a 3d 9d 8a b0 3d 14 21 fa bd
       -0.020618593 0.06751208 0.086201884 -0.122133404
0001e0 4f 2a a5 3d 76 81 17 3d 44 b4 d5 3d ac f9 96 3d
       0.0806471 0.036988698 0.104347736 0.0737184
0001f0 d2 87 c6 3d 3d 67 37 bd 80 98 a5 bc 17 e9 24 3e
       0.096938744 -0.04477619 -0.02021432 0.16104542
000200 c0 fe 55 bd fc c9 a7 bc f4 a1 18 bc 55 b8 96 3c
       -0.0522449 -0.020482056 -0.009315956 0.018398443
000210 0b 10 cc bc 94 3b 1a bd bf 44 45 bd 0a fd b1 bc
       -0.024909994 -0.037654474 -0.048161265 -0.021727104
000220 38 5b 62 3d cd 4a b6 bd 06 0d cc bd 0e 0e 3f 3d
       0.055262774 -0.08900986 -0.099634215 0.046644263
000230 32 90 76 3d e7 2d a9 3d c6 fb 86 3b 06 03 30 bd
       0.06019611 0.08260708 0.004119369 -0.042971633
000240 98 f1 70 3c 5a 7c 2c 3d 04 d2 43 bd b2 54 f8 3c
       0.014706038 0.04211078 -0.04780771 0.030313823
000250 73 4f 2b bd 1c 81 32 bd 03 02 22 3d 37 85 96 bc
       -0.041823816 -0.04358016 0.0395527 -0.018374069
000260 c1 6c 8a bc 70 71 75 3c 2c 63 32 bd 58 d7 5b 3d
       -0.016897561 0.014980659 -0.04355161 0.053672165
000270 42 26 bd 3e 36 b1 be 3d b9 93 12 3e 77 9c 3c bd
       0.3694325 0.09311144 0.14314164 -0.046047654
000280 bb 9b 07 3c 11 cb b7 bb ad 50 2f 3e 72 29 4b 3d
       0.008276875 -0.005608924 0.17120619 0.049600072
000290 51 e3 83 bd 25 db 21 b9 28 5c 72 3d 4c 38 17 3d
       -0.064398415 -0.00015435794 0.05916992 0.036918923
0002a0 34 fa c2 ba 26 30 13 3d 8e d1 e1 3c 23 d2 1b bc
       -0.0014875592 0.03593459 0.027565744 -0.00951055
0002b0 e5 27 9f bd 14 21 f9 3a 20 96 b1 3c 88 08 31 3c
       -0.07771281 0.001900705 0.02167803 0.010805257
0002c0 59 12 c5 3d 73 c5 63 3d 5a bb 26 3e e6 7f 4a 3d
       0.0962264 0.055608224 0.16282406 0.04943838
0002d0 45 50 26 bd a1 02 e0 3b 4b f4 3c 3e e7 e2 bb 3e
       -0.040603895 0.006836251 0.18452565 0.3669655
0002e0 e3 ac 90 bd 7a 15 28 3c 36 f7 ea bc 31 4c 40 bd
       -0.070642255 0.010259027 -0.028682332 -0.04694766
0002f0 8e 2a 0e 3d 33 33 cf 3d b6 d5 a2 bc c1 31 fb 3a
       0.034708552 0.10117187 -0.019877296 0.0019164608
000300 ff a7 37 bd ab d6 c1 3e 0a 3f 43 3d 5c 9c 82 3d
       -0.044837948 0.3785909 0.04766754 0.063774794
000310 91 c0 a4 3c e0 e3 29 3d 48 88 53 bd ee 5f 40 3c
       0.020111354 0.041477084 -0.05164364 0.011741621
000320 06 98 92 3d f7 ff 99 3e 8e ee 12 bd eb bd 3a 3d
       0.071579024 0.30078098 -0.035872035 0.045591276
000330 0b 62 53 3d c7 85 5b 3d 7d 6c b9 3c 46 56 34 bd
       0.051607173 0.053594377 0.022634739 -0.04402759
000340 fd ca 36 3d 70 18 0e 3c 12 0b 50 3d 08 76 bd 3c
       0.04462718 0.008672819 0.050791807 0.02312757
000350 4a d4 9d 3c 48 bf 51 bb 46 29 93 bc 51 6d 9b ba
       0.019266266 -0.0032004882 -0.017964017 -0.001185814
000360 60 cc 98 bd 85 9f d2 3c 4e a5 86 bd 5d 34 7b 3d
       -0.074608564 0.02571083 -0.06574498 0.061329234
000370 a8 c3 76 3d 47 9e 7d 3d 8f 1e be bc 63 4a fc 3b
       0.060245186 0.061918523 -0.02320793 0.0076992973
000380 f9 ce 71 3c f1 56 a4 bb 6b bd 50 bd fb ba 8c 3c
       0.014758819 -0.005015247 -0.050961893 0.017179003
000390 89 67 1b 3d 68 c2 94 3d 86 e4 2d 3d e4 3a 4f 3e
       0.037940536 0.072636425 0.042454265 0.20237309
0003a0 a8 e5 22 bd 67 80 30 bd 5a e8 c6 bd 9d b8 58 3d
       -0.0397698 -0.043091204 -0.09712286 0.052910436
0003b0 2c 2a c5 bd 68 8e ee 3d 6e 16 e6 3e 78 64 21 bc
       -0.09627184 0.116482556 0.44938987 -0.009850614
0003c0 1c 93 5c 3d 14 f0 aa 3c b6 21 78 bd 54 27 5d 3d
       0.053851232 0.020866431 -0.060579024 0.053992584
0003d0 c6 f9 c5 bd cd b3 08 bd 27 fc bb 3d 49 f2 15 3d
       -0.09666781 -0.033374596 0.091789536 0.036608014
0003e0 dc 6b 21 3d d7 8d 9a bc ed d9 37 be 6a 9e 75 3d
       0.039409503 -0.018866463 -0.17954226 0.05996553
0003f0 b7 55 52 3d 4b dc 8f 3d ab 49 4d bc 20 be 04 3c
       0.051351275 0.070244394 -0.012529771 0.00810197

fc3.bias f4 [256]
000000 50 7c 26 bc 8f 2e 8e bc 78 33 ba bc db f9 ba 3c
       -0.010161474 -0.017356185 -0.02272962 0.022824218
000010 83 84 07 3d b3 eb 91 3d 19 97 bb 3b e7 0d 1c bd
       0.033085357 0.07125034 0.0057247994 -0.038099196
000020 d3 6f 9b bd 8b e6 04 bd 3b ef aa bc 71 c3 91 3d
       -0.07589688 -0.032446425 -0.020866027 0.071173556
000030 86 e5 6d bd 37 cf 05 3e 3d 73 49 3d 68 b8 1b bd
       -0.05808022 0.13067327 0.049182165 -0.03801766
000040 a5 b7 75 3d 88 25 93 3d ce f9 ca bc d9 aa b2 bc
       0.05998959 0.07184893 -0.02477732 -0.021809982
000050 da ce e8 bb 78 75 2e bd c9 64 c0 3d b9 cd b5 3d
       -0.0071047368 -0.042592496 0.09394223 0.08877129
000060 da 89 45 3d b4 e5 2b bd d9 91 44 bd 4a b7 b6 3c
       0.04822717 -0.04196711 -0.047990654 0.022304196
000070 2b 77 0d 3d dd cf 1a bd 10 3e 56 3c 18 fe 7f bd
       0.034537476 -0.03779589 0.01307632 -0.062498182
000080 38 5e c7 3d 16 0f 64 3d 31 21 b0 3d 6c 2d 28 3d
       0.09734768 0.05567845 0.08600081 0.041058943
000090 18 54 ef bc 0b 19 48 bd 5c 7c 38 bd 6b de f0 3d
       -0.029214904 -0.048852008 -0.045040473 0.11761173
0000a0 2a c8 90 3d 41 17 29 bc 4a 15 eb 3d 58 ca d6 bc
       0.07069428 -0.010320486 0.1147867 -0.026219532
0000b0 0a b9 44 3d 1b 2f 84 3d 44 03 75 3c 31 ca 75 3d
       0.04802803 0.06454297 0.014954392 0.060007278
0000c0 2a 2f 87 bc 1b f9 1b 3c f5 ee f7 bd aa 37 c8 bb
       -0.016501982 0.009519841 -0.12106124 -0.0061101513
0000d0 28 bb 35 3d 85 ab 93 3d 76 2b 53 3d 62 01 4c bc
       0.04436794 0.07210449 0.05155512 -0.012451502
0000e0 47 f9 19 3d 04 3f d3 3d d6 d3 b3 bb e4 92 a3 3d
       0.037591245 0.10314754 -0.0054878993 0.079870015
0000f0 40 bf a4 3d 1c 68 85 bb 80 65 9c 3c 78 b4 d6 39
       0.080442905 -0.0040712487 0.019091368 0.0004095172
000100 eb 5f 37 3c 0d 1f 07 3d e0 56 6e bd 5b 0b ae 3c
       0.011192302 0.032988597 -0.05818832 0.02124565
000110 5e f4 3d 3d b2 5e 22 bb c3 58 2a 3c 0c 2c b8 3d
       0.046375625 -0.002477568 0.010397139 0.08992776
000120 a5 94 0b bd c0 ce 06 bd 77 eb a1 3c 72 94 a1 3c
       -0.034077305 -0.032912016 0.019765599 0.019724105
000130 4c 4f 0d 3d 73 a0 ba 3d b4 68 4c bd 28 cd b4 3d
       0.03449945 0.091126345 -0.04990454 0.08828193
000140 5c 48 1b bd 07 17 fd 3c fd d4 d2 3d 66 40 de 3d
       -0.037910804 0.03089477 0.102945305 0.10852127
000150 1a 2c d5 36 76 41 38 3d fb 5c 0e 3b 6a 59 64 bc
       6.3530288e-06 0.044984303 0.00217229 -0.013937334
000160 cf bd b7 3b 05 a6 ca 3c 72 7f 80 3c 7b d9 16 bd
       0.0056073437 0.024737367 0.01568577 -0.0368285
000170 03 80 0b 3d 7e a0 28 3d 40 48 f8 3d d3 31 6e bd
       0.03405763 0.041168682 0.121231556 -0.058152985
000180 0a b0 e0 bc 0a 8f c5 bc 84 17 2f bc c4 8c e4 bc
       -0.027427692 -0.024116058 -0.010686759 -0.027899154
000190 e7 d9 97 bd 66 a3 28 bc 87 2a 46 3d 5a 10 f2 3c
       -0.074146084 -0.0102928635 0.0483804 0.029548813
0001a0 59 95 4e 3c 5a c8 88 bd 28 f5 70 bc 84 9b 4d 3c
       0.012608849 -0.06678839 -0.014706887 0.012549285
0001b0 f2 02 4f 3d 5f 8f f9 bc 0d b8 22 bd bc ff e4 3d
       0.05053992 -0.030463872 -0.039726306 0.1118159
0001c0 3a 8b a1 3d 24 57 7d 3c 4f bf 52 bd a0 01 1f 3c
       0.078878835 0.0154626705 -0.051451977 0.009704977
0001d0 2e 31 85 3d d4 50 ec bc 39 c8 f6 bc dc c0 dd 3d
       0.06503521 -0.028847136 -0.03012477 0.10827801
0001e0 97 b0 2e bd 6a 31 8b 3c d0 9a 02 bd a7 28 86 bc
       -0.042648878 0.016991336 -0.031885922 -0.016376806
0001f0 d1 d2 de 3d fc db 6f bd 08 75 c3 3d 63 fb 2b 3b
       0.10880054 -0.058559403 0.09543806 0.0026242367
000200 de af 03 bd d0 0a 0a bd 78 e8 19 bd 41 9f 18 bc
       -0.032150142 -0.033701718 -0.037575215 -0.009315313
000210 67 fa 37 bd bf 3d 9f 3b 11 96 04 3d 23 ef 95 3d
       -0.044916537 0.0048596556 0.032369677 0.07321002
000220 ea 00 9a 3d 42 c1 bf 3d 79 39 c9 3d 08 97 1b 3d
       0.075197056 0.09363033 0.09825415 0.03798583
000230 ab 0e ab 3d 71 9a 74 3c bc c6 0d 3d 36 c5 8e bd
       0.08352407 0.0149294 0.034613356 -0.06971209
000240 71 18 a5 bd 93 df 78 3d 85 85 bc bd 2e 96 59 3d
       -0.080613025 0.060760092 -0.09205154 0.053121738
000250 35 aa a2 3c bd da 1f 3a f6 cc 35 3a 5a d8 ef 3c
       0.019856552 0.0006097963 0.00069351436 0.02927797
000260 7b 53 97 39 4f db 60 3a bb 89 b0 bd bd af d2 bc
       0.00028863162 0.00085776014 -0.0862002 -0.025718564
000270 d9 c2 d1 3d 00 0d db 3d f7 1f 87 bd 14 89 de 3c
       0.10242242 0.10695839 -0.06597894 0.027164973
000280 c3 db dc 3c 88 98 a7 bb 44 c0 55 bd 2c 30 ca bc
       0.02696026 -0.0051146187 -0.052185312 -0.024681173
000290 f5 d2 de bc 20 b6 78 3d bf 43 10 3d 2a e3 fb 3c
       -0.027200202 0.060720563 0.035220858 0.030747969
0002a0 9b ee 95 bd 49 d1 7e 3d ce ce 67 bd 45 e8 5d bc
       -0.07320901 0.06221131 -0.05659371 -0.013544147
0002b0 94 08 ad 3d 48 85 05 3b 3a a9 a3 3d e6 e1 6e 3d
       0.08448902 0.0020373631 0.07991262 0.058320902
0002c0 11 29 d9 3d 58 22 56 3d 17 b0 f3 bc 5c da 41 3d
       0.10603536 0.052278847 -0.029747052 0.047327384
0002d0 40 ae 5e 3d 82 03 71 3d de 69 8d 3d 8c 19 17 bd
       0.054365396 0.058841236 0.06904958 -0.036889598
0002e0 86 78 3d bc c3 6f 6b 3d 6a f3 d2 3d d6 42 7e 3a
       -0.01156438 0.05747963 0.10300334 0.00096992904
0002f0 b8 74 c6 3d 42 df 3a bd 14 8c 85 3d 4f 74 bb bc
       0.09690231 -0.04562307 0.065208584 -0.022882609
000300 ea c7 e6 3d 57 96 57 3c 0b eb ae bc 20 59 07 3d
       0.11268599 0.013158402 -0.021352312 0.03304398
000310 dd 12 eb 3d a2 92 97 3d 7e 68 bb 3d 8e 1d ba 3c
       0.11478207 0.07401015 0.0915079 0.02271917
000320 0e 4a bd 3c 7e 22 60 bd 63 81 2a 3d a3 c2 bd bc
       0.023106601 -0.054720394 0.0416273 -0.0231641
000330 92 94 73 bd d3 59 00 3e f8 f4 15 3e 1c 95 8b 3d
       -0.05946786 0.12534265 0.1464423 0.0681555
000340 73 f5 8b 3d ab 59 22 3d 89 94 5f 3d eb 75 11 3d
       0.06833925 0.039636295 0.054585014 0.035512846
000350 5f 7c 39 bd b1 00 21 bd 11 a4 2f 3d 6e d3 bd 3d
       -0.045284625 -0.0393073 0.042881075 0.09268843
000360 07 13 16 3b 07 39 82 3d b2 f1 ed 3d c5 af df 3a
       0.0022899525 0.06358533 0.11618365 0.0017065933
000370 b6 a7 ae 3c d2 b6 be bc e5 4f 12 3d fd 31 93 3d
       0.021320205 -0.023280535 0.035720725 0.07187269
000380 fd 90 bb 3d 0a f5 dc bc f9 a6 a3 3d 6f 45 4b 3d
       0.09158514 -0.026972312 0.07990832 0.049626764
000390 d9 13 83 3d 1a a9 f7 3d cd ad ab 3b 7a 7d d9 3a
       0.0640027 0.120928004 0.0052392245 0.0016593181
0003a0 1c de 94 3c 09 c1 50 bd 25 5d 53 3d f7 a7 ff 3c
       0.018172316 -0.050965343 0.0516025 0.031208022
0003b0 bf 39 1a 3c 74 98 31 3d ce f1 da 3c a0 b7 46 bd
       0.009413182 0.04335828 0.02672663 -0.048514962
0003c0 9a d8 82 3d 79 21 37 3a e8 89 d9 bb 94 99 41 3c
       0.0638897 0.0006985884 -0.006638754 0.011816401
0003d0 b9 c1 e5 ba 7a 40 01 bd 58 23 9a ba 56 49 26 3d
       -0.0017529047 -0.03155563 -0.0011759801 0.040597282
0003e0 19 67 d9 3d 63 24 cd 3d ad 11 bc bd 08 40 ef bc
       0.106153674 0.10016706 -0.09183059 -0.029205337
0003f0 05 28 75 3d f8 bc 33 bd e7 67 32 bc a8 24 73 bd
       0.05985262 -0.043881387 -0.01088903 -0.05936113

fc4.weight f4 [12, 256]
000000 d4 39 0c bd 15 09 04 bd 4b 42 c8 bc d5 57 2d 3d
       -0.034234837 -0.032235224 -0.024445673 0.04232009
000010 b2 03 88 3b 87 2c 7f bd 08 b2 09 bc ee c8 f2 bb
       0.004150831 -0.062298324 -0.008404262 -0.0074092066
000020 84 dc 29 3d 9e 28 78 3c 0f c6 1e 3d 0e c5 90 bd
       0.041470066 0.015146403 0.038763102 -0.07068835
000030 af 3b 19 bc 5f 36 94 bd 89 25 34 bd 65 29 51 bc
       -0.009352609 -0.07236933 -0.04398111 -0.012766217
000040 34 c3 e7 3d 80 b4 f8 bc a1 bb 10 bd 79 19 f2 bd
       0.11316529 -0.030359507 -0.035335187 -0.11821265
000050 80 a1 b0 bb 20 08 cf 3b 40 8f ac bd 78 6c df bc
       -0.005390346 0.0063181072 -0.0842576 -0.027273402
000060 ce d8 8c bd 91 7c 02 bd 5e 78 f9 3a 4c c5 c6 3d
       -0.0687729 -0.031857077 0.0019033065 0.097056
000070 4f c8 97 3b 3f 6c 9b 3c 8a 5d c9 3b 83 03 3b 3d
       0.004632033 0.018972514 0.006145184 0.045657646
000080 af fc 87 bd f4 02 42 bd 9a a5 97 bd d5 8a 16 3d
       -0.066399924 -0.047366098 -0.07404633 0.036753494
000090 b0 21 be bc a6 59 a3 3c 0b ec 80 3c 6c 7e eb bc
       -0.023209423 0.019940209 0.015737554 -0.028746806
0000a0 ad 3d c2 bd f3 59 05 3e c7 dd 59 bd 12 5d 39 3d
       -0.0948442 0.13022594 -0.05319002 0.045254774
0000b0 65 e8 2d 3c d9 90 26 bd cf 64 a7 3b 1b 77 e3 bd
       0.010614489 -0.04066548 0.005108453 -0.11106702
0000c0 2a 42 f0 bc e5 69 5c bd b2 89 fa bd 82 22 35 bd
       -0.029328424 -0.053811926 -0.122332945 -0.044222362
0000d0 9d 10 e3 bd 4a cf 33 be 16 9b 6e 3c d7 59 c1 bd
       -0.11087153 -0.17559543 0.014563343 -0.09440964
0000e0 a2 31 78 3d 0b 75 02 bd 12 6e 32 bd bc a6 ec 3d
       0.06059421 -0.031849902 -0.043562002 0.115552396
0000f0 c8 12 a1 bd ef 8a 6d bd 00 03 30 bd 00 7e 89 bd
       -0.0786491 -0.057993826 -0.04297161 -0.06713486
000100 5b d6 1a 3d 3b 3b ca bd 69 2e 2f bd 52 41 36 3d
       0.03780208 -0.098745786 -0.04276887 0.044495888
000110 c6 b5 89 bc 80 6a ae 3c 5f eb 7a bd 54 ed a7 bd
       -0.01681031 0.021291018 -0.061259624 -0.081995636
000120 1e f6 ac bb 45 17 09 3d d5 d9 53 bd 2d 9a ba bd
       -0.005278363 0.033469457 -0.051721413 -0.09111438
000130 0c b8 9e bd eb 60 8e bd 46 8c 0b bd eb 73 be bc
       -0.07749948 -0.069520794 -0.034069322 -0.023248633
000140 e8 98 25 bc 44 a8 40 bd e3 f6 5a bd fb 82 a8 bc
       -0.0101072565 -0.04703547 -0.053458106 -0.020570269
000150 f7 e9 b6 3b 96 74 8f bd 1c 25 7f bc 99 ec dd bd
       0.00558209 -0.07004659 -0.015572812 -0.10836143
000160 24 be 37 bd 86 e1 a2 3c 5c 17 5c bd 76 84 7b bd
       -0.044859067 0.019882929 -0.053733215 -0.06140562
000170 04 fb 06 bd 99 21 d3 bd b3 b4 b6 3d f2 fc 5a bd
       -0.03295423 -0.103091426 0.089211844 -0.053463884
000180 22 fd 3b bd ae b5 be bb 68 fd 03 3e 17 2e 6b 3d
       -0.045895703 -0.0058199978 0.12889636 0.057417
000190 7e 7d af 3c 29 fb 40 bd f4 c4 55 bd 52 03 a7 bd
       0.021422144 -0.047114525 -0.052189782 -0.0815493
0001a0 16 15 77 bd 51 e4 d6 bd 3a f1 df 3b 81 0d 81 bd
       -0.060322843 -0.10492767 0.0068341764 -0.06301404
0001b0 c6 5a ed bd 35 32 c6 3d 58 89 6e bd 15 b6 05 bd
       -0.11589579 0.09677545 -0.05823645 -0.03264435
0001c0 45 2b cd bd a6 69 b3 bd 7f d8 d2 3d bb ea 85 bd
       -0.10018019 -0.08760385 0.102951996 -0.06538912
0001d0 af 88 a5 3b 96 f8 c6 3c e3 9a a5 bd 83 68 a4 bc
       0.0050516943 0.024288457 -0.08086183 -0.020069366
0001e0 3f 1c 1a bd 26 b3 4b bd a6 6f 7c 3c 17 61 20 bc
       -0.037624594 -0.049731396 0.015407478 -0.009788773
0001f0 79 8f ca bd bb 2a 33 bd a5 73 a3 bc c7 5b 91 3c
       -0.098906465 -0.043741923 -0.019952605 0.017743958
000200 62 8b 79 bd 7f 0b 21 3c 4d 11 15 bd 51 d5 61 bc
       -0.06092394 0.009829401 -0.036393452 -0.013783769
000210 02 59 39 bd 36 99 7a bc a3 e6 a7 bd a6 c0 2e 3d
       -0.0452509 -0.015295317 -0.08198287 0.042664193
000220 3c d8 c3 bd e6 ed cf bc 15 a7 a8 bd 41 5a e2 bd
       -0.09562728 -0.025381994 -0.08234993 -0.11052371
000230 74 49 93 bd 74 a8 14 3d 9a bb c0 bd ac 41 d2 bb
       -0.071917444 0.036293462 -0.09410782 -0.00641652
000240 e9 6b 5f bd e5 00 08 3d d5 ce 01 3d 2e 34 d4 3b
       -0.05454627 0.033203978 0.03169139 0.006475947
000250 bd 55 a3 bc 51 d0 32 bd af 65 bd 3d 9f 9e b6 bb
       -0.019938344 -0.043655697 0.0924791 -0.0055731083
000260 4a f2 c3 bd a0 e2 75 bd 8d eb bf 3c f2 1c 58 bc
       -0.09567697 -0.06003058 0.023427749 -0.013190495
000270 52 52 a8 bd b3 78 c6 bd 67 a2 29 3c 3a cc b2 bd
       -0.08218826 -0.0969099 0.010353661 -0.087303594
000280 0c 59 d2 bc 58 cd 1c be 76 6b b3 bd e7 14 67 bd
       -0.025677226 -0.15312707 -0.08760731 -0.05641642
000290 2b ef 0e 3d 5a 08 c2 bd 8b f8 58 bd 49 50 2b bd
       0.034896057 -0.09474249 -0.052971404 -0.041824613
0002a0 12 ad c4 bc bd fb ad bc d6 f9 5f bc e6 fe 04 3e
       -0.024008308 -0.021238202 -0.013670405 0.12987861
0002b0 ee 81 93 bc fd bc ba bd f7 3c 86 bd ef 73 20 bb
       -0.018006291 -0.09118078 -0.06554597 -0.0024483164
0002c0 50 73 d7 bd 6c b4 c4 bd 98 62 ba 3c 07 be 7e bd
       -0.10520041 -0.09604725 0.022752091 -0.062192943
0002d0 34 05 bd bc 72 f2 de bb a9 67 ca bd 10 2f 52 3d
       -0.02307377 -0.006803804 -0.09883053 0.051314414
0002e0 85 8a 24 bd 13 94 cd 3d 62 3b dd bd 0c ad b7 3c
       -0.040171165 0.100380085 -0.10802342 0.022421382
0002f0 80 29 46 bd 82 94 df 3d b3 0f 94 bd 66 07 93 bd
       -0.04837942 0.109169975 -0.07229557 -0.071791455
000300 b9 36 fa bb 79 5f e0 bc 7a 33 ef bc db 98 8d bc
       -0.007635918 -0.027389275 -0.02919935 -0.017284801
000310 b6 45 cb bd a6 d4 5f bc 53 5c b4 bd a7 a4 34 3d
       -0.09925406 -0.013661539 -0.08806672 0.044102337
000320 5d 43 a0 bb 3a b4 14 3d 02 e0 66 3b 72 b9 e0 3c
       -0.004890843 0.03630469 0.0035228734 0.027432177
000330 1e 8f 5d 3a 44 dc 97 bd 9f 95 6c bd 28 9b cc bd
       0.0008451807 -0.07415059 -0.057759877 -0.09990531
000340 dc fb 8c ba 01 ef b5 bd da 8b b1 bd b2 95 27 bd
       -0.0010756212 -0.08883477 -0.08669253 -0.040914245
000350 ee 80 f5 bc 5b 08 8a bd de 2e 2d 3d d1 57 1d bd
       -0.029968705 -0.06739875 0.042281024 -0.038413826
000360 af b9 96 3b 07 9c c3 bd 8f 22 b1 bd b1 d1 85 bd
       0.004599772 -0.09551244 -0.0864917 -0.06534136
000370 86 ab f2 bc 9e fa ea bb a2 a9 81 bd 92 09 ac bd
       -0.029622804 -0.007170989 -0.06331183 -0.08400263
000380 a2 36 c5 bd 90 2a a3 bc 2c e9 b2 bd 2e 99 c7 bd
       -0.09629561 -0.019917756 -0.0873588 -0.097460136
000390 6c 98 94 bc a8 c5 a1 bd 11 19 32 bb f3 98 94 3c
       -0.018139087 -0.07899028 -0.0027175585 0.018139338
0003a0 e8 43 19 3d d4 6a 7e 3d 67 44 8e 3d bd 7c fb bb
       0.037418276 0.062113598 0.069466405 -0.007674782
0003b0 6a 40 ac bd fd 54 d6 bc b0 df d3 bd ff ca f4 3d
       -0.084107235 -0.026163572 -0.103453994 0.11952781
0003c0 79 0d 72 bd 15 8a 41 bd 66 18 44 bd 18 14 3c bd
       -0.05909488 -0.047250826 -0.04787483 -0.0459176
0003d0 dc 4b 6f bd 88 cc b2 bd fb 54 cb bd 83 15 8f bd
       -0.058421955 -0.087304175 -0.09928318 -0.06986525
0003e0 a0 be 90 bd fd b8 aa bd f0 cf ae 3d 01 6f c3 bd
       -0.07067609 -0.08336065 0.08535755 -0.09542657
0003f0 b4 d0 ab bd dd 0e a3 3d 67 53 97 bd 07 68 1a bc
       -0.08389416 0.07961819 -0.073889546 -0.009424216

fc4.bias f4 [12]
000000 47 3c c7 3b c2 79 f3 bc c6 96 99 bd cd 6a 04 bd
       0.0060801837 -0.029721145 -0.07499461 -0.032328416
000010 36 70 56 3d 39 34 5e 3c d1 e2 83 bd d4 c3 fe 3c
       0.052353106 0.013562256 -0.06439746 0.031099238
000020 63 08 bf bd 92 2f 68 3c d7 51 45 3c 02 0d 87 bd
       -0.093277715 0.014171498 0.012043438 -0.06594278
