tuned.pt_episode_2000.pt (torch, 182504 bytes, 8 tensors)

fc1.weight f4 [64, 5]
0	0xbd878ccd	-0.066186525
1	0xbe80e8c6	-0.25177592
2	0x3e2f5e73	0.17125873
3	0x3e86c17c	0.26319492
4	0x3e33b4c1	0.17549421
5	0x3e804c0e	0.25058025
6	0x3e3ef660	0.18648672
7	0xbdc70638	-0.09717983
8	0xbe6cccb1	-0.23124959
9	0x3db3636e	0.08759199
10	0xbe82abf8	-0.25521827
11	0xbe7b6fd6	-0.24554381
12	0xbe27b0c4	-0.16376024
13	0x3e875178	0.26429343
14	0x3d9c197d	0.07622049
15	0xbe895163	-0.26819906
16	0x3e2ef519	0.17085685
17	0x3d93573b	0.07194372
18	0x3e53b2b0	0.20673633
19	0x3e76668b	0.24062555
20	0xbe3e8eaf	-0.18609117
21	0xbe82f780	-0.25579453
22	0xbe31b8ee	-0.17355701
23	0x3e34477a	0.17605391
24	0x3c2e5312	0.010639923
25	0xbe967619	-0.29386976
26	0xbd3e9cc0	-0.046536207
27	0x3cb5dfdf	0.022201477
28	0xbe34e644	-0.17665964
29	0xbcc2c5b2	-0.02377591
30	0x3e3acec4	0.18242937
31	0xbdd5e2c3	-0.10443642
32	0xbe3e5d28	-0.18590224
33	0x3e1fad17	0.15593372
34	0x3e79afd1	0.24383475
35	0xbe28c3fd	-0.16481014
36	0x3e67fff0	0.22656226
37	0xbe900252	-0.2812677
38	0xbe7cff4a	-0.2470676
39	0xbe0451fb	-0.12921898
40	0xbeb04cda	-0.34433633
41	0x3eb9d2e6	0.36293715
42	0xbc2eef70	-0.010677204
43	0x3e3904cf	0.1806824
44	0x3e9b4a59	0.3033016
45	0xbd4a6b62	-0.049418814
46	0x3e3aa691	0.18227603
47	0x3dc95f97	0.098326854
48	0x3d4472c9	0.04796103
49	0xbe3ae2de	-0.18250605
50	0xbcd8a87a	-0.026447523
51	0x3eade56e	0.33964103
52	0x3d90a937	0.07063525
53	0xbe20eab3	-0.1571453
54	0x3e13c012	0.14428738
55	0xbdbbcf41	-0.0917039
56	0xbe405a98	-0.18784559
57	0xbe80df20	-0.2517023
58	0x3e0a791d	0.13522764
59	0xbe8dd6d3	-0.2770296
60	0x3ebc809a	0.36816865
61	0xbea0175f	-0.3126783
62	0x3e9fcd66	0.31211394
63	0x3e2e0143	0.16992669
64	0x3e9a195c	0.30097473
65	0x3caf13fe	0.021371838
66	0x3e252395	0.16126855
67	0x3e389c2f	0.1802833
68	0xbdff1528	-0.12455207
69	0x3e6345f6	0.22194657
70	0xbcc7a287	-0.024369491
71	0xbeb37920	-0.3505335
72	0x3e4e9edd	0.20177789
73	0xbe95214b	-0.29126963
74	0x3e92ffba	0.2871073
75	0x3e5db48a	0.21650901
76	0xbe45c465	-0.193132
77	0xbe92a261	-0.2863951
78	0x3e88c249	0.26710728
79	0xba5becf5	-0.00083894964
80	0xbe1c59bd	-0.15268607
81	0x3d8ffef7	0.070310526
82	0x3eaa1200	0.33216858
83	0x3e8c4b45	0.27401176
84	0xbdfe7ea0	-0.124264956
85	0x3e3640e0	0.17798185
86	0x3ebbc9e8	0.3667748
87	0xbd1726aa	-0.036902107
88	0xbe47b56f	-0.19502805
89	0xbe444858	-0.19168222
90	0x3e0ba9a0	0.13638926
91	0x3e2a634c	0.16639441
92	0x3ea95264	0.33070672
93	0x3e398a39	0.18119134
94	0x3ea8847d	0.3291358
95	0xbd258ef8	-0.04041955
96	0xbb1bd4a1	-0.002377786
97	0xbe74fcc9	-0.23924555
98	0x3e945c23	0.28976545
99	0xbb785ddf	-0.0037897748
100	0x3e333e6d	0.17504282
101	0x3ea20d1f	0.31650636
102	0xbeb30528	-0.3496487
103	0x3e96feaa	0.29491168
104	0xbe838455	-0.256869
105	0x3e06ae0d	0.13152333
106	0x3e4d83f9	0.20069875
107	0xbe5bd6f1	-0.21468712
108	0x3ca769b9	0.020436155
109	0x3db97905	0.09056286
110	0xbea730b5	-0.32654348
111	0x3ea8db85	0.3297998
112	0xbd1c813f	-0.038209196
113	0x3d4cad7c	0.049970135
114	0x3bd5478b	0.0065087727
115	0x3dc4b5cd	0.09604988
116	0x3eac09d8	0.3360126
117	0xbead779a	-0.3388031
118	0x3c8851a2	0.016640488
119	0xbe679109	-0.2261392
120	0x3e9a40a9	0.30127457
121	0xbe81c86f	-0.2534823
122	0x3daacf8b	0.08340367
123	0x3e1e8f54	0.15484363
124	0x3dad8815	0.08473221
125	0xbe96e7a6	-0.2947361
126	0xbdcf35b0	-0.10117662
127	0xbe55a5fe	-0.20864102
128	0x3da7e53e	0.08198021
129	0x3d10c5af	0.035344776
130	0x3e5c1dd1	0.21495749
131	0x3e1e07fa	0.1543273
132	0x3ea849cb	0.328688
133	0xbe83e621	-0.25761512
134	0xbe73dedf	-0.23815487
135	0x3e8db603	0.27677926
136	0x3e64cc10	0.22343469
137	0x3eae8196	0.3408324
138	0xbe0c9068	-0.13726962
139	0x3e994d18	0.2994163
140	0xbe0180c9	-0.12646784
141	0xbe1c2d42	-0.1525164
142	0x3eb9875e	0.3623609
143	0xbd3cfecf	-0.046141442
144	0x3ea50f6f	0.32238337
145	0x3dfeecf1	0.12447537
146	0xbe5ac21b	-0.21363108
147	0xbea590ba	-0.3233698
148	0x3e5fbfd2	0.21850517
149	0x3e1e7bbb	0.15476887
150	0xbd8f86ff	-0.0700817
151	0x3e1c1314	0.15241653
152	0xbda88c9c	-0.08229944
153	0x3e1f4264	0.1555267
154	0xbdde5eb5	-0.10857908
155	0xbe01ce1c	-0.1267628
156	0xbe2b9267	-0.16755067
157	0x3d4299d0	0.04750997
158	0xbd29d887	-0.041466262
159	0x3d24c74d	0.04022913
160	0xbb2d19cf	-0.0026413088
161	0xbe0bc13b	-0.1364793
162	0x3e65578e	0.2239668
163	0xbd2379ba	-0.03991101
164	0x3e2cdcfc	0.16881174
165	0x3e98340e	0.29727215
166	0xbe83f63f	-0.25773808
167	0x3dcbb70f	0.09947025
168	0xbddd7576	-0.108134195
169	0xbd15f794	-0.036613062
170	0x3da5cbfa	0.08095546
171	0xbe2313b1	-0.1592548
172	0x3e3bd668	0.18343508
173	0xbda76871	-0.081742175
174	0xbe8a153d	-0.2696933
175	0xbe01fe33	-0.12694626
176	0xbcc3b8f8	-0.02389191
177	0x3e45921d	0.19294019
178	0xbe88f967	-0.2675278
179	0x3e871e0d	0.26390114
180	0x3cadcdb1	0.021216245
181	0xbe350ad1	-0.17679907
182	0xbe82cfd3	-0.25549182
183	0xbe7966b4	-0.24355584
184	0x3ea6206d	0.32446614
185	0x3e92e8bc	0.28693187
186	0xbdbfc6ce	-0.09364091
187	0x3eaad387	0.33364508
188	0x39e4225f	0.00043513157
189	0xbe3fe065	-0.18737943
190	0x3e3a562c	0.18196934
191	0xbe958e09	-0.29209927
192	0x3e4d8232	0.20069197
193	0xbdfea267	-0.124333195
194	0x3e28faac	0.16501874
195	0x3e3c476e	0.18386623
196	0x3e8adda2	0.27122217
197	0xbeba12e8	-0.3634255
198	0x3e0b6438	0.13612449
199	0x3e0eaeea	0.13933912
200	0xbe8f84d3	-0.28031024
201	0xbea5509e	-0.3228807
202	0xbea5e0db	-0.32398114
203	0x3ea303ea	0.31838924
204	0x3e52ad8a	0.20574012
205	0xbe8c8bcc	-0.27450407
206	0xbe20f30f	-0.1571772
207	0xbe2b3cbf	-0.16722392
208	0x3e22a338	0.15882576
209	0xbe1ad0fb	-0.15118782
210	0xbd1f5de8	-0.038907915
211	0xbe8b4a5a	-0.27205163
212	0x3dc5bc9d	0.09655116
213	0x3e32f911	0.17477824
214	0x3e556224	0.20838219
215	0xbea56729	-0.32305267
216	0x3e9b300b	0.3031009
217	0x3ceaae7a	0.02864765
218	0x3e908a02	0.28230292
219	0xbe39a6bf	-0.18130015
220	0x3e68d4ff	0.22737502
221	0x3e96ea04	0.29475415
222	0x3e186119	0.1488079
223	0x3e107b28	0.1410948
224	0x3e9ea139	0.30982378
225	0x3e3337d2	0.17501763
226	0x3e3e0e46	0.18560132
227	0x3ce08cc0	0.027410865
228	0x3e6b3d8c	0.22972697
229	0x3e9c9f29	0.3059018
230	0xbe62cd2f	-0.22148584
231	0x3e287d2e	0.16454002
232	0xbcf1c92d	-0.029514873
233	0x3d6d8e51	0.05799705
234	0x3dba18b5	0.09086744
235	0x3d203dca	0.039121427
236	0x3cca397d	0.024685616
237	0x3eb2772c	0.34856546
238	0xbb84481e	-0.0040369174
239	0xbda8a1ea	-0.08234008
240	0x3db97b02	0.09056665
241	0x3d000b03	0.0312605
242	0xbdaf2f09	-0.08553893
243	0x3e9c1690	0.30485964
244	0xbdb159a3	-0.08659675
245	0x3e38f913	0.18063764
246	0x3cd3aa8d	0.02583816
247	0x3db925cf	0.090404145
248	0xbe932662	-0.2874022
249	0x3a937b8e	0.0011252032
250	0xbe92c6c0	-0.2866726
251	0xbe9a7e77	-0.3017461
252	0xbcc8ff56	-0.024535816
253	0xbea0e054	-0.3142115
254	0xbe99b0cf	-0.30017707
255	0x3b12f170	0.002242174

fc1.bias f4 [64]
0	0xbe8e92aa	-0.2784627
1	0x3ea3d5c1	0.3199902
2	0x3dcf5654	0.10123888
3	0x3de2e718	0.11079234
4	0xbceb316e	-0.028710093
5	0x3e47ea58	0.19522989
6	0x3bc85b56	0.0061144037
7	0xbe87f210	-0.26551867
8	0xbe24887c	-0.1606769
9	0x3eb14d92	0.34629494
10	0xbd4a833a	-0.049441554
11	0x3dc68fa4	0.09695366
12	0x3d4edcbd	0.05050348
13	0xbcc24211	-0.023713144
14	0xbc29111c	-0.010319021
15	0xbc08bd01	-0.008345843
16	0x3e48ca60	0.1960845
17	0x3ea14564	0.31498253
18	0xbe0e6113	-0.13904218
19	0x3d60629b	0.054781538
20	0xbe1d4074	-0.15356618
21	0x3cac2f66	0.021018695
22	0xbe533ce0	-0.2062869
23	0x3b7e2d28	0.003878424
24	0xbe7e9fc6	-0.24865636
25	0x3d64ee00	0.055891037
26	0xbde3e305	-0.11127285
27	0x3e692b80	0.227705
28	0x3d59a357	0.05313429
29	0x3dfa3974	0.122179896
30	0x3dcae3cd	0.09906731
31	0x3d977545	0.07395414
32	0x3ea48c34	0.32138216
33	0x3e3892ea	0.18024793
34	0x3e8b9b9d	0.2726716
35	0xbe7f5216	-0.24933657
36	0xbe6b9782	-0.23007014
37	0x3e8ee407	0.27908346
38	0xbe0e7481	-0.1391163
39	0x3e9b8140	0.30372047
40	0xbd4c6af4	-0.049906686
41	0x3bbda67a	0.005787668
42	0x3d2b02f3	0.04175086
43	0x3d9077fb	0.070541345
44	0x3ebdc635	0.37065282
45	0xbe389410	-0.18025231
46	0x3ebfb525	0.3744289
47	0x3e8098e9	0.2511666
48	0xbe3c745e	-0.18403766
49	0xbd405acd	-0.046961594
50	0xbe9ff165	-0.31238857
51	0xbdfee116	-0.124452755
52	0x3e2ed393	0.17072897
53	0xbe301a3a	-0.17197505
54	0x3eb23aea	0.34810573
55	0x3e16d743	0.14730553
56	0xbe04ad6a	-0.12956777
57	0x3e146c8b	0.14494531
58	0xbe837150	-0.25672388
59	0x3e1f8cf2	0.1558111
60	0xbe422054	-0.18957645
61	0x3d2d7b0a	0.042353667
62	0xbdc514be	-0.09623097
63	0xbd1371eb	-0.035997313

fc2.weight f4 [128, 64]
0	0x3db34281	0.08752919
1	0xbd820453	-0.06348481
2	0xbcbc8e0e	-0.023016956
3	0xbcbe9f4a	-0.023269314
4	0x3d3d1b40	0.046168566
5	0x3dae8d42	0.085230365
6	0xbdaebae6	-0.08531742
7	0x3cc74fce	0.024330046
8	0xbd6b7e1a	-0.057493307
9	0x3db10c66	0.08644943
10	0xbd44274e	-0.047889046
11	0x3d06a50f	0.032872256
12	0x3d3b6906	0.045754455
13	0xbcdfacbe	-0.02730405
14	0xbd34b872	-0.044121213
15	0x3d53551a	0.05159483
16	0x3d8fed97	0.070277385
17	0xbd2cac10	-0.04215628
18	0xbda4c9ca	-0.08046301
19	0xbd9a8ec7	-0.07546764
20	0x3c9a605e	0.01884478
21	0xbcf70dce	-0.03015795
22	0xbcaa2cb6	-0.020773273
23	0xbd2560c6	-0.040375493
24	0xbb6eac7e	-0.0036418731
25	0xbc69febe	-0.014281927
26	0xbd12f3eb	-0.03587715
27	0xbd9f77d3	-0.077865265
28	0xbcdc2fee	-0.026878323
29	0x3d78538e	0.06062656
30	0x3da69458	0.08133763
31	0x3d9ea21c	0.07745764
32	0x3d081837	0.033226218
33	0xbc6698ee	-0.014074547
34	0x3c76f99e	0.015074162
35	0x3cdfe0fe	0.027328964
36	0xbd7af416	-0.061267935
37	0x3d054767	0.032538798
38	0x3d263000	0.04057312
39	0xbcf2a876	-0.029621344
40	0xbd7babea	-0.061443247
41	0x3ca59f5e	0.020217594
42	0xbd2fbd04	-0.04290487
43	0xbce3146e	-0.027719703
44	0xbdadec5c	-0.084923476
45	0xbd41f692	-0.04735429
46	0xbd8e783f	-0.06956529
47	0x3d59f6f6	0.053214036
48	0x3d220b92	0.039561816
49	0xbda2c9d2	-0.079486504
50	0xbdb3bb0e	-0.08775912
51	0x3d856589	0.06513507
52	0xbdb1e6e1	-0.08686615
53	0xbca78276	-0.02044795
54	0x3d45b3ee	0.048267297
55	0xbd52c93e	-0.05146145
56	0xbca8f7a6	-0.0206259
57	0x3d2b893e	0.04187893
58	0xbd3c2d44	-0.045941606
59	0xbdb094f2	-0.08622159
60	0x3d9b9ee9	0.07598669
61	0x3cfaef0e	0.030631568
62	0x3b8859ff	0.004161119
63	0x3ce2507e	0.027626272
64	0x3d1934c5	0.03740384
65	0x3cefabb4	0.02925668
66	0x3d91172b	0.07084497
67	0x3dbc6087	0.09198099
68	0xbd9dd6e3	-0.07707002
69	0x3d1f5252	0.038896866
70	0xbdf245f4	-0.11829749
71	0x3dba96a1	0.091107614
72	0x3da03daf	0.07824265
73	0x3d006ccc	0.031353757
74	0x3dbb5b87	0.09148317
75	0xbd8c6393	-0.0685493
76	0x3ce1da7d	0.027570004
77	0x3db1be86	0.086789176
78	0x3e73cf21	0.23809482
79	0x3ea651bd	0.32484236
80	0xbd24ade1	-0.040204886
81	0x3c102a0d	0.008799088
82	0x3db4fc1e	0.0883715
83	0x3e4f85b9	0.20265855
84	0xbcfbd11e	-0.030739363
85	0xbd9dfba8	-0.07714015
86	0x3e418c7d	0.18901248
87	0x3c816bf8	0.015798554
88	0xbc3c3c27	-0.011488951
89	0xbbba822e	-0.005691788
90	0x3d301b09	0.042994533
91	0x3da4d5e9	0.080486126
92	0x3dae5edf	0.08514189
93	0x3db5b8cc	0.08873138
94	0xbda6517e	-0.08121012
95	0xbd8b6d53	-0.06807961
96	0x3da42e07	0.080165915
97	0x3e5425a9	0.20717491
98	0x3d5dfa8b	0.054194015
99	0x3dbbffa5	0.0917962
100	0x3d2b5bb4	0.0418355
101	0xbda6f6c2	-0.08152534
102	0x3e66e7e0	0.22549391
103	0xbcfe0c90	-0.03101185
104	0x3d3a2d52	0.045453377
105	0x3d82c5d9	0.06385393
106	0x3da70315	0.08154885
107	0xbd1b90cb	-0.037979882
108	0x3d9c46ae	0.076306686
109	0x3d809ffd	0.06280515
110	0x3e14e5d9	0.14540805
111	0x3d2a4faf	0.0415799
112	0xbcb78326	-0.022401404
113	0x3e9d2af9	0.30696848
114	0x3bfaa49e	0.0076490184
115	0xbda2a471	-0.07941521
116	0xbc4c10a2	-0.012455137
117	0xbca25fe5	-0.019821117
118	0x3c169d66	0.0091928
119	0x3d897761	0.06712223
120	0xbbb4d42e	-0.005518458
121	0xbdb55bde	-0.08855413
122	0xbdbdf9ad	-0.092761375
123	0x3cb413c2	0.021982078
124	0xbc4de64e	-0.012567116
125	0x3c723b2e	0.014784617
126	0x3d62de56	0.055387817
127	0x3e15ef4e	0.14642069
128	0x3da9b558	0.08286542
129	0xbd8df92d	-0.06932292
130	0x3abf6ffe	0.001460552
131	0xbd8b9fb5	-0.06817571
132	0x3c23260e	0.009957803
133	0xbd195438	-0.037433833
134	0xbe356633	-0.17714767
135	0xbc8c15bf	-0.017100213
136	0xbd31574b	-0.04329614
137	0x3c12003e	0.008911191
138	0xbd08486f	-0.033272203
139	0x3d78f20a	0.0607777
140	0xbd9cfe44	-0.07665685
141	0x3d484dc0	0.048902273
142	0x3d2b38fd	0.041802395
143	0x3e702576	0.2345179
144	0x3cb74189	0.022370117
145	0xbd468f19	-0.048476312
146	0x3d192aa0	0.037394166
147	0x3df4becf	0.11950456
148	0xbdc18e0b	-0.09450921
149	0xbdb59630	-0.088665366
150	0x3e9917c4	0.29900944
151	0xbdca0e2c	-0.09865984
152	0xbcf0687d	-0.029346699
153	0xbd14430e	-0.03619676
154	0x3db8fdd1	0.09032787
155	0x3d3b9128	0.04579273
156	0x3d9a20a3	0.07525756
157	0xbca43703	-0.020045763
158	0xbd9585e9	-0.07300932
159	0x3d9fad58	0.077967346
160	0x3ccb7a8e	0.024838712
161	0x3ccccbcc	0.024999522
162	0xbc73d47b	-0.014882202
163	0xbd96185b	-0.07328864
164	0x3d7122ca	0.058871068
165	0x3d62086d	0.055183817
166	0x3dc727c5	0.09724382
167	0xbe1a5461	-0.1507125
168	0x3d21835c	0.039431915
169	0xbda5270c	-0.08064088
170	0xbdad7e28	-0.08471328
171	0x3be18e50	0.00688342
172	0x3dd09ce0	0.101861715
173	0x3d3c3029	0.045944367
174	0x3d88a4d5	0.06672064
175	0x3d2aa8cf	0.041664895
176	0xbdee8be3	-0.11647775
177	0x3dd52340	0.10407114
178	0xbbd73bde	-0.006568416
179	0xbd3c02ca	-0.045901097
180	0x3d5917ba	0.053001143
181	0x3d06ef15	0.03294285
182	0x3dd8f0c1	0.10592795
183	0x3e0fa5db	0.14028113
184	0xbd9f0f66	-0.07766609
185	0xbd0db1d6	-0.034593426
186	0xbdffe195	-0.12494198
187	0x3d3b8542	0.04578138
188	0x3cb7a0cb	0.02241554
189	0xbda7260e	-0.08161555
190	0xbd95732d	-0.07297359
191	0x3e304e61	0.17217399
192	0xbc472c96	-0.012156626
193	0x3d91deb3	0.07122555
194	0x3b59097e	0.003311723
195	0x3dc420d7	0.09576576
196	0x3d0105b3	0.031499576
197	0x3c94eeae	0.018180218
198	0x3cc534fd	0.024073118
199	0x3dbb1e82	0.09136678
200	0x3d7f7087	0.062363174
201	0xbd8971c5	-0.06711153
202	0xbda1441f	-0.07874321
203	0xbcac8dee	-0.021063771
204	0xbd83d8ae	-0.06437813
205	0x3c8c4b91	0.017125877
206	0x3da128c4	0.078691036
207	0x3d5a35ea	0.053274073
208	0x3d4d8f8d	0.05018573
209	0x3d76fa79	0.060297463
210	0x3d7c62fe	0.061617844
211	0x3dc0fbe9	0.09423048
212	0x3cfd49ad	0.03091892
213	0x3d9726c2	0.07380439
214	0x3d8c9281	0.06863881
215	0x3cfc04e2	0.030764047
216	0xbaa092eb	-0.0012250816
217	0x3d0177db	0.031608444
218	0xbdb32d63	-0.08748891
219	0xbd35ae3e	-0.044355623
220	0xbe2c0c41	-0.1680155
221	0xbc21cf99	-0.009876155
222	0xbb441778	-0.0029921215
223	0xbd98313b	-0.07431265
224	0xbb892dd7	-0.0041863727
225	0x3d7d2a2c	0.061807796
226	0xbdba4524	-0.09095219
227	0x3afb7836	0.0019185606
228	0xbd9d2e55	-0.07674853
229	0xbd1d27b8	-0.038367957
230	0x3dc8e3cd	0.098090746
231	0x3d1b9837	0.03798696
232	0x3d037fce	0.032104306
233	0xbbd208be	-0.0064097336
234	0x3e1ced98	0.1532501
235	0x3d35e302	0.044405945
236	0x3da4dcf2	0.080499545
237	0x3bdb7fb4	0.006698573
238	0x3da1a799	0.07893295
239	0x3d3b8508	0.045781165
240	0x3da360de	0.0797746
241	0xbc4a0543	-0.012330356
242	0xbd827565	-0.063700475
243	0x3cc34482	0.023836378
244	0x3db6b8b3	0.08921947
245	0x3ca0225c	0.019547634
246	0xbc814942	-0.015782002
247	0x3c3ef36f	0.011654719
248	0xbc51e15e	-0.012810079
249	0xbbb6204b	-0.005558049
250	0x3cab606d	0.020920003
251	0xbb609576	-0.0034268773
252	0xbd3954ad	-0.04524677
253	0x3d21d26e	0.039507322
254	0x3d34c43a	0.04413245
255	0x3db62ce3	0.0889528

fc2.bias f4 [128]
0	0xbd48286a	-0.048866667
1	0x3dc9cc57	0.09853428
2	0x3dca6bdd	0.098838545
3	0x3d5e8343	0.0543244
4	0x3d98897b	0.07448097
5	0x3dfe01c2	0.12402679
6	0xbcd6e9d1	-0.02623454
7	0xbd97da5c	-0.074146956
8	0x3d8f339d	0.06992266
9	0xbcf0dddc	-0.029402666
10	0x3d3e3818	0.046440214
11	0xbd525bcc	-0.051357076
12	0x3c407fbe	0.011749206
13	0xbd8b39a0	-0.067981005
14	0x3d160e86	0.036634944
15	0x3d3c8072	0.046020932
16	0x3dbe3790	0.092879415
17	0x3d5618bf	0.052269693
18	0x3dae4c94	0.085107
19	0xbc608a1e	-0.013704805
20	0xbab902db	-0.0014115231
21	0xbda46efd	-0.08028982
22	0x3cef58c6	0.029217135
23	0x3dc844a3	0.097787164
24	0xbd81c077	-0.06335538
25	0x3c2ce2b6	0.010552099
26	0xbb6ec033	-0.0036430478
27	0xba2c87fe	-0.0006581544
28	0xbc935c82	-0.017988447
29	0x3c37db67	0.011221743
30	0x3d0df66a	0.034658827
31	0x3d7635ea	0.06011001
32	0xba0aeb0b	-0.00052993064
33	0x3da4e757	0.08051937
34	0xbc93b8b8	-0.018032417
35	0xbbdf54c6	-0.0068155257
36	0xbd1eb3aa	-0.03874556
37	0x3df51cdc	0.11968395
38	0xbc637ffa	-0.013885492
39	0x3cb6daa6	0.022321057
40	0xbd9b3e96	-0.07580297
41	0x3c0f5929	0.008749285
42	0xbd298612	-0.041387625
43	0x3db2730f	0.08713352
44	0x3dca1e69	0.098690815
45	0xbbe25a4d	-0.0069077373
46	0xbd5f22b2	-0.054476447
47	0x3d813b83	0.06310179
48	0x3d417813	0.047233652
49	0x3d944087	0.0723887
50	0x3dd14dfc	0.102199525
51	0x3da1988c	0.07890424
52	0xbd968cf8	-0.073511064
53	0x3e14e52e	0.1454055
54	0xbc5b0fac	-0.013370436
55	0xbc1aaa40	-0.009440005
56	0x3d99e909	0.07515151
57	0x3a246611	0.00062713126
58	0xbb9cee1e	-0.004789128
59	0xbc2f612b	-0.010704319
60	0xbb577252	-0.0032874537
61	0x3de5629b	0.11200448
62	0x3e20a8db	0.15689413
63	0xbbb7c3f7	-0.0056080776
64	0xbcab08c0	-0.020878196
65	0xbd100c71	-0.035168115
66	0x3c6ef1f8	0.014584057
67	0x3b6f23ab	0.0036489766
68	0x3cbea1ae	0.023270454
69	0x3e14cf6f	0.14532255
70	0x3dc3583d	0.095383145
71	0x3d37f64c	0.04491262
72	0xbdb1f26d	-0.08688817
73	0x3d6f543b	0.058429938
74	0x3bd9d313	0.0066474765
75	0x3e1cab22	0.15299657
76	0x3d9c2343	0.07623913
77	0x3d5e29ba	0.054239012
78	0x3af607fe	0.0018770692
79	0x3dd4b540	0.10386133
80	0x3d06dceb	0.032925528
81	0xbb0c600e	-0.0021419558
82	0x3d39ede5	0.04539289
83	0x3e11e352	0.14246872
84	0xbd80640b	-0.06269082
85	0x3e213cf4	0.15745908
86	0x3d99bced	0.07506738
87	0x3e0be00c	0.13659686
88	0x3da331ba	0.07968469
89	0xbdaa66a5	-0.08320359
90	0x3da3fbb0	0.0800699
91	0x3a1933da	0.00058442133
92	0x3d9350b3	0.071931265
93	0x3dc0448b	0.093880735
94	0x3d8003e1	0.0625074
95	0xbcb448c6	-0.022007357
96	0xbd104198	-0.035218805
97	0x3c253166	0.010082578
98	0x3c15cb05	0.009142642
99	0x3dc31d78	0.09527105
100	0x3db59665	0.08866576
101	0xbda632bc	-0.081151456
102	0xbbb5f39e	-0.005552723
103	0x3d71e9c0	0.059060812
104	0xbd6060ab	-0.05477969
105	0x3d924731	0.07142485
106	0x3d832620	0.06403756
107	0xbcebc4d0	-0.028780371
108	0x3d4f249b	0.05057202
109	0x3e2a9d43	0.16661553
110	0x3dc31eb7	0.09527343
111	0xbbb40bf4	-0.005494589
112	0xbc1518ef	-0.009100183
113	0x3d922adf	0.07137083
114	0xbd36296e	-0.044473104
115	0xbdb0aaae	-0.086263046
116	0x3dacd619	0.084392734
117	0x3e07acf7	0.13249575
118	0xbc8c560e	-0.017130878
119	0x3d16e2f6	0.03683754
120	0x3d140253	0.03613503
121	0xba42a063	-0.0007424412
122	0xbd85c24a	-0.06531198
123	0x3dc41a6f	0.09575354
124	0x3d62fb60	0.05541551
125	0xbda30dd4	-0.07961622
126	0x3da803e1	0.08203865
127	0x3e01251b	0.12611811

fc3.weight f4 [256, 128]
0	0x3d058916	0.03260144
1	0x3ce3751e	0.027765807
2	0x3ccabf92	0.024749551
3	0x3d6d5eff	0.057951923
4	0x3c9ea5e0	0.019366205
5	0x3c8b9f26	0.017043661
6	0x3cf31a56	0.029675644
7	0xbd5cd23d	-0.053911436
8	0x3dabf48f	0.08396255
9	0xbe51f7a5	-0.20504625
10	0x3dbfe9b2	0.09370746
11	0xbd3d150f	-0.04616266
12	0xbb1c6e4a	-0.0023869448
13	0xbd92622b	-0.0714763
14	0x3dbdf8d0	0.09275973
15	0x3dbdd522	0.092691675
16	0x3d9ed50e	0.07755481
17	0xbd29c9eb	-0.04145233
18	0x3d4dc9cf	0.050241288
19	0x3cae39a8	0.021267727
20	0x3b90dd41	0.004420907
21	0x3d6454ce	0.05574494
22	0x3be99a4c	0.0071289893
23	0x3d41c860	0.047310233
24	0xbc051f4f	-0.00812514
25	0xba3dda8b	-0.0007242343
26	0x3bc7d885	0.006098809
27	0x3d3d9cc3	0.046292078
28	0x3ec044c4	0.37552464
29	0x3d842f43	0.06454327
30	0x3d8b3d94	0.067988545
31	0xbd1c29cf	-0.03812581
32	0xbc2d8161	-0.010589928
33	0x3c3f7de2	0.011687728
34	0x3e2682c2	0.16260818
35	0xba80657a	-0.0009795867
36	0xbd2df7ff	-0.042472836
37	0x3d50471b	0.05084906
38	0x3d027802	0.03185273
39	0xbabf408d	-0.0014591381
40	0x3caadca5	0.020857165
41	0x3d7d0820	0.061775327
42	0xbc15f888	-0.009153493
43	0x3c284e51	0.010272578
44	0x3d4ba17c	0.04971455
45	0x3d8c512e	0.06851421
46	0xbdce4d8c	-0.10073385
47	0xbcaf010a	-0.0213628
48	0x3e1e1473	0.15437488
49	0x3d910297	0.07080572
50	0x3e1e3087	0.15448199
51	0xbc9923c0	-0.018693805
52	0xbb3c733f	-0.0028755215
53	0x3dec743e	0.11545609
54	0x3e38047d	0.17970462
55	0x3e75c69b	0.24001543
56	0x3d07851d	0.03308593
57	0x3cbb29f8	0.02284716
58	0x3d16f9d9	0.036859367
59	0x3d2aa3fe	0.0416603
60	0x3c9f963e	0.01948082
61	0x3e40849d	0.18800588
62	0xbcf990e8	-0.030464604
63	0x3c4e69df	0.012598484
64	0x3d369b8d	0.04458194
65	0x3ec02d3f	0.3753452
66	0x3d71de78	0.059050053
67	0x3d0c8f59	0.034316394
68	0x3cd6c81b	0.026218465
69	0x3c8d86a7	0.017276121
70	0x3d5b3d15	0.05352505
71	0x3c4dbb74	0.012556899
72	0xbbcea8d2	-0.006306746
73	0x3e62ea32	0.22159651
74	0x3db7c562	0.08973195
75	0x3cf5fd59	0.030028032
76	0x3e19bfa6	0.15014514
77	0x3d21d9b9	0.039514277
78	0xbd6e694e	-0.058205895
79	0x3ce8dd91	0.028425964
80	0x3cc1540e	0.02359965
81	0x3da1d84f	0.07902586
82	0x3c357e1f	0.011077433
83	0xbc820681	-0.015872242
84	0x3cd2c4d8	0.025728628
85	0x3d903d0b	0.07042893
86	0x3d331576	0.04372164
87	0x3c540838	0.012941413
88	0x3d2db75c	0.042411193
89	0xbd17fb2b	-0.037104767
90	0x3dc0df18	0.09417552
91	0xbda9ad92	-0.08285059
92	0xbac1cebe	-0.0014786345
93	0x3e04cf63	0.12969737
94	0x3d3bc7d8	0.045844883
95	0x3cbb26b3	0.022845602
96	0xbe006cfb	-0.12541573
97	0x3c8f823b	0.017518153
98	0x3cc3fa79	0.023923146
99	0x3d96aefd	0.07357595
100	0x3e152a72	0.14566973
101	0x3d718354	0.058963135
102	0x3c2d803b	0.010589655
103	0x3e32e294	0.17469245
104	0xbd728d9c	-0.05921708
105	0xbc32a482	-0.0109034795
106	0x3d376a06	0.044778846
107	0xbdbb3ed4	-0.09142843
108	0x3dce9f86	0.100890204
109	0x3e42e6e8	0.19033396
110	0x3ea79f00	0.32738495
111	0xbc9e8d98	-0.019354627
112	0xbd346997	-0.04404601
113	0x3cece6fa	0.028918732
114	0xbd74f5c6	-0.0598047
115	0x3d7fac7a	0.062420346
116	0xbc878bd4	-0.016546167
117	0x3d874bc3	0.06606247
118	0x3da8e905	0.0824757
119	0xbdd5a8a6	-0.10432558
120	0x3db6b328	0.0892089
121	0x3cabfc60	0.020994365
122	0x3dba995a	0.09111281
123	0x3d990475	0.07471553
124	0x3e014ddd	0.12627359
125	0xbd24d5be	-0.040242903
126	0xbc5e2b66	-0.013560152
127	0x3e21838c	0.15772837
128	0xbd34fe8f	-0.04418808
129	0xbc57fbe4	-0.013182614
130	0x3bc98982	0.0061504254
131	0x3c915575	0.017740944
132	0xbc8bc549	-0.017061846
133	0xbccc1f9f	-0.024917422
134	0xbd1db60f	-0.038503703
135	0xbcac56d3	-0.021037495
136	0x3d5ea825	0.054359574
137	0xbe036037	-0.12829672
138	0xbda227e1	-0.079177625
139	0x3c7accc4	0.015307609
140	0x3d4a8e92	0.049452372
141	0x3d854f42	0.06509258
142	0x3d2ad5e8	0.041707903
143	0xbd0f72f2	-0.03502173
144	0x3c887201	0.016655924
145	0x3d0d8602	0.034551628
146	0xbd26782e	-0.040641956
147	0x3ccc5312	0.024941955
148	0xbd0cff47	-0.03442314
149	0xbd1c804c	-0.03820829
150	0x3d0c0133	0.03418083
151	0xbc017287	-0.007900841
152	0xbc68d7e2	-0.014211627
153	0x3c496fd0	0.012294725
154	0xbd012b66	-0.03153553
155	0x3d37eadb	0.04490171
156	0x3ec302c5	0.3808805
157	0x3e153969	0.14572681
158	0x3e1ef313	0.15522413
159	0xbd226313	-0.039645266
160	0x3c218175	0.009857525
161	0xbba1ca41	-0.0049374406
162	0x3e1c6fa2	0.1527696
163	0x3d4b2182	0.049592502
164	0xbd5bc502	-0.05365468
165	0x3b9e3bd5	0.00482891
166	0x3da714d9	0.08158273
167	0x3d10528d	0.035234977
168	0xbaab7c49	-0.0013083305
169	0x3d07926b	0.03309862
170	0x3cbae7f6	0.022815686
171	0xbc05d153	-0.008167583
172	0xbd3d750b	-0.0462542
173	0x3c451eb1	0.012031243
174	0x3c92247d	0.017839665
175	0x3c1b07b8	0.0094622895
176	0x3e01fce4	0.12694126
177	0x3d4e32aa	0.050341286
178	0x3e359062	0.17730859
179	0x3d2f3f22	0.042784818
180	0xbd104f75	-0.035232026
181	0x3d368fbc	0.04457067
182	0x3e3eace0	0.18620634
183	0x3ebed2bf	0.37270162
184	0xbd58b6de	-0.05290877
185	0x3c38cd39	0.011279398
186	0xbcbf7aca	-0.02337398
187	0xbd0637d3	-0.032768082
188	0x3d2ea4de	0.0426377
189	0x3df916f9	0.12162585
190	0xbc52148d	-0.0128222825
191	0x3b95c394	0.004570434
192	0xbd1dc376	-0.038516484
193	0x3ebd81e5	0.37013164
194	0x3d449687	0.047995117
195	0x3d6d3e2d	0.057920624
196	0x3cefc9ba	0.029270995
197	0x3d2212b4	0.039568618
198	0xbd1e677d	-0.038672913
199	0x3c2a2f26	0.010387218
200	0x3d792e6c	0.060835287
201	0x3e950c94	0.2911116
202	0xbcc71e1d	-0.024306351
203	0x3d37dbc7	0.04488733
204	0x3dc3cd98	0.09560698
205	0x3d3f69f0	0.04673189
206	0x3ca36bad	0.019948805
207	0xbcc2c446	-0.023775231
208	0x3d4c62f9	0.049899075
209	0x3d375a3e	0.044763796
210	0x3d2fae45	0.042890806
211	0x3cb743f1	0.022371264
212	0x3c87d37a	0.016580332
213	0x3b7f96a2	0.0038999696
214	0xbc3a7d26	-0.011382377
215	0x3ae6ca90	0.0017607976
216	0xbd7b8dba	-0.061414458
217	0x3cb34ef2	0.02188823
218	0xbc9ba039	-0.018997299
219	0x3d49397c	0.049127087
220	0x3d4ac208	0.04950145
221	0x3d8d1bf3	0.068900965
222	0xbca81dbf	-0.020521997
223	0x3c35b8c9	0.0110914195
224	0x3c13f7da	0.00903126
225	0xbb8e5621	-0.0043437635
226	0xbd1eb168	-0.038743407
227	0x3cb0a155	0.021561304
228	0x3daf56ca	0.085614756
229	0x3d7d8330	0.06189269
230	0x3d17e3b6	0.037082396
231	0x3e6051c1	0.21906187
232	0xbce8a419	-0.02839856
233	0xbd1a7f97	-0.037719335
234	0xbdac2c1b	-0.0840685
235	0x3d2b5a6d	0.041834284
236	0xbda407a2	-0.08009268
237	0x3dfd423b	0.12366148
238	0x3eda31df	0.42616174
239	0xbb6edc1c	-0.0036447113
240	0x3d2f417d	0.042787064
241	0x3c94ef44	0.018180497
242	0xbd4c2016	-0.049835287
243	0x3d3892d9	0.04506192
244	0xbda81b71	-0.08208359
245	0xbcaa75dd	-0.020808155
246	0x3dcce1e5	0.100040235
247	0x3cdcba9a	0.026944447
248	0x3dc1da7a	0.09465499
249	0xbcbfae4b	-0.023398539
250	0xbe1dc693	-0.15407781
251	0x3d827497	0.06369894
252	0x3db1213a	0.086489156
253	0x3d702aef	0.058634695
254	0xbbd3345e	-0.0064454516
255	0x3d72ce45	0.059278745

fc3.bias f4 [256]
0	0x3b9326eb	0.0044907234
1	0x3b4339a7	0.0029789002
2	0xbca432a8	-0.020043686
3	0x3ca4f90b	0.020138284
4	0x3d16208d	0.036652137
5	0x3d960091	0.07324327
6	0xbb4333bc	-0.0029785475
7	0xbd5cc8ca	-0.053902425
8	0xbd856f03	-0.065153144
9	0xbcddcb76	-0.027074557
10	0xbc96e03b	-0.018417468
11	0x3d8c3c19	0.068474
12	0xbd41e3e6	-0.04733648
13	0x3dfa9ff9	0.122375436
14	0x3d146176	0.03622576
15	0xbd0e4456	-0.03473314
16	0x3d02b4aa	0.031910576
17	0x3db0ec2f	0.086387984
18	0xbcaf7c16	-0.021421473
19	0x3c3bbea9	0.011459031
20	0xba54021f	-0.0008087474
21	0xbd1874a8	-0.037220627
22	0x3db3c451	0.08777679
23	0x3db9d93c	0.09074637
24	0x3d4ea08b	0.050446074
25	0xbd22869d	-0.03967916
26	0xbd2c481c	-0.042060956
27	0x3cb1981f	0.021678982
28	0x3ced4832	0.02896509
29	0xbd04cf0d	-0.03242402
30	0x3c2b2157	0.010444961
31	0xbd53fc78	-0.051754445
32	0x3db85201	0.09000016
33	0x3d3c06ba	0.045904852
34	0x3d9a651f	0.075388186
35	0x3d122c9c	0.035687074
36	0xbd2e27e0	-0.042518497
37	0xbd37a1f6	-0.044832192
38	0xbd227b8c	-0.039668605
39	0x3dd74f87	0.105132155
40	0x3d79642a	0.06088654
41	0x3c6fc768	0.0146349445
42	0x3ded0896	0.11573903
43	0xbcb5702e	-0.022148218
44	0x3ceb2f2a	0.028709013
45	0x3d7ef1ee	0.06224244
46	0x3c4901a4	0.012268458
47	0x3d88b7f1	0.06675709
48	0xbc625cb4	-0.013816047
49	0x3cd29267	0.025704576
50	0xbe0892c3	-0.13337235
51	0xbbae1b04	-0.005313279
52	0x3d41d924	0.047326222
53	0x3d9c59d5	0.076343216
54	0x3d3394ea	0.043843187
55	0xbb0f753f	-0.0021889952
56	0x3d3928c9	0.04520491
57	0x3ddeb6a5	0.108746804
58	0xbb9dd306	-0.0048164157
59	0x3db47c75	0.08812801
60	0x3da080c1	0.07837058
61	0x3c006cc4	0.007838432
62	0x3c8664b0	0.016405433
63	0x3bccf435	0.0062546977
64	0x3c215f1b	0.009849335
65	0x3d1a6f64	0.037703887
66	0xbd425540	-0.047444582
67	0xbb826b9d	-0.0039801137
68	0x3d47079c	0.04859124
69	0xbb0c5de2	-0.0021418263
70	0x3d1880de	0.037232272
71	0x3da3a7c5	0.07990984
72	0xbceb27aa	-0.028705437
73	0xbce3d48c	-0.027811311
74	0x3d27ed50	0.040997803
75	0x3d2f86bb	0.0428531
76	0x3d3f3846	0.046684526
77	0x3daed907	0.085374884
78	0xbd34f413	-0.04417808
79	0x3d9fbeaa	0.07800038
80	0xbd109cd6	-0.03530582
81	0x3cab6b39	0.020925151
82	0x3dbfec8a	0.09371288
83	0x3dd32307	0.10309415
84	0x3c8585ba	0.016299117
85	0x3d3f6ef8	0.046736687
86	0x3c8c024b	0.017090937
87	0x3a9c4135	0.0011921289
88	0x3ba1bcff	0.00493586
89	0x3c7c6ac5	0.015406315
90	0x3cd5e862	0.026111785
91	0xbcefcec0	-0.02927339
92	0x3d443f18	0.047911733
93	0x3d0f5200	0.03499031
94	0x3dccef3a	0.10006566
95	0xbd82c1ed	-0.06384645
96	0xbbf8f924	-0.0075980593
97	0xbcacc6b4	-0.021090843
98	0xbcc978c1	-0.024593713
99	0xbc9183d9	-0.017763065
100	0xbd81d917	-0.06340235
101	0xbbaf8c53	-0.005357304
102	0x3d5e452a	0.05426518
103	0x3d1c4a0b	0.03815655
104	0x3c496c25	0.01229385
105	0xbd8edede	-0.06976102
106	0xbc44f388	-0.012020953
107	0x3cb5b91c	0.022182994
108	0x3d6ef6de	0.0583409
109	0xbd36aa70	-0.044596136
110	0xbcb311c6	-0.021859061
111	0x3dcf3f8c	0.101195425
112	0x3da65842	0.081223026
113	0x3cae0104	0.021240719
114	0xbd392076	-0.045196973
115	0x3c964a6c	0.018346034
116	0x3d5e60bc	0.05429147
117	0xbcc04f34	-0.023475267
118	0xbc1311f3	-0.008976447
119	0x3dda2c18	0.106529415
120	0xbd18afc7	-0.03727701
121	0x3cb872dd	0.022515709
122	0xbcd93400	-0.026514053
123	0xbc604fae	-0.013690872
124	0x3dc90a08	0.098163664
125	0x3c228d4d	0.009921384
126	0x3dbc257a	0.091868356
127	0x3b15fa93	0.002288495
128	0xbd024d93	-0.03181226
129	0xbd50b38f	-0.05095249
130	0xbcd6670b	-0.026172182
131	0xbd1db166	-0.03849926
132	0xbd1001f5	-0.035158116
133	0x3c89a21e	0.016800936
134	0x3d669992	0.0562988
135	0x3d7fdca6	0.062466286
136	0x3d9ad593	0.07560267
137	0x3dc10990	0.09425652
138	0x3dd01e5a	0.10162039
139	0x3cf0d67b	0.029399147
140	0x3d9d7d87	0.07689958
141	0x3cf295ed	0.029612506
142	0x3d3b8c1c	0.045787916
143	0xbd7c650d	-0.061619807
144	0xbdde1abf	-0.10844945
145	0x3d5217fd	0.05129241
146	0xbda9bf8c	-0.08288488
147	0x3d36ca46	0.044626497
148	0x3cd889f4	0.026432969
149	0x3bcba4f8	0.006214734
150	0x3c0b14c2	0.008488836
151	0x3cddc761	0.02707261
152	0x3c570b9f	0.013125329
153	0x3cc42a46	0.023945939
154	0xbd91b73a	-0.07115026
155	0xbc7537c4	-0.014966909
156	0x3dc1f511	0.09470571
157	0x3dc4bb26	0.09606008
158	0xbd623e4e	-0.0552352
159	0x3d0b4547	0.034001615
160	0x3d1f40a1	0.038879994
161	0x3cb46e97	0.02202539
162	0xbd39b16d	-0.045335222
163	0xbc44f753	-0.012021857
164	0xbcca3a1f	-0.024685917
165	0x3d610804	0.054939285
166	0x3ce0f5b7	0.027460916
167	0x3ccfe18a	0.0253761
168	0xbd96fa6d	-0.07371984
169	0x3d936840	0.071976185
170	0xbd3de696	-0.046362482
171	0xbc17cefa	-0.009265656
172	0x3db53089	0.08847148
173	0x3c69b327	0.014263905
174	0x3da73777	0.08164876
175	0x3d42e046	0.047577165
176	0x3dcfda7e	0.10149096
177	0x3d45f3e3	0.04832829
178	0xbcc8212f	-0.024429886
179	0x3d60b667	0.054861452
180	0x3d390403	0.04516984
181	0x3d375310	0.04475695
182	0x3db0acff	0.086267464
183	0xbd0118bc	-0.03151773
184	0xbc2777b6	-0.010221412
185	0x3dba1671	0.090863116
186	0x3dd64667	0.10462647
187	0x3a524136	0.00080205814
188	0x3dbedbd6	0.09319274
189	0xbc72fcf7	-0.014830819
190	0x3d8178c6	0.06321864
191	0xbb2a91c8	-0.0026026834
192	0x3de421ff	0.11139297
193	0x3c53530c	0.012898218
194	0xbc98ea3b	-0.018666377
195	0x3ce2b0a0	0.027672112
196	0x3dd634ee	0.10459314
197	0x3d8191d2	0.06326641
198	0x3db07744	0.08616498
199	0x3ca41cbe	0.020033237
200	0x3cc8d68e	0.02451637
201	0xbcfa8122	-0.030579153
202	0x3d945460	0.07242656
203	0xbc899145	-0.016792903
204	0xbd4792f2	-0.048724122
205	0x3df76ebd	0.120816685
206	0x3e13900a	0.14410415
207	0x3d7e3605	0.062063236
208	0x3d6be946	0.057595514
209	0x3d62feab	0.05541865
210	0x3d53ef96	0.05174216
211	0x3d3bb128	0.045823246
212	0xbd237b8f	-0.039912757
213	0xbcff11dd	-0.031136448
214	0x3cc25bda	0.023725439
215	0x3dbaf9a6	0.09129648
216	0x3b001237	0.0019542107
217	0x3d68802c	0.05676286
218	0x3de405b3	0.111338995
219	0x3c217e8b	0.00985683
220	0x3cc69ee7	0.024245692
221	0xbcab9381	-0.020944359
222	0x3d15c7f1	0.036567632
223	0x3d97c659	0.07410879
224	0x3dbc6e59	0.09200735
225	0xbc856282	-0.016282324
226	0x3d904d2c	0.07045969
227	0x3d3d0d07	0.046155002
228	0x3d86fcad	0.06591163
229	0x3dfd4620	0.12366891
230	0xbc8492f1	-0.016183348
231	0x3ab6bdec	0.0013942099
232	0x3c3c7d39	0.011504465
233	0xbda05600	-0.07828903
234	0x3c836fa5	0.016044447
235	0x3d1b59d9	0.037927482
236	0x3cb3854a	0.021914143
237	0x3d678e4a	0.05653218
238	0x3d23663d	0.039892424
239	0xbcd84b34	-0.026403047
240	0x3d993974	0.074816614
241	0x3ae30976	0.0017321545
242	0xbb61a9ea	-0.0034433552
243	0x3c2acbf9	0.010424607
244	0xbb992f02	-0.004674793
245	0xbcec4780	-0.028842688
246	0x3c9b6b04	0.018971927
247	0x3d01ded8	0.03170666
248	0x3dc7b3f0	0.09751117
249	0x3dda924e	0.10672437
250	0xbdc87730	-0.09788358
251	0xbc888286	-0.0166638
252	0x3d96655d	0.07343552
253	0xbd36a5ab	-0.044591587
254	0xbb83d4df	-0.004023179
255	0xbd472308	-0.048617393

fc4.weight f4 [12, 256]
0	0xbd17aed6	-0.03703197
1	0xbcf9de5d	-0.030501539
2	0xbcae2055	-0.021255651
3	0x3d175705	0.036948223
4	0xbc16b19c	-0.009197619
5	0xbd7d6281	-0.06186152
6	0xbc75a82c	-0.014993709
7	0xbc7e23ae	-0.015511436
8	0x3d13dbb4	0.036098197
9	0x3c4c26fe	0.012460468
10	0x3d08c53f	0.033391234
11	0xbd8d54c7	-0.069009356
12	0xbc033adf	-0.008009641
13	0xbd9631a3	-0.07333686
14	0xbd184b30	-0.03718108
15	0xbcbe7049	-0.023246901
16	0x3dec3cd3	0.11535039
17	0xbd0e81b8	-0.03479168
18	0xbcf575a2	-0.029963318
19	0xbdf4e2ea	-0.11957343
20	0xbc686e77	-0.014186493
21	0x3bb1833f	0.005417257
22	0xbdb21c11	-0.086967595
23	0xbb409a48	-0.0029388834
24	0xbd8a10cb	-0.06741484
25	0xbd1432f3	-0.0361814
26	0x3acd76be	0.0015675647
27	0x3dc00f74	0.093779474
28	0x3b81c77f	0.0039605494
29	0x3c856b6f	0.01628658
30	0x3bc998fe	0.0061522713
31	0x3d2502b3	0.040285777
32	0xbd8c7dda	-0.06859942
33	0xbd2b00a9	-0.041748676
34	0xbe2cf32d	-0.16889639
35	0x3d008a05	0.031381626
36	0xbdbc4ff5	-0.09194938
37	0x3d442d14	0.047894552
38	0x3c55d676	0.01305162
39	0xbd4f7a69	-0.05065385
40	0xbdc027a4	-0.09382561
41	0x3e0d0f5e	0.13775393
42	0xbd68e0da	-0.05685506
43	0x3d235c42	0.039882906
44	0xbcc0df1b	-0.023543885
45	0xbd4a08ef	-0.049324926
46	0x3b9163ff	0.0044369693
47	0xbdd6de90	-0.10491669
48	0xbcc4408a	-0.023956556
49	0xbd7d0b18	-0.061778158
50	0xbe1d62a1	-0.15369655
51	0xbd1f21b2	-0.038850494
52	0xbdcc6f21	-0.09982134
53	0xbe4336a7	-0.19063817
54	0x3c429976	0.011877408
55	0xbdbb5d24	-0.091486245
56	0x3daa7180	0.0832243
57	0xbd35ac5b	-0.044353824
58	0xbd1c6d42	-0.038190134
59	0x3dfbd143	0.12295773
60	0xbd9953e4	-0.07486704
61	0xbd70f82e	-0.058830433
62	0xbd1a0230	-0.037599742
63	0xbd818a20	-0.063251734
64	0x3d04d58b	0.032430213
65	0xbdc51ec0	-0.09625006
66	0xbd192d99	-0.037397
67	0x3d7c2d10	0.061566412
68	0xbc9d1d35	-0.019178966
69	0x3c9869b0	0.018605083
70	0xbd83ae07	-0.064296775
71	0xbda602fc	-0.08106038
72	0xbb96f54e	-0.0046068793
73	0x3ce62cea	0.028097589
74	0xbd75f8de	-0.06005179
75	0xbddf80da	-0.10913248
76	0xbdabc415	-0.08387009
77	0xbd93c0e2	-0.07214524
78	0xbccebca6	-0.025236439
79	0xbc0bafde	-0.008525817
80	0xbc7df6f9	-0.015500777
81	0xbd48eb84	-0.04905273
82	0xbd63947f	-0.05556154
83	0xbcdde6ba	-0.027087558
84	0x3b3ee3d6	0.00291275
85	0xbd91d40d	-0.071205236
86	0xbcec51c3	-0.02884758
87	0xbdc74f0f	-0.09731876
88	0xbd21bd54	-0.039487198
89	0x3cfaee4e	0.03063121
90	0xbd6c8944	-0.057748094
91	0xbd84ca67	-0.06483918
92	0xbd262206	-0.04055979
93	0xbdc00031	-0.093750365
94	0x3d96d051	0.07363952
95	0xbd797ca8	-0.060909897
96	0xbd60bfc9	-0.0548704
97	0xbba8b4de	-0.005148514
98	0x3df417b6	0.11918585
99	0x3d50c91c	0.050973043
100	0x3c997cae	0.01873621
101	0xbd45ea12	-0.04831893
102	0xbd6556ac	-0.05599086
103	0xbd9fb14b	-0.07797488
104	0xbd71be7e	-0.059019558
105	0xbdc417a8	-0.095748246
106	0x3bb9f7cc	0.0056752916
107	0xbd80e46c	-0.06293568
108	0xbdd9a371	-0.10626877
109	0x3dd291ae	0.102816924
110	0xbd78c765	-0.060737032
111	0xbd1a5532	-0.037678905
112	0xbdc33f8e	-0.095336065
113	0xbdb06a66	-0.08614044
114	0x3dbd29a0	0.09236455
115	0xbd8a3840	-0.0674901
116	0x3b8f87df	0.004380211
117	0x3cad7b7a	0.021177042
118	0xbda02978	-0.078204095
119	0xbcc5dc91	-0.024153026
120	0xbd041b6f	-0.032252725
121	0xbd42edbc	-0.047590002
122	0x3c506e06	0.012721544
123	0xbc0a6047	-0.008445806
124	0xbdbff882	-0.09373571
125	0x3c78ad09	0.015177974
126	0xbcdfb9f1	-0.027310343
127	0x3c76b5ee	0.015058024
128	0xbd8177c0	-0.063216686
129	0x3c8e8d4c	0.01740136
130	0xbd1b284f	-0.03788024
131	0xbce4f82c	-0.027950369
132	0xbd7a69c4	-0.061136022
133	0xbce88959	-0.028385805
134	0xbdab5606	-0.08366017
135	0x3d18bfd6	0.037292324
136	0xbdbd918c	-0.092562765
137	0xbd0cad27	-0.03434482
138	0xbda91446	-0.0825582
139	0xbdcf83c4	-0.10132554
140	0xbd8e1ce4	-0.06939104
141	0x3d60ffc8	0.054931432
142	0xbdbd3b6e	-0.09239851
143	0xbb1cebae	-0.0023944187
144	0xbd1ece10	-0.038770735
145	0x3d80d162	0.062899366
146	0x3c5b4394	0.013382811
147	0x3bb41946	0.005496177
148	0xbcb06d3d	-0.021536464
149	0xbd48dbb9	-0.04903767
150	0x3dbe3834	0.09288064
151	0xbbfdaff3	-0.007741922
152	0xbdbe11b4	-0.0928072
153	0xbd98e6b0	-0.07465875
154	0x3cbc11da	0.022957731
155	0x3b2be389	0.002622815
156	0xbda5b0a4	-0.08090332
157	0xbdc2cd7a	-0.09511848
158	0x3c13a197	0.009010694
159	0xbdb6d01d	-0.08926413
160	0xbcf410a3	-0.02979309
161	0xbe211df0	-0.15734076
162	0xbdb16373	-0.086615466
163	0xbd446092	-0.04794366
164	0x3ce7920c	0.028267883
165	0xbdbbf0e6	-0.09176807
166	0xbd57496c	-0.052560255
167	0xbd154f79	-0.036452744
168	0xbc0d0ed0	-0.008609489
169	0xbd02dfae	-0.0319516
170	0xbc39fc1a	-0.01135161
171	0x3dfc7a5c	0.12328026
172	0xbce93bef	-0.028470961
173	0xbdb42e0e	-0.08797847
174	0xbd8624f6	-0.065500185
175	0xbb0a731f	-0.0021125746
176	0xbdd870fb	-0.10568424
177	0xbdbfdaee	-0.093679294
178	0x3ca461c8	0.020066157
179	0xbd84e4cb	-0.06488951
180	0xbca42375	-0.020036438
181	0x3c6c7a1f	0.014433413
182	0xbdbe4b15	-0.092916645
183	0x3d3316b7	0.043722834
184	0xbd0e89b5	-0.034799296
185	0x3e06b998	0.13156736
186	0xbdcefaff	-0.101064675
187	0x3ca1ac3c	0.019735448
188	0xbd45b5f6	-0.048269235
189	0x3dd7ae87	0.10531335
190	0xbd991d3e	-0.07476281
191	0xbd93f3a5	-0.07224206
192	0xbc8421e8	-0.016129449
193	0xbcff7fc5	-0.031188855
194	0xbcc331da	-0.023827482
195	0xbc6f3016	-0.014598867
196	0xbdbe2a54	-0.09285417
197	0xbc39e982	-0.0113471765
198	0xbdb39a3d	-0.08769653
199	0x3d1ea3d7	0.03873047
200	0xbaf086b5	-0.0018350693
201	0x3cb03cc4	0.02151335
202	0x3d698973	0.057015847
203	0x3e1bdd58	0.15221155
204	0x3a38c6be	0.0007048658
205	0xbd8b3c6c	-0.06798634
206	0xbd672d73	-0.056439828
207	0xbdbfe1be	-0.09369229
208	0xba6df618	-0.00090775033
209	0xbdc866ca	-0.097852305
210	0xbdadc425	-0.08484677
211	0xbd5819a2	-0.05275882
212	0xbcc97f4e	-0.024596836
213	0xbd90ebbe	-0.07076214
214	0x3d98318e	0.07431327
215	0xbd396ea0	-0.045271516
216	0x3b80b8df	0.0039282884
217	0xbdbf773c	-0.09348914
218	0xbdb864de	-0.09003614
219	0xbda88606	-0.08228688
220	0xbd9f80d4	-0.07788244
221	0xbbb9d768	-0.0056714304
222	0xbd816792	-0.063185826
223	0xbdbd24b8	-0.09235519
224	0xbdbd3e70	-0.09240425
225	0xbcd9856b	-0.026552876
226	0xbdb9f041	-0.09079028
227	0xbdbd9fc3	-0.09258988
228	0xbcca8ddc	-0.024725847
229	0xbda68e91	-0.08132661
230	0xbd0fe6c4	-0.035132185
231	0x3c7d3046	0.015453404
232	0x3d219e1b	0.03945742
233	0x3d3410a5	0.043961186
234	0x3e125c46	0.14293012
235	0xbc7e97f0	-0.015539154
236	0xbdb2f118	-0.08737391
237	0xbd05601a	-0.032562353
238	0xbe18f0a7	-0.14935552
239	0x3de624b1	0.11237467
240	0xbd8a3f1a	-0.06750317
241	0xbd403a36	-0.046930514
242	0xbd435988	-0.047692806
243	0xbd261348	-0.04054573
244	0xbd6d7128	-0.057969242
245	0xbdbd6979	-0.09248633
246	0xbdc0e312	-0.0941831
247	0xbd8e59d3	-0.06950726
248	0xbd9004f7	-0.07032197
249	0xbdbed5bd	-0.09318111
250	0x3dbbbb6b	0.091666065
251	0xbdbe3945	-0.09288267
252	0xbdcf9e82	-0.10137655
253	0x3d9c6f29	0.076383896
254	0xbd9a3968	-0.075304806
255	0xbc046737	-0.008081249

fc4.bias f4 [12]
0	0x3bbec809	0.005822186
1	0xbcc1b5b9	-0.023646222
2	0xbd8ccdff	-0.06875228
3	0xbce31aac	-0.02772268
4	0x3d7c0d48	0.061536103
5	0x3c87e115	0.01658682
6	0xbd403020	-0.046920896
7	0x3ccc12ad	0.024911249
8	0xbdd5051e	-0.10401367
9	0x3b8f1a1f	0.0043671275
10	0x3aba40e4	0.0014210013
11	0xbd75d0ab	-0.060013454
