models/model5.pt (torch, 17140 bytes, 8 tensors)

fc1.weight f4 [16, 11]
0.6013744 -0.49055243 0.06367969 0.033560634 0.00025229552 0.14072375 -0.022773804 0.023239031
0.21946046 0.121091686 0.40980574 -0.17724735 -0.15494373 0.060754493 -0.052350324 -0.1297426
-0.028907452 -0.035783857 -0.016689021 -0.04836332 0.07959202 0.20583579 -0.044514157 0.0727728
-0.20191401 -0.12330563 0.03748347 0.20931557 -0.06896049 -0.05967973 0.14851122 -0.10710147
0.21303152 0.38248393 -0.4140039 -0.41023964 0.60856766 0.0032195775 0.075414054 -0.080824755
-0.065408595 0.15395215 -0.0018809912 -0.1639996 -0.4651007 0.5532356 -0.1590015 0.25016874
0.053727873 0.007346557 0.008604652 0.0011437901 0.3382454 0.11658839 0.20973146 -0.27962598
0.2854389 -0.07922642 0.2703399 -0.15509456 0.04818204 0.0063593467 -0.02918585 0.013795697
-0.09111507 0.07368317 -0.40476382 0.27651504 -0.016946908 -0.0042359335 0.1463172 0.07180973
0.1081712 0.07360365 -0.0060549476 0.14849174 0.27920607 0.30383235 -0.06811993 -0.026962062
0.42577428 0.01386764 -0.072803214 0.17140968 0.05926504 -0.25019833 -0.004694458 -0.2292938
-0.27187276 0.45815518 0.012895108 -0.014668465 0.06213968 0.12322799 -0.3192844 0.0071259853
0.32138968 0.017886387 0.36311808 -0.12082744 0.34153098 0.12717098 0.18250076 -0.027050113
0.12486474 1.0934324 -0.01672116 -0.9636982 0.16562784 -0.94298846 0.108162194 0.14231326
-0.009014275 -0.04440612 -0.18626215 -0.25791433 0.2284775 -0.09416839 -0.05559037 -0.09623601
0.05700299 -0.12143284 0.20818348 -0.36643043 0.3234292 -0.06771672 0.00242758 -0.01996357
0.007013423 0.16359508 -0.016048677 0.18683647 -0.06780036 -0.0033550905 -0.05320354 0.046965197
-0.1041789 0.1083196 -0.04572991 -0.05913256 -4.2103078e-05 -0.13625996 -0.02919121 0.327849
0.10748142 0.6664422 -0.13334891 -0.030051077 -0.030903043 -0.08570163 -0.040865175 0.15643175
0.020195687 -0.14915596 -0.1284758 -0.12501526 -0.044897083 -0.060919408 -0.014570735 -0.07850786
-0.10523698 -0.09673767 -0.09755507 -0.08649296 0.09958789 0.15655902 -0.2615264 -0.048831932
0.2661321 0.1486188 -0.050231554 -0.059164256 0.081132896 -0.03607879 0.15536854 -0.06502678
00000000: acf3 193f b029 fbbe 7f6a 823d e076 093d
00000010: 8846 8439 e319 103e 2190 babc c85f be3c
00000020: 3eba 603e ebfe f73d 0fd2 d13e 5480 35be
00000030: 92a9 1ebe b4d9 783d 4b6d 56bd 3edb 04be
00000040: 52cf ecbc 1892 12bd 6ab7 88bc 9e18 46bd
00000050: 2401 a33d 9ec6 523e 7a54 36bd e809 953d
00000060: 8cc2 4ebe aa87 fcbd 4488 193d d256 563e
00000070: 283b 8dbd bc72 74bd 5313 183e 0458 dbbd
00000080: ef24 5a3e efd4 c33e 52f8 d3be ee0a d2be
00000090: 17cb 1b3f 8cff 523b af72 9a3d 7387 a5bd
000000a0: f1f4 85bd a2a5 1d3e 978b f6ba 83ef 27be
000000b0: ae21 eebe d9a0 0d3f 4ad1 22be 1e16 803e
000000c0: c211 5c3d 63bb f03b 87fa 0c3c 3aeb 953a
000000d0: 802e ad3e e5c5 ee3d d8c3 563e 232b 8fbe
000000e0: 0c25 923e 7641 a2bd fe69 8a3e 1cd1 1ebe
000000f0: 885a 453d 1162 d03b 2a17 efbc 5907 623c
00000100: 8a9a babd 34e7 963d 343d cfbe 6193 8d3e
00000110: 3ed4 8abc 96cd 8abb 2dd4 153e fb10 933d
00000120: dd88 dd3d 83bd 963d 9568 c6bb 380e 183e
00000130: 19f4 8e3e ea8f 9b3e 7682 8bbd 8bdf dcbc
00000140: 16ff d93e 1935 633c da19 95bd 0586 2f3e
00000150: e6bf 723d ff19 80be f8d3 99bb fecb 6abe
00000160: e832 8bbe 5193 ea3e 0146 533c 0054 70bc
00000170: 2d86 7e3d f55e fc3d 3f79 a3be 1981 e93b
00000180: 308d a43e 7986 923c 9dea b93e 6074 f7bd
00000190: 26dd ae3e 1c39 023e 7be1 3a3e 3398 ddbc
000001a0: 16b9 ff3d 98f5 8b3f d0fa 88bc edb4 76bf
000001b0: 589a 293e b167 71bf 2484 dd3d 91ba 113e
000001c0: 9cb0 13bc 31e3 35bd 81bb 3ebe 590d 84be
000001d0: 01f6 693e 5bdb c0bd bab2 63bd 6317 c5bd
000001e0: f87b 693d c8b1 f8bd 0d2e 553e c59c bbbe
000001f0: 8398 a53e 10af 8abd 0918 1f3b a48a a3bc
00000200: dbd0 e53b 7885 273e 8478 83bc 0f52 3f3e
00000210: eada 8abd 14e1 5bbb f5eb 59bd 945e 403d
00000220: bf5b d5bd abd6 dd3d 494f 3bbd fc34 72bd
00000230: d697 30b8 bb87 0bbe 6822 efbc d3db a73e
00000240: 381f dc3d f59b 2a3f 9e8c 08be ad2d f6bc
00000250: 6128 fdbc 5684 afbd 3e62 27bd a52f 203e
00000260: 6d71 a53c 57bc 18be 298f 03be 0004 00be
00000270: 01e6 37bd a186 79bd 18ba 6ebc bbc8 a0bd
00000280: 7c86 d7bd 661e c6bd f4ca c7bd 3923 b1bd
00000290: bcf4 cb3d 0251 203e cae6 85be fe03 48bd
000002a0: 7742 883e 872f 183e 9abf 4dbd 3856 72bd
000002b0: 0129 a63d 5ac7 13bd ee18 1f3e c32c 85bd

fc1.bias f4 [16]
-0.040428422 -0.122829944 -0.13790011 0.10631161 0.28396568 0.17788574 0.301541 0.037208542
0.21407434 0.20409903 0.20741011 0.35551593 0.18938763 0.08185686 -0.018734053 -0.14257775
00000000: 4698 25bd 448e fbbd b035 0dbe e7b9 d93d
00000010: f363 913e ae27 363e 9563 9a3e fc67 183d
00000020: 4e36 5b3e 56ff 503e 5163 543e 2f06 b63e
00000030: d5ee 413e 92a4 a73d 2878 99bc e7ff 11be

fc2.weight f4 [32, 16]
-0.13596435 -0.14049181 0.065127544 -0.0067068343 0.15081616 0.13742436 -0.10749818 0.10660146
0.17369002 0.13238542 -0.13959607 -0.58833355 -0.15382016 -0.048031986 0.044726137 -0.15899467
0.11531659 0.06405006 -0.12552938 0.06208805 -0.18192549 0.15283708 0.16076487 0.09013459
-0.096755765 -0.02370654 -0.06653567 0.42636982 -0.09468757 0.32236123 -0.1116622 0.018073825
0.00573522 -0.21417712 -0.104699634 -0.11210676 0.07959565 -0.17801051 0.024126146 0.11274333
0.048651777 -0.0063893683 -0.1926722 -0.49108988 -0.016837042 0.014027795 0.06634009 0.115628734
-0.08656437 -0.30292442 -0.20247623 0.18035537 0.31282604 0.4094345 0.088586755 0.3228024
0.07699197 0.1464877 0.16454647 1.7278206 0.11151487 -0.13449553 0.032613926 0.08610077
0.011508824 -0.19391432 0.16957068 -0.11016171 -0.037145786 -0.018205872 0.05554905 -0.2648722
0.047916822 0.059077352 -0.20083436 -0.6395725 -0.0155710885 -0.1735829 0.105619624 0.036436148
0.010751484 -0.03348103 0.08093008 -0.14474659 0.21369593 -0.14700556 -0.009927759 -0.10982627
0.1146256 -0.0784962 0.3566747 -0.35288632 0.1329587 0.10779718 0.033750445 0.030352851
-0.029624637 0.089491725 0.045069724 0.018731024 0.11317695 -0.028182413 0.08376179 -0.17286082
-0.121360675 -0.03688768 -0.085481174 0.042734217 0.07319059 -0.23942545 -0.000424346 0.07845347
-0.18640277 -0.21807462 -0.021515602 -0.03244293 0.44993156 0.54705805 0.03344362 0.11323022
0.055196688 0.11450002 -0.105574474 1.806071 0.09965554 0.013123039 -0.11511841 -0.0059575234
-0.04834646 0.043805268 -0.08954087 -0.09183245 -0.010005141 0.06720489 0.039991416 -0.0635639
0.007881654 -0.10448151 0.020250369 -0.11942202 0.035292953 -0.042587206 0.079772174 -0.012178654
0.067814 -0.06009845 -0.13307934 0.069364056 -0.1430277 0.28849626 0.013830722 0.22450732
0.018563118 0.19110475 0.06334172 1.1087468 0.11490966 0.2692064 0.05899755 0.16945451
0.19678117 0.0562756 -0.020354243 0.005674424 9.090394e-06 0.19488236 -0.020047355 0.10348044
0.08037644 0.10202748 0.1003945 0.9178844 0.21620315 0.23421659 -0.114359826 -0.002094683
0.117106095 -0.11020378 -0.030373512 0.21484731 -0.33379734 -0.11772583 -0.019044828 -0.01634989
-0.23218344 0.020318938 0.073367 0.5054182 0.08752578 0.1691681 0.10478388 0.07676239
0.18183555 0.100814 -0.030844096 0.22725447 -0.13338839 0.23626886 0.20825933 0.18476705
0.07922108 0.15387265 0.08550831 0.9771333 0.10559728 0.25919467 0.067869596 0.32158434
-0.11566137 0.153755 -0.07001208 0.11370002 0.14666921 0.43134674 0.079216205 0.140889
0.035233635 0.038112327 -0.14988762 1.038193 0.1700417 -0.2574404 -0.04845134 0.095989555
-0.15323496 0.24022825 -0.23572975 0.057187174 0.21299194 0.3522978 0.060926918 -0.02662129
0.032092463 0.0860655 -0.21465342 0.8678424 0.20457584 -0.20263796 0.11508288 -0.032264728
0.16927487 0.02550549 -0.064410284 0.23098996 0.14245847 0.49213815 0.088816345 0.29202408
-0.0045556114 0.29463908 0.3311711 0.9918028 0.27222773 0.4183292 -0.09740216 0.33405232
00000000: 3d3a 0bbe 16dd 0fbe 9761 853d 01c5 dbbb
00000010: 8d6f 1a3e f9b8 0c3e 0128 dcbd de51 da3d
00000020: ccdb 313e 0b90 073e 46f2 0ebe 079d 16bf
00000030: 0883 1dbe 30bd 44bd c132 373d 80cf 22be
00000040: 1b2b ec3d ae2c 833d c68a 00be 0a50 7e3d
00000050: ad4a 3abe 5381 1c3e 8c9f 243e 7c98 b83d
00000060: e327 c6bd 3834 c2bc da43 88bd 254d da3e
00000070: 8feb c1bd 880c a53e 27af e4bd 8f0f 943c
00000080: 83ee bb3b 3f51 5bbe c36c d6bd 3b98 e5bd
00000090: 0b03 a33d 6348 36be 32a4 c53c fae5 e63d
000000a0: 1647 473d e85d d1bb dc4b 45be 2270 fbbe
000000b0: d6ed 89bc d6d4 653c 50dd 873d c2ce ec3d
000000c0: a948 b1bd e918 9bbe ee55 4fbe 14af 383e
000000d0: bc2a a03e 66a1 d13e f96c b53d 5b46 a53e
000000e0: f7ad 9d3d df00 163e df7e 283e 3a29 dd3f
000000f0: e861 e43d 32b9 09be 2e96 053d 9a55 b03d
00000100: 828f 3c3c 7a91 46be f0a3 2d3e 769c e1bd
00000110: 2e26 18bd 7b24 95bc 6787 633d 549d 87be
00000120: 6e44 443d 18fb 713d 86a7 4dbe 06bb 23bf
00000130: e11d 7fbc b7bf 31be 1a4f d83d 123e 153d
00000140: fe26 303c 6823 09bd abbe a53d 7338 14be
00000150: 1bd3 5a3e a088 16be 0aa8 22bc 98ec e0bd
00000160: d4c0 ea3d 9ec2 a0bd 119e b63e 84ad b4be
00000170: 5326 083e c5c4 dc3d e83d 0a3d 8ba6 f83c
00000180: 5eaf f2bc 7047 b73d 089b 383d ce71 993c
00000190: 51c9 e73d cede e6bc 4d8b ab3d 6d02 31be
000001a0: f28b f8bd 8917 17bd c110 afbd 130a 2f3d
000001b0: f3e4 953d f22b 75be c27a deb9 36ac a03d
000001c0: 5ee0 3ebe f44e 5fbe 7d41 b0bc e1e2 04bd
000001d0: 6e5d e63e ff0b 0c3f 2dfc 083d 3fe5 e73d
000001e0: ec15 623d fd7e ea3d 6e37 d8bd 562d e73f
000001f0: 3418 cc3d 0402 573c 33c3 ebbd 5437 c3bb
00000200: f006 46bd 276d 333d 3461 b7bd a712 bcbd
00000210: 9aec 23bc b8a2 893d 0ace 233d ca2d 82bd
00000220: 0e22 013c 67fa d5bd 1ae4 a53c 8893 f4bd
00000230: 588f 103d ec6f 2ebd 985f a33d fa88 47bc
00000240: 11e2 8a3d cb29 76bd f345 08be be0e 8e3d
00000250: da75 12be c8b5 933e 419a 623c 3fe5 653e
00000260: ae11 983c f7b0 433e 4eb9 813d 6aeb 8d3f
00000270: c155 eb3d 6cd5 893e 6aa7 713d 7c85 2d3e
00000280: 0181 493e 3e81 663d f1bd a6bc 85f0 b93b
00000290: f282 1837 3e8f 473e 5a3a a4bc 8eed d33d
000002a0: 679c a43d c9f3 d03d a29b cd3d 79fa 6a3f
000002b0: 5c64 5d3e 79d6 6f3e 7c35 eabd f346 09bb
000002c0: 52d5 ef3d 85b2 e1bd dfd1 f8bc ef00 5c3e
000002d0: 7ce7 aabe 3d1a f1bd e603 9cbc 34f0 85bc
000002e0: 7fc1 6dbe e773 a63c 7041 963d 1663 013f
000002f0: b740 b33d 673a 2d3e ee98 d63d 9a35 9d3d
00000300: 1933 3a3e 9277 ce3d c2ac fcbc 65b5 683e
00000310: f796 08be 77f0 713e ef41 553e 9333 3d3e
00000320: a93e a23d cb90 1d3e fb1e af3d 6825 7a3f
00000330: 6343 d83d 2ab5 843e 37ff 8a3d b4a6 a43e
00000340: dedf ecbd f371 1d3e 7e62 8fbd 8edb e83d
00000350: 7430 163e 7bd9 dc3e 1b3c a23d 3545 103e
00000360: 2551 103d ac1b 1c3d 247c 19be 82e3 843f
00000370: 691f 2e3e 3acf 83be ea74 46bd 2c96 c43d
00000380: a0e9 1cbe 65fe 753e 2463 71be 193d 6a3d
00000390: 8f1a 5a3e 6160 b43e 818e 793d e414 dabc
000003a0: 6373 033d 1c43 b03d 1bce 5bbe eb2a 5e3f
000003b0: 547c 513e 5380 4fbe 93b0 eb3d 0528 04bd
000003c0: 6456 2d3e e4f0 d03c 8ae9 83bd a288 6c3e
000003d0: a2e0 113e 88f9 fb3e 58e5 b53d 2e84 953e
000003e0: 3d47 95bb efda 963e 428f a93e cae6 7d3f
000003f0: 6f61 8b3e 3f2f d63e c97a c7bd e808 ab3e

fc2.bias f4 [32]
0.20930095 0.11794688 0.056021973 0.19361603 0.041217405 0.17947643 -0.022430498 0.29596794
0.041314613 0.10678271 0.12742677 -0.15633072 0.027232107 -0.11688546 0.2283777 0.45682737
0.51428515 -0.16497321 0.05807155 -0.18375959 0.09183982 0.20197582 -0.012122886 0.17952082
0.19053034 0.04652856 0.11641306 0.0018574299 0.21709068 -0.040976036 0.0196322 0.27004263
00000000: fd52 563e 228e f13d 4c77 653d 4843 463e
00000010: 95d3 283d abc8 373e 2ac0 b7bc 1c89 973e
00000020: 8339 293d e5b0 da3d 2a7c 023e 2915 20be
00000030: de15 df3c a561 efbd d8db 693e 47e5 e93e
00000040: 31a8 033f bdee 28be 6fdc 6d3d 792b 3cbe
00000050: 8416 bc3d c0d2 4e3e 129f 46bc 4ed4 373e
00000060: 631a 433e bb94 3e3d f869 ee3d 0175 f33a
00000070: 054d 5e3e 7dd6 27bd b5d3 a03c 0743 8a3e

fc3.weight f4 [64, 32]
0.10025423 0.24894251 -0.4078253 -0.081063144 -0.14248767 0.11261928 -0.18326063 -0.04310345
0.06430977 0.09137835 0.0812857 0.78187186 0.01922803 0.22057936 0.19722657 0.12292641
0.07205358 0.32950428 0.093542874 -0.5944863 1.3653282 1.7953119 0.048843488 -0.1233855
0.09145081 0.00091279537 -0.0397909 0.001069224 -0.06558409 0.039906427 0.32996064 0.17215547
0.24895541 -0.20931442 -0.04957301 0.12783408 0.066899896 0.122657366 0.14418665 0.15901133
-0.020733042 -0.003716679 -0.017824195 -0.2977913 0.069678 -0.16528335 -0.28282183 0.18242802
0.064629324 -0.23072487 0.028152946 0.056682117 -0.7321946 -1.4396303 -0.15809362 0.61757344
-0.9204263 -0.08877278 -0.041240767 0.06766225 0.08816145 -0.07745532 -0.15975517 0.07692885
-0.023204993 0.28198764 -0.043991327 0.13622254 0.053699046 -0.012649675 -0.13560884 0.02443657
0.07454919 0.15232728 0.10015653 0.42119384 0.039602663 0.39428693 0.5398458 0.12585612
0.05265999 0.10087408 0.22312999 0.033042032 1.103631 1.77531 0.23613782 -0.3253016
1.350921 0.24584879 0.0664093 0.18223952 0.025103616 0.23480889 0.19077824 -0.13437983
-0.11017756 0.31678915 0.012543149 0.08616509 0.02062405 -0.0667316 -0.19795416 0.21965747
-0.048314314 0.268419 0.14263017 0.70714885 0.10237849 0.36558142 0.58471197 0.09785576
0.15890907 -0.08420621 0.24162892 0.0365222 1.0127757 1.5003893 0.12923305 -0.08554087
1.1778443 0.14116381 0.05567794 0.16301179 -0.028584024 0.22728413 0.24879114 -0.2168213
0.046284944 -0.08845865 -0.081522055 0.016647128 0.009111213 -0.05876888 -0.04436587 0.03725063
0.061410163 -0.07658637 -0.009535109 -0.0008038206 0.04352053 -0.07282099 0.024472544 0.004322517
-0.030311812 0.037374992 -0.08597653 -0.048877202 -0.07088605 0.006027309 0.030390438 -0.03706988
0.05530104 0.008409619 0.043425243 -0.041821882 -0.0012612873 -0.06900398 -0.032241784 -0.030348204
0.21892445 -0.13076583 0.12731872 0.1615716 0.060369648 0.23671935 0.14350146 0.30882785
0.032742854 0.081594475 0.03963404 -0.40242437 -0.07792772 -0.03589332 -0.2931929 0.021777732
0.09548324 -0.12674055 -0.08762602 0.008578248 -0.673766 -1.425329 -0.02715204 0.77114034
-0.934944 -0.078826524 0.032616384 0.019776221 0.08297111 -0.23305106 -0.04402382 0.15643498
-0.41175333 0.5015383 -0.109532215 0.05498705 -0.22466439 -0.03163407 -0.28517175 0.1956916
0.017272549 0.25709316 0.14400594 0.54398453 0.14469658 0.506441 0.5580703 0.1921774
0.03862402 -0.25808713 0.24045236 -0.023699712 1.1756725 1.3202609 0.12738353 -0.6114802
1.5459836 0.21295315 0.075358085 0.16925275 -0.14244221 0.19887121 0.22454311 -0.107628055
0.06563574 0.0027720965 0.0641976 0.1823668 0.08926762 0.12503496 -0.034992494 0.3427725
0.05191631 0.054794874 0.022754166 -0.44434986 0.044604223 0.039199397 -0.1324474 0.0003363511
-0.032625243 -0.06610437 0.09779784 0.113299616 -1.0324115 -1.120827 -0.13579194 0.7047855
-1.2689427 -0.094379805 0.0742843 -0.081759736 0.2556435 -0.08483856 -0.113833755 0.20030046
00000000: 1752 cd3d c9ea 7e3e 7ace d0be 6f04 a6bd
00000010: 4ae8 11be f0a4 e63d ada8 3bbe 3e8d 30bd
00000020: d7b4 833d 9324 bb3d 1e79 a63d c128 483f
00000030: 1a84 9d3c 8edf 613e c3f5 493e d7c0 fb3d
00000040: d490 933d c9b4 a83e 6893 bf3d 4130 18bf
00000050: 13c3 ae3f c8cc e53f 1c10 483d 89b1 fcbd
00000060: 904a bb3d a948 6f3a c8fb 22bd 3425 8c3a
00000070: f450 86bd ec74 233d 9af0 a83e 8649 303e
00000080: 2bee 7e3e 8556 56be 120d 4bbd f0e6 023e
00000090: d002 893d c933 fb3d aaa5 133e ded3 223e
000000a0: 57d8 a9bc 8793 73bb 0c04 92bc 1a78 98be
000000b0: 57b3 8e3d 0a40 29be 06ce 90be 69ce 3a3e
000000c0: 615c 843d 2443 6cbe 02a1 e63c 822b 683d
000000d0: 1b71 3bbf ce45 b8bf 4be3 21be 4b19 1e3f
000000e0: 0fa1 6bbf 81ce b5bd 14ec 28bd 8192 8a3d
000000f0: fe8d b43d e5a0 9ebd dc96 23be df8c 9d3d
00000100: 6618 bebc af60 903e 4030 34bd ec7d 0b3e
00000110: 88f3 5b3d 9540 4fbc 0bdd 0abe 342f c83c
00000120: 3fad 983d affb 1b3e de1e cd3d b8a6 d73e
00000130: 6736 223d fadf c93e 5633 0a3f 6de0 003e
00000140: 00b2 573d 1297 ce3d 307c 643e 1557 073d
00000150: c843 8d3f 5c3d e33f 1dce 713e ee8d a6be
00000160: fbea ac3f c9bf 7b3e 9901 883d ff9c 3a3e
00000170: 19a6 cd3c be71 703e 5f5b 433e de9a 09be
00000180: c6a4 e1bd 3032 a23e c881 4d3c 5377 b03d
00000190: c5f3 a83c 94aa 88bd 7fb4 4abe e3ed 603e
000001a0: 3be5 45bd 376e 893e a50d 123e b507 353f
000001b0: d0ab d13d 7d2d bb3e afaf 153f 9a68 c83d
000001c0: 0fb9 223e 4e74 acbd 926d 773e 4d98 153d
000001d0: a2a2 813f c20c c03f ab55 043e 0d30 afbd
000001e0: 9ac3 963f 3f8d 103e 8d0e 643d 90ec 263e
000001f0: 0b29 eabc 2cbd 683e 1bc3 7e3e 6706 5ebe
00000200: 4895 3d3d cf29 b5bd 09f5 a6bd 8f5f 883c
00000210: 3247 153c a3b7 70bd fdb8 35bd 1e94 183d
00000220: 3989 7b3d 51d9 9cbd 2539 1cbc 7db7 52ba
00000230: 9542 323d 2c23 95bd a57a c83c e7a3 8d3b
00000240: 7a50 f8bc 8516 193d 7714 b0bd 7633 48bd
00000250: b52c 91bd bc80 c53b 5ef5 f83c 96d6 17bd
00000260: 5883 623d 80c8 093c abde 313d 6c4d 2bbd
00000270: c751 a5ba f551 8dbd f60f 04bd cc9c f8bc
00000280: bb2d 603e 7ae7 05be d75f 023e 0773 253e
00000290: 2a46 773d 8f66 723e 0cf2 123e af1e 9e3e
000002a0: 5f1d 063d 011b a73d 4e57 223d 910a cebe
000002b0: 9298 9fbd e004 13bd 611d 96be 3767 b23c
000002c0: b88c c33d 46c8 01be 4575 b3bd c88b 0c3c
000002d0: ee7b 2cbf 2e71 b6bf f46d debc 7469 453f
000002e0: 7d58 6fbf cd6f a1bd c298 053d be01 a23c
000002f0: c2ec a93d f0a4 6ebe 5252 34bd 7e30 203e
00000300: 55d1 d2be d064 003f 6d52 e0bd 1a3a 613d
00000310: 6c0e 66be ba92 01bd 0802 92be 6163 483e
00000320: 297f 8d3c b7a1 833e 4b76 133e 9242 0b3f
00000330: 572b 143e 1ea6 013f b2dd 0e3f 27ca 443e
00000340: 3834 1e3d ff23 84be 2539 763e e625 c2bc
00000350: 707c 963f 4ffe a83f d470 023e f789 1cbf
00000360: cae2 c53f 6410 5a3e 5755 9a3d 9850 2d3e
00000370: 5fdc 11be e5a4 4b3e a1ee 653e 196c dcbd
00000380: 086c 863d 10ac 353b 087a 833d 5dbe 3a3e
00000390: f1d1 b63d 2a09 003e 4a54 0fbd e17f af3e
000003a0: 32a6 543d 9770 603d f266 ba3c d381 e3be
000003b0: ebb2 363d 8c8f 203d 4ba0 07be 4858 b039
000003c0: 0ca2 05bd ba61 87bd 3c4a c83d a109 e83d
000003d0: 0f26 84bf 4277 8fbf 0b0d 0bbe d36c 343f
000003e0: b76c a2bf 334a c1bd 5e22 983d a671 a7bd
000003f0: b4e3 823e d7bf adbd ac21 e9bd 901b 4d3e

fc3.bias f4 [64]
0.23685339 0.35039496 0.06711893 0.056998875 -0.04423682 0.4396667 0.06196539 0.43373588
-0.12963489 0.040359367 -0.1678968 -0.06606438 0.038746424 0.073405854 -0.027543342 0.25580058
0.12629993 0.32484454 0.13201052 0.040434416 0.036936805 -0.0983567 0.01554272 0.30382332
0.32590052 0.08622126 0.0073194974 0.2679197 0.088453375 -0.10513327 0.023613758 0.061661836
0.4122308 -0.07553042 0.3019782 0.2721901 0.04693319 0.07205403 0.114004284 0.23640187
0.3268971 0.08654836 -0.050451882 0.006479114 0.005666063 0.13986461 0.1344776 0.36477745
0.014793828 0.029821752 0.0076532653 0.005549124 0.02959068 0.114702694 0.020579882 -0.04282869
0.110574916 0.08459732 -0.11788842 0.06490804 0.10812376 0.13052413 0.3776581 0.055386756
00000000: b289 723e f866 b33e a675 893d a777 693d
00000010: ab31 35bd fe1b e13e 6ccf 7d3d a112 de3e
00000020: 02bf 04be dd4f 253d 24ed 2bbe c34c 87bd
00000030: 92b4 1e3d cf55 963d 93a2 e1bc 4bf8 823e
00000040: c554 013e 0652 a63e c42d 073e 8f9e 253d
00000050: 0c4b 173d 3d6f c9bd e5a6 7e3c bb8e 9b3e
00000060: 6fdc a63e c694 b03d 65d8 ef3b c52c 893e
00000070: 0b27 b53d 1d50 d7bd a471 c13c 1f91 7c3d
00000080: ea0f d33e b1af 9abd e39c 9a3e 805c 8b3e
00000090: 043d 403d 1091 933d 147b e93d 5513 723e
000000a0: 0f5f a73e 4440 b13d a2a6 4ebd bf4e d43b
000000b0: 62aa b93b ab38 0f3e 7fb4 093e 1cc4 ba3e
000000c0: d061 723c bf4c f43c 3ec8 fa3b 6dd5 b53b
000000d0: 2768 f23c 3fe9 ea3d 2497 a83c 236d 2fbd
000000e0: 1a75 e23d 5c41 ad3d 7c6f f1bd 82ee 843d
000000f0: fd6f dd3d 1ea8 053e 675c c13e 39dd 623d

fc4.weight f4 [12, 64]
-0.05512134 0.15017156 -0.16285516 -0.18060994 -0.018657232 0.2702034 -0.37726295 0.3387734
-0.26353344 -0.30268818 -0.30959642 -0.18573374 -0.28572708 -0.20231083 -0.21392916 0.24795212
-0.2805496 0.23562613 -0.17160083 -0.28907517 -0.17859046 -0.22834098 -0.20281972 -0.19758435
0.23977348 -0.33790982 -0.3020785 -0.5156329 -0.07456744 0.24392124 -0.55184984 0.044157114
0.52650297 0.054076232 0.27377573 0.4723851 0.005972552 -0.23765342 -0.04472411 -0.27596334
0.4888332 -1.1902088 -0.023602638 -0.20693071 -0.20270555 -0.53188646 -0.26522622 0.84134924
-0.21614547 -0.04325083 -0.32324395 -0.3586525 -0.18017493 -0.22130963 -0.24982083 0.038723066
-0.32647932 -0.27020216 -0.065661326 -0.12578404 -0.20174362 0.123930946 0.37437576 0.018416831
-0.2188161 0.21665785 -0.1972739 -0.14442028 -0.047442917 0.02715349 -0.41754928 0.3516137
-0.23077548 -0.354053 -0.21525203 -0.10939793 -0.23070869 -0.20545723 -0.15144858 0.21484648
-0.30918792 0.3580196 -0.19929767 -0.27397028 -0.23639765 -0.17970584 -0.3218343 -0.16442515
0.2123373 -0.35895836 -0.20342925 -0.40463728 -0.054582283 0.12646945 -0.31346786 0.056012433
0.6357383 0.018203758 0.21854371 0.10317846 0.03442628 -0.20148808 -0.50600517 -0.3101463
0.6015398 -1.2579722 0.014592423 -0.14915922 -0.23420957 -0.38583484 -0.40339637 0.46868634
-0.17172487 -0.023178201 -0.36921448 -0.37298384 -0.1923584 -0.18706055 -0.4044184 -0.010864011
-0.29602286 -0.45648885 -0.03283216 -0.09554873 -0.16757235 -0.025163155 0.09614254 -0.08369336
-0.19613665 0.2135727 -0.14352275 -0.19275397 -0.05217047 0.33260766 -0.29904145 0.30272746
-0.080087714 -0.383095 -0.21702293 -0.17472789 -0.29190373 -0.3293272 -0.22154932 0.46132767
-0.2477717 0.3080142 -0.27962425 -0.24492523 -0.15991665 -0.22715187 -0.49908385 -0.42961827
0.31635344 -0.3364757 -0.2627534 -0.5517242 -0.041718688 0.066140324 -0.331382 0.05061327
0.37932023 0.050461352 0.4391822 0.1747729 0.034620762 -0.2592543 -0.10425889 -0.2301076
0.60150975 0.20649849 0.03459931 -0.23391497 -0.20876801 -0.38232556 -0.24001326 0.7020313
-0.25003138 -0.027302517 -0.36241144 -0.3784088 -0.28962907 -0.2156649 -0.26111564 0.013450534
-0.30618 -0.25113827 -0.023273136 -0.20441787 -0.16833562 -0.012884516 0.4152656 0.18520546
-0.4429552 0.1666107 -0.20500521 -0.21575251 0.015320725 0.12896739 -0.31469205 0.04260163
-0.2792139 -0.35919568 -0.21160921 -0.15030657 -0.15102804 -0.10589782 -0.16773511 0.25622967
-0.2902571 0.24527504 -0.23692004 -0.27597475 -0.21104823 -0.15918736 -0.4077104 -0.16679706
0.18092011 -0.35193834 -0.20697863 -0.53754056 0.004774446 -0.2957548 -0.47368732 0.051903367
0.20708749 -0.029112702 0.18859728 0.1425895 -0.02900437 -0.28333622 -0.048508894 -0.35127294
0.2684168 -0.91144556 0.028101299 -0.22887035 -0.6272992 -0.74424964 -0.22274993 -0.025137458
-0.07413429 0.010196646 -0.3337956 -0.34498814 -0.2046622 -0.11140291 -0.31105876 -0.0067194863
-0.1978967 -0.23186424 -0.055805963 -0.12700742 -0.07696581 -0.15009494 0.063895196 0.050489742
00000000: eac6 61bd 93c6 193e 81c3 26be d0f1 38be
00000010: 0dd7 98bc 1a58 8a3e 9c28 c1be b573 ad3e
00000020: dbed 86be f2f9 9abe 6c83 9ebe fc30 3ebe
00000030: d24a 92be 922a 4fbe 3f10 5bbe 29e7 7d3e
00000040: 32a4 8fbe fa47 713e 21b8 2fbe a901 94be
00000050: 6be0 36be 38d2 69be f9af 4fbe 8d53 4abe
00000060: 2e87 753e 8402 adbe 08aa 9abe 8500 04bf
00000070: d0b6 98bd 7dc6 793e 0846 0dbf 17de 343d
00000080: e6c8 063f 0a7f 5d3d 552c 8c3e 76dc f13e
00000090: 66b5 c33b 6b5b 73be a130 37bd 114b 8dbe
000000a0: 5848 fa3e c358 98bf 525a c1bc a5e5 53be
000000b0: 0b92 4fbe b629 08bf bbcb 87be aa62 573f
000000c0: 3d55 5dbe c827 31bd 3b80 a5be 4da1 b7be
000000d0: c77f 38be fe9e 62be 08d1 7fbe 149c 1e3d
000000e0: 4c28 a7be f057 8abe 7279 86bd 88cd 00be
000000f0: e195 4ebe 82cf fd3d 2eae bf3e e5de 963c
00000100: 5411 60be 8edb 5d3e 2b02 4abe e9e2 13be
00000110: 8153 42bd ff70 de3c 05c9 d5be b606 b43e
00000120: 6850 6cbe 6f46 b5be 076b 5cbe 060c e0bd
00000130: e63e 6cbe 6163 52be 5615 1bbe b700 5c3e
00000140: e14d 9ebe 584e b73e b014 4cbe d545 8cbe
00000150: 3a12 72be cf04 38be 77c7 a4be 115f 28be
00000160: f36e 593e 64c9 b7be c24f 50be 9e2c cfbe
00000170: ac91 5fbd 3581 013e dc7e a0be 4b6d 653d
00000180: bfbf 223f 0c20 953c ecc9 5f3e 3a4f d33d
00000190: 9202 0d3d e452 4ebe 8e89 01bf 7fcb 9ebe
000001a0: 83fe 193f 3c05 a1bf 0f15 6f3c 32bd 18be
000001b0: a2d4 6fbe 258c c5be f889 cebe a8f7 ef3e
000001c0: a5d8 2fbe 36e0 bdbc ae09 bdbe bdf7 bebe
000001d0: 9af9 44be cd8c 3fbe ee0f cfbe f7fe 31bc
000001e0: 4f90 97be e8b8 e9be 047b 06bd 0daf c3bd
000001f0: 1698 2bbe f622 cebc 61e6 c43d 6d67 abbd
00000200: 0cd8 48be cdb2 5a3e a1f7 12be 4c61 45be
00000210: b4b0 55bd 8d4b aa3e f61b 99be 18ff 9a3e
00000220: 0705 a4bd 0725 c4be 423b 5ebe deeb 32be
00000230: 6874 95be 939d a8be d3dd 62be 2433 ec3e
00000240: ddb7 7dbe 0ab4 9d3e e92a 8fbe aecd 7abe
00000250: 31c1 23be 809a 68be eb87 ffbe edf6 dbbe
00000260: 14f9 a13e 8b46 acbe 9d87 86be cc3d 0dbf
00000270: 37e1 2abd 9474 873d e7aa a9be dc4f 4f3d
00000280: 4336 c23e 90b0 4e3d 7ddc e03e abf7 323e
00000290: 80ce 0d3d fbbc 84be af85 d5bd 54a1 6bbe
000002a0: 8bfc 193f 5774 533e 02b8 0d3d 6887 6fbe
000002b0: 48c7 55be 2dc0 c3be 09c6 75be 53b8 333f
000002c0: 1d04 80be 87a9 dfbc fe8d b9be ccbe c1be
000002d0: 434a 94be 42d7 5cbe f3b0 85be a15f 5c3c
000002e0: a0c3 9cbe 3295 80be 4ea7 bebc eb52 51be
000002f0: 2c60 2cbe 9419 53bc b19d d43e 80a6 3d3e
00000300: 06cb e2be ff9b 2a3e e3ec 51be 3aee 5cbe
00000310: c703 7b3c 0710 043e 511f a1be 0c7f 2e3d
00000320: 20f5 8ebe 7fe8 b7be 16b0 58be f7e9 19be
00000330: 18a7 1abe f5e0 d8bd c1c2 2bbe 8930 833e
00000340: 949c 94be 6129 7b3e 2b9b 72be 904c 8dbe
00000350: 071d 58be 0302 23be 6bbf d0be d9cc 2abe
00000360: 1f43 393e 4331 b4be 35f2 53be 429c 09bf
00000370: f572 9c3b 2c6d 97be 2587 f2be a098 543d
00000380: be0e 543e c37d eebc a51f 413e fb02 123e
00000390: 939a edbc 7211 91be 43b1 46bd 0cda b3be
000003a0: ed6d 893e 7f54 69bf b234 e63c fd5c 6abe
000003b0: ae96 20bf 2587 3ebf 8f18 64be 12ed cdbc
000003c0: b8d3 97bd d50f 273c 42e7 aabe 49a2 b0be
000003d0: f892 51be 3527 e4bd 1843 9fbe 232f dcbb
000003e0: 6fa5 4abe d26d 6dbe cb94 64bd 3c0e 02be
000003f0: 40a0 9dbd 7db2 19be 7cdb 823d 55ce 4e3d

fc4.bias f4 [12]
0.12155867 -0.36344796 -0.27796504 -0.060126003 0.1659039 -0.009753996 0.1529523 -0.12507485
-0.1318438 -0.08958568 -0.19565445 0.25603884
00000000: c1f3 f83d da15 babe 6f51 8ebe af46 76bd
00000010: b6e2 293e 39cf 1fbc 879f 1c3e 9f13 00be
00000020: 1002 07be b278 b7bd a459 48be 8617 833e
