models/model2.pt (torch, 16756 bytes, 8 tensors)

fc1.weight f4 [16, 5]
00000000: 19cf 35be 6b5d 493e 8d4b 8b3d 5555 6bbd
00000010: a319 bdbc 2ab8 02be bc04 033e d37a 573e
00000020: 1b4a cabd ee1a 9e3d 6dbf f1bb d055 883d
00000030: 7833 4e3e 8aee 39bc 5714 8ebe f50a 8c3d
00000040: 3fc6 98bd 2abc 64bd 10e8 94bd 768d 533d
00000050: 6000 94be 4e6f c03e 7416 69be 3664 b93e
00000060: f71f c9bd 608c 09be 07f5 723e 5130 663e
00000070: 218e 2abe 468a 82bd bfcd dabd d470 4f3e
00000080: d22b b33d cf49 23be 86de 1c3e 8a16 71bd
00000090: f684 543d 08b8 0bbd a7d2 b33d 403d 17be
000000a0: 5aaa 1dbe c6ef 363e 4282 a4be b73c cd3e
000000b0: c344 783d 2bf4 013f c297 a7be 1bed 713e
000000c0: 7be3 323e 852e 813d c30a 33be b91d 283e
000000d0: d822 73bd 1d67 9b3d 05c8 503e 20fe cf3d
000000e0: 9e72 cbbd 3dc4 ed3c 1364 bebd 1d0d 92bd
000000f0: 9a2a f5bd faa0 943e 5284 9ebd bdbc 6a3e
00000100: 96e5 febd 6a41 5fbe 45aa 713d 569e 9ebd
00000110: d736 453e bf51 52bd a6dd 913e dd97 7fbb
00000120: 36fd 513b 63e4 7d3e 7fae 2d3d 3671 8f3e
00000130: ca40 2abe 1937 d73e 2d45 79be 91bf 583e
-0.17754783 0.19664542 0.068015195 -0.057454426 -0.023083514 -0.12765566 0.12794775 0.21042947
-0.09877416 0.0771998 -0.007377556 0.066569924 0.20136821 -0.011348376 -0.27749893 0.068380274
-0.074596874 -0.05584351 -0.07270825 0.05164858 -0.28906536 0.3758492 -0.22762471 0.36209267
-0.0982055 -0.13432455 0.23726283 0.22479369 -0.1665578 -0.0637403 -0.10683774 0.20257884
0.087485924 -0.15946124 0.15319261 -0.058859386 0.051884614 -0.034111053 0.08780413 -0.14769459
-0.15397015 0.17864904 -0.3213063 0.40085384 0.06061245 0.50763196 -0.3273297 0.23625605
0.1746959 0.06307701 -0.17484574 0.16417588 -0.0593594 0.07588027 0.20388801 0.10155892
-0.09933971 0.029024238 -0.092964314 -0.071314074 -0.11971016 0.29029065 -0.07740082 0.2292356
-0.12446134 -0.21802297 0.059000272 -0.07745044 0.19259201 -0.05134749 0.28489417 -0.003900043
0.0032041795 0.24794154 0.04240274 0.2801606 -0.16626278 0.42034224 -0.24342795 0.21166827

fc1.bias f4 [16]
00000000: 2e57 bcbd cc42 5d3c 2366 25bd 60cf b13d
00000010: f01a 333e fa95 00bd 8aae bfbc a8b0 d83b
00000020: daee 243e df3e 893d 3d00 193a 0ee1 8dbd
00000030: fbc4 d83d b186 343e 1333 6f3d 248e 7d3d
-0.09196316 0.013504695 -0.04038061 0.08682132 0.17490745 -0.03139303 -0.023398656 0.006612856
0.1610674 0.06701445 0.00058365223 -0.069276914 0.10584446 0.17629506 0.058398318 0.061903134

fc2.weight f4 [32, 16]
00000000: 1339 b13e f24b a5bd d78f 04be 590d 45bb
00000010: ef40 8c3d bb84 2ebe c557 9e3d 3ba4 893e
00000020: 6466 dc3e 7b53 d83d deb8 3e3e 6aaf 793b
00000030: 05f4 8b3d 4214 dc3e 4a25 c73d 67ca c93d
00000040: d698 2d3f 6754 603c 6ace 08bc c15a 95bb
00000050: 9350 c73c 32a7 48be 6d24 a9bc 1300 853e
00000060: e728 413e 2d6f d93d cf5a 853d fcbe c43c
00000070: 196b cbbd 57ec b63e 9359 4a3d 3c30 b93d
00000080: 581c 293f c6ae dabe 089e 6b3d f180 023c
00000090: 176d 9c3e 399e 05bf 63a0 d8bd 4392 0e3f
000000a0: ac2b 333f 14bc 64bd de1a a13d 77de 043d
000000b0: 939f 1d3e 47ab dc3e 0004 063e 7ca6 3bbe
000000c0: 58b8 073f d9cf 833d 9374 8b3d 6344 6cbc
000000d0: 28a6 123e 9b49 ec3d 7fb6 8c3d 09e2 593d
000000e0: ddcf c13e a7ba 103d d957 f23c c48c 3e3d
000000f0: 640d 2f3e df85 db3e bfee 983d ef6a fb38
00000100: 687c 463f 769c 94bd f5f8 383e 0529 823c
00000110: 90cb fc3c 2877 9abe 050f 84bd 8937 9d3e
00000120: 8ac9 ae3e db3c 863d 36cf f03c cd16 4dbd
00000130: 2b5e a9bb 6ca6 bd3e 068e 023e c55b 0c3d
00000140: f602 313f eb69 ae3c a478 ba3d 005c 37bd
00000150: dd0d acbc f735 a2bd 999c 783a 2211 323e
00000160: efc4 043e 63f1 463c a6e7 a63d 8357 aa3a
00000170: 0fde 3b3d 7240 d23e e4e2 e23d daf5 c03d
00000180: a7e4 34bf 9288 6e3e cb6c 98be 55f8 96bc
00000190: 3d7e 2a3e 47f3 983e f6a2 0d3e ea9b 53bc
000001a0: 2b66 9a3d 5d98 7fbd 75b9 d83d e336 403d
000001b0: bd27 153e ec7f 0abf f652 15bd 88ab 503c
000001c0: c08a 2f3e 161a 24bd 7409 923e 16d3 5d3d
000001d0: c63a c9be 53ca 5cbe 9aef b4bb ab81 d23d
000001e0: 7af1 8fbe 82d7 273e 0f73 5bbc cade 6cbd
000001f0: c2dc 5dbe 28cb 91be f349 023b 9b73 5c3e
00000200: a81f 53bd 1fd2 b63b 3afd 3e3d 371c 8d3b
00000210: 96b5 1d3c f83d 51bd 7569 3ebd a8f5 07bd
00000220: 9b6e 20bd 907e 06bd 6b8e c2bc 9cb6 063d
00000230: c7c8 633d 62d3 27bc 0001 18bd 80e2 0abd
00000240: 67ed 303f 89f7 283e 18bb f63e 995f b73c
00000250: 4196 ed3e d9a9 4d3e 8ac1 113e 2171 a13e
00000260: 9789 033f 49ca 4a3e 5e7c 8a3e b181 ffbc
00000270: 9e3a db3e 2589 bd3e eb6a b93e 6c9a 2b3e
00000280: 0632 083f 5ba7 e43d c2c6 793e d793 dd3c
00000290: 617c 2cbe 9894 ddbc 8c1e 54b8 de87 a53d
000002a0: 780a f7be 482b cf3d d3bb 2ebd ed59 393d
000002b0: a5dd b4bd 6c9a 0bbe ea82 f53c f916 413e
000002c0: d30d 483f 2d35 c03d ec3d c43d 4b6e 3abc
000002d0: f390 e73d 6f2b 463b 05d4 c03c 206d 3a3e
000002e0: 34fd 803e 5243 213e b6f8 b23c 8c4a 3b3d
000002f0: 52ce 793d a92d ca3e 65ea 123e ae27 363e
00000300: b7a2 113f b7a4 ad3d 887c 3a3e 7fda 093d
00000310: a1ea 053e 757c 503d 1744 143e 8cbb 3b3e
00000320: b729 d13e 90de 1dbe f4bd 0e3e b905 5f3d
00000330: 758c 003e cbe3 b83e 3da3 24bd bf97 ffbd
00000340: dc09 4b3f 88f9 a83e ea65 633e 4db0 a83b
00000350: 3b87 ed3d 2a25 8c3e 60a5 533e 521d b63d
00000360: 866f 003e 46d6 37be 4924 883d fec4 dcbc
00000370: 7308 9b3d 6c9d b93e ace4 36bd aff9 a0bd
00000380: d884 a43e 05d8 cf3d 9dfb a4bd 2963 25bd
00000390: 52b0 4f3e 49b2 a3bd 6f45 55bd 501a 853e
000003a0: 3a35 ed3e 8967 74bc 2a60 ba3d de7c d0bc
000003b0: 4ddd 0c3e 0ce0 e33e bee0 743d e89f 0bbe
000003c0: ee6c dc3e 6da1 7e3e 5717 323d 40e7 143d
000003d0: e28b 313e 1796 45bd 44f7 643d 2bef 973e
000003e0: f8f8 de3e 19b3 da3c 1f6b fc3d a090 053d
000003f0: 3392 c03d 9054 cf3e 9613 653b 58d3 193d
0.34613857 -0.08071126 -0.12945496 -0.003006777 0.068483226 -0.1704282 0.077315845 0.2688311
0.43046868 0.10562798 0.18625209 0.003809894 0.068336524 0.42984205 0.09723909 0.09853058
0.67811334 0.013691998 -0.008349994 -0.004557938 0.024330413 -0.1959503 -0.020647252 0.2597662
0.1886326 0.10616908 0.06511461 0.02401685 -0.09932537 0.35727188 0.04940183 0.09042403
0.66058874 -0.42711467 0.057523757 0.007965312 0.3055198 -0.52194554 -0.10577466 0.5569193
0.69988513 -0.055843428 0.07866453 0.03243872 0.15392904 0.43099424 0.13087463 -0.18325227
0.5301566 0.06436128 0.06809344 -0.014420602 0.14321196 0.11537477 0.06870746 0.05319408
0.378539 0.035334256 0.029582905 0.046520963 0.17094952 0.42875573 0.07467412 0.000119885306
0.7753358 -0.07256405 0.1806372 0.0158887 0.030858785 -0.30169034 -0.06448177 0.30706432
0.34138137 0.06554576 0.02939568 -0.050070573 -0.0051686964 0.37041032 0.1274949 0.034267206
0.69145143 0.02129074 0.091050416 -0.044765472 -0.021002704 -0.07920449 0.0009483784 0.17389348
0.12965749 0.012142512 0.08149652 0.0012996051 0.04586607 0.41064793 0.11078432 0.094218925
-0.70661396 0.23294285 -0.29770502 -0.01842896 0.16649719 0.29873106 0.13831696 -0.012915591
0.07539018 -0.062401164 0.10582248 0.046927344 0.1456594 -0.54101443 -0.03645607 0.012736209
0.17142773 -0.04006394 0.28522837 0.054156385 -0.39302653 -0.21561556 -0.005521727 0.102786385
-0.2811392 0.16390803 -0.013394131 -0.057829656 -0.21666244 -0.28475308 0.0019880503 0.21528475
-0.05154386 0.0055792476 0.046628214 0.004306342 0.009625813 -0.05108449 -0.04648729 -0.03319326
-0.03916798 -0.032835543 -0.02374955 0.032888994 0.055611398 -0.010243269 -0.03711033 -0.033907413
0.6911225 0.16500677 0.48189616 0.022384452 0.46403697 0.20084323 0.14233986 0.31531623
0.5138182 0.19803728 0.2704801 -0.031189771 0.4281816 0.37018695 0.36214384 0.16758126
0.5320133 0.11164733 0.24392226 0.027048035 -0.16844322 -0.027048394 -5.0573188e-05 0.08082555
-0.48250175 0.10115677 -0.042659592 0.045251776 -0.08831338 -0.13633126 0.029969651 0.1885642
0.78146094 0.093851425 0.09582123 -0.011378835 0.11306944 0.003023829 0.023538599 0.1820569
0.2519318 0.15748337 0.02184711 0.04572539 0.060987778 0.3948796 0.14347227 0.17788574
0.5688891 0.084786825 0.18211567 0.03365564 0.13077785 0.05089994 0.14479099 0.18333262
0.40852138 -0.15416932 0.13939649 0.054448817 0.1255358 0.36111292 -0.04019474 -0.12480115
0.7931192 0.33002877 0.22206846 0.00514797 0.11598059 0.27372104 0.20668554 0.08892311
0.12542543 -0.17952833 0.06647546 -0.026949402 0.07569971 0.36252916 -0.044651672 -0.07860123
0.32132602 0.10148624 -0.08055804 -0.04037777 0.20282105 -0.079929896 -0.05206817 0.25996637
0.4632967 -0.014917263 0.09100373 -0.025450166 0.13756295 0.44506872 0.059784643 -0.13635218
0.43051857 0.24866267 0.04347929 0.03635335 0.17338517 -0.04823884 0.055899873 0.29674658
0.43549323 0.026696729 0.12325119 0.03260863 0.09402885 0.40494204 0.00349543 0.03755507

fc2.bias f4 [32]
00000000: 14e8 163e 1981 aa3d bbc5 003d a049 803d
00000010: 7147 a63d 05f2 ed3d 1bb5 8b3d 2dfe cc3c
00000020: 694c b83c 98a4 c03e 42c6 50bd f543 893e
00000030: 0dcf 483d e248 e33c 785d bc3c 3d0a 073e
00000040: a266 963d b4a4 993e c83a 363d d51f 273d
00000050: 0479 393e bb5c 3c3e 96b0 183e 6556 953e
00000060: c413 363e c63f 103e 96f5 893d c609 2e3e
00000070: 85bc ff3d 2131 813d bc6c 5b3c 750d 36bd
0.14736968 0.08325405 0.03143857 0.06264043 0.08119095 0.11618427 0.068216525 0.025023544
0.022497373 0.37625575 -0.050970323 0.2680966 0.049025584 0.027744714 0.022993788 0.131875
0.073437944 0.3000847 0.044489652 0.04080184 0.1811257 0.18394749 0.14911112 0.29167476
0.17780977 0.14086828 0.06736295 0.16995916 0.12487129 0.06308199 0.0133926235 -0.044446427

fc3.weight f4 [64, 32]
00000000: 1a8a ebbc 4eb2 d3bc 6878 32bd 638d 4abd
00000010: 9049 38be 6782 78bb 6bf5 363e e5d2 9b3e
00000020: 3298 fdbc 0d76 9abd af8d c73e 0809 1ebd
00000030: 9251 7b3e f64e 643f 3f38 6abd 8a15 af3d
00000040: cd2b ea3d a210 053d f130 54bc 0e05 d83b
00000050: fc97 ac3d fdb9 c7be d0af 3abd eeea 1c3d
00000060: f53b 5cbd 08de c8bd 78c6 803e ed79 2dbe
00000070: 6db2 853d 835a 463d e0e3 eabb 5734 713c
00000080: 0f61 7b3d 2340 8a3d d545 893e c8e2 8f3c
00000090: 18e5 263e 9077 9c3d 81d8 20bd 1a26 ac3f
000000a0: 3bec 90bc 5fbf 9c3d f489 553f 6edb a43d
000000b0: 236b 803f 3331 a13f 7f8f 87bb 9f76 863d
000000c0: b863 ca3d 760d d33d e87d c2bc bb9e 47bc
000000d0: 71e2 b73d 8d56 9e3f f36a 813e 0f56 873d
000000e0: 5c6c f23d 1660 af3e 22ff 4d3f 6026 1e3e
000000f0: e5c6 ac3d a420 dabd 0924 a03e a1dc 433c
00000100: 0d1c 3f3d 8d7c b03d 4bd5 bf3e d178 f03c
00000110: ce1b 273e a8ae 083e 54a6 47bd 6516 bd3f
00000120: be8a 25bd ed0b 9f3d f2d5 683f 4332 8f3d
00000130: 50cc 3c3f 2249 6d3f 0246 f53c 7847 033e
00000140: d912 c93d 7b2b 9e3d cfc0 833c 1c90 b2bc
00000150: 6e60 ac3d bdd6 893f 5a09 a63e 9ff1 ac3d
00000160: a9f0 3e3d 6030 ef3e bc6f 3c3f deb2 383e
00000170: 3857 3c3d 3842 b1bd ac5b 9d3e e594 f73c
00000180: 08a2 c83c c70b 01bc 8e33 e3bc fc4f e7bc
00000190: a3b3 adba c39a a138 cee3 00bd 7a01 e93b
000001a0: 5970 183d a421 d0bc 54e5 bfbc a599 a63c
000001b0: ca15 aabc 7d33 abbb 7a60 1fbb f8e1 483b
000001c0: 1aac cc3c 6214 c8bc 0b9e 26bd e86d 49b9
000001d0: f3d9 863b 085c 77bc 1b09 103c 9838 b93a
000001e0: 3226 99bc 353f b73c 20a4 41bc 6f26 033d
000001f0: e044 96bc b6dc 16bd 6219 0dbd 3b45 e03b
00000200: db20 4b3d 6309 ea3d 7976 f63e be6f 933b
00000210: 9d82 e93d 0416 b43d ea17 74bd 8193 b23f
00000220: 4611 1b3c 963c 923d 941b 683f af97 803d
00000230: a424 4e3f b388 933f e0ca cb3c 5de3 833d
00000240: 644c 8b3d bd92 db3d e3ab 183d 7167 823c
00000250: b9ab f23d 585c 8d3f 52b0 c03e 89ac af3d
00000260: 3893 e83d 197a df3e 0444 4c3f 4972 0a3e
00000270: 415a 7e3d 7ed0 c0bc 1484 bc3e 1c92 0d3d
00000280: 0a99 cdbc 4ee9 37bc 6e67 8b3e 5141 8e3d
00000290: bcbb 8fbc ef93 2a3d dc12 4d3e ce06 75bf
000002a0: d925 01bd ec4d ad3d 64e8 c83d 049a c13b
000002b0: 1276 8b3e d1e2 2f3f e1c0 113e 3628 e23d
000002c0: cc1c 18bd 68ee 6cbc 7eba 66bc 31dc 0f3d
000002d0: 5dfa 463c 44cb ddbc 56ea 33bd 8eb4 afb8
000002e0: 0797 0a3c 597e a0be 2623 c93e 6a9a c93d
000002f0: 0e4c 363e ef2c 373e 40e9 f9be 7a81 15bc
00000300: eb72 e83c f191 9a3c 6cef 4d3c 9894 01bd
00000310: c4c0 2cbc cc0b e6bc 1f2e f5bc 2f94 43bc
00000320: 003c 1b3b 9701 103d 8f55 96bc 1b01 5cbc
00000330: 19a0 143d b017 523c f46c d4bc 68cc 1d3c
00000340: 8178 21bd 83e6 1ebd f000 e5bc 1dde 133b
00000350: 6e4e 00bd 215a e9bb d616 5dbc ea47 1cbd
00000360: 9182 3c3c bb69 113c 9861 9d3b dccc 07bd
00000370: d3e4 71bc 1f10 183d c6c1 98bc 7f62 6c3c
00000380: 7074 943d c15d 133e 644d d43d 006a 4abb
00000390: 3d74 bd3d f1ba b53d b817 8cbd c447 b93f
000003a0: 8e7b a5bc bef1 3e3c 7bf8 3a3f c0cc c13d
000003b0: 4b69 093f 9738 433f 4017 9abd a670 e53b
000003c0: b47c ba3d 26ba c53d 9190 083d 51b8 8fba
000003d0: bbac 433d b617 573f c433 393e ba21 ed3c
000003e0: f99a 103e 72f6 6d3e 3898 693f 7d14 50bd
000003f0: a5eb b7bd 2328 05be 16db 743e 9526 e2bc
-0.028752375 -0.025841858 -0.04357186 -0.049451243 -0.17996812 -0.0037919523 0.17867057 0.30434337
-0.030956361 -0.07542048 0.38975284 -0.03858283 0.24542835 0.89182985 -0.057182547 0.0854903
0.114341356 0.032486565 -0.012951122 0.0065923994 0.08427426 -0.39009085 -0.045577824 0.038309984
-0.053768117 -0.09807974 0.2515142 -0.16941042 0.06528173 0.048426162 -0.007168278 0.014721951
0.06137186 0.06750514 0.2681109 0.017564192 0.1629833 0.07639992 -0.039268974 1.3449128
-0.017690768 0.07653689 0.83413625 0.080496654 1.0032696 1.259314 -0.004136979 0.06565594
0.09882301 0.10305302 -0.023741677 -0.01218384 0.08978737 1.2370163 0.25276908 0.06608211
0.11837074 0.34252995 0.80467427 0.15444326 0.084363736 -0.10650757 0.31277493 0.0119544575
0.04665761 0.08617506 0.37467417 0.029354485 0.163192 0.13347876 -0.048742607 1.4772459
-0.040415518 0.077659465 0.90951455 0.069920085 0.73749256 0.92689717 0.029940609 0.12820232
0.09818048 0.07723137 0.01608315 -0.021797232 0.0841683 1.0768658 0.3242901 0.08444523
0.04661623 0.46716595 0.73607993 0.18036982 0.045981616 -0.08655208 0.30734003 0.030222366
0.024491325 -0.007876343 -0.027734544 -0.028236382 -0.0013252388 7.705905e-05 -0.03146725 0.0071107717
0.037216518 -0.025406666 -0.023424782 0.020336935 -0.020762343 -0.0052246437 -0.002431898 0.0030652266
0.024984408 -0.024423782 -0.040678065 -0.00019209797 0.004115337 -0.015097626 0.008791233 0.0014131246
-0.01869497 0.022369007 -0.011818916 0.032019075 -0.018343389 -0.03683158 -0.034448035 0.0068441904
0.04959188 0.114275716 0.48137262 0.0044994047 0.11401866 0.08793262 -0.05959312 1.3951265
0.0094645675 0.07140462 0.9066708 0.06278931 0.8052466 1.1526092 0.024877012 0.064398505
0.0680168 0.107213475 0.0372733 0.015918465 0.1184916 1.1043806 0.37634522 0.0857783
0.11356205 0.4364784 0.79791284 0.13520159 0.06209779 -0.023536917 0.36819518 0.03456317
-0.025097389 -0.011225058 0.27227348 0.06946052 -0.017545573 0.041644987 0.20026726 -0.9571351
-0.031530235 0.08462128 0.0980995 0.0059082527 0.27238518 0.6870547 0.14233734 0.11042826
-0.037136838 -0.014461137 -0.014082549 0.0351221 0.012144652 -0.027074464 -0.043924652 -8.378281e-05
0.008458859 -0.31346396 0.3928463 0.09843905 0.1780245 0.17888235 -0.48810768 -0.009125108
0.02837511 0.018868418 0.01256929 -0.03163585 -0.010544006 -0.028081797 -0.029929219 -0.011937185
0.0023686886 0.035157766 -0.018351344 -0.013427998 0.036285494 0.01282303 -0.02593086 0.009631254
-0.039421562 -0.03879405 -0.027954549 0.002256281 -0.031324796 -0.00712134 -0.013494214 -0.03815452
0.011505739 0.008875306 0.004802894 -0.033154353 -0.014764029 0.03712475 -0.018647086 0.01442778
0.07248771 0.14391233 0.103663236 -0.0030885935 0.09250686 0.08873547 -0.068404615 1.4475026
-0.020200517 0.0116543155 0.730354 0.09462881 0.5367629 0.76258224 -0.07523966 0.007001954
0.091058165 0.096546456 0.033340994 -0.0010964965 0.04777215 0.84020555 0.18086153 0.028946746
0.14121617 0.23238543 0.9124789 -0.05080079 -0.089804925 -0.13003592 0.239117 -0.027606288

fc3.bias f4 [64]
00000000: 9116 d53d 38e4 e33d 26fa 983d 2080 d33c
00000010: 1ba5 1a3e 7749 623e 7d0f e33c 5b3d d13d
00000020: 71e1 113d c28d 433e 2416 de3d 8b83 82bc
00000030: b683 38bc 72d3 8dbd 636e 273e 00be 153e
00000040: 8ba7 d53c 59b2 193e 5ed2 013e 3c7e 183c
00000050: d291 1f3d 0357 243e 69a8 963c 89ab 513d
00000060: 3c69 863d c7f1 d53d 178b 093e c24a d7bc
00000070: a317 19bd 7a00 053e d3f3 02bd 676b 953d
00000080: f41a 163e e639 1cbd 1cd0 1d3e 8ab0 1d3d
00000090: 5f34 e43d d9fa 323e 0746 083d 0ac1 f2bc
000000a0: 385f 8e3c 8a60 98bc 1b65 d23d 6b14 c53c
000000b0: 329e cb3c 0f86 063e 5551 fd3d 2a2a 7a3c
000000c0: a880 123d 5750 123e 9c4e 5a3e 6658 59bc
000000d0: e5e8 c5bc 9d3b b73c 22a9 d53d f537 2d3c
000000e0: 27d1 1d3d d57c 75bc dfc7 953d c74b 0b3e
000000f0: 32a1 f8bc 8668 893b 6bf5 c23d f11b ed3d
0.10404695 0.11127514 0.07469587 0.02581793 0.15102045 0.22098337 0.027717346 0.10216781
0.03561539 0.19097045 0.10844067 -0.015931865 -0.011261871 -0.069250956 0.16350703 0.1462326
0.026080867 0.1500944 0.12677905 0.00930744 0.038957424 0.16048817 0.018390851 0.05118898
0.065630406 0.10446506 0.13431965 -0.026280764 -0.037376057 0.12988463 -0.03197081 0.07295876
0.1465872 -0.038141154 0.15411419 0.03849844 0.111428015 0.17478503 0.03326991 -0.029633064
0.017379388 -0.01860072 0.102731906 0.024057588 0.024855707 0.13137077 0.123690285 0.015268842
0.035767227 0.1428846 0.2131905 -0.013265705 -0.024158904 0.022367293 0.1043265 0.010572423
0.03852954 -0.014983376 0.07313513 0.13603126 -0.030350301 0.0041933684 0.09519466 0.11577595

fc4.weight f4 [12, 64]
00000000: fdae 5f3d b644 74be 6aeb 6ebe 1de9 b2bc
00000010: 82bd 80be 29f3 38bc ced9 503b 4132 99be
00000020: d82f 9b3c 31a5 63be 2aff 5bbe 5dbd 32be
00000030: 7838 a5be afd0 8bbe 4614 5cbe 29d0 8bbe
00000040: befe 70be 7cb2 6dbe 49f7 8fbe 9faa eebb
00000050: 4149 a83e 0413 75be 5270 b43c f0f7 73be
00000060: 41fb 7fbe 3dca aa3e b4ed 93be c9e2 4a3d
00000070: c5f6 0a3b 4285 6abe 31b9 823c af29 b63e
00000080: a925 96be a37f a9b9 bff4 65be fd1e bf3c
00000090: a9a1 60be 42d3 8cbe 8aa0 c8bc f48e 3dbf
000000a0: 0220 d93c d5e2 743c af3a 9abe 6289 4c3c
000000b0: 21f2 0fbc 142f 79be 2597 63be 5f21 ad3c
000000c0: c2af 91be a020 56be 664f f23d 6e80 f939
000000d0: c480 923c 9294 5abc 60b5 043f ead6 26bc
000000e0: 0df0 853c 3054 97bc afd7 c13e b45c 6abe
000000f0: 9374 a83c 8351 a03c ba15 b5be 0edc 99be
00000100: 0d89 b7bd 6a10 66be 9a7f 28be 85aa b13c
00000110: 84d8 5fbe 3ebc 3cbd 4918 023a de1e a2bd
00000120: 1edc 923a e572 8abe cd83 82be 88df 09be
00000130: a31a 8bbe b111 b6be b72b 67be 3924 5ebe
00000140: 8f8e 09bf 25eb abbe f3da 88be 28b5 2a3c
00000150: 0133 b33e 5328 26be e4a9 573c a40b 62be
00000160: 3f28 69be 8883 b33e 17c6 aebe 0a91 d13c
00000170: f053 bd3c 80b8 53be c0e3 2a3c b4dc ba3e
00000180: d911 72be 7380 b2bc 9a84 27be bc7f 73bc
00000190: b345 4ebe ce03 7cbe 9bc9 153c fa31 2fbf
000001a0: 7693 46bc 878b 15be 91c4 97be 99d6 bcba
000001b0: 885e eabb 3735 57be a05a 63be b831 75bb
000001c0: 5203 91be a1a7 71be 81c1 ab3e 6dbe 253c
000001d0: 34a6 53bc ccf5 d4bc 7eab 773e ca4e 6dbb
000001e0: c167 8d3c 3ebd d3bc 548a b43e 50b9 6bbe
000001f0: e8fd 5abb 960b e93c 725a a8be 2184 a2be
00000200: 1ff0 ab3e 4284 5abe 9a3e 38be e3fb 933c
00000210: ecc2 3fbe 5e45 b83e f77c 95bc 084b cbbe
00000220: 2d41 b33c a519 7ebe d9b2 46be cff4 86bc
00000230: d54f a0bf c0c0 0abf b4f9 22be 2b56 57be
00000240: 205a 58be 5a6d 44be 4b61 80be 25e1 82bc
00000250: f502 8f3e 750d 36be 5a38 cf3c 983f 65be
00000260: cf87 4cbe ea13 843e 6811 87be bc7c 4b3c
00000270: 2e59 633c 1408 19be 4878 7dbc e1e9 823e
00000280: 618d 71be af79 843c 67c3 58be fc04 6d3c
00000290: 0877 27be fbcf b7be 5383 a83c b47a d7bf
000002a0: d31a a73c 2575 6cbe 8510 8bbe 576c 94bc
000002b0: 409d c63c 035c 85be 21df 30be 510c 7c3c
000002c0: 9bf2 93be ab64 41be 1e55 3bbe a4f9 d73c
000002d0: 2434 c6bb 7373 debc f949 7c3e 2728 763c
000002e0: db46 393c de66 4ebc 8d1c 803e 795c 46be
000002f0: cb7a 993c ae33 e83a 3b03 c3be 43df 71be
00000300: 49c4 23bd 503d 4abe c14e 3ebe 6437 99bc
00000310: 7fb7 45be d185 7dbd 2e6d daba 046e 37be
00000320: 5da7 d93c 9535 64be c81e 44be 04a1 08bf
00000330: 89c0 bebf 2b8e 1dbf 4dfe 17be 1117 38be
00000340: 643d 01bf d65e 55be bf52 85be f788 8d3c
00000350: 5f61 a83e 54f3 c4bd 8fb1 693c 7b2a 55be
00000360: 6310 50be 1165 933e 7057 8abe 949c 213c
00000370: d2d2 fcbb 5040 4abe 42c6 a8bc b961 9f3e
00000380: fbcd 5abe 8e90 e7ba 8b85 08be d592 863c
00000390: 205c 36be 585e abbe fcdc 45bc b625 87bf
000003a0: ca2c cf3c 814b 7dbe 2502 94be 115d 4f3c
000003b0: d05e a43c cb62 57be 7fa1 2dbe 89bc 933c
000003c0: 79bd 41be 4e81 40be d01f 213e 3593 983c
000003d0: 6441 adbb 4f81 19bb abea ac3e 73e5 80bc
000003e0: f7e8 823c 6a6e e83c 775c 8f3e 34bc 37be
000003f0: 580b 5a3a 6300 acba e313 c6be 0c0c 8bbe
0.05461024 -0.23854336 -0.23331991 -0.021839673 -0.25144583 -0.011288443 0.0031868103 -0.29921153
0.018943712 -0.22230984 -0.21484056 -0.17455049 -0.32269645 -0.2730765 -0.21492109 -0.2730725
-0.23534676 -0.23212618 -0.2811835 -0.007283523 0.32868388 -0.23933035 0.022026215 -0.2382505
-0.2499819 0.3335742 -0.2889229 0.049532685 0.0021204215 -0.22902396 0.015957447 0.35578677
-0.29325607 -0.0003232929 -0.22456644 0.023330206 -0.21936668 -0.27504927 -0.024490613 -0.74046254
0.02650452 0.014946659 -0.30122897 0.0124839265 -0.008785755 -0.24334365 -0.22225626 0.021134077
-0.28454405 -0.20910883 0.1183155 0.00047588669 0.017883666 -0.013341086 0.51839256 -0.010183075
0.016349817 -0.01847276 0.37859866 -0.22886926 0.0205634 0.019570118 -0.3536814 -0.300507
-0.08961687 -0.22467199 -0.16454926 0.021687755 -0.21859938 -0.04607796 0.0004962725 -0.07916044
0.0011204516 -0.27040783 -0.2549118 -0.13464177 -0.2716876 -0.35560372 -0.2257527 -0.21693505
-0.5373315 -0.3357784 -0.26729545 0.010419168 0.3499985 -0.1622632 0.013163064 -0.22074753
-0.22769259 0.35061288 -0.34135506 0.025581855 0.023111314 -0.2067585 0.010430276 0.36496508
-0.23639621 -0.021789765 -0.16359177 -0.014861997 -0.20143776 -0.24610826 0.009142305 -0.68435633
-0.012120118 -0.14604007 -0.29642156 -0.0014407217 -0.0071523823 -0.21016394 -0.2220254 -0.0037413668
-0.28322846 -0.23599102 0.3354607 0.010116202 -0.012918044 -0.025996111 0.24186513 -0.0036210292
0.017261388 -0.025847074 0.35261786 -0.2301991 -0.00334155 0.028447907 -0.32881504 -0.3174143
0.33581635 -0.21339515 -0.1799263 0.018064445 -0.187267 0.35990423 -0.018248064 -0.39705682
0.021881664 -0.2481447 -0.19404162 -0.016474156 -1.2524363 -0.54200363 -0.15915567 -0.21028964
-0.2112813 -0.1918234 -0.2507423 -0.015976498 0.27931944 -0.17778571 0.025295425 -0.2238754
-0.19973682 0.25796443 -0.26380467 0.012419876 0.013876243 -0.14944488 -0.015470572 0.2556906
-0.23589088 0.016171305 -0.2116829 0.01446652 -0.16354 -0.35900864 0.020570433 -1.6834321
0.020398533 -0.23091562 -0.2716104 -0.018118067 0.024244905 -0.26046762 -0.17272617 0.015383796
-0.2889603 -0.18886058 -0.18294188 0.026364155 -0.006048696 -0.02715466 0.24637593 0.0150242215
0.011308397 -0.012597768 0.25021783 -0.19371213 0.01873531 0.0017715597 -0.38088402 -0.23620324
-0.039982114 -0.19749951 -0.1858473 -0.01870317 -0.1930828 -0.061895195 -0.0016664618 -0.17913061
0.026569063 -0.22286065 -0.19152367 -0.5337069 -1.4902507 -0.61545056 -0.14843102 -0.17977549
-0.504843 -0.20836958 -0.26039693 0.017277224 0.32886788 -0.09616724 0.014263525 -0.20816986
-0.20318751 0.28788045 -0.27019835 0.009863991 -0.0077155614 -0.19751096 -0.02060235 0.31129244
-0.21367638 -0.0017666982 -0.13332193 0.016427437 -0.1780858 -0.33470416 -0.012076613 -1.0558383
0.025289912 -0.24735834 -0.28907886 0.012656466 0.020064741 -0.2103378 -0.16956137 0.018034237
-0.18919934 -0.18799326 0.15734792 0.018624881 -0.005287336 -0.0023423021 0.33772787 -0.01573441
0.015980227 0.028372962 0.28000233 -0.17942888 0.00083177304 -0.0013122674 -0.38687047 -0.2715763

fc4.bias f4 [12]
00000000: 5899 323d 953d a8bd 63ba 80bd 2ace 503c
00000010: 9731 90bb 2231 8bbc 08f5 8bbd 7d6b 03bd
00000020: 33b5 86be 6884 8b3b 050b 86bd ba88 203e
0.04360327 -0.08214871 -0.062855504 0.012744466 -0.004400443 -0.016991202 -0.068338454 -0.03208493
-0.2631012 0.0042577274 -0.065450706 0.15677157
