models/model3.pt (torch, 16756 bytes, 8 tensors)

fc1.weight f4 [16, 5]
0.4220402 -0.04344008 0.0060168016 -0.04610575 0.11455214 -0.017802913 -0.08135994 0.3497776
-0.23536624 0.115108185 0.27087533 -0.08714138 -0.015303826 -0.04062205 -0.02215271 0.075250834
-0.086007625 -0.18970549 0.22715183 0.12307106 0.010731884 -0.034540597 -0.033468354 -0.094317295
0.0027209346 -0.03226031 0.07666951 0.13523825 0.27768302 -0.22993383 -0.065166704 0.26262972
0.14236172 0.091794275 -0.17975627 0.06918477 0.1853135 -0.08971605 -0.15911204 -0.02241824
0.0040433905 0.050316293 0.3671584 0.16045582 0.11458012 0.109168075 -0.14525424 -0.14103515
0.18554987 -0.01057454 -0.1718181 0.15045828 -0.16351382 0.14896719 0.022826875 0.06585273
-0.005673977 -0.08130085 -0.05470765 -0.14606933 -0.10193665 0.33230236 -0.11182361 -0.0072394204
0.06664512 -0.05286441 -0.026697682 -0.08037749 0.044535633 0.04470106 -0.016689202 -0.0011044632
-0.056608945 -0.0705223 0.0422452 -0.051644683 -0.0066138734 -0.032293662 -0.043160394 -0.011022526
00000000: a715 d83e 3aee 31bd 9728 c53b 62d9 3cbd
00000010: 509a ea3d 6ad7 91bc 0aa0 a6bd 0d16 b33e
00000020: d903 71be d7bd eb3d 2cb0 8a3e 2e77 b2bd
00000030: e6bc 7abc 4f63 26bd 9a79 b5bc 1c1d 9a3d
00000040: c424 b0bd 2842 42be 7d9a 683e ae0c fc3d
00000050: c9d4 2f3c 717a 0dbd 1d16 09bd 6d29 c1bd
00000060: b551 323b 6323 04bd e704 9d3d e57b 0a3e
00000070: 782c 8e3e c673 6bbe 1f76 85bd 6777 863e
00000080: 45c7 113e a3fe bb3d 0712 38be bfb0 8d3d
00000090: d2c2 3d3e 0cbd b7bd 44ee 22be 75a6 b7bc
000000a0: 6b7e 843b 7518 4e3d 30fc bb3e 884e 243e
000000b0: fba8 ea3d 8393 df3d 87bd 14be 856b 10be
000000c0: c900 3e3e d640 2dbc 16f1 2fbe bc11 1a3e
000000d0: 2b70 27be db8a 183e 6dff ba3c ccdd 863d
000000e0: c5ec b9bb 0f81 a6bd 2115 60bd 3393 15be
000000f0: 2ac4 d0bd 8923 aa3e c703 e5bd a938 edbb
00000100: 3d7d 883d 5a88 58bd 19b5 dabc f49c a4bd
00000110: ff6a 363d 7518 373d cbb7 88bc a3c3 90ba
00000120: c8de 67bd ff6d 90bd 4e09 2d3d 6089 53bd
00000130: 31b9 d8bb 5c46 04bd f4c8 30bd d397 34bc

fc1.bias f4 [16]
-0.12755778 -0.028695779 -0.11017777 0.014634412 0.019129314 0.11498307 0.21622646 0.13688
0.16155533 0.06532645 0.09730646 -0.094011605 0.18059675 -0.058129963 -0.027408596 -0.024975363
00000000: 829e 02be 6913 ebbc e2a4 e1bd 2cc5 6f3c
00000010: 14b5 9c3c 3e7c eb3d 786a 5d3e 452a 0c3e
00000020: c36e 253e e0c9 853d 9c48 c73d 2889 c0bd
00000030: 5bee 383e af19 6ebd fe87 e0bc 2299 ccbc

fc2.weight f4 [32, 16]
0.0684907 -0.13137095 0.7296194 0.17913227 -0.0037756304 -0.027846776 -0.09380966 0.14196599
-0.08346073 0.8860432 0.2841779 -0.07324498 -0.18367286 0.0053263013 0.05428207 0.04845808
-0.16201802 0.10330272 -0.6129876 -0.22270535 0.038860317 0.07331714 0.20006949 0.5263421
0.0141750015 0.26412082 0.55929416 -0.039320275 0.37239045 0.051611573 -0.028778048 -0.039514318
0.16429766 0.43021768 0.24698669 -0.032108635 -0.026383877 0.19309148 0.26596826 0.4966122
0.22384936 0.6744117 0.4404511 0.037121356 0.20800842 0.0026195834 -0.048414342 0.012717305
0.37430254 -0.21713796 0.6513674 0.35726243 0.044008087 0.22936983 0.3233572 0.1533621
0.16647857 0.68876666 0.26776063 -0.031372573 0.44848347 0.05313948 0.005753754 0.008579049
-0.13767286 -0.10684584 -0.24949144 -0.13382034 -0.027787587 0.16425258 0.21651179 0.31509957
-0.008940632 0.7119747 0.3875944 -0.02577442 0.05161097 0.041868065 0.00021442171 0.03966276
-0.005360305 0.24371581 0.039765593 -0.15018165 -0.010104605 0.13316928 0.15560794 0.4551075
0.1752058 0.78796345 0.539089 -0.03308119 0.06957632 -0.009880093 0.040111728 0.040681295
-0.012959335 0.219795 0.023809033 -0.110478155 0.038249623 0.04660544 0.1449273 0.39884228
0.09158005 0.74341303 0.5344918 -0.039729957 0.07968228 0.01856433 0.038895708 -0.044242065
-0.010008606 0.38621205 -0.021345843 -0.2627107 -0.037670158 0.005698644 0.006749403 0.26065505
0.08034512 0.5149918 -0.2601342 -0.08873906 -0.34368762 0.043455258 -0.044654407 -0.037805695
0.025219185 -0.19412358 0.55364734 0.0006237634 0.04724171 0.072632074 0.103752784 -0.23859715
-0.059101533 -0.73226404 -0.18979478 0.08909766 -0.11245742 0.015994342 -0.055857256 -0.03361963
0.35529366 0.31978118 0.36386138 0.28570768 0.0034334087 0.35130695 0.30172792 0.32144114
0.33194825 0.7037686 0.5091029 -0.04372648 0.26200747 0.05763631 -0.05491438 -0.056892194
-0.0557555 -0.04668183 0.044991374 0.0064451136 0.0033947402 -0.026653826 -0.0073119216 -0.056784865
-0.0027296077 0.056370247 -0.01662568 0.03196681 0.031830695 0.0049768104 -0.04434337 -0.005412297
0.040481057 0.20537256 0.13527235 -0.0713333 0.009224071 0.016616452 0.08603166 0.3708042
0.048905388 0.81402934 0.3103433 0.008152198 0.1676116 0.057025302 -0.024695551 -0.014066754
-0.0019095772 0.021877307 -0.024477242 -0.031678785 0.056023482 -0.034372367 -0.018641092 -0.014970855
-0.018500628 0.0047896644 0.05242818 0.021180108 -0.05481004 0.055698957 0.013357553 -0.050983436
0.006813194 0.03740744 -0.010764011 -0.024996545 0.0014280146 -0.027959036 -0.050041117 0.04627282
-0.02687041 -0.0028272262 0.0015709582 -0.050234847 -0.0044717235 0.009612348 0.04782234 0.016622849
-0.012270179 -0.028877495 -0.02258854 0.035549685 -0.0496074 -0.042710233 0.054483056 -0.02077079
-0.055283394 0.03659855 -0.017171469 -0.034946352 -0.017820153 -0.026046388 0.041426156 -0.0006705073
0.033006612 0.036133897 0.049105685 -0.04030631 -0.00761684 -0.05816209 -0.06778481 -0.07938378
-0.019522859 0.05998592 -0.077182174 0.008100669 -0.041797075 -0.035268776 -0.033800125 -0.019048672
00000000: da44 8c3d 1b86 06be 56c8 3a3f 736e 373e
00000010: 9170 77bb ec1e e4bc 471f c0bd 885f 113e
00000020: 76ed aabd bad3 623f c47f 913e 7701 96bd
00000030: bd14 3cbe 4188 ae3b e056 5e3d fb7b 463d
00000040: 0de8 25be 6090 d33d c1ec 1cbf df0c 64be
00000050: ff2b 1f3d 4c27 963d 04df 4c3e 5bbe 063f
00000060: 443e 683c d83a 873e e72d 0f3f 4c0e 21bd
00000070: f6a9 be3e a866 533d f1bf ebbc c4d9 21bd
00000080: a53d 283e 7e45 dc3e 14ea 7c3e 5884 03bd
00000090: 0023 d8bc c6b9 453e fe2c 883e f443 fe3e
000000a0: c438 653e 3fa6 2c3f ce82 e13e 900c 183d
000000b0: 2900 553e 51ad 2b3b 1e4e 46bd 3e5c 503c
000000c0: 95a4 bf3e 6a59 5ebe 04c0 263f 1aeb b63e
000000d0: d341 343d eddf 6a3e 138f a53e f40a 1d3e
000000e0: 5c79 2a3e 0353 303f ec17 893e 8780 00bd
000000f0: a09f e53e c9a8 593d fd89 bc3b 248f 0c3c
00000100: 1dfa 0cbe fed1 dabd af7a 7fbe 3308 09be
00000110: cba2 e3bc d431 283e 44b5 5d3e bb54 a13e
00000120: bb7b 12bc f943 363f c672 c63e e024 d3bc
00000130: 0666 533d d97d 2b3d 64d6 6039 6b75 223d
00000140: 7fa5 afbb a390 793e 3fe1 223d 38c9 19be
00000150: c98d 25bc 875d 083e b057 1f3e da03 e93e
00000160: 2669 333e f9b7 493f bd01 0a3f 2480 07bd
00000170: 087e 8e3d 1de0 21bc 324c 243d 6ea1 263d
00000180: 6453 54bc f111 613e 290b c33c 5f42 e2bd
00000190: a3ab 1c3d 59e5 3e3d d267 143e 0e35 cc3e
000001a0: 528e bb3d 5150 3e3f 74d4 083f e1bb 22bd
000001b0: 7730 a33d 3914 983c 1b51 1f3d 2b37 35bd
000001c0: 23fb 23bc 96bd c53e 7add aebc 0482 86be
000001d0: 064c 1abd b1bb ba3b 192a dd3b 9474 853e
000001e0: fb8b a43d 81d6 033f 4f30 85be d3bc b5bd
000001f0: d3f7 afbe 24fe 313d 8ae7 36bd 25da 1abd
00000200: 7798 ce3c 55c8 46be d5bb 0d3f 0e84 233a
00000210: 8680 413d 20c0 943d 577c d43d d052 74be
00000220: 7314 72bd a875 3bbf 9059 42be d578 b63d
00000230: 1350 e6bd 9106 833c 94ca 64bd bdb4 09bd
00000240: 0de9 b53e 5cba a33e 0a4c ba3e 4748 923e
00000250: 0a03 613b 81de b33e 157c 9a3e ef93 a43e
00000260: 1ff5 a93e 2e2a 343f 9154 023f 8a1a 33bd
00000270: d825 863e 0d14 6c3d e7ed 60bd ca07 69bd
00000280: e15f 64bd 7235 3fbd e048 383d 8831 d33b
00000290: 4a7a 5e3b 2059 dabc d898 efbb 3f97 68bd
000002a0: 38e3 32bb 7de4 663d 9432 88bc a1ef 023d
000002b0: e760 023d 8314 a33b 65a1 35bd a359 b1bb
000002c0: 77cf 253d 2f4d 523e d684 0a3e 3117 92bd
000002d0: 8f20 173c 3a1f 883c 5e31 b03d 0cda bd3e
000002e0: 0451 483d 3a64 503f 51e5 9e3e cc90 053c
000002f0: 60a2 2b3e 5d93 693d 534e cabc 3e78 66bc
00000300: c74a faba 0a38 b33c 7f84 c8bc 9dc1 01bd
00000310: e178 653d 0aca 0cbd 34b5 98bc 5148 75bc
00000320: a18e 97bc 9ef2 9c3b eebe 563d e881 ad3c
00000330: 7e80 60bd 9724 643d a3d9 5a3c 02d4 50bd
00000340: 3741 df3b 8b38 193d 895b 30bc 8ec5 ccbc
00000350: 382c bb3a 590a e5bc eaf7 4cbd 9288 3d3d
00000360: 561f dcbc fc48 39bb 9ce8 cd3a 0ec3 4dbd
00000370: 8987 92bb 1c7d 1d3c 5ce1 433d a42c 883c
00000380: dc08 49bc 7f90 ecbc 9a0b b9bc 8c9c 113d
00000390: 2131 4bbd edf0 2ebd a029 5f3d 8127 aabc
000003a0: d770 62bd 5ce8 153d 2eab 8cbc e823 0fbd
000003b0: 92fb 91bc 3c5f d5bc 79ae 293d fcc4 2fba
000003c0: f131 073d 2301 143d 0b23 493d 3b18 25bd
000003d0: af96 f9bb 5f3b 6ebd c3d2 8abd f793 a2bd
000003e0: 67ee 9fbc ccb3 753d b011 9ebd abb8 043c
000003f0: 6933 2bbd fe75 10bd 0072 0abd f60b 9cbc

fc2.bias f4 [32]
0.046107985 0.14558557 0.3992305 0.25213212 0.08884302 0.22350563 0.2109929 0.00065916625
-0.27312905 0.45584425 0.00054005295 0.1315038 -0.026458684 0.005082466 0.046324275 -0.020648787
0.09275092 0.032600798 -0.0024098891 -0.022988142 0.3976378 0.03803477 0.19014075 0.23904233
0.12466111 0.14973524 0.034811016 -0.17021804 0.14656818 -0.06539065 0.047583982 -0.15364909
00000000: badb 3c3d 6214 153e f167 cc3e 7617 813e
00000010: 54f3 b53d a9de 643e 860e 583e e6cb 2c3a
00000020: 92d7 8bbe 6b64 e93e 5792 0d3a efa8 063e
00000030: e2bf d8bc d18a a63b 86be 3d3d a527 a9bc
00000040: 32f4 bd3d 6a88 053d 3bef 1dbb a151 bcbc
00000050: 2f97 cb3e 59ca 1b3d 42b4 423e 83c7 743e
00000060: 534e ff3d 3254 193e ff95 0e3d a34d 2ebe
00000070: f815 163e 88eb 85bd 6ce7 423d 3056 1dbe

fc3.weight f4 [64, 32]
0.0009247926 -0.007661664 0.0068829516 -0.016881471 -0.009330444 0.0072979196 0.011882399 0.0026285606
-0.01565954 -0.040498327 -0.040117614 -0.027707279 0.009399326 -0.032152217 -0.028130034 0.027459506
-0.02680153 0.020704364 -0.015113014 0.0052037425 -0.007451587 -0.016628858 -0.04066517 0.008684504
-0.009905767 0.035955217 0.029248852 0.00941551 0.014870378 -0.0070799524 -0.012709808 -0.0402686
-0.023999628 -0.03403024 -0.04166427 0.005605481 -0.041627206 0.026886616 0.015903613 0.008429069
0.0055806465 0.02721313 0.021323668 0.0195031 -0.0059145037 0.0066935583 -0.04056205 -0.015256435
0.02649678 -0.017448239 0.023261916 -0.010364959 -0.032988653 0.038797125 -0.0071343738 -0.028506858
0.0139738405 0.01855169 -0.012090105 0.034457207 -0.00039196477 -0.031190014 0.0003375466 0.016928982
0.82151055 0.570442 0.098547705 0.03986686 0.29637647 0.1834143 0.31778926 1.0064818
-0.15791255 0.08335384 0.031726927 0.36780584 0.0037619227 -0.031326942 -0.016941192 -0.15763961
0.3244015 -0.14066598 0.012518596 0.024453618 0.10536416 -0.080536366 0.087901786 0.17635122
0.8622885 0.5357529 0.017800229 1.0331609 0.66312903 -0.014077431 0.016595459 -0.8273731
0.6462061 0.59817994 0.20730056 0.16219224 0.41778663 0.38893738 0.44207874 1.3322226
-0.16073792 0.2309878 -0.0037338997 0.43165353 -0.024680633 0.0041529 0.027314112 -0.03343411
0.47589493 -0.18758285 0.018142277 0.00029849636 0.2232942 -0.058750454 0.3453013 0.25578675
0.91924417 0.62106097 -0.036419015 0.97960395 0.5921017 0.015135932 0.031247023 -1.0205456
0.9578474 0.6093986 0.064694166 -0.0004832612 0.28133032 0.16457224 0.33052793 1.0011744
-0.2594829 0.11632068 0.019975265 0.3501749 0.025042873 -0.0111883255 0.026365485 -0.13148308
0.35340887 -0.21395956 -0.039118372 0.0046561826 0.113002196 -0.15027443 0.104226865 0.14833362
0.8732203 0.60134596 -0.013383462 1.2579424 0.86713815 -0.09461422 -0.007417316 -1.005837
-0.040471897 -0.025703419 -0.019014558 -0.017279191 -0.012392455 -0.030845946 0.0324416 0.013805126
0.009346129 -0.002870095 0.00822038 -0.0063798125 -0.009867089 0.035943214 -0.03892168 0.027876824
-0.010209454 0.03485315 0.033195492 -0.026238862 -0.01704854 0.0024630306 -0.010913857 0.028025575
0.01843968 -0.033935595 0.022173828 0.010842788 -0.0030403896 -0.0380308 -0.028124142 -0.030143233
-0.0029843121 -0.0069540557 0.0017220443 0.0050754705 -0.008030579 -0.016108206 -0.014647076 0.030196069
-0.03748576 -0.003144816 -0.03652873 0.028753811 -0.019317811 -0.024470886 -0.007263743 0.012286027
-0.018572208 -0.013652781 0.018508757 0.035745196 -0.034448866 -0.040554937 -0.028779939 -0.016855275
-0.036701713 0.0043152967 0.025346577 0.017752202 -0.031038774 0.0031115273 0.016550727 -0.007968171
0.004882367 -0.016445521 -0.0014316189 -0.01927331 0.01916668 -0.033894327 0.038235195 0.0041992813
-0.026649874 -0.0021979294 0.033693507 -0.010711008 -0.017165124 0.028520484 -0.016992612 -0.009165027
-0.013573542 -0.038697857 0.028978711 0.027893469 -0.022778796 -0.025847413 -0.015739948 0.021038901
0.040092703 0.020512838 0.022144288 0.029820675 0.036877293 -0.002531105 0.027414192 -0.03330061
00000000: c86d 723a b20e fbbb 628a e13b 034b 8abc
00000010: b8de 18bc 6323 ef3b 65ae 423c ee43 2c3b
00000020: 7048 80bc 93e1 25bd 5e52 24bd 60fa e2bc
00000030: a1ff 193c 0bb2 03bd f570 e6bc c2f2 e03c
00000040: e28e dbbc 339c a93c 939c 77bc 2884 aa3b
00000050: 712c f4bb 3e39 88bc 8590 26bd 7349 0e3c
00000060: cc4b 22bc c745 133d 4a9b ef3c 8343 1a3c
00000070: e3a2 733c f2fe e7bb cc3c 50bc b0f0 24bd
00000080: de9a c4bc 4b63 0bbd 27a8 2abd 2fae b73b
00000090: 4a81 2abd 5241 dc3c 4b48 823c 141a 0a3c
000000a0: dbdd b63b 12ee de3c f9ae ae3c f7c4 9f3c
000000b0: 74ce c1bb a355 db3b 6424 26bd 20f6 79bc
000000c0: c60f d93c 9cef 8ebc c68f be3c cad1 29bc
000000d0: 1c1f 07bd bce9 1e3d 77c7 e9bb 3787 e9bc
000000e0: 89f2 643c b7f9 973c 9315 46bc 0023 0d3d
000000f0: 9f80 cdb9 3382 ffbc bdf8 b039 a6ae 8a3c
00000100: 844e 523f 7d08 123f 61d3 c93d 6f4b 233d
00000110: a8be 973e f5d0 3b3e 46b5 a23e 65d4 803f
00000120: d4b3 21be 6bb5 aa3d 18f4 013d 0c51 bc3e
00000130: 978a 763b ae50 00bd 41c8 8abc 476c 21be
00000140: f417 a63e be0a 10be cc1a 4d3c f452 c83c
00000150: 2ac9 d73d 40f0 a4bd da05 b43d 6a95 343e
00000160: f0be 5c3f 1a27 093f c9d1 913c 9e3e 843f
00000170: d3c2 293f 06a5 66bc 33f3 873c b9ce 53bf
00000180: c36d 253f 5222 193f 9946 543e b915 263e
00000190: 21e8 d53e cd22 c73e 2558 e23e 4586 aa3f
000001a0: 7b98 24be 1188 6c3e 71b4 74bb b101 dd3e
000001b0: 0a2f cabc 0d15 883b d8c1 df3c 35f2 08bd
000001c0: 80a8 f33e b815 40be 1d9f 943c 817f 9c39
000001d0: 3ca7 643e 51a4 70bd 55cb b03e 7bf6 823e
000001e0: 9653 6b3f dafd 1e3f 1b2c 15bd 53c7 7a3f
000001f0: fa93 173f b3fc 773c c2f9 ff3c 3da1 82bf
00000200: 7d35 753f 8c01 1c3f 607e 843d 385e fdb9
00000210: 870a 903e a085 283e f53a a93e 7c26 803f
00000220: f1da 84be 8939 ee3d 2ba3 a33c 204a b33e
00000230: b626 cd3c 3d4f 37bc 6efc d73c 80a3 06be
00000240: 02f2 b43e 3718 5bbe 963a 20bd e492 983b
00000250: b26d e73d 8ae1 19be e574 d53d c5e4 173e
00000260: 5e8b 5f3f cff1 193f 4f46 5bbc 4204 a13f
00000270: c4fc 5d3f 1ac5 c1bd f50c f3bb 44bf 80bf
00000280: dcc5 25bd fa8f d2bc 6bc4 9bbc 178d 8dbc
00000290: b909 4bbc a3b0 fcbc 7ce1 043d e52e 623c
000002a0: 8220 193c 3418 3cbb c6ae 063c bf0d d1bb
000002b0: 92a9 21bc 3139 133d 576c 1fbd f05d e43c
000002c0: 8e45 27bc 2dc2 0e3d fff7 073d e2f2 d6bc
000002d0: 61a9 8bbc cc6a 213b 09d0 32bc e495 e53c
000002e0: d00e 973c 0d00 0bbd e3a5 b53c f3a5 313c
000002f0: 4641 47bb 2fc6 1bbd 9a64 e6bc f1ee f6bc
00000300: 7394 43bb d9de e3bb 38b6 e13a 2250 a63b
00000310: b192 03bc 5bf5 83bc 4afa 6fbc bf5d f73c
00000320: ab8a 19bd 4219 4ebb 269f 15bd 1d8d eb3c
00000330: 6340 9ebc 2b77 c8bc b104 eebb 554b 493c
00000340: be24 98bc eaaf 5fbc ad9f 973c 8e69 123d
00000350: 411a 0dbd ef1c 26bd e8c3 ebbc 1314 8abc
00000360: 8954 16bd 5567 8d3b a0a3 cf3c 116d 913c
00000370: 0745 febc c4ea 4b3b 6495 873c ee8c 02bc
00000380: 43fc 9f3b c2b8 86bc 29a5 bbba 10e3 9dbc
00000390: 7103 9d3c c7d4 0abd 829c 1c3d 209a 893b
000003a0: d650 dabc 230b 10bb 3402 0a3d 397d 2fbc
000003b0: e09d 8cbc caa3 e93c 1734 8bbc e928 16bc
000003c0: 9063 5ebc a581 1ebd c364 ed3c d880 e43c
000003d0: 999a babc f4bd d3bc 10f1 80bc c659 ac3c
000003e0: 3f38 243d 8a0a a83c f067 b53c 7d4a f43c
000003f0: a50c 173d e5e0 25bb ba93 e03c 3866 08bd

fc3.bias f4 [64]
0.010433555 0.011774094 0.10304013 0.20619765 0.0720583 0.0019828058 -0.005207278 0.020828633
-0.018687308 -0.025099594 0.109949924 0.07989334 0.01938343 0.20271893 0.034272533 -0.31623045
0.079016864 0.03282258 0.095013574 0.05271616 0.036893237 -0.012066296 -0.024461389 0.02615056
0.1375404 -0.01902113 0.060784716 0.306087 -0.039777827 0.06746989 0.18239674 0.0064648045
0.0133200865 0.1033621 0.02792429 -0.06456358 0.08142888 0.1294678 -0.04052163 -0.018818662
0.0318321 0.31061256 -0.019152025 0.0050793635 0.06417207 -0.021525212 0.16889764 0.0619304
0.019989977 0.08710417 0.16028664 0.13348635 0.13834287 0.15139861 0.25690815 0.008143862
0.23174824 0.02448289 0.03405525 -0.0345086 0.1873186 -0.02476549 0.07338802 0.23582095
00000000: 80f1 2a3c 21e8 403c b406 d33d 7a25 533e
00000010: 4d93 933d f6f1 013b d0a1 aabb cfa0 aa3c
00000020: 2016 99bc aa9d cdbc 6d2d e13d 1f9f a33d
00000030: 00ca 9e3c 8d95 4f3e 5b61 0c3d f5e8 a1be
00000040: 98d3 a13d f870 063d 7a96 c23d e6ec 573d
00000050: 5d1d 173d b7b1 45bc 4063 c8bc b339 d63c
00000060: 64d7 0c3e 33d2 9bbc 65f9 783d 6fb7 9c3e
00000070: 13ee 22bd a72d 8a3d 36c6 3a3e b6d6 d33b
00000080: 7e3c 5a3c 82af d33d 7bc1 e43c e939 84bd
00000090: 2fc4 a63d 3593 043e 02fa 25bd 9829 9abc
000000a0: 6062 023d 9c08 9f3e b5e4 9cbc ca70 a63b
000000b0: a56c 833d a455 b0bc 81f3 2c3e bbaa 7d3d
000000c0: 05c2 a33c ac63 b23d 2e22 243e a5b0 083e
000000d0: c1a9 0d3e 3d08 1b3e 7789 833e d56d 053c
000000e0: 694f 6d3e 5790 c83c 857d 0b3d e458 0dbd
000000f0: 72d0 3f3e ffe0 cabc 754c 963d 0c7b 713e

fc4.weight f4 [12, 64]
0.025306962 0.02794932 -0.3253187 -0.22700948 -0.35900503 -0.019860586 -0.01762143 0.0031357692
0.025440428 0.009892888 -0.36146274 -0.5974104 -0.015777716 -0.14143883 0.022967212 -0.07987322
-0.21945792 0.014097516 0.5394389 0.5361394 0.010830203 0.020878024 0.43519685 -0.18614078
0.5041244 0.0007434112 -0.20624389 -0.12066098 0.0016202717 -0.5998374 -0.20401798 -0.0066239806
-0.017251004 -0.21795177 0.020402068 0.4988158 -0.20105073 -0.23295575 -0.49450883 0.0031113853
-0.02464849 -0.19317536 0.013734962 0.012706976 -0.23530501 -0.00025844938 -0.79029995 -0.77226305
-0.01687433 -0.3857563 -0.2392103 -0.21378963 -0.31883234 -0.22855303 -0.1995345 -0.01848275
-0.21929845 0.020871878 -0.5705103 -0.02360579 -0.16763966 0.0068094963 0.869993 -0.2467727
0.01938646 -0.010569544 -0.23734891 -0.18444097 -0.2649929 0.01702961 -0.012361538 0.021386012
-0.028730074 -0.012246517 -0.4894319 -0.6756102 0.021895802 -0.16592823 0.015659789 -0.5390609
-0.1797792 -0.027161002 0.52524585 -0.30749124 -0.0153282 0.02541317 0.07860151 -0.17706467
0.41262802 -0.013307049 -0.23365931 -0.10877311 0.018476818 -0.563958 -0.14375685 -0.015195453
-0.010321274 -0.20764416 -0.016016984 0.73554283 -0.22026539 -0.2330911 -0.33968866 0.018521043
-0.014844037 -0.16739213 0.01740763 -0.027540881 -0.26928407 -0.0009634542 -0.8487194 -1.1389081
0.028317278 -0.40111712 -0.22513476 -0.19340627 -0.2705118 -0.18616311 -0.18477261 -0.016515786
-0.1904301 -0.022557149 -0.6566259 -0.001337875 -0.13492738 0.020411806 0.8435991 -0.18540673
-0.024522262 -0.022004737 -0.2329369 -0.22243719 -0.35250816 -0.012121409 -0.020037178 -0.013967917
0.023633618 0.009459358 -0.30725786 -0.3660167 -0.0038564592 -0.14937437 0.0068825292 -0.6113503
-0.21179396 0.009181372 0.45665577 1.1305592 0.025246244 0.015412291 -0.03365896 -0.15637152
0.5608573 0.0020383054 -0.20409714 -0.178307 -0.00027324285 -0.56554395 -0.2294335 0.00621784
-0.0072997822 -0.20884742 -0.018312078 0.44620234 -0.28293124 -0.26562926 -0.5080682 -0.01063687
-0.007817921 -0.21125668 0.00042355235 -0.004525853 -0.24014015 0.023210136 -0.47718602 -1.0639424
-0.028011179 -0.37042722 -0.19885926 -0.21536906 -0.27619877 -0.25403154 -0.22726241 0.01610344
-0.21845846 -0.017938431 -0.5923354 -0.020007523 -0.18477085 0.0027013964 0.5443256 -0.2151884
-0.009970347 0.02148951 -0.23021933 -0.18821216 -0.27439535 0.0025297727 0.020266062 -0.0038605018
-0.0119372755 -0.0047371443 -0.31949642 -0.76382756 -0.019781535 -0.18391274 8.345837e-05 -0.36460352
-0.2074443 0.0022216835 0.608345 0.27492276 -0.002727001 0.0021433271 -0.23672004 -0.30674455
0.55344164 -0.025764026 -0.22658096 -0.16876796 -0.0051733456 -0.32092345 -0.19346769 0.026000764
0.028653577 -0.18253753 -0.027574781 0.501795 -0.22268194 -0.20928301 -0.24159549 0.01118629
0.016717933 -0.2124113 -0.021427847 -0.013246974 -0.22501841 -0.017973693 -0.8349147 -0.37739623
-0.022642838 -0.25255904 -0.21981665 -0.19039366 -0.24590407 -0.21472703 -0.20085591 -0.0048563383
-0.19526199 -0.008736474 -0.9921915 -0.025906567 -0.1692916 -0.013293166 0.3545071 -0.24635561
00000000: 8c50 cf3c f9f5 e43c 2c90 a6be 2c75 68be
00000010: 82cf b7be abb2 a2bc d15a 90bc 7a81 4d3b
00000020: 7268 d03c c815 223c a511 b9be e3ef 18bf
00000030: 4540 81bc 57d5 10be bc25 bc3c 9294 a3bd
00000040: 94b9 60be 45f9 663c ab18 0a3f 6f40 093f
00000050: 2a71 313c 6408 ab3c 1fd2 de3e b09b 3ebe
00000060: 4c0e 013f 7be1 423a 9931 53be 1b1d f7bd
00000070: 4c5f d43a f28e 19bf 17ea 50be fa0d d9bb
00000080: fa51 8dbc c02e 5fbe 3d22 a73c c964 ff3e
00000090: 3ee0 4dbe f48b 6ebe 4330 fdbe 62e8 4b3b
000000a0: a1eb c9bc c3cf 45be 9b08 613c ec30 503c
000000b0: ccf3 70be 7d80 87b9 1951 4abf 08b3 45bf
000000c0: 093c 8abc da81 c5be 8bf3 74be abeb 5abe
000000d0: fe3d a3be ce09 6abe c652 4cbe 2369 97bc
000000e0: c68f 60be 80fb aa3c f70c 12bf ee60 c1bc
000000f0: bba9 2bbe 3222 df3b dcb7 5e3f fcb1 7cbe
00000100: 5ad0 9e3c e12b 2dbc 980b 73be 18de 3cbe
00000110: 26ad 87be ae81 8b3c 0c88 4abc b831 af3c
00000120: 555b ebbc 9ea5 48bc d196 fabe caf4 2cbf
00000130: d35e b33c 17e9 29be f548 803c e5ff 09bf
00000140: 0a18 38be c080 debc 8376 063f 7e6f 9dbe
00000150: 2123 7bbc 482f d03c d4f9 a03d 7150 35be
00000160: fb43 d33e cf05 5abc 6344 6fbe 70c4 debd
00000170: b25c 973c 8d5f 10bf ff34 13be 59f6 78bc
00000180: 901a 29bc aca0 54be 0d36 83bc 894c 3c3f
00000190: 408d 61be 6faf 6ebe aceb adbe 71b9 973c
000001a0: 6734 73bc d868 2bbe 729a 8e3c 6a9d e1bc
000001b0: 9adf 89be 5190 7cba ad45 59bf bec7 91bf
000001c0: a3f9 e73c 395f cdbe ba89 66be 4b0c 46be
000001d0: 8680 8abe 8ba1 3ebe 0835 3dbe 1d4c 87bc
000001e0: 1c00 43be c5c9 b8bc a318 28bf a35b afba
000001f0: 672a 0abe a936 a73c 1cf6 573f 43db 3dbe
00000200: e9e2 c8bc 4743 b4bc 0387 6ebe 93c6 63be
00000210: f37b b4be e098 46bc 0225 a4bc b1d9 64bc
00000220: 4a9b c13c 6cfb 1a3c e750 9dbe 8a66 bbbe
00000230: a6bc 7cbb 98f5 18be d786 e13b 7481 1cbf
00000240: 84e0 58be 776d 163c c9ce e93e 2ab6 903f
00000250: 36d1 ce3c d583 7c3c fadd 09bd db1f 20be
00000260: 5894 0f3f 1795 053b d7fe 50be 1c96 36be
00000270: 0942 8fb9 7dc7 10bf 9ef0 6abe 06bf cb3b
00000280: 0333 efbb 19dc 55be 3603 96bc a274 e43e
00000290: 5ddc 90be 8f00 88be c210 02bf 4446 2ebc
000002a0: bd16 00bc ac53 58be 3c10 de39 9b4d 94bb
000002b0: 4de7 75be 2f23 be3c ba51 f4be 442f 88bf
000002c0: b377 e5bc a3a8 bdbe c3a1 4bbe b589 5cbe
000002d0: ed69 8dbe 6c10 82be 7ab7 68be 5deb 833c
000002e0: 93b3 5fbe 9ef3 92bc 4ba3 17bf d1e6 a3bc
000002f0: 9234 3dbe e909 313b ec58 0b3f 595a 5cbe
00000300: ab5a 23bc c50a b03c 9ebe 6bbe b0ba 40be
00000310: 8c7d 8cbe 8bca 253b 0305 a63c 7900 7dbb
00000320: 9094 43bc 0c3a 9bbb 0995 a3be 348a 43bf
00000330: e30c a2bc 9f53 3cbe 5f06 af38 50ad babe
00000340: 476c 54be aa99 113b 7fbc 1b3f adc2 8c3e
00000350: 7cb7 32bb 1077 0c3b bd66 72be 9f0d 9dbe
00000360: 5aae 0d3f 140f d3bc d704 68be 82d1 2cbe
00000370: 2b85 a9bb 1450 a4be 651c 46be 8eff d43c
00000380: e8ba ea3c 1eeb 3abe 82e4 e1bc a375 003f
00000390: bc06 64be 494e 56be cf64 77be b346 373c
000003a0: 0cf4 883c 5982 59be 7489 afbc d609 59bc
000003b0: 3a6b 66be 913d 93bc f8bc 55bf 143a c1be
000003c0: 797d b9bc 6b4f 81be 9e17 61be 8ef6 42be
000003d0: 47ce 7bbe 67e1 5bbe 2cad 4dbe eb21 9fbb
000003e0: c2f2 47be 6e23 0fbc 4300 7ebf 023a d4bc
000003f0: c75a 2dbe 94cb 59bc f481 b53e a544 7cbe

fc4.bias f4 [12]
-0.17376342 0.0149786705 -0.03861866 -0.068688415 0.3110395 -0.043171685 0.0044754134 -0.10455144
-0.34248644 -0.1546536 -0.09081816 -0.021499896
00000000: 0aef 31be 1969 753c 9a2e 1ebd 83ac 8cbd
00000010: 9240 9f3e cbd4 30bd 7da6 923b 111f d6bd
00000020: 625a afbe 835d 1ebe dffe b9bd 8d20 b0bc
